model/soccer_ai_model1.pt (torch, 774628 bytes, 11 tensors)

weight f4 [512, 26]
00000000: 7607 923b 67cf da3e bb71 0b3f 304d a83e
00000010: 462a f13e a09f 753f 7e5c f33e a8ab ddbe
00000020: e631 893e 0a1c 9c3e 83a7 023e 3851 283e
00000030: 860c 90bf 76ce 85bf b3af 143e f55a ef3e
00000040: 59c7 4dbd 517e a93e 4c7b d63d ace3 533d
00000050: e931 bdbe 58da 713e 4e57 6bbf c936 e83e
00000060: 3aa1 24bf 2bdc 373f df09 ef3d 2ff2 3bbe
00000070: d109 0fbf 0902 f2bd 5c80 4e3f cf28 9c3c
00000080: 0cc1 afbe b688 babf 29f6 a7be 4e9d 0e3f
00000090: 542e 2ebf 4ba7 e23d 159a 3ebf 018a 93be
000000a0: e77c ed3e 4741 48bf 51b6 7e3c fe8f 0c3e
000000b0: 0977 58bf 5b2f 53bf 9066 ab3e 3da1 333c
000000c0: 09f3 27bf 2906 debe 0a61 2bbf fb19 03be
000000d0: 1e78 3c3e fd99 713f ada1 183f 1f63 593f
000000e0: 8147 ad3e e301 ae3e 29dd 85bf ce77 13bf
000000f0: cbd4 c5bc 2854 4a3f 317c a9bf 4862 a9bf
00000100: 757c aebe dcbd 6d3f 494c c9bd 2eee febd
00000110: 7ec0 1e3e 0f7f c0be 3af7 b43e c491 703e
00000120: dba9 853f d055 a2bf 599c c4bd 8e68 3340
00000130: 0fa9 893f 5960 0cbe ae65 d73c 0a52 2e3f
00000140: 194f b83e d175 1e3e a62b 073f 6fb2 22be
00000150: 4689 19be 1630 093f 7f95 193d 86ab cf3d
00000160: 8a90 913e df62 0bbf 1d90 bbbe b1f7 483f
00000170: 30e8 f23e 563a 7c3f cc0b 87bc d914 4ebf
00000180: e98d 26bf 8670 b5be 4873 09be 1f55 5ebf
00000190: b918 9cbe c2d5 aa3e a7bb ab3f ac1a bf3d
000001a0: c421 923d 1ea9 9dbe 096e 833f f259 bfbd
000001b0: e71e b23e 595c c2be f3d4 2dbb ab96 863e
000001c0: b012 f5bd ff79 a93d 0eea e13e acdf c53c
000001d0: 9ea5 fb3e a4d8 ed3e eaf5 2dbd c2a9 81bd
000001e0: ad66 62be ed03 64be a574 8c3e 2a77 763e
000001f0: cc66 5f3e ffc7 61be 0818 913e 93c4 1240
00000200: 14e0 4fbf 8750 bd3e e4f0 ccbc 5849 ad3e
00000210: de97 44be fd67 673e 20e0 373f 8c3a 0c3f
00000220: ef43 173f 192a 3fbe 7571 1fbd 171d 913e
00000230: 351b 163f 7bac 0640 2f49 f9bd 7a7f 25bf
00000240: 63de 31bf 1c87 dbbe 9fd2 233d f326 403e
00000250: 9195 46be 654b 50be c107 b6bd 2147 1f40
00000260: e430 3dbe a293 b93e 4485 5bbf 18c0 2f3e
00000270: 1d71 853d a398 e8be fe8a 9e3e 805c a43a
00000280: 668b bcbd 9ed6 323f 172d 9d3e 4820 f3bd
00000290: d0f8 ecbe 8e19 54bd 2840 8b3e 988e 2fbe
000002a0: 2694 c83e 9255 933e 543b 1abf e786 183e
000002b0: 1d17 8f3e 0f81 463f 4347 9cbe fd86 103d
000002c0: 14b6 e8be 664c 61be 1b8e ec3e e5fd 233f
000002d0: d7cb d83f d4a9 babe 978c dd3b 69b6 3fbf
000002e0: c173 943e c375 b6bd 79cd 663e 86da b0be
000002f0: 91d6 4abd dcfc 9d3e 7e69 84bc 3130 4b3c
00000300: ab80 933f 5b5d 96bf f710 963f 2faf d93f
00000310: 49b3 12bf 7891 e13e 3361 4bbe 4528 eb3e
00000320: 3f8b a5be 235e cbbe 8430 d1be f735 83bf
00000330: 7dcc a33f 4734 9d3d 5dbe a33f 0b03 b43e
00000340: 3789 083d 2965 743f 2613 103f 66a2 1f3f
00000350: ab88 3a3f 1098 8e3f 6f93 be3e f28b aebd
00000360: ad3e 1bbf b0d6 c33e 33c8 0fbe 66b0 373f
00000370: 8a6c 223c 4cbe acbe 280f c43e 577a 133e
00000380: 7ed8 403f 3d3c 87be a5c7 c83e 9873 033e
00000390: ee76 e73e 2c37 6e3f d365 013e 6b16 c73f
000003a0: ea80 193f dc9d 7f3e 0d7f a93d 5126 093f
000003b0: 8cea 703e 4132 e73e fff1 da3d be74 0e3f
000003c0: 5a13 fbbe 343f bcbe 097e d83d 5cea 633e
000003d0: dd8b 3fbe 53d3 c7be 825a f9be b9ad c43e
000003e0: 0a68 5ebe e5aa ae3e f887 c3bd ca2a 5c3d
000003f0: 1554 313d d432 9dbc 8e79 843f c9a8 06bf
0.004456456 0.4273636 0.54470414 0.3287139 0.47102565 0.95946693 0.47531503 -0.43295026
0.26795882 0.30490142 0.12759213 0.16437232 -1.1253822 -1.0453632 0.14520149 0.46749082
-0.05023894 0.33104184 0.10472736 0.051730797 -0.3695214 0.23618448 -0.9193009 0.45354298
-0.6430851 0.71820325 0.11671805 -0.18354104 -0.55874354 -0.118167944 0.8066461 0.019062428
-0.3432697 -1.4572971 -0.32804993 0.5570878 -0.6803944 0.11067065 -0.7445386 -0.28816226
0.46384355 -0.78224605 0.015546397 0.13726804 -0.84556633 -0.82494134 0.33476686 0.010963735
-0.6560522 -0.43364075 -0.66944945 -0.1280288 0.18405196 0.9437559 0.596217 0.8491687
0.33843616 0.33985814 -1.0458118 -0.5760468 -0.02414932 0.7903466 -1.3241025 -1.3233118
-0.34079328 0.9286783 -0.09829003 -0.12447773 0.15503117 -0.37596938 0.3534487 0.23493105
1.0442461 -1.2682438 -0.096001334 2.8032565 1.0754718 -0.13708629 0.026293602 0.6809393
0.35997847 0.15474631 0.5280098 -0.1588838 -0.14993772 0.53589 0.037496086 0.101401374
0.28430587 -0.5444774 -0.36633387 0.7850295 0.4744277 0.98526514 -0.016485117 -0.8050056
-0.6506029 -0.3543741 -0.13422883 -0.86848634 -0.30487612 0.3336621 1.3416642 0.09331259
0.071353465 -0.3079309 1.0267955 -0.093433276 0.34789202 -0.3796108 -0.0026524633 0.26286826
-0.11966455 0.08275222 0.44123882 0.024154507 0.49149793 0.46454346 -0.04247085 -0.06331207
-0.2210948 -0.22267123 0.27432743 0.24068895 0.21816558 -0.22048949 0.28338647 2.293248
-0.8120129 0.369755 -0.02501721 0.3384502 -0.19198558 0.22598262 0.7182636 0.54776835
0.59088033 -0.18668403 -0.03892656 0.28342506 0.58635265 2.1042774 -0.12172162 -0.6464764
-0.6947996 -0.42876518 0.039995786 0.18764858 -0.19392993 -0.2034126 -0.08888198 2.4887164
-0.18475682 0.36245447 -0.8575022 0.17163122 0.06515715 -0.45428953 0.30965418 0.0012539774
-0.09206276 0.6985873 0.30698463 -0.118713915 -0.4628358 -0.051782183 0.27197385 -0.17144239
0.39175528 0.28776222 -0.6024678 0.14895211 0.27947322 0.7754068 -0.30523118 0.035284985
-0.45451415 -0.220018 0.46202168 0.6405929 1.6937207 -0.36457694 0.0067611444 -0.7488771
0.28994563 -0.0890918 0.22539319 -0.3454172 -0.049521033 0.3085698 -0.016163584 0.012401626
1.1523641 -1.174724 1.1723927 1.7006587 -0.5730482 0.44056296 -0.19861297 0.4592916
-0.323328 -0.39720258 -0.40857327 -1.0250844 1.279678 0.07675987 1.2792469 0.35158572
0.033333983 0.9546686 0.5627922 0.62357175 0.7286479 1.1140156 0.37221858 -0.08522786
-0.6064251 0.3824973 -0.14041214 0.7175354 0.009913573 -0.33738935 0.38292813 0.14402138
0.7533034 -0.26413146 0.39214817 0.12837064 0.45207924 0.93052936 0.12636499 1.5553716
0.5996233 0.24962562 0.08276186 0.5357409 0.23526973 0.45155528 0.10690688 0.55646884
-0.49038202 -0.3676697 0.10570914 0.2225737 -0.18705697 -0.39028415 -0.48701864 0.3841379
-0.21719375 0.34114757 -0.09547418 0.053751744 0.043293077 -0.019189276 1.0349596 -0.52601296

bias f4 [512]
00000000: 4136 56c0 c800 44c0 2d73 83c0 0668 c1be
00000010: 113f 093f 3c5e f23d 2cfd bebf 8e97 8a3f
00000020: 23df b9bf 5f71 f1bf 98cd c3bf 4623 06c0
00000030: 1051 35bf 7151 213f 2b6a 0ec0 c6c2 9abf
00000040: fa11 a73e 1d8f 5dc0 1505 5ac0 6bf2 6bc0
00000050: 1432 c83e 2c9e 0dc0 9359 c2bf 296b 7cbf
00000060: a681 c23e 11e7 60c0 d78d 8dc0 96df 19c0
00000070: 66c8 8cbf c828 4cbf 030a a6bf 4b61 1dc0
00000080: 7b2d bebf 6bbd 873e 39e1 73bf ddf3 e0bf
00000090: c186 adbf 0bc5 88c0 6a80 84c0 aed3 0dc0
000000a0: e9c0 0b3f 4c7b a2c0 ed8f c2bf 8754 6fbf
000000b0: dba0 35c0 03ee 1ec0 20a8 15c0 6b17 ce3f
000000c0: c49f 41c0 7923 683d 9630 47c0 e083 f8bf
000000d0: 6f37 19c0 d918 8bc0 02a6 03c0 eddd 60c0
000000e0: b702 09c0 670e 0ec0 2f46 97c0 a578 70bf
000000f0: 654d 7cc0 17c1 82c0 b3ac 0dc0 43d5 0bc0
00000100: 3c9c 3fbf 94d8 a2bf 54bb 1ec0 2364 74bf
00000110: e6ba 98bf a56d 31c0 def2 45c0 d8ad 68bf
00000120: e1b9 9abf 4a9a 19c0 8b0a 8b3c 17c9 febf
00000130: 625c 5dbf bfc5 a63f fedd 22c0 21a0 2ec0
00000140: 10a1 67bf cfb3 dabf d3bb 25bf 4b8d 07c0
00000150: 3352 25bf ad90 65c0 bcb5 4dc0 528f 12c0
00000160: a347 e9be 5fdd 843f bfb0 80c0 741e 6dc0
00000170: 20a0 5fbf 982e 6ec0 f456 10c0 4099 d7bf
00000180: 1d0f 6ebf 1c24 49c0 d901 33c0 2ece f9bf
00000190: 3a89 b0bf b46e 92bf a554 85c0 f30a 51c0
000001a0: 9852 78c0 57a1 d2bf a0f5 dcbf 73f8 493e
000001b0: 6f49 d3bf 8acb 1fc0 d815 3ebd 47e0 81c0
000001c0: f865 54c0 e8dc 9ec0 4c3e 61c0 b468 c6bf
000001d0: 8724 69c0 0cf7 d93f 5c39 34bf a61f 1ac0
000001e0: 077e 2bc0 8431 a9bf 6061 6cc0 d25e e5be
000001f0: 8f47 56c0 cc26 0040 541e 8cc0 c699 6dc0
00000200: 5b7f dbbf 6cfb fb3e 2fa4 33c0 244c 89bf
00000210: 3ee3 23c0 7e18 afbf bf2b 22c0 8a03 1ebf
00000220: 8c9f adbf 0eb1 87bf bc81 53be adc2 38c0
00000230: 3dcf 86bf df59 b53f b1ec 2d3e 7a70 0ac0
00000240: d8ab c9bf ce94 0fbf 6ab2 88bf c50b 84c0
00000250: 0c57 9c3f 4590 74c0 c081 43c0 9ce4 203f
00000260: e8c1 17c0 b933 bd3f 8ec0 21c0 7f7b 8bc0
00000270: fa5e 263f 923d 40c0 5cc2 2fc0 3592 773e
00000280: b6da 16c0 9209 963f 06e1 ad3d 3a67 24c0
00000290: 580b 42c0 5748 ec3e 1480 0ac0 c400 acc0
000002a0: 2362 7ec0 ce71 213f fce7 76c0 7094 b9bf
000002b0: 3ada 14c0 734a 773d 1506 11c0 e24b 1fbf
000002c0: 8bac 3ac0 dc54 8ac0 b938 e5bf e162 7fc0
000002d0: d841 49c0 7336 08c0 c9c4 28c0 c6b4 93c0
000002e0: c569 9ec0 d185 97bf 7424 87c0 c416 59c0
000002f0: 6600 70c0 5215 68c0 e0c2 44c0 56bf c8bf
00000300: 0f24 34c0 797a b43e d8fd 3ec0 1048 97c0
00000310: 8c40 32be 4388 3ac0 68db 31c0 3ef6 20c0
00000320: 9b02 11c0 746c b7bf 2d09 0fc0 4b75 13c0
00000330: f01a 84c0 1fbc 88be 2cb1 3bc0 e1fd 963c
00000340: 500d 34c0 2a4b 7dc0 e4a5 32c0 de46 4fc0
00000350: 01fd a6c0 678d 22c0 8ad0 10c0 1df7 84c0
00000360: 771d 14c0 5b1b 6e3f daef 5fbd 7021 13c0
00000370: e46f 0e3f c27d 81c0 85b2 3cc0 8836 16c0
00000380: c758 833d cc56 89c0 15b3 5fc0 a2ba 12bf
00000390: e141 dfbf bee6 cebf eed8 06bf d1d6 81bf
000003a0: e0d0 06c0 cdfe 65bf 4526 9dc0 836f 84c0
000003b0: ad8e 0dc0 e2ba a5c0 43ef febf bafc 26c0
000003c0: 88f5 46bf bafa 61c0 617f 3abf 9e42 6bc0
000003d0: 4157 bdbf 0f65 61c0 0a41 2dc0 65ec 7cc0
000003e0: 379f 60c0 ee1d 5ec0 0978 5ebd fd2f 63c0
000003f0: bdc6 3ec0 ac73 75c0 409e f8be 5bb8 48c0
-3.3470614 -3.0625477 -4.1078095 -0.37774676 0.53611857 0.1183438 -1.4921012 1.0827501
-1.4521221 -1.8862723 -1.5297117 -2.095903 -0.70826817 0.63014895 -2.22523 -1.209069
0.32630903 -3.46186 -3.4065602 -3.686671 0.39100707 -2.212779 -1.5183586 -0.98601013
0.3798954 -3.5141032 -4.4235644 -2.4042716 -1.0998657 -0.7974973 -1.2971805 -2.4590633
-1.485763 0.26511702 -0.9526554 -1.7574421 -1.3556749 -4.274053 -4.1406755 -2.216045
0.5459123 -5.077551 -1.5200173 -0.93488353 -2.8379428 -2.483277 -2.3383865 1.6100897
-3.0253763 0.056674454 -3.1123405 -1.9415245 -2.3940084 -4.346783 -2.0570073 -3.5135453
-2.1407907 -2.219629 -4.7273173 -0.9393409 -3.9422238 -4.0860705 -2.2136657 -2.1848915
-0.7484777 -1.2722344 -2.4801836 -0.95465297 -1.1932037 -2.7723172 -3.0929484 -0.90890265
-1.2087976 -2.400042 0.0169728 -1.9905118 -0.8646909 1.3029097 -2.5447993 -2.7285235
-0.90480137 -1.7086123 -0.6473972 -2.1179988 -0.6457855 -3.5869553 -3.2142172 -2.2899976
-0.45562467 1.0380057 -4.0215755 -3.7049837 -0.87353706 -3.7215939 -2.2553072 -1.6843643
-0.9299181 -3.142829 -2.7969878 -1.9516046 -1.3791878 -1.1440034 -4.1665826 -3.2662933
-3.8800411 -1.6455487 -1.7262459 0.19723682 -1.6506785 -2.496798 -0.04640755 -4.0586276
-3.3187237 -4.964466 -3.5194273 -1.5500703 -3.6428545 1.7028518 -0.70400023 -2.4081817
-2.679567 -1.3218236 -3.6934433 -0.44798905 -3.3481176 2.002368 -4.378702 -3.7125106
-1.7148241 0.49215257 -2.806896 -1.0726361 -2.5607448 -1.367935 -2.53392 -0.6172415
-1.3564315 -1.0600908 -0.20654958 -2.886882 -1.0531994 1.4168051 0.16984822 -2.163115
-1.5755568 -0.5608643 -1.0679448 -4.1264367 1.2214065 -3.8213055 -3.0547943 0.6284883
-2.37121 1.478141 -2.5273776 -4.358825 0.6498867 -3.003758 -2.7462378 0.24176867
-2.357099 1.1721671 0.084901854 -2.5688004 -3.0319424 0.4614894 -2.1640673 -5.3750935
-3.9747398 0.6306428 -3.8579092 -1.4498425 -2.3258195 0.060373735 -2.2659962 -0.62225163
-2.9167812 -4.322859 -1.7907935 -3.99041 -3.1446438 -2.1283233 -2.6370108 -4.615817
-4.9504113 -1.1837713 -4.2232 -3.3920145 -3.7500243 -3.6263013 -3.0743942 -1.5683391
-2.8147008 0.3524969 -2.9842434 -4.7275467 -0.17407435 -2.9145668 -2.7790165 -2.5150294
-2.265784 -1.4329972 -2.234935 -2.304034 -4.1282883 -0.26706025 -2.9326887 0.018431606
-2.8133125 -3.9577127 -2.7913752 -3.2387004 -5.2183843 -2.5398805 -2.2627282 -4.155165
-2.3142984 0.9301049 -0.0546721 -2.2989159 0.5563948 -4.0466013 -2.948396 -2.3470783
0.06413417 -4.2918453 -3.4953053 -0.5731603 -1.744198 -1.6164167 -0.5267476 -1.0143682
-2.1064987 -0.8984192 -4.9109216 -4.1386123 -2.2118332 -5.179063 -1.9916767 -2.6091752
-0.777184 -3.5309281 -0.72850615 -3.675941 -1.4792253 -3.5217931 -2.7070947 -3.9519284
-3.5097177 -3.4705768 -0.054313693 -3.549804 -2.98088 -3.835185 -0.48558235 -3.1362522

weight f4 [256, 512]
00000000: 666f ca3f 9488 223e 95a9 88bf 1319 543e
00000010: c996 20be 05b3 ddbb 8b33 24bf 2aa6 b23e
00000020: 4aa3 583d 8671 453f 80e4 f43e 6760 783e
00000030: 894e f73b 2f33 a4be 95a2 043f 4fd0 18be
00000040: ab22 fc3d be98 5e3c ece1 073f 46f9 2640
00000050: 4248 c5bd 8b80 d8be cc75 9c3e ac23 2d3e
00000060: 561a 1f3d 6999 0a40 dc3e 2d3f cd6d 5b3f
00000070: 2828 973e 5670 b2be 7db4 ca3e 095d a33f
00000080: dd6a a63e 1464 113f edc2 33bf deda 5bbc
00000090: 4386 663f 40ac 8e3f 5b41 243f e102 7f3d
000000a0: 9cb3 38bc a3f6 263f 8e6c 673e d5a8 793d
000000b0: 8ccb fb3e 1f69 aa3f 7fac 913f eaa7 ba3d
000000c0: d6ef 7c3e 6a33 35be ac14 04bf 875f da3e
000000d0: e5e9 23be 3199 923f 55ba 953f d041 e0be
000000e0: 3204 45be 669c 123e d3e0 3a3f 26b6 8fbe
000000f0: 2871 99be 38d0 fd3e c754 293f 96be 40be
00000100: a95a 4e3e 483c ccbe 05ec 793e 3fde 8fbe
00000110: 2d8f 4e3d bf10 973f 1bf4 adbe 615b b23e
00000120: c8e0 c4be fc71 693f 8155 e73e e293 53be
00000130: 71b5 75be c888 1cbe 288a ccbe ff3f 03bf
00000140: c628 d33e 0d55 183e a951 633d 9f73 5e3f
00000150: b866 0ebc b28e d03f 7b19 383f f732 8d3f
00000160: 136c 0ebd 82c7 653e cd4a 133e 2aca ed3f
00000170: 616d 82bd 0b32 683f 819b 3f3f 84f5 663e
00000180: a129 05bd c00e 11be 227e 223f a24c 063f
00000190: 81a0 663d 45ab 453e dd6b e53f b240 1c3f
000001a0: 73f4 c13e 0d21 133f 987d 063f 9747 c9bd
000001b0: 9d05 86be 935c 473f 45e7 98bd f695 9f3f
000001c0: dfe5 c23f 377e 2140 0b81 d63e de29 f03e
000001d0: 24a2 753f 02c1 adbc cb9f af3e 1223 0bbe
000001e0: 01da 41be e93c 753f 5a7c c43d 74d5 933e
000001f0: 0a4a 4bbf a30f 88be 4224 223f 6bb2 003f
00000200: 9c52 073e cba8 1d3e c535 573e 943b 46bf
00000210: 6172 963e b642 c53e aa8b 71be 1b7a 443e
00000220: 5216 03bd a5b7 9f3d 8b6e b1be 249e ea3f
00000230: bc6b da3c 133c 943c 26e6 c13e 6639 603f
00000240: 7b50 9b3e 5a50 03bf 453c ddbd 42a2 063f
00000250: e7c5 38bd ac01 d03f 7c25 2c3e 3520 6bbd
00000260: 07dc 0740 9e2b 1a3e 0fd4 6f3f e55f c73e
00000270: a68a 183f 2256 8e3e b1ce 98bf 35c2 f8bd
00000280: b1b5 d13d f747 2bbd c552 07bf 7dbc c83f
00000290: b14d 8d3f 1170 453d fa84 893f a392 0740
000002a0: fddc e4bc 043f d3bd 8bd5 983f cd0f dd3e
000002b0: 3da3 abbd b5db 0abe 44df b2bf f08a 0d3f
000002c0: 481b 463d 8c01 873f 431f 473e 5dcb 573f
000002d0: fa96 53be 4cd6 bc3e 9991 343f cb0c a33f
000002e0: 1746 f2be e5a7 4bbf ca94 a43f cdc2 033f
000002f0: cc57 da3f 4f77 02bf 33be f93e 5872 153f
00000300: 8a12 9d3e ffff 68bc 28ec 3a3f d265 a13f
00000310: 1d6d 8bbd 1cbc 8abf 35cd 1a3f 1760 093f
00000320: 76c0 2e3f af01 f63e da1c d43e f5c3 97be
00000330: a5d3 f93e 7eea 193f 502f 38bf 2980 6bbe
00000340: a52e 1e3f dda3 0dbf 9035 9dbe e228 f13e
00000350: 94dc 5b3f bed6 e8be bbc1 a33f 95eb 223f
00000360: d220 41be ecf0 6c3d f0f0 81be ae16 5abe
00000370: 1516 1e3e cfeb 923f a6a1 4d3f fe61 fa3e
00000380: 51c3 f43e 68fa 903e b2e5 a43f fa46 28be
00000390: dbb8 6c3f 9706 03be 8a02 683d 8598 053f
000003a0: fc6a 73be f2ba 33bc f805 0540 c219 0840
000003b0: dfdb 493e 4d28 a73e be9d 2ebe 818e 5a3f
000003c0: 74f0 48be 332b 1e3f 3aa0 093f f0b9 c93e
000003d0: def1 d23f 2d95 1c3e 2660 37be cdc8 8bbf
000003e0: 6601 b23f de72 f6be 10c2 153e f326 6c3f
000003f0: 4098 863f 72ae 283f 8db0 5f3f a97e 403f
1.5815246 0.15872413 -1.0676752 0.2071269 -0.1568252 -0.0067657256 -0.6414115 0.34892398
0.0528901 0.7712635 0.47830582 0.24255525 0.007547204 -0.320703 0.5181058 -0.14923213
0.123113 0.013586221 0.53079104 2.6089644 -0.09632923 -0.4228557 0.30558622 0.16908139
0.038843475 2.1656134 0.6767404 0.8571442 0.29522824 -0.3485133 0.39590827 1.2762767
0.32503405 0.5679333 -0.7021931 -0.013418881 0.9004862 1.1146317 0.64162225 0.062258605
-0.011273291 0.6522009 0.22600004 0.060952026 0.4917873 1.331333 1.1380767 0.09114058
0.24700865 -0.17695394 -0.5159404 0.42651007 -0.16007192 1.1453 1.1697489 -0.4380021
-0.19239882 0.14317474 0.72999305 -0.28068656 -0.29969144 0.4957292 0.66144985 -0.18822703
0.20151772 -0.3988974 0.2440644 -0.28099248 0.05042951 1.1801986 -0.339753 0.34835342
-0.38452744 0.9118955 0.45182422 -0.20661882 -0.23994996 -0.15286553 -0.39949155 -0.51269525
0.41242045 0.14876194 0.0554978 0.86895174 -0.008691482 1.6293547 0.7191388 1.1031178
-0.034771036 0.22439387 0.14384003 1.857732 -0.063685186 0.9070136 0.74846655 0.22554594
-0.032510404 -0.14165783 0.63473713 0.5246068 0.056305412 0.19303615 1.7923542 0.6103622
0.37881812 0.57472306 0.5253539 -0.09828108 -0.26176158 0.7787563 -0.07465986 1.246764
1.5226401 2.5233285 0.41895327 0.46906942 0.9595053 -0.021210197 0.343016 -0.13587597
-0.18930818 0.95796067 0.09594031 0.2887379 -0.7940985 -0.2657443 0.63336575 0.50272244
0.13215107 0.1539642 0.21016605 -0.7743466 0.2938414 0.3852746 -0.23588434 0.19187205
-0.03200371 0.07798699 -0.3465465 1.8329511 0.0266627 0.018095052 0.37870902 0.87587583
0.3033484 -0.5129448 -0.10802511 0.52591336 -0.04511061 1.625051 0.16811174 -0.057403762
2.1228044 0.15055701 0.9368295 0.3894035 0.5958656 0.2780009 -1.1938077 -0.12146417
0.10239733 -0.041816678 -0.5286067 1.5682522 1.1039335 0.048202578 1.0743706 2.118325
-0.027937407 -0.10314754 1.1940168 0.43176118 -0.083807446 -0.13560374 -1.3974385 0.55290127
0.04836586 1.0547347 0.19445519 0.8429468 -0.20663062 0.36882246 0.70534664 1.2738279
-0.473191 -0.7955306 1.2857907 0.5146912 1.7058043 -0.509633 0.48777923 0.583776
0.30678207 -0.0142211905 0.73016596 1.2609198 -0.06807921 -1.0838656 0.6046937 0.53662246
0.6826242 0.4804816 0.41428262 -0.2964169 0.48794284 0.6012343 -0.71947193 -0.22998108
0.61789924 -0.5532816 -0.30704927 0.47101504 0.8588345 -0.45476335 1.2793497 0.6364072
-0.18860176 0.05784695 -0.25379133 -0.21297714 0.15438111 1.1478213 0.8032478 0.48902887
0.47805265 0.28316045 1.2882597 -0.16433325 0.9246957 -0.12795483 0.056643046 0.5218585
-0.2377128 -0.010969864 2.0784893 2.1265721 0.1971278 0.32647935 -0.17052361 0.85373694
-0.19622976 0.61784667 0.5376011 0.39399672 1.6480062 0.15291281 -0.17907771 -1.0920655
1.3906677 -0.48134512 0.1462481 0.9224693 1.0515213 0.6589118 0.8737877 0.7519327

bias f4 [256]
00000000: dbf0 8abf a459 f13e 4b69 3cc0 ad67 b93e
00000010: 0ade 44c0 b2e2 e4bf 0d3f 43bf ce23 143f
00000020: b1dc 1040 8c64 a7c0 43ce 37be e758 bf3f
00000030: 3ecd 6fc0 c9a9 cd3f 4cfc 58c0 1ec6 fdbe
00000040: df14 d43e b3c0 8cc0 4f74 04c0 c0bb bd3f
00000050: 4668 c9bf cb6f b8bf 0301 b1be 552f 8ac0
00000060: 2c65 c13f 0a91 dabe d543 873d 3f64 a1c0
00000070: efc5 24bc 29d8 9fbe 6e41 b53f ed97 93c0
00000080: e1fa 8cc0 eb92 873e 940f d93f c832 e8bf
00000090: ed20 8fc0 db27 edbf d1fd e73d a74f 783f
000000a0: 3198 8ac0 0d5a 40be 3c76 14bf bdda 0cc0
000000b0: c948 1abd 52d0 94bf 9510 5d3f 9510 03c0
000000c0: deea 5f3f f9ae 8bc0 d75b 8fbf 5d64 b73f
000000d0: 3f0e 6cbd 2212 e93e b130 953f 4e89 60c0
000000e0: 6630 1b3f 8b82 483e e4c4 16bf 29d6 843e
000000f0: 1c19 5bc0 f783 b43e 1490 a93f 2017 7ebf
00000100: fdfa 08c0 d642 093f b360 eb3f 0615 b73f
00000110: d1a2 dfbf d2d8 1fbf 9abe c4bf 2f25 2d3f
00000120: 9d3e 863f d1e1 ebbf cedd 583f 23e7 f4bf
00000130: 90f6 8ebf 9f66 53be d5bc c5bc 378d dd3e
00000140: 0b3f 223f 77bf bb3e 19b0 e73e 8787 123f
00000150: b1e8 5bc0 601c 083f 0385 b1bf fddf 9f3f
00000160: 01d0 86c0 2ea2 09c0 2af6 1dbf 0ad2 6cc0
00000170: e385 49c0 95d1 88c0 3b93 5d3f 48a6 8ac0
00000180: e9cd 8f3d 5fb3 c13e 521f dbbf 67d1 d0bf
00000190: 039a 9bc0 6757 5dbe 8766 643e 880c af3f
000001a0: 6c5c 3dc0 08b7 863d d74e 8c3f 58f1 f1be
000001b0: 4c1e f83e b062 0540 1ec7 95c0 5cd7 05c0
000001c0: f547 9b3b e423 74c0 25f4 a0c0 4577 933f
000001d0: 1b83 89bf 713a 3c3f 9403 26c0 6f48 0740
000001e0: f6e0 77bf 51f3 963f 2269 93bf a5a9 75c0
000001f0: 0b6c 7b3f 34ef 3ec0 2887 2a3e d74c d0be
00000200: e911 b93e 0390 2dc0 755e 8cbe 50bd f7bf
00000210: e024 8fc0 79f1 ab3f dbce 823e 7e32 00bf
00000220: f617 073e e828 513f 77e8 eb3d e440 343e
00000230: 1c03 22bf bacd ad3e a2b8 073f 2e91 e9bf
00000240: 005b 423f 2b74 483f 29bd a03f 2382 3ec0
00000250: 8d1a 263f 77d3 cebf bced c6bf af9e 133f
00000260: 1e6f de3f b31e 1340 ed4f 2ebe 0467 993f
00000270: 0273 2dc0 af4a 8cc0 e8c9 23bf 9cc6 02c0
00000280: 3906 4ec0 686f b83f 7617 36c0 b539 a9bf
00000290: 60b2 7dc0 3c1c 85bf 15f9 d93f 219d 5a3e
000002a0: 4ae5 49c0 7c93 86c0 4b70 f4bf e9a8 0340
000002b0: 1867 fa3e f14f 97c0 7edb 4f3f 262f 93c0
000002c0: 7f89 11c0 84db bcbe 03af 313f 3336 2ebe
000002d0: b299 00c0 1a2a 8ec0 dd61 a0c0 bebc bb3e
000002e0: b047 43c0 4dec 8d3f db1d c13f d0df 02bf
000002f0: 39c7 873f 7728 033f 35e7 93bf e84c c7bd
00000300: 6d71 2dbf cebc 01c0 68e6 4cbf a5cd ec3f
00000310: b8ab 19c0 0e30 19bf 4813 03bf 19c9 82c0
00000320: 89d6 9dbf fb47 53c0 21b1 453f 57dd 923d
00000330: e6bc 99bc 0c83 283f d2f7 f93f 0170 33c0
00000340: 56df 953f 2899 84bf 3486 6b3f 6480 d8bf
00000350: 0158 76c0 518b 3abf 804d d7bf 8998 f73d
00000360: 63f5 17bc a47f 93bf ea21 d9bf d22c 863e
00000370: 9487 77bf 4200 673f f261 60be d21a 583f
00000380: b7a2 fa3e f966 9ac0 d28a f63e d42b 133f
00000390: c218 29c0 ad90 55bf 3c35 bf3e 5142 b33f
000003a0: 838d c0bf 0a29 02be a53a 46be 8693 a63f
000003b0: b76c fa3f 65cb 363f 8148 8cbf 2ab6 23bf
000003c0: 7e20 393e beef 833f d0d1 283f 8b96 6fc0
000003d0: b04e 95be 7044 d7be 3b53 813f f405 36bf
000003e0: c875 81be 4ce8 773e 0f67 62c0 7779 9fc0
000003f0: 2c33 2fc0 d683 3f3f 5ae9 e93e 9ef2 91c0
-1.0854753 0.47138703 -2.9439266 0.3621191 -3.0760522 -1.7881682 -0.7626808 0.57867134
2.26347 -5.231024 -0.17949776 1.4949006 -3.746902 1.6067439 -3.390399 -0.49565214
0.41422173 -4.398523 -2.069599 1.4822922 -1.5734947 -1.4409117 -0.34571084 -4.318278
1.5109 -0.4268878 0.06604735 -5.043487 -0.010056957 -0.31219605 1.4160593 -4.6122956
-4.405625 0.26479277 1.6957879 -1.8140497 -4.4727693 -1.8527788 0.113277085 0.9699654
-4.331078 -0.18784352 -0.5799291 -2.2008507 -0.03766707 -1.1626074 0.8635343 -2.047887
0.87467754 -4.365109 -1.1199902 1.4327503 -0.057630774 0.45521647 1.1655484 -3.5083804
0.60620725 0.19581048 -0.5889418 0.2594464 -3.4234076 0.3525693 1.3247094 -0.99254036
-2.140319 0.5361761 1.8388885 1.4303291 -1.7471563 -0.62440217 -1.5370667 0.6763486
1.0487858 -1.8428289 0.8471345 -1.9133037 -1.1168995 -0.20644616 -0.024137894 0.432718
0.63377446 0.36669514 0.4525154 0.5723805 -3.4360774 0.53168297 -1.3868717 1.2490231
-4.212891 -2.1505237 -0.6170374 -3.7003198 -3.1487968 -4.2755837 0.8655278 -4.332798
0.07021696 0.37832162 -1.7118933 -1.6313905 -4.8625503 -0.21615373 0.22304736 1.3675699
-2.958766 0.06577879 1.096156 -0.47254443 0.48460615 2.0841484 -4.6805563 -2.0912695
0.0047388026 -3.8146906 -5.029803 1.1520773 -1.0743135 0.73526675 -2.5939684 2.113796
-0.9682764 1.1793004 -1.1516459 -3.8384793 0.98211735 -2.9833498 0.1665312 -0.40683624
0.36146477 -2.7119148 -0.27415815 -1.9354649 -4.4732513 1.3433067 0.25548443 -0.50077045
0.13192734 0.81703043 0.115189485 0.17602879 -0.63285995 0.3394602 0.530161 -1.824743
0.75920105 0.7830226 1.2557727 -2.976693 0.64884263 -1.6158284 -1.5541301 0.57664007
1.737766 2.2987487 -0.17022677 1.1984563 -2.7101445 -4.3841166 -0.6397996 -2.0433722
-3.2191298 1.4408998 -2.845182 -1.3220736 -3.9640121 -1.0399241 1.7029139 0.21349002
-3.1546197 -4.2055035 -1.9096769 2.0571845 0.4890678 -4.7285085 0.81194293 -4.5995054
-2.274017 -0.36886227 0.6940767 -0.17012863 -2.0093808 -4.4426394 -5.011946 0.36667436
-3.0512505 1.1087738 1.5087236 -0.5112276 1.0607673 0.5123362 -1.1554934 -0.097314656
-0.677512 -2.0271487 -0.8003907 1.8500258 -2.4011059 -0.5983895 -0.51201296 -4.087048
-1.2331096 -3.3012683 0.772234 0.071711235 -0.018766832 0.6582496 1.9528754 -2.8037112
1.1708782 -1.035924 0.9200165 -1.6914182 -3.8491213 -0.7286883 -1.6820526 0.12089641
-0.009274813 -1.1523328 -1.6963475 0.2620607 -0.9669125 0.9023477 -0.21912363 0.84415925
0.48952267 -4.82507 0.48152786 0.5748875 -2.642136 -0.8342388 0.37345302 1.4004613
-1.5043186 -0.12710968 -0.19358309 1.301377 1.9564427 0.71404105 -1.0959626 -0.63949835
0.18078801 1.0307539 0.6594515 -3.7435634 -0.29161596 -0.420444 1.0103525 -0.71102834
-0.25285172 0.24209708 -3.5375402 -4.9835773 -2.7374983 0.7481054 0.45685846 -4.5608664

weight f4 [128, 256]
00000000: 8239 d3bd a755 433f 9b13 c9be 6a2d 2a3f
00000010: 1e64 7c3e edb4 6abe 96df 6f3d a3d5 303f
00000020: 35c6 c23e be49 40be aeec 96bc a20b 643f
00000030: d694 d63e 548d 12be 1f8c 25bf 8539 abbd
00000040: c00a 53be dd3a 4d3e 57b8 b2bd 7c22 9fbe
00000050: 54f6 30bf 7405 72bf c1e7 353f 9165 96be
00000060: 2dca 4d3f 816f 52be 33e8 253e 8afb 65be
00000070: dd51 e63e 1dc8 e73c 5f86 983f 90a2 213f
00000080: 81a0 ddbe 231e 6d3e ea49 1e3f ca82 87be
00000090: 2d27 c13d b851 abbe 7d98 0dbf 232d c93d
000000a0: 3af6 fc3e 3f06 e1bd ba43 733d c59c 2bbd
000000b0: f569 9cbe bd23 e2be 4e36 6fbe 0f05 98bf
000000c0: 9c36 ee3e b2e0 013e 3c9e b4bf 69c8 373f
000000d0: 22f4 34bd ef62 8fbd 6f6e 6a3d ab89 fbbe
000000e0: 1d9f 2abf 8439 0b3e 6f96 37be 508a 81bc
000000f0: 34bf d63e 8014 5ebc 97fe 37be 1896 7ebf
00000100: 9e6e 7dbd 681d c8bd 7bb6 a8be 811a b43d
00000110: f49f 423f e364 3ebf 820e 34bf 0d30 cdbe
00000120: 1530 30be ced7 92be 3551 0c3f 7702 4ebf
00000130: e78e 503e a499 813e d494 28bf 3d96 6a3e
00000140: e29c 413f daef 51be 7b09 abbc 7d5a b5bc
00000150: 10c9 96be e269 2d3f d1aa 06be 06ed 6a3f
00000160: b488 3cbe d32e fbbe 3fa4 d03e 10c0 57bf
00000170: af03 86be ee29 7a3e 914e 843d 8939 febe
00000180: 8629 b03e 7bf4 44be 2937 32be e190 bd3d
00000190: 77a1 213f f942 f83c a6d1 883d c301 3f3f
000001a0: 22fb 183f 63ff 173f c66a 32be 6385 aabf
000001b0: c7d6 f93e 2cda aa3f 9fbd 5cbd c2db c8be
000001c0: 94fc 333f aed4 5abf 6508 b4bd 7f9e 1a3e
000001d0: a6ee 83bf 7b06 133f 4f70 4ebe d60b bf3e
000001e0: 4dc1 31bf bf36 be3e bffa 3bbf bb02 f7be
000001f0: 518b 9abd 9c77 313f d175 b73e d913 243e
00000200: 2aa2 eebe bd7f b33e 3ccd 253f 9636 28bd
00000210: a9b2 5f3d 824c 1a3f 40d9 78be 522a f0bf
00000220: 09cb 653e 0b8d 91bc 94e4 783f 960e 843d
00000230: 1bf2 fa3d ab31 3dbf 90e7 a9be a791 373e
00000240: 31d5 9fbe f1d6 863c 3a67 773d 00a6 a9be
00000250: ca5a 4f3e 4224 33bd 849f b8be 7576 903e
00000260: 16b4 2dbe 5b0c 913f 3517 fdbe ec05 ac3e
00000270: 7ea1 05be 5bba afbe 734c 23bd ffc7 fe3d
00000280: 0d28 f1bc 6c28 c5be 0c8b aebe 4998 08bf
00000290: acc5 d53e 6301 2dbf 034c 8f3d 37bf 2e3e
000002a0: 0877 bb3e 7f80 a6be 842c c43d 498b ee3e
000002b0: de22 abbd c7f2 d2be cb20 1cbe 6e77 8e3d
000002c0: c1e5 9bbd f60d 00bf f4c0 e4be 7d6e 303e
000002d0: d024 34be 9f86 983e c844 babe eade 8c3f
000002e0: 7683 953d 3661 423e 1a10 3fbf 5ee0 debd
000002f0: ef5f 0cbf cfc5 043d 1265 99bf 5da1 923c
00000300: 30fb 8abf 8777 afbe 4c65 15bf 5fa5 ff3e
00000310: 6757 f53e fbb7 fcbf 216c 543f de8f b93e
00000320: 89c7 8abe 51fc 0c3f c5b9 b43e 9fd9 353e
00000330: cc21 ad3d 701c 6c3d 0219 023f 97ee 5dbb
00000340: d980 443e 30da 11bd 3ce9 bcbe def6 d0be
00000350: 1e2d 823e 49a4 c5bf 0b08 29bf d866 3b3f
00000360: 7f1b 323e bf2f 8a3d 88b9 88be 313b 213e
00000370: ee0a 14bd e88c d93d a63a b73c 4a3b 573e
00000380: 9cb1 3dbf 38a2 e23d f8c2 9e3e fbec be3e
00000390: d796 4ebf 4415 1dbe b1b5 f93d 685c f73d
000003a0: a5c5 88be 496d 8b3e bcf6 473e 4cdf 5d3e
000003b0: 16b9 17be f66b 5c3d b25f c9bd ce60 283b
000003c0: e8de 1dbe 2bd1 5e3f 567a 1b3f cccc 2fbe
000003d0: 2271 04be 1f4c 3e3e bd76 2e3e 99a0 ba3e
000003e0: 1cb6 923e eaa2 87be ce14 75be de85 cbbe
000003f0: 91c0 5bbe 025a 33be 93dd d8be 9dd9 a93d
-0.10313703 0.7630257 -0.3927277 0.66475546 0.24647567 -0.2292058 0.058562838 0.69075984
0.38041845 -0.1877813 -0.018423405 0.8908025 0.41910428 -0.14311725 -0.6466693 -0.0836058
-0.2060957 0.20041986 -0.08726566 -0.31080997 -0.69125867 -0.9453957 0.71056753 -0.29374364
0.8038662 -0.20550348 0.16201858 -0.22459236 0.44984332 0.028293664 1.1916007 0.63138676
-0.43286517 0.23156027 0.61831534 -0.26466972 0.094313 -0.33460784 -0.55310804 0.09823062
0.49406606 -0.109875195 0.05939076 -0.041897554 -0.3054959 -0.4416789 -0.2336056 -1.1876544
0.4652604 0.1268337 -1.4110789 0.71790177 -0.044178136 -0.07001292 0.057234224 -0.4912847
-0.6664904 0.13596159 -0.1792848 -0.015813023 0.4194275 -0.013554692 -0.17968212 -0.99447775
-0.06187307 -0.09771234 -0.32951722 0.08794118 0.7602532 -0.7437269 -0.7033464 -0.40075722
-0.17205842 -0.2868027 0.5481141 -0.8047251 0.20367013 0.2531253 -0.65852094 0.22908874
0.7563001 -0.20501652 -0.020878544 -0.022137875 -0.29450274 0.6773969 -0.13151099 0.9176792
-0.18411523 -0.49059162 0.4075031 -0.8427744 -0.26174685 0.24430057 0.06460298 -0.4965327
0.3440668 -0.19233887 -0.17403854 0.09256149 0.63137 0.030305373 0.06680612 0.74612063
0.597582 0.59374064 -0.17423543 -1.3321956 0.48796675 1.3347831 -0.053891774 -0.39230162
0.7030728 -0.85480773 -0.08790664 0.15099524 -1.0307205 0.57431763 -0.2016003 0.37313718
-0.6943558 0.37151143 -0.73429483 -0.4824427 -0.07546104 0.69323134 0.35832074 0.16023196
-0.46608096 0.35058394 0.6476629 -0.041067682 0.054613743 0.6027299 -0.24301624 -1.8762915
0.22440733 -0.01776745 0.9722378 0.064480945 0.12253209 -0.7390391 -0.3318448 0.17926656
-0.3121734 0.016459914 0.06040118 -0.3313446 0.20249477 -0.04373575 -0.360592 0.28215376
-0.16963229 1.1331896 -0.49431768 0.33598268 -0.13049886 -0.34321865 -0.03986783 0.1244049
-0.029438043 -0.38507402 -0.3409046 -0.5335737 0.41752374 -0.6758024 0.0699692 0.1706513
0.3661425 -0.3251991 0.09578803 0.4659064 -0.0835626 -0.4120085 -0.15246885 0.06956373
-0.076121815 -0.500213 -0.44678462 0.17229648 -0.17592168 0.29790208 -0.363806 1.1005528
0.07300465 0.18982396 -0.74633944 -0.108826384 -0.54833883 0.032415207 -1.1983969 0.01789921
-1.0857906 -0.3427088 -0.5835769 0.49930856 0.47918245 -1.9743646 0.8297749 0.36242574
-0.27105358 0.55072504 0.3529798 0.17758797 0.08453712 0.057644308 0.5081941 -0.0033864134
0.19189776 -0.03560847 -0.36896694 -0.40813345 0.25425047 -1.5440761 -0.660279 0.732038
0.17393301 0.06747388 -0.2670405 0.15745236 -0.036143236 0.10622579 0.022366833 0.2101871
-0.74099135 0.11066097 0.31008124 0.37290177 -0.80698913 -0.15340143 0.12192858 0.12078172
-0.2671329 0.27231815 0.19527715 0.21667212 -0.14816698 0.053813897 -0.098327056 0.0025692466
-0.15417063 0.87037915 0.60733545 -0.17167968 -0.12933782 0.18583725 0.17037483 0.3645065
0.28654563 -0.2649148 -0.23933718 -0.3975057 -0.21460177 -0.17514804 -0.42356548 0.082934596

bias f4 [128]
00000000: ee30 1dbf 449e f0be 154c be3d fa4f 9cc0
00000010: 8f42 debf 02f7 69c0 4f43 a3be 9a99 d23f
00000020: f343 70bf 1da3 d2bf e15f 043e b706 9b3d
00000030: 0e5d 1c3f 85d0 e9bf 8b3a 73c0 05d0 89c0
00000040: 85d7 643e 0778 00c0 c39b fabf b75f f1be
00000050: f547 2dbf 4431 fd3f a131 36c0 8343 24c0
00000060: 8ca3 0cc0 0137 52c0 eadf a13f fc2e 943f
00000070: 75a9 b3bf bf85 31bd 10bd a1c0 3d84 49c0
00000080: 8770 49c0 8709 2bc0 a6f1 47c0 3b22 14c0
00000090: 9185 10bf 6565 6dc0 e21a ab3f 7c08 85c0
000000a0: 6cf3 2ec0 c2ad e83f a3c2 1d40 efcf eebe
000000b0: cf4e 09bf 743a ebbf 8b43 1140 1861 d93e
000000c0: aa5c 48be 8c47 fdbf b5b4 34c0 d761 35c0
000000d0: 3a9b 7dc0 39cb 97bb 48d8 5340 4e1b 11c0
000000e0: 21f7 0fc0 e522 39c0 aef7 58be 9a9e 9ac0
000000f0: 59b6 31c0 6140 36bf 341e 14c0 4dc7 a5bf
00000100: e551 81c0 e499 09bf 0a99 80c0 eb7e b53e
00000110: fa1d 783f 5242 c1bf 3067 e93e b4f6 31c0
00000120: 592f 52c0 2fe1 f9bf 688c 17c0 0191 94be
00000130: c09b efbf 9641 19c0 0e33 77bf 0d32 65c0
00000140: 7353 0cc0 ed19 2240 cacd 6fc0 d21c c1be
00000150: b615 39c0 4da1 24c0 760e 33bf aa0d 30c0
00000160: 2a69 19c0 dba9 2bc0 5981 8fbe bae1 b7bf
00000170: fd64 fabf 159e d0bf f3bf f23e cbf6 e9bf
00000180: e3ed 223f 8594 5cc0 d55b 53c0 d0f6 eb3f
00000190: 8db2 3c3f 1159 9b3d bec7 b2bf cf13 c83f
000001a0: b8cf 2ec0 ad24 aebf 2b6a 96bf def2 0b40
000001b0: 3f35 e0bf 2068 57bd a397 1440 ba8c 95c0
000001c0: 09e3 1440 b6cb 6cc0 b7b3 813f 31cb 26c0
000001d0: d6a7 e03e 194c 86bf 5690 b3bf d41f 12c0
000001e0: b42b 60bf 0498 72bf b0b0 eabf f267 e53e
000001f0: f91a 26c0 abe3 323f 425f 5ac0 f01d 1b40
-0.61402786 -0.46995747 0.09291855 -4.884763 -1.7364062 -3.6557012 -0.3188729 1.6453125
-0.9385368 -1.6456028 0.129272 0.0756964 0.6107949 -1.826676 -3.8004482 -4.306643
0.22347839 -2.007326 -1.9578785 -0.47143337 -0.6768792 1.978066 -2.846779 -2.5666206
-2.197482 -3.2846072 1.2646458 1.1576838 -1.4036089 -0.04334044 -5.054329 -3.1486962
-3.1474931 -2.6724565 -3.124124 -2.3145893 -0.56453806 -3.7093136 1.3367579 -4.1572857
-2.7336073 1.8178027 2.4650047 -0.46643016 -0.5363588 -1.8377213 2.2697475 0.4245689
-0.19566599 -1.9787459 -2.8235295 -2.8340967 -3.9625993 -0.0046323803 3.3100758 -2.2672915
-2.2494586 -2.8927548 -0.21188232 -4.8318605 -2.7767546 -0.71191984 -2.3143435 -1.2951447
-4.041247 -0.53750443 -4.0186815 0.35448393 0.9692074 -1.5098364 0.45586538 -2.7806826
-3.2841399 -1.9521846 -2.3679447 -0.2901688 -1.8719406 -2.394628 -0.9656228 -3.5811799
-2.1925933 2.5328324 -3.7469354 -0.377173 -2.8919501 -2.572345 -0.6994394 -2.750834
-2.3970437 -2.6822422 -0.28028372 -1.4365761 -1.9562069 -1.6298243 0.4741207 -1.827844
0.63644236 -3.446565 -3.30248 1.8434696 0.73709947 0.075853474 -1.3967206 1.5631045
-2.7314281 -1.3604943 -1.175115 2.1866984 -1.751625 -0.052589536 2.3217552 -4.6734285
2.3263571 -3.6999335 1.013297 -2.6061518 0.4387805 -1.0491973 -1.4028423 -2.2831926
-0.87566686 -0.9476321 -1.8335171 0.44805866 -2.5953963 0.69878644 -3.412064 2.4237022

weight f4 [64, 128]
00000000: 681f 773d 263b 9b3d ada9 15bf 32fd c03d
00000010: 6a13 263e 154e 273e 0973 3c3e dec2 ca3d
00000020: 705e a2b9 f680 1dbe d2f5 9cbc 301f 783d
00000030: 753d f5be c9fc 373e 122b 993e 6ab8 c23d
00000040: 0128 063d d70b 263e 1328 8dbd 9e58 26bf
00000050: e0a3 e8bd 973c 81bf 2ea6 6cbe 8308 66bd
00000060: 9a9c 943d cf53 8dbd 93f5 8dbf f82a 8dbf
00000070: 0a03 023e a0b0 a7bb 9d3b 913b 5dbb 063e
00000080: d6a1 1dbc acf9 89bd 59d3 4cbb 3189 4ebd
00000090: 22c0 ddbe 4ddd 47bc 0f3d fabe f549 4dbd
000000a0: 5102 3b3d fc73 a9bf 17f7 3bbf b000 9d3d
000000b0: 45ae a4be e63d 63bd 79ec 6cbf bb24 163d
000000c0: 18b9 ccbe addc 15bf 7f5c 00be 8895 8c3d
000000d0: d65c 3e3e 5690 16bf 2424 81be 5bfb b7bc
000000e0: c0b9 9c3d 492b fe3c 20cc 2abe 1b9e 8e3e
000000f0: aa25 8f3e fcb0 e53d bff8 103d 7438 17be
00000100: 4dbd 50bd 3ff2 023d ca1d 0bbd a897 e9b9
00000110: 7fc6 673d 516f bc3d 3cfd 6e3e ad74 86bb
00000120: 71e2 383e 5d4d 6d3e d6c7 113e d939 c93d
00000130: 4edc 883c 0d64 ac3d 9f19 403e 2a18 113d
00000140: 35fa ba3e 082b b6be 2e21 a63e 3693 85bd
00000150: 651b 983b 199e bdbe 5be6 5ebe 2224 8638
00000160: c3e7 ce3d d876 68be 7a5d 0ebc 2132 febe
00000170: 29e8 b0be 8f5b 393d 08fe 0b3e 4471 4f3c
00000180: a167 06bf 772f 6d3c b0c3 ee3d ae29 18bf
00000190: 4933 5e3c 6210 8bbe 1e5d 813d 412c 94bf
000001a0: 9d3a ac3d 6ac4 023d 8305 6f3e ce48 ccbf
000001b0: c1e2 0c3d 038f 75be 49f9 8dbf b3c3 2cba
000001c0: 998f d7be 16d0 42bc 3abc 7dbf 7220 9b3d
000001d0: dc23 053e ca13 ac39 2d57 3cbe dd65 cbbc
000001e0: 15b4 a7be 7e44 b1be b4ff 47be 3f46 44bf
000001f0: 1e1f 733d 3189 f8be 17f4 74bd 0137 aabf
00000200: 3a0d c33c b4fe 3cbe c2ae 1bbf 449b afbc
00000210: 42ce 093e 12d6 523d cc1a 67bd 4c11 1dbf
00000220: e125 d93d f738 bfbc c2b2 043e ded3 5c3d
00000230: 0e0d 3cbf fa3a c4be fcec 0a3b 385f ca3d
00000240: 4e9b 133e fefd 22bd 09ba 43bd 9ecd 8ebe
00000250: bcac e63b 22c2 f5be e367 fa3d 04eb c23d
00000260: 63d8 a1bc ebe2 d1bd c974 b8bf 4e09 6abf
00000270: a058 323d 024b 04bf bf46 a0bb fba9 d53c
00000280: c8fc d8bc 3290 583d 0ebe 7f3d 1134 5b3d
00000290: a896 c9be 40cd 933c 7981 dcbf 5085 a83d
000002a0: d19a 143d fd46 afbf fb58 49be e5d7 0c3e
000002b0: ae8a 2ebf 3834 dc3d 093e 48bf 8bf2 1bbf
000002c0: 5789 f5be 05a9 f4bd 7d79 d4bc 1f4b 2fbd
000002d0: e42a 0f3d 3295 15bf 9fca f23e 9973 a2bc
000002e0: 4bfc 02bc b9a0 1b3e 19cf 893d 2ee2 52be
000002f0: ceca 35bf 1393 a1bd da43 ccbd 547a bb3d
00000300: e5f0 5fbd af55 36bc 6ad9 613e fc51 ea3d
00000310: dd88 b4be 3460 843d 0fdf d03c ff71 5dbd
00000320: dc63 31bd c230 93bc 600e 633d e9f6 bcbc
00000330: b177 413d f7e3 fb3c df55 09be fcea 05be
00000340: a071 ee3e 2693 fbbe cde0 b6bb 2c92 bebd
00000350: b17d 9cbe 101d ab3d bba4 6fbf 9ef1 8dbc
00000360: f44d b43d 59d1 0bbe 9e2e 05be c0e3 f0be
00000370: 3d27 10bf f016 0dbe 7388 a23b 14e1 e53d
00000380: f4a2 16bf 3c61 ee3d 2c64 71bd 8947 bdbf
00000390: b475 0e3b b34c 35bf 4601 ad3d e3fc d0bf
000003a0: 6633 e33d bf53 2fbe d936 9a3e 6c2c fdbf
000003b0: a94e 05be ddf5 45bf c96c c7be 1e24 983d
000003c0: 7608 4fbf 8d54 473c 32d6 93bf 59e0 4fbc
000003d0: bdea 97bd 345f ec3d f5e2 ba3d a21a 55bd
000003e0: 8764 d7be 399f ca3d ee53 6dbd b15e d1be
000003f0: 40b7 f63d 1ceb 52bf c3b3 cc3d 4378 a5be
0.060332686 0.07579641 -0.5846203 0.09423293 0.16218343 0.1633838 0.18403257 0.09900449
-0.0003096941 -0.15381226 -0.019160185 0.060576618 -0.4789845 0.17967524 0.29915673 0.095078304
0.032752994 0.16215454 -0.06892409 -0.6497897 -0.11359382 -1.0096616 -0.23110268 -0.05616046
0.07256432 -0.06900751 -1.1090568 -1.1028738 0.12696472 -0.005117491 0.0044321553 0.13157411
-0.009621104 -0.06737074 -0.0031253903 -0.050423805 -0.43310648 -0.012198758 -0.4887471 -0.05011936
0.045656506 -1.3238521 -0.73423904 0.07666147 -0.32164207 -0.055478953 -0.9254833 0.036656123
-0.39984965 -0.5853985 -0.12535284 0.06864458 0.18590102 -0.5881399 -0.25222886 -0.022458723
0.076526165 0.0310265 -0.1667943 0.27855 0.27958423 0.11215398 0.035393473 -0.14767629
-0.05096178 0.031969305 -0.033963956 -0.00044554216 0.056585785 0.092009194 0.23338789 -0.0041032643
0.1805513 0.23174043 0.14236388 0.09825487 0.016706612 0.08417521 0.18759774 0.035423435
0.36519018 -0.35579705 0.3244719 -0.06522219 0.0046419376 -0.3703468 -0.21767561 6.396348e-05
0.10102799 -0.22701585 -0.008689279 -0.4964762 -0.34552124 0.045253333 0.13671124 0.012661282
-0.52501875 0.0144766485 0.11658418 -0.594386 0.013562032 -0.27160937 0.06316589 -1.1576005
0.08409617 0.031925596 0.23341946 -1.5959718 0.034395937 -0.23980336 -1.1091701 -0.0006590441
-0.42101744 -0.011890432 -0.99115336 0.07574548 0.1300196 0.0003282114 -0.1839263 -0.024828846
-0.3275458 -0.34622568 -0.19531137 -0.7666969 0.059355848 -0.4854217 -0.059803095 -1.3298036
0.023810018 -0.18456537 -0.60813534 -0.021436341 0.13457587 0.051473685 -0.05642204 -0.6135452
0.10602928 -0.023342593 0.12958816 0.05391299 -0.7345742 -0.38326246 0.0021198383 0.09881443
0.14414713 -0.039793007 -0.04778484 -0.27891248 0.0070396345 -0.47999674 0.12226846 0.09517482
-0.019756502 -0.10248359 -1.441064 -0.9142045 0.04354155 -0.5167695 -0.004891246 0.02608203
-0.026487723 0.05287189 0.06243711 0.05351645 -0.39372754 0.018042207 -1.7227012 0.08228552
0.036280457 -1.3693539 -0.1966285 0.13754232 -0.6818036 0.107521474 -0.7821966 -0.60916966
-0.47956344 -0.119463004 -0.025936836 -0.04279625 0.034953013 -0.5843078 0.47420213 -0.019830512
-0.007994722 0.1519803 0.06728954 -0.20594093 -0.7101258 -0.0788938 -0.09973879 0.091541916
-0.054673094 -0.011128827 0.22055593 0.114414185 -0.35260668 0.06463662 0.025496988 -0.054063793
-0.043308124 -0.017967585 0.05543363 -0.023066955 0.047233287 0.03074835 -0.13411663 -0.1307792
0.46571064 -0.49135703 -0.0055809976 -0.09305224 -0.30564645 0.083551526 -0.93610734 -0.017327126
0.08803931 -0.13654079 -0.13006064 -0.4704876 -0.5630987 -0.13778281 0.0049601137 0.11224571
-0.58842397 0.1163964 -0.058933422 -1.4787456 0.0021737637 -0.7082016 0.084475085 -1.6327175
0.11093788 -0.1712179 0.3011997 -1.9779181 -0.13018288 -0.7732828 -0.38950184 0.07428764
-0.80872285 0.012166155 -1.1549742 -0.012687766 -0.0741782 0.11541596 0.0912532 -0.052027352
-0.42068884 0.098936506 -0.05794137 -0.40892556 0.12046671 -0.8239 0.09995224 -0.32318315

bias f4 [64]
00000000: 13d9 8940 59e5 a540 cc82 a9c0 35fa 63c0
00000010: 1db3 73c0 355c 7840 9652 4a40 c4ad 8040
00000020: 4f22 cd3f fd3e 49c0 0eba e1c0 75e7 dcc0
00000030: 43e4 d1c0 2881 bbc0 353b 45bf 151f a7c0
00000040: 106a 7640 691a c3c0 f9bb 8940 47c3 5840
00000050: c362 2440 bebb e8bd 8113 7840 ec7c b6c0
00000060: d7a3 82c0 932d 9ac0 a521 bbc0 1e8a bcc0
00000070: c6bc 5740 689a 5fc0 3d9a 0540 84c9 c6c0
00000080: 7806 7040 66c5 71c0 3f3d dac0 b08a dbbe
00000090: bbb7 5d40 37e6 67c0 e2ce 583f e611 bfc0
000000a0: 3687 4e40 3586 7e40 b0c2 7140 b8df 4040
000000b0: 60cd bfbe 83bd a740 286f 4340 d8d8 7d40
000000c0: ae02 d3bf c6bc 8140 52e2 3540 2ac6 bfbf
000000d0: be52 6f40 9482 4540 27d9 8b40 1c52 6a40
000000e0: 940e 5540 cc69 6040 9212 2440 6496 3640
000000f0: 0855 d4c0 c58f 83c0 4ea5 953f 6979 7040
4.3077483 5.1842465 -5.2972164 -3.5621464 -3.8078072 3.8806279 3.1612906 4.0212116
1.6026095 -3.1444695 -7.0539618 -6.903254 -6.559114 -5.859516 -0.7704347 -5.222544
3.8502235 -6.096974 4.304196 3.3869188 2.568528 -0.11363934 3.8761904 -5.7027493
-4.0825 -4.8180633 -5.847857 -5.89186 3.3708968 -3.4937992 2.087539 -6.212099
3.7503948 -3.7776732 -6.8199763 -0.42879248 3.464339 -3.6234262 0.8469068 -5.970935
3.2270026 3.9769413 3.7775078 3.0136547 -0.37461376 5.2418838 3.0536594 3.96636
-1.6485193 4.0542936 2.8419385 -1.498235 3.7394252 3.0860949 4.370258 3.6612616
3.3290148 3.5064573 2.5636334 2.852929 -6.63538 -4.1113 1.1691072 3.7574103

weight f4 [32, 64]
00000000: 533a d0bd 9bcf 0fbd 33cc b0bd 78f3 c2bd
00000010: 6c8f 32bd 4813 a43b 6ddb 9f3d 0293 b9bd
00000020: 2a9f 4f3c defd 5abd 3b8b b8bd 0c12 2cbc
00000030: e0c2 b83b cdbc 54bd 4686 5ebc 81f6 07be
00000040: 8906 233d 3bba 5dbd c190 b3bd 074e 32be
00000050: e30d a0bd 90de 1d3d aa65 0cbd 2513 5bbd
00000060: 6aab bcbd 4223 26bd 459e 6e3b d15b b8bc
00000070: 0a0c 22bc 92da 4ebd 520e 493d f5b1 c0bd
00000080: dfa0 8dbc a38c 183c 490a b4bc 70f3 eabd
00000090: 667c ad3c 8084 1fbd 4614 18bd ac6b 9dbc
000000a0: 2a63 b63d f084 dabc b0fc 853d 9616 2b3e
000000b0: dc03 fabc 2753 86bd d8dd adbd 30f9 06be
000000c0: 1541 98bd 820b 883c 0aa1 6a3c 7d2c ae3b
000000d0: 15e5 a93d 8202 c2bb d780 31bd 0546 fa3b
000000e0: 2d82 233d e9a1 aabc 504e 96bc ac3e 5a3e
000000f0: 7a42 86bc d4b1 9dbd e7a4 9abb 55a7 6e3c
00000100: 1f9b 6fbc a43f 74bc 1e7e 2c3b 1ef4 e7bd
00000110: 0c6a 66bd 2632 1c3d 351d 8abd 46ca 073d
00000120: 8a2a 7fbc 4877 cb3c 6e01 e9bd 335d be3c
00000130: dbc2 cb3c a6a1 8fbd 727f 61bd 8587 45bd
00000140: e743 d03c c184 5dbd 132d 0c3c a669 0cbd
00000150: 96b8 e5bb f35d 9f3d ede6 283d cca8 803d
00000160: dbbe 86bd 54a3 bfba c34a e9bd dcdc 8abc
00000170: 19fb 9e3c 5496 05bb 05af 05be d8c2 da3b
00000180: 5bc8 d03c 4604 0fbe 15c8 c6bd d899 cdbc
00000190: 3d78 303d 348c 9dbd 5dbf debd 4230 f2bd
000001a0: 3366 263b cb52 f53b be11 5d3d 2568 8cbc
000001b0: da9d 213b 5356 7b3d 0ede aebc 9b7b 27bd
000001c0: ff03 acbd 3375 a43d a850 66bc 7fe9 aabd
000001d0: 9445 04bd ca60 dcbd cf58 443c 5c85 153c
000001e0: 42be 8ebd 2c76 6abd 2ddd ea3c e4b5 513d
000001f0: 5c9c 15bc c6a5 babd 25ca 01bd 1e3d 163e
00000200: 85e2 503c 77c5 123d d916 6abd be94 72bd
00000210: 0733 bf3c 8ac2 d63d f676 293d e8c9 3d3d
00000220: 1f36 cdbd bbe5 15be afd9 68bc 8712 94bd
00000230: 2e5e 43bb 38c0 56bd 5a50 b8bc e074 01be
00000240: 4c5c 38bd 4c4e 1cbd 910e 06bc 197d 0d3d
00000250: 9925 f0bc fedd 153d d35d bc3b 1be7 75bd
00000260: a6d3 0dbd dd8f b2bd 2cb7 02bb d13e 17bd
00000270: da91 91bc 4295 82bd 3d25 86bd d9a1 003c
00000280: 30ac f23d ccc9 c3bd 3d83 62bc 238c c6bc
00000290: f96c 313d 0db3 983b f0b6 28bb d7eb 1dbb
000002a0: 8c46 bd3d 0d33 8b3d bc76 283d 241c 0a3e
000002b0: 1d2e 84bb 6de3 ebbd 459f 78bc 11d9 633d
000002c0: bbd4 b03b 050a 283d dc6c b23d 51b1 bc3c
000002d0: 5851 d63d 9f2b cd3c e1f6 88bd 53ed 9cbb
000002e0: b490 c13d 81d2 84bc 2d0c f33b 8b65 2f3e
000002f0: 36d2 5fbd 519e 8d3b 5d56 6fbd 9ba7 c43d
00000300: 97b6 bf3c 6500 bfbb e47a 2ebd 03d2 60bd
00000310: d73a 28bc 8ec4 e3bc 1caf ae3d c1b5 033d
00000320: 4a0d 283d bb2b f53a bec9 b2bd 29c2 1fbe
00000330: c6e4 43bd 19c3 e53b 2718 be3b 1412 28be
00000340: 429b 76ba 5097 bbbc 5904 90bd d41a 6c3d
00000350: 3116 01bd bece 32bd 2065 1e3d fc61 52bd
00000360: 47f5 e33a 5cdb 99bb 395d 793c 8518 23bd
00000370: 1061 493e 9959 c0bd 11bf 0b3d ccad 41bd
00000380: 1d6c c23b 1c02 eabd 685d babd a5be 37bd
00000390: daf1 2e3c 5b9b 54bd fcbf 8b3c 144d a6bd
000003a0: bff7 0c3e f7a4 da3c d042 853c 1654 f93d
000003b0: 1aaa d53c 1edf 2f3b 9fc2 e5bc fee8 59bc
000003c0: 55da 54bd f626 0d3b de7b 893d a027 88bd
000003d0: 5bcf 273d 92b2 c5bd e30c 7a3d 0a90 8e3a
000003e0: 15d2 663d cd11 c13c f325 193b 6988 113e
000003f0: 5a20 f4bd 54da 07bd 30f3 aebd 313a ea3d
-0.101673745 -0.035110097 -0.08632698 -0.09519094 -0.04359381 0.0050071813 0.07805524 -0.09061243
0.012672225 -0.053464763 -0.09010931 -0.01050235 0.0056384653 -0.051937867 -0.013581818 -0.13277628
0.039801154 -0.05413268 -0.08767844 -0.17412578 -0.07815149 0.03854233 -0.034276642 -0.053485055
-0.09212382 -0.04056097 0.0036410254 -0.022504719 -0.009890566 -0.050501414 0.049085923 -0.094089426
-0.017288623 0.009310874 -0.02197756 -0.11472213 0.021177482 -0.03894472 -0.03712871 -0.019216381
0.08905633 -0.026674718 0.06542337 0.16707835 -0.030519418 -0.06558829 -0.08489579 -0.13180995
-0.074342884 0.01660705 0.014320621 0.005315362 0.08295647 -0.005920709 -0.043335762 0.0076377415
0.039919067 -0.020829158 -0.01834789 0.2131297 -0.01638912 -0.07699934 -0.004719365 0.014566262
-0.014624386 -0.014907751 0.002632029 -0.113258585 -0.056253478 0.038133763 -0.06743852 0.033151887
-0.015574107 0.024837151 -0.11377226 0.0232378 0.024873188 -0.07013254 -0.055053182 -0.048224945
0.025423003 -0.054081682 0.008555668 -0.03428044 -0.0070105297 0.07781591 0.041235853 0.062821954
-0.065793715 -0.0014620819 -0.11391213 -0.016951017 0.019406842 -0.0020383792 -0.13055046 0.006676059
0.025486162 -0.13966474 -0.09706131 -0.025097772 0.04308342 -0.07692757 -0.108763434 -0.11825611
0.0025390505 0.0074866763 0.053972 -0.017139504 0.0024660737 0.061361622 -0.021346118 -0.040889364
-0.083992 0.080301665 -0.014057316 -0.08345317 -0.032292917 -0.107606485 0.011984064 0.009126034
-0.069698825 -0.057241604 0.028669918 0.051198855 -0.009131517 -0.0911365 -0.03168692 0.14671752
0.012749319 0.03583285 -0.057150695 -0.059223883 0.023339761 0.10486324 0.041373216 0.04633513
-0.100200884 -0.14638416 -0.014212056 -0.07230096 -0.0029810774 -0.052429408 -0.022499252 -0.1264224
-0.045009896 -0.038160607 -0.008182184 0.03454313 -0.029314803 0.03658866 0.0057484894 -0.060034852
-0.03462567 -0.08718846 -0.0019945605 -0.03692514 -0.017769743 -0.06376125 -0.065500714 0.0078510875
0.118492484 -0.09559974 -0.013825235 -0.024236744 0.043316815 0.0046600164 -0.0025743805 -0.002409687
0.092419714 0.067968465 0.04112886 0.13487297 -0.0040338174 -0.115179874 -0.015174692 0.055626933
0.005396453 0.04102518 0.087121695 0.02303377 0.10464734 0.025045214 -0.066877134 -0.0047890334
0.09451428 -0.016213657 0.007417223 0.1712858 -0.054643832 0.0043218513 -0.05843197 0.09602281
0.023402495 -0.0058289045 -0.042597666 -0.054887783 -0.010267935 -0.027803686 0.08529493 0.032155756
0.0410283 0.0018705049 -0.087298855 -0.1560141 -0.047825597 0.007011783 0.005801219 -0.16413146
-0.00094072905 -0.0228993 -0.07032079 0.057642773 -0.031515304 -0.043654196 0.03867066 -0.051362976
0.0017391824 -0.004695339 0.01521998 -0.039818306 0.19665933 -0.093920894 0.034117762 -0.047284886
0.0059332983 -0.114261836 -0.09099847 -0.044859547 0.010677779 -0.05190597 0.017059319 -0.0812017
0.13766383 0.02668999 0.01626721 0.12174241 0.026082087 0.002683587 -0.028046904 -0.013300179
-0.05196603 0.0021538115 0.06713079 -0.06648183 0.040969234 -0.096532 0.061047446 0.0010876667
0.056352694 0.023568058 0.0023368567 0.14212193 -0.11920233 -0.0331672 -0.08542478 0.114368804

bias f4 [32]
00000000: e428 9e40 8e7e a740 be6f 7e40 a48d 9540
00000010: 7ff4 8b40 9e4c 7e40 ba4b 4d40 34b0 7340
00000020: 0f49 8b40 27a5 aa40 5a23 8c40 9943 8f40
00000030: 7371 6540 e8c4 9440 2459 8f40 4cb4 6640
00000040: d236 8a40 e0c4 9340 a2c0 9940 5f4a a540
00000050: 9717 9840 f906 7b40 d3d0 7d40 47e6 5f40
00000060: 9cab 9440 b783 9b40 2dae 7b40 8419 8140
00000070: 210e 8140 ca15 8440 e344 9c40 8ab0 9c40
4.9424915 5.2341986 3.9755702 4.67354 4.3735957 3.9734263 3.207747 3.8076296
4.3526683 5.33266 4.3793154 4.4770017 3.5850494 4.6490364 4.4796314 3.6047544
4.319192 4.6177826 4.8047647 5.1653285 4.7528796 3.9223006 3.9658706 3.49843
4.6459484 4.8598285 3.9325058 4.0343647 4.0329747 4.12766 4.883409 4.89655

weight f4 [1, 32]
00000000: 5ce5 863c 64a8 893c 7a92 703c 25e2 453b
00000010: 4f22 b33c 5e01 bc3c 2b64 c23c 3d57 483c
00000020: 6ed1 c43c 5936 3e3c 01a1 7b3c 6ca8 773c
00000030: b717 af3c 4116 853c 5831 3b3c 1219 483c
00000040: 7f08 953c fa31 8a3c 6bb7 563c a3bd 7d3c
00000050: fa94 723c a469 2a3c fb73 8e3c 3f57 c33c
00000060: b6b0 613c e953 563c f098 383c 7b18 7f3c
00000070: 842a 9a3c 3bb4 223c d504 043c d541 8a3c
0.016466789 0.016803928 0.01468336 0.0030194607 0.021866946 0.02294987 0.023729404 0.0122278305
0.024025645 0.011609637 0.015358211 0.0151158385 0.021373613 0.016245963 0.011425339 0.0122130085
0.018192528 0.016869534 0.013105254 0.015487107 0.014806027 0.010401163 0.017389288 0.023845313
0.013775041 0.013081529 0.011266932 0.015569801 0.018819101 0.009930666 0.008057793 0.016877094
