model/soccer_ai_model.pt (torch, 806754 bytes, 31 tensors)

weight f4 [512, 26]
0	0x00008cd1	5.0515e-41
1	0x12833d76	8.282414e-28
2	0x932dbcf0	-2.1928823e-27
3	0x129e5fab	9.994786e-28
4	0x932232b6	-2.0472277e-27
5	0x93810dc1	-3.257774e-27
6	0x10abf87b	6.783045e-29
7	0x90bc3f3b	-7.425035e-29
8	0x942ee932	-8.830745e-27
9	0x129a5952	9.7407855e-28
10	0x1331e2b0	2.2452306e-27
11	0x10612025	4.439819e-29
12	0x930d3184	-1.7821115e-27
13	0x11940296	2.3351877e-28
14	0x92107c66	-4.559172e-28
15	0x12109403	4.5620827e-28
16	0x9365e413	-2.9016313e-27
17	0x93b4415c	-4.5502837e-27
18	0x91e06a0c	-3.5406325e-28
19	0x91e06a0c	-3.5406325e-28
20	0x9293b48b	-9.321512e-28
21	0x10612025	4.439819e-29
22	0x930d3184	-1.7821115e-27
23	0x12076bd1	4.2731383e-28
24	0x122dbbb6	5.4820546e-28
25	0x0f6ca5a0	1.16675966e-29
26	0x00755f20	1.0778877e-38
27	0x332dccaa	4.0465842e-08
28	0x32070d0a	7.860999e-09
29	0x332984c5	3.9469132e-08
30	0x321029f6	8.391444e-09
31	0xb2ab2e78	-1.9928152e-08
32	0x32a1b22e	1.8823894e-08
33	0xb2c74192	-2.3196467e-08
34	0x2eb3d690	8.1780915e-11
35	0xb2fc264d	-2.9354078e-08
36	0x332c5e5a	4.0132683e-08
37	0x32c45507	2.2856069e-08
38	0xb2c7ba34	-2.3251324e-08
39	0x33693d51	5.4305307e-08
40	0x32bebf62	2.2205942e-08
41	0x32998013	1.7869786e-08
42	0xb3b2580a	-8.304785e-08
43	0x33630667	5.285838e-08
44	0x33720d57	5.635715e-08
45	0x33720d57	5.635715e-08
46	0x32781af7	1.4441631e-08
47	0x32c45507	2.2856069e-08
48	0xb2c7ba34	-2.3251324e-08
49	0x3252a573	1.2261228e-08
50	0x334acf8c	4.7220553e-08
51	0xb2d34b56	-2.4597892e-08
52	0x003c7523	5.55215e-39
53	0x1a7aa812	5.1834554e-23
54	0x9c99132d	-1.0129648e-21
55	0x1986b048	1.3926475e-23
56	0x9c9c9c8c	-1.036368e-21
57	0x9dac6473	-4.5631883e-21
58	0x9baa1270	-2.8136056e-22
59	0x9cf54d46	-1.6232715e-21
60	0x9a085bae	-2.81982e-23
61	0x9cbd453f	-1.2524871e-21
62	0x1d00de1a	1.7055483e-21
63	0x9bacd076	-2.8589728e-22
64	0x9d0343bd	-1.7372726e-21
65	0x1c660e29	7.611892e-22
66	0x1cc2d9b5	1.2894119e-21
67	0x1d155369	1.9763108e-21
68	0x1d661562	3.0451301e-21
69	0x1d519838	2.7739615e-21
70	0x9d0dc2f2	-1.8761979e-21
71	0x9d0dc2f2	-1.8761979e-21
72	0x1c3af723	6.1861654e-22
73	0x9bacd076	-2.8589728e-22
74	0x9d0343bd	-1.7372726e-21
75	0x1b95b89a	2.4769278e-22
76	0x1cd60c91	1.416458e-21
77	0x1d11bdbe	1.9288685e-21
78	0x804f0465	-7.25658e-39
79	0x8c454a63	-1.5198713e-31
80	0x8b25aaf5	-3.1906458e-32
81	0x8c466da0	-1.5286354e-31
82	0x8b6417cf	-4.3929114e-32
83	0x8c160c42	-1.1559268e-31
84	0x8b965bbf	-5.791594e-32
85	0x8b3fc8ea	-3.6936413e-32
86	0x0c9c3124	2.406518e-31
87	0x8ca884cf	-2.596443e-31
88	0x0c0491e0	1.0212808e-31
89	0x8b9eb5c1	-6.113286e-32
90	0x8b792811	-4.7985798e-32
91	0x8b00e8dd	-2.482709e-32
92	0x8cc4e0e3	-3.033393e-31
93	0x8c9a94c3	-2.381699e-31
94	0x0a10e81f	6.977005e-33
95	0x8b498a76	-3.8815358e-32
96	0x09baa56a	4.4933426e-33
97	0x09baa56a	4.4933426e-33
98	0x0c8b9642	2.1506774e-31
99	0x8b9eb5c1	-6.113286e-32
100	0x8b792811	-4.7985798e-32
101	0x8befa41b	-9.230637e-32
102	0x8add2de7	-2.1298792e-32
103	0x0b021835	2.50553e-32
104	0x0013f284	1.831873e-39
105	0x3e0dfa62	0.13865045
106	0x3cc6938f	0.024240283
107	0x3df8c3cd	0.12146721
108	0x3c4d5814	0.0125332065
109	0x3d9cf8a5	0.07664613
110	0x3d251cdc	0.040310726
111	0xbbe2aed3	-0.0069178133
112	0xbe55dcd6	-0.20885023
113	0x3dc3dbe9	0.09563429
114	0x3dab94db	0.08378001
115	0xbce496fa	-0.027904022
116	0xbd53fdbb	-0.051755648
117	0xbe75fa7f	-0.24021338
118	0xbdecb14c	-0.11557254
119	0x3e8cd18e	0.27503628
120	0xbd837c47	-0.064201884
121	0xbe3d438b	-0.18482797
122	0x3b1b3c5b	0.0023687098
123	0xbc4d6d71	-0.0125383
124	0xbdc48d3b	-0.0959725
125	0xbd04f48d	-0.032459784
126	0xbd6acb10	-0.05732256
127	0x3e64e15e	0.22351596
128	0x3d4668f6	0.048439942
129	0x3d5e8b12	0.054331847
130	0x80383c19	-5.164347e-39
131	0x929dcdde	-9.958843e-28
132	0x10fc90a2	9.9619316e-29
133	0x92a070a8	-1.01251915e-27
134	0x1003f532	2.6024086e-29
135	0x919f27ba	-2.511026e-28
136	0x91c7b7ee	-3.151002e-28
137	0x912bbfbd	-1.3548605e-28
138	0x12e124b8	1.4208548e-27
139	0x93076b12	-1.7092185e-27
140	0x1228a936	5.322002e-28
141	0x91cd7014	-3.241237e-28
142	0x90a60d48	-6.549592e-29
143	0x912d445a	-1.3668356e-28
144	0x9324c112	-2.0794901e-27
145	0x9306284b	-1.6933044e-27
146	0x91853ce8	-2.1021236e-28
147	0x9020337a	-3.1594092e-29
148	0x11883f45	2.149601e-28
149	0x11883f45	2.149601e-28
150	0x12dc88d5	1.3917684e-27
151	0x91cd7014	-3.241237e-28
152	0x90a60d48	-6.549592e-29
153	0x925ac411	-6.903034e-28
154	0x90e40c67	-8.994925e-29
155	0x10aa3c8c	6.7146464e-29
156	0x001258d9	1.684911e-39
157	0x2cf6b465	7.0117683e-12
158	0xad21a084	-9.187432e-12
159	0x2d11f33e	8.296306e-12
160	0xad1927e4	-8.705901e-12
161	0xadbfd348	-2.1808014e-11
162	0x2c201e38	2.2754142e-12
163	0xaccb6ad4	-5.7814673e-12
164	0xae3e1b45	-4.322522e-11
165	0x2d883b07	1.5487623e-11
166	0x2dc92d0c	2.287106e-11
167	0x2c419854	2.7511509e-12
168	0xad6ef5f4	-1.3583346e-11
169	0x2d4233c1	1.1039115e-11
170	0x2d0f3cc2	8.1421e-12
171	0x2d2417a2	9.327568e-12
172	0xac8ed490	-4.059482e-12
173	0xadc5759e	-2.244854e-11
174	0x2cc5c60d	5.621065e-12
175	0x2cc5c60d	5.621065e-12
176	0xad31aaa5	-1.0099176e-11
177	0x2c419854	2.7511509e-12
178	0xad6ef5f4	-1.3583346e-11
179	0x2c92efdc	4.1761993e-12
180	0x2d7cb7cd	1.43653535e-11
181	0x2d85bbe6	1.5203793e-11
182	0x80294c8f	-3.79272e-39
183	0x361f0afc	2.369924e-06
184	0x363ef559	2.8455017e-06
185	0x36145eb6	2.2108848e-06
186	0x36516964	3.1204772e-06
187	0x36a4af99	4.908023e-06
188	0x35e14924	1.6785093e-06
189	0x36b8a070	5.5023047e-06
190	0xb660ef8e	-3.351804e-06
191	0xb5eb22e4	-1.7519019e-06
192	0xb6aa48e9	-5.0748827e-06
193	0x36064c0d	2.0011823e-06
194	0x36a62e52	4.952578e-06
195	0x369a85e4	4.6051446e-06
196	0xb5f13a53	-1.7972874e-06
197	0x36082aea	2.0290558e-06
198	0xb5879d24	-1.0104018e-06
199	0x369689bd	4.486383e-06
200	0xb4144e7e	-1.381213e-07
201	0xb4144e7e	-1.381213e-07
202	0xb6d6ae11	-6.397961e-06
203	0x36064c0d	2.0011823e-06
204	0x36a62e52	4.952578e-06
205	0x35258fb6	6.1676417e-07
206	0xb5ed259d	-1.7668823e-06
207	0xb6e0ebd2	-6.7031733e-06
208	0x007e5872	1.1603001e-38
209	0xabcdf886	-1.4635105e-12
210	0x2b793749	8.8539294e-13
211	0xabc2e01e	-1.3846734e-12
212	0x2b618d65	8.013228e-13
213	0x29a98dcc	7.5297055e-14
214	0xaa331cb0	-1.5908347e-13
215	0xac418ed3	-2.7506233e-12
216	0x2ca15fd5	4.5865347e-12
217	0x2bb8d399	1.3132716e-12
218	0x2c320018	2.5295373e-12
219	0xaa45d0a6	-1.7569504e-13
220	0xabeb84b2	-1.6734585e-12
221	0xabc32688	-1.3866278e-12
222	0x2c1ad036	2.2000297e-12
223	0x2b9d6254	1.1182812e-12
224	0xabca49b0	-1.4373416e-12
225	0x2bb37922	1.2752336e-12
226	0x2c80f71a	3.6654126e-12
227	0x2c80f71a	3.6654126e-12
228	0x2be5b0b1	1.632047e-12
229	0xaa45d0a6	-1.7569504e-13
230	0xabeb84b2	-1.6734585e-12
231	0xaadb30a8	-3.8935977e-13
232	0x2c5527b8	3.0291169e-12
233	0xabb56369	-1.2888415e-12
234	0x800be57b	-1.092513e-39
235	0x9f1fc799	-3.3834663e-20
236	0x9f323fc4	-3.7745712e-20
237	0x9f16dda6	-3.194708e-20
238	0x9f453ed9	-4.176836e-20
239	0x9ff4c8c6	-1.0367017e-19
240	0x9eff66d8	-2.704171e-20
241	0x9db15f99	-4.6950356e-21
242	0x1e9540e4	1.5802827e-20
243	0x9fa1b588	-6.848647e-20
244	0x1f6cf87b	5.0180482e-20
245	0x9f19052f	-3.2403298e-20
246	0x9f1fc600	-3.383334e-20
247	0x9f18f18c	-3.2387055e-20
248	0x9fad5465	-7.340797e-20
249	0x9f519b7a	-4.438608e-20
250	0x1fa79ae8	7.098352e-20
251	0x9f03f213	-2.7940568e-20
252	0x9f0fd1a3	-3.0454835e-20
253	0x9f0fd1a3	-3.0454835e-20
254	0x1f6e5c56	5.047484e-20
255	0x9f19052f	-3.2403298e-20

bias f4 [512]
0	0x9280cbb4	-8.128152e-28
1	0xb349554b	-4.6876533e-08
2	0x9c91a96d	-9.639091e-22
3	0x8c2e20af	-1.3414308e-31
4	0xbe29ed08	-0.16594326
5	0x928952cd	-8.6663275e-28
6	0x29665800	5.1146587e-14
7	0xb6cea3cf	-6.1583482e-06
8	0x2c0d375b	2.0068034e-12
9	0x9f8efbb8	-6.055577e-20
10	0x941f9fdd	-8.058976e-27
11	0x36bffe3a	5.7218394e-06
12	0x35902d81	1.074208e-06
13	0x8f837a89	-1.2964796e-29
14	0x9fc580c3	-8.3645764e-20
15	0x33a91042	7.872633e-08
16	0x1d298c80	2.24396e-21
17	0xa6583bdd	-7.5021184e-16
18	0x940ea312	-7.201328e-27
19	0x1804831e	1.7126797e-24
20	0x90db08d8	-8.6393895e-29
21	0x8e5ef049	-2.7479306e-30
22	0xa5aaa6e5	-2.960339e-16
23	0xa68fe886	-9.985644e-16
24	0x2c0a7f0c	1.9681505e-12
25	0x29a143d4	7.1616026e-14
26	0xafa63e0d	-3.0239314e-10
27	0x2cc43ff2	5.5777544e-12
28	0xbd873b2a	-0.066030815
29	0x2645fff2	6.8694976e-16
30	0x1d6ef945	3.1627907e-21
31	0xbd68c11b	-0.056824785
32	0x242795b1	3.6339146e-17
33	0x27715497	3.3491325e-15
34	0xb5374c82	-6.8284146e-07
35	0x9f4aceff	-4.2946387e-20
36	0xa4f60dd9	-1.0670895e-16
37	0xac866ba1	-3.8204583e-12
38	0xbe1ea968	-0.15494311
39	0x28d08048	2.3148272e-14
40	0xb62f9cde	-2.616834e-06
41	0x252ab6ea	1.4807123e-16
42	0xbc389dbc	-0.011268076
43	0xa5472e7d	-1.727625e-16
44	0x26c7d2e5	1.3865562e-15
45	0xbdb48fc2	-0.08816482
46	0xb8151963	-3.554801e-05
47	0x2d039c46	7.4811875e-12
48	0xa7b63eb8	-5.0583147e-15
49	0x957f9993	-5.161799e-26
50	0x2e8b2447	6.327432e-11
51	0xb49289b1	-2.7294803e-07
52	0xb34c35c8	-4.7546365e-08
53	0x89478700	-2.401723e-33
54	0x3119f6b0	2.2404656e-09
55	0x85651633	-1.07716056e-35
56	0x23420039	1.0516808e-17
57	0xb1842508	-3.8459156e-09
58	0xa3d4462d	-2.3014807e-17
59	0xbdd9b1ed	-0.1062964
60	0x2be9e844	1.6620112e-12
61	0xbdcc73e1	-0.0998304
62	0xbd842297	-0.0645191
63	0x28bf033a	2.1206659e-14
64	0x2180f58b	8.738612e-19
65	0xa13aa2f6	-6.323493e-19
66	0xb0570f75	-7.823851e-10
67	0x14ca10b8	2.0403382e-26
68	0xa5014abf	-1.1214291e-16
69	0xad4deb91	-1.1705207e-11
70	0x26a435a8	1.139433e-15
71	0xa61d4161	-5.455892e-16
72	0x3095923c	1.0882739e-09
73	0xb2f29551	-2.824041e-08
74	0xbd1c24c8	-0.038121015
75	0x073c1bf7	1.4151766e-34
76	0x331279fa	3.410421e-08
77	0x1d14ebe5	1.9709592e-21
78	0x29f87429	1.1033563e-13
79	0x1b7b47bc	2.0785412e-22
80	0x2f5c132d	2.0015696e-10
81	0x235c1674	1.19309785e-17
82	0x9d5c4bb4	-2.9155895e-21
83	0x3187d4ce	3.95321e-09
84	0x2c90850d	4.1074978e-12
85	0xa1cf38de	-1.4041918e-18
86	0xa79eecfd	-4.4110753e-15
87	0xbdda425f	-0.106571905
88	0xbd3d4ed7	-0.046217766
89	0x2ba4ddb0	1.1714432e-12
90	0x1d0859e8	1.804593e-21
91	0xb33f8756	-4.459374e-08
92	0x86757203	-4.616314e-35
93	0xb180cfe8	-3.7489265e-09
94	0x8b7cd6b2	-4.8694953e-32
95	0x3c5fc7ad	0.013658446
96	0xa5a6482a	-2.884531e-16
97	0x12ee61fa	1.5044065e-27
98	0x9591a5e7	-5.882678e-26
99	0x226e13cd	3.2265497e-18
100	0xa9c5f90a	-8.791759e-14
101	0x1682e449	2.11467e-25
102	0x1360896a	2.8340525e-27
103	0x1ba9be13	2.8081537e-22
104	0x1aed1731	9.805837e-23
105	0x281f0c09	8.828883e-15
106	0x24ed7d68	1.0299481e-16
107	0x2a082c6e	1.2094641e-13
108	0xbd6d075d	-0.05786835
109	0xab4f03cc	-7.354644e-13
110	0x9df302d2	-6.432448e-21
111	0x3211fbe0	8.497381e-09
112	0x8afbe514	-2.425659e-32
113	0x2bf9a55b	1.773841e-12
114	0xb3181a2c	-3.541406e-08
115	0x30533cfc	7.6848017e-10
116	0x11af5c78	2.766712e-28
117	0x2229035a	2.2905545e-18
118	0x17b3a92a	1.1610307e-24
119	0x291f0cda	3.531624e-14
120	0x3cf3b59b	0.029749682
121	0xbe8f8201	-0.28028873
122	0xa6f25790	-1.6815857e-15
123	0x0db77f5d	1.1308907e-30
124	0x1922027c	8.3757054e-24
125	0x1eb8a5bb	1.9550302e-20
126	0xb24c7fb0	-1.1903396e-08
127	0xa78f3ebd	-3.9758494e-15
128	0x85d80116	-2.0312941e-35
129	0x292ceb96	3.839601e-14
130	0x2f87ba82	2.468888e-10
131	0xa33744c0	-9.935008e-18
132	0x20fb13ae	4.2534077e-19
133	0xa2569023	-2.9078713e-18
134	0x31c03c0d	5.5947624e-09
135	0xa5d76950	-3.7367917e-16
136	0x31615b4b	3.2793703e-09
137	0xb27681ba	-1.4348581e-08
138	0x299c84ff	6.950863e-14
139	0x2785ce61	3.713867e-15
140	0x02f5bdf7	3.610855e-37
141	0x2a0e3176	1.2629294e-13
142	0xbc43246e	-0.011910541
143	0x214274fa	6.5884574e-19
144	0x112ee947	1.3798064e-28
145	0xaecf1300	-9.416645e-11
146	0x9322746b	-2.0504673e-27
147	0x2bae3d45	1.2380449e-12
148	0x9a62adbd	-4.687605e-23
149	0x23549862	1.1524811e-17
150	0x2cb4fc0a	5.1438897e-12
151	0x829ebcdc	-2.3324413e-37
152	0x974fbc50	-6.712299e-25
153	0xaa27b477	-1.4895191e-13
154	0xbd97745c	-0.07395241
155	0xa88683bf	-1.4934124e-14
156	0x26c5f704	1.3736575e-15
157	0x0842fe81	5.867892e-34
158	0x2712b856	2.0361499e-15
159	0x17385f2f	5.9573745e-25
160	0xafa08540	-2.919851e-10
161	0x2a09dfb4	1.2245657e-13
162	0xa48cd1b6	-6.1070586e-17
163	0xa6097010	-4.7683296e-16
164	0x83409c8c	-5.6603436e-37
165	0xbe88226a	-0.26588756
166	0x193a32de	9.626247e-24
167	0x26e345a0	1.5770161e-15
168	0xb3ad052f	-8.056883e-08
169	0xa134750e	-6.1141293e-19
170	0x8cee52c7	-3.6719526e-31
171	0x26b0f6c9	1.2279345e-15
172	0x2998ef7a	6.7916986e-14
173	0x227f7ecb	3.4626068e-18
174	0x2d0418ef	7.508868e-12
175	0x28f0f752	2.675261e-14
176	0xba9c473a	-0.0011923083
177	0x9e5f3fc0	-1.1818705e-20
178	0xac34c56b	-2.5689127e-12
179	0x9ea7e252	-1.7775417e-20
180	0x19e974c8	2.4138803e-23
181	0x8aa0e89c	-1.5494937e-32
182	0xbd443188	-0.0478988
183	0x32564c85	1.2473838e-08
184	0x21030ca4	4.4401256e-19
185	0x9ae12ee3	-9.313357e-23
186	0x28db9c24	2.43816e-14
187	0xbe2c69ce	-0.16837236
188	0x2de66a5d	2.6195207e-11
189	0x0bfb423e	9.6781353e-32
190	0x83d20578	-1.2343946e-36
191	0xac947e5d	-4.220442e-12
192	0xbe028e52	-0.12749603
193	0x97b15443	-1.1459628e-24
194	0xbc45ef1c	-0.012080934
195	0x0fe16937	2.222724e-29
196	0xa0c54e38	-3.342486e-19
197	0xaa23d345	-1.4550607e-13
198	0xa6cfb004	-1.441122e-15
199	0x1de2c68d	6.0027e-21
200	0xb1809701	-3.7424575e-09
201	0x2185f412	9.077035e-19
202	0xbd929c69	-0.07158739
203	0x3372b205	5.6506924e-08
204	0x2df44bb6	2.777321e-11
205	0x2a05487e	1.1837924e-13
206	0xa03fc462	-1.6243307e-19
207	0xaf20822c	-1.4598162e-10
208	0x18e86ba0	6.0079268e-24
209	0x3dc8f28f	0.098118894
210	0x0d0b7097	4.2968207e-31
211	0xb3a601e5	-7.730322e-08
212	0x30bf670a	1.3926365e-09
213	0x1d9d7a05	4.168372e-21
214	0x92dac1a1	-1.3805467e-27
215	0x33af4077	8.1607986e-08
216	0xb0c33b5d	-1.4204989e-09
217	0x2a50e1e9	1.855249e-13
218	0x82905d24	-2.1212358e-37
219	0x296b8de7	5.2303563e-14
220	0x3362c170	5.2795656e-08
221	0xb57fea15	-9.5335537e-07
222	0x9a0274bd	-2.697767e-23
223	0xa7e159e2	-6.2547496e-15
224	0xa4b3973b	-7.788507e-17
225	0x35470f5f	7.4155645e-07
226	0xb1f8081b	-7.2186714e-09
227	0x2776df51	3.4260418e-15
228	0x2b02f923	4.6531024e-13
229	0x1ac52cbe	8.1549575e-23
230	0xa859da00	-1.2093191e-14
231	0xaff195e1	-4.394414e-10
232	0x07c9d706	3.0369498e-34
233	0xa5ad55a9	-3.0068762e-16
234	0xaa6efb19	-2.1225763e-13
235	0x2555c9b1	1.8543141e-16
236	0xbdb198d8	-0.08671731
237	0x3d557e9d	0.0521227
238	0xa0038948	-1.1141554e-19
239	0xbde011eb	-0.109409176
240	0xad838f54	-1.4956626e-11
241	0x27b224b3	4.9444714e-15
242	0xb3344cc3	-4.197933e-08
243	0x2845a80f	1.0972139e-14
244	0x93b93675	-4.6754264e-27
245	0x3dbd20ab	0.092347465
246	0x9c8e8c12	-9.432979e-22
247	0xa5365d18	-1.5817525e-16
248	0xa48a1816	-5.988876e-17
249	0xb28374c5	-1.5303508e-08
250	0x0700d40c	9.691965e-35
251	0x94d540d3	-2.1533072e-26
252	0x1c606177	7.4241353e-22
253	0x97826082	-8.425415e-25
254	0x29c88e76	8.906497e-14
255	0xaf20887c	-1.4600404e-10

weight f4 [512]
0	0x279062d3	4.0075174e-15
1	0x3892c24f	6.998015e-05
2	0xaba3cd3f	-1.1638814e-12
3	0xa4030fca	-2.841947e-17
4	0x3ec69f4e	0.38793415
5	0xa722f797	-2.2616235e-15
6	0x34097667	1.2802194e-07
7	0xb8245ce1	-3.9187147e-05
8	0x32614b6d	1.31138735e-08
9	0xad3305cf	-1.0176262e-11
10	0xa83a0513	-1.03261744e-14
11	0xb7c975b3	-2.4015875e-05
12	0x38741110	5.8190024e-05
13	0xa53b35b2	-1.6237857e-16
14	0xac912ab2	-4.125888e-12
15	0xb914bbfd	-0.00014184411
16	0xaad95acc	-3.8609946e-13
17	0x2fe11040	4.0938808e-10
18	0xa6c6ef09	-1.3803801e-15
19	0xaa57c52c	-1.9164244e-13
20	0xa603641e	-4.558544e-16
21	0xa582e2d4	-2.270511e-16
22	0xb0816c2e	-9.416732e-10
23	0xb0307b40	-6.4203576e-10
24	0xb442895a	-1.8117626e-07
25	0xb1cd0566	-5.966899e-09
26	0x3549b5a2	7.5142646e-07
27	0xb4843b0a	-2.4629873e-07
28	0x3ef452e1	0.47719482
29	0x2fd6a54d	3.9043827e-10
30	0x2c3c2b0d	2.6740305e-12
31	0x3f115d82	0.56783307
32	0x3005c224	4.866101e-10
33	0xb1b202b9	-5.1807914e-09
34	0x387e6013	6.0647795e-05
35	0xad239694	-9.298912e-12
36	0xafac9dd2	-3.1398756e-10
37	0xb515b384	-5.5768055e-07
38	0x3ebb6b0f	0.36605117
39	0xb2063ce3	-7.813671e-09
40	0x38752478	5.8446516e-05
41	0x2e53bca3	4.814339e-11
42	0x3ee19a7c	0.44063175
43	0x2f6aa7ef	2.1341838e-10
44	0xb111517a	-2.1146591e-09
45	0x3f189e3e	0.5961646
46	0x393bdf53	0.00017916904
47	0x3481af03	2.415546e-07
48	0xb1075a57	-1.9696438e-09
49	0xa807a86e	-7.530528e-15
50	0x34558f6a	1.9889345e-07
51	0x36cf1a8a	6.1721703e-06
52	0x3867c082	5.525398e-05
53	0xa2853043	-3.610082e-18
54	0xb6a73c9b	-4.9840432e-06
55	0x9f14bc50	-3.1495987e-20
56	0x2e9931b8	6.966466e-11
57	0xb73427f7	-1.0738141e-05
58	0xaf188e3f	-1.3874855e-10
59	0x3eeba41a	0.46023637
60	0x3344ef50	4.585246e-08
61	0x3f2ae5b1	0.6675673
62	0x3f06ebd2	0.52703583
63	0xb1d760b7	-6.2683188e-09
64	0x2e628e59	5.151288e-11
65	0xae4d77bf	-4.671796e-11
66	0x35debf32	1.6595934e-06
67	0x2804e329	7.3767295e-15
68	0xaf365680	-1.6583535e-10
69	0xb2220cec	-9.432579e-09
70	0x310c1b02	2.0388033e-09
71	0x300746ac	4.9213145e-10
72	0xb6b637eb	-5.4305324e-06
73	0x380fed6d	3.4314977e-05
74	0x3f0705d3	0.5274326
75	0x21f63bcc	1.6685437e-18
76	0xb93b794e	-0.00017878899
77	0x2c247a69	2.3373753e-12
78	0x3227ad0e	9.7600275e-09
79	0x2bff0a0d	1.8121629e-12
80	0xb697dc48	-4.525795e-06
81	0xb1121959	-2.1260205e-09
82	0xabb66099	-1.2958689e-12
83	0x38269a8e	3.9721424e-05
84	0xb427e89a	-1.5637707e-07
85	0xaed1fc92	-9.549085e-11
86	0xb174edb4	-3.5641792e-09
87	0x3edc1633	0.42985687
88	0x3ebf1f3a	0.3732851
89	0x33442da8	4.567633e-08
90	0x2bfd7572	1.8009329e-12
91	0x383f2812	4.5575267e-05
92	0xa0e3d5a1	-3.8596664e-19
93	0x36d34d1b	6.2972663e-06
94	0x21da1f3d	1.4780523e-18
95	0x3f065aa4	0.52482057
96	0xafdf307f	-4.0597922e-10
97	0x271d14ec	2.1799469e-15
98	0xa8141d28	-8.221973e-15
99	0x2f5e0924	2.019403e-10
100	0x33b643f8	8.487399e-08
101	0x28ff16e1	2.832061e-14
102	0x26cd6eee	1.42548e-15
103	0x2c1c63b1	2.2224273e-12
104	0x2b419c42	6.8784225e-13
105	0x31eda50c	6.9163715e-09
106	0xb0ba165e	-1.3539638e-09
107	0x3209ca65	8.020469e-09
108	0x3ed21867	0.41034243
109	0xb20b520d	-8.109521e-09
110	0xac3afd89	-2.657293e-12
111	0x389cb7e5	7.472913e-05
112	0x23277774	9.078383e-18
113	0xb5056d0c	-4.9705045e-07
114	0x38880393	6.485651e-05
115	0xb663be00	-3.393623e-06
116	0x2724d600	2.2875582e-15
117	0x2e90d81e	6.586752e-11
118	0x296e91b1	5.2972983e-14
119	0x3243405d	1.1365128e-08
120	0x3e7a0975	0.2441767
121	0x3f23b771	0.63951784
122	0xb0996fb5	-1.1163964e-09
123	0x2508077c	1.1798655e-16
124	0x2a45c390	1.7564964e-13
125	0x2cb100fc	5.030752e-12
126	0x38709cfb	5.736666e-05
127	0xb0ed175c	-1.7250659e-09
128	0x9f4ab1da	-4.292228e-20
129	0x32260867	9.664382e-09
130	0x33dd1fc6	1.0296894e-07
131	0x2e01ba7a	2.949683e-11
132	0xae92d8d8	-6.6778305e-11
133	0xae408039	-4.376963e-11
134	0xb86ac596	-5.5973964e-05
135	0xb0a0e2ed	-1.1706028e-09
136	0xb6e21686	-6.737947e-06
137	0x373fccbf	1.1432158e-05
138	0xb2683954	-1.3517212e-08
139	0x30719f18	8.7901375e-10
140	0x1ce32efc	1.5033745e-21
141	0xb2f5d73c	-2.8619631e-08
142	0x3efb8c08	0.49130273
143	0x2e212897	3.6643213e-11
144	0x26afd95d	1.2201981e-15
145	0x355fd91e	8.338992e-07
146	0xa73b1316	-2.596181e-15
147	0x33520c3d	4.8905566e-08
148	0xa89bd0d6	-1.7299025e-14
149	0x2f017d97	1.17771e-10
150	0x3523e84f	6.1060285e-07
151	0x1f8db2da	6.001171e-20
152	0xa8a1c1cc	-1.7958637e-14
153	0x320a770d	8.059726e-09
154	0x3f242536	0.6411928
155	0x31099416	2.00203e-09
156	0xb1176226	-2.2029183e-09
157	0x21ecaf27	1.6038344e-18
158	0x31d71a51	6.2603154e-09
159	0x29b786c0	8.150208e-14
160	0x35c6b598	1.4805e-06
161	0xb2e681a1	-2.6834472e-08
162	0xafc3b1a9	-3.5596529e-10
163	0xb2726a64	-1.4110444e-08
164	0x1d3570fa	2.4013558e-21
165	0x3f31a7d6	0.6939672
166	0x29e56dd3	1.01886944e-13
167	0xb0c05fb6	-1.3997041e-09
168	0x391fff61	0.00015258558
169	0x2f057f23	1.2141448e-10
170	0xa386fb37	-1.4634703e-17
171	0x300038aa	4.6646653e-10
172	0x31f36c56	7.084547e-09
173	0x2e9606e9	6.822438e-11
174	0x33bfccea	8.931404e-08
175	0x323616c2	1.0598969e-08
176	0x3f316a35	0.69302684
177	0xad1240bc	-8.313513e-12
178	0xb3a000b6	-7.45071e-08
179	0x2d6a0609	1.33027e-11
180	0x2b76095e	8.7409756e-13
181	0xa33cd3c2	-1.0236342e-17
182	0x3f0cc65b	0.54990166
183	0xb7ac3ac0	-2.0531355e-05
184	0x2e09f03e	3.136357e-11
185	0xab522763	-7.466165e-13
186	0xb30a75b6	-3.2237686e-08
187	0x3ed0a7d1	0.40753034
188	0xb3909210	-6.732091e-08
189	0x23ebf70c	2.558338e-17
190	0x9ea1d6b2	-1.7135334e-20
191	0xb3373f16	-4.2665384e-08
192	0x3f035bde	0.51312053
193	0xa98eae0e	-6.3362605e-14
194	0x3eb74cd5	0.35800806
195	0x254ac4e4	1.7587416e-16
196	0xae87f9ec	-6.183484e-11
197	0x3354223f	4.9391243e-08
198	0xb19efa61	-4.62687e-09
199	0xacca01bd	-5.7413783e-12
200	0x38a407ca	7.82158e-05
201	0xaf49eb8a	-1.8364524e-10
202	0x3ebe6221	0.3718424
203	0xb8d8c02d	-0.00010335478
204	0xb319dd2d	-3.5824247e-08
205	0x32598ea9	1.26635e-08
206	0xadc56bd8	-2.24442e-11
207	0x35698ca1	8.7003906e-07
208	0x2ab0d6aa	3.1412833e-13
209	0x3f115658	0.56772375
210	0xa520b2c4	-1.3938356e-16
211	0x38c1c2a3	9.239211e-05
212	0x3639c6d7	2.7682888e-06
213	0xacf1ddd5	-6.8742603e-12
214	0xa7a10096	-4.468711e-15
215	0xb90bf888	-0.00013348658
216	0x369f9dd5	4.7569433e-06
217	0xb410f8ce	-1.350156e-07
218	0x1fb953c6	7.848914e-20
219	0xb325534f	-3.8492825e-08
220	0xb878ad19	-5.9289017e-05
221	0xb755f6e2	-1.2753271e-05
222	0xa9ea8634	-1.0414968e-13
223	0xb1c4c036	-5.7262026e-09
224	0xb04be156	-7.417119e-10
225	0x37da537c	2.60265e-05
226	0xb7a0ee3e	-1.9184426e-05
227	0x318890af	3.9745696e-09
228	0xb3522971	-4.8932126e-08
229	0xab4337b3	-6.9355215e-13
230	0xb1bf56fc	-5.5687206e-09
231	0xb4cb0a58	-3.7819223e-07
232	0xa31fcc1d	-8.66263e-18
233	0x3162c606	3.2999892e-09
234	0xb3b11074	-8.2451976e-08
235	0xb0123249	-5.318595e-10
236	0x3f0ae399	0.54253536
237	0x3f003d20	0.5009327
238	0x2bb559de	1.2885767e-12
239	0x3ed43165	0.41443935
240	0xb41daf90	-1.4685634e-07
241	0x31eabe25	6.8319133e-09
242	0x38994df2	7.310127e-05
243	0x32461f2b	1.1532204e-08
244	0xa78238da	-3.6143887e-15
245	0x3f3534bc	0.7078359
246	0x2aed2550	4.2125548e-13
247	0xb0e21815	-1.6450509e-09
248	0xaf999195	-2.793398e-10
249	0x39067892	0.00012824152
250	0xa283ac83	-3.5690275e-18
251	0xa7b63a29	-5.0578205e-15
252	0x2c658b1a	3.2620074e-12
253	0xa90126f9	-2.8677557e-14
254	0xb3824ac9	-6.0672e-08
255	0x3493e27a	2.7545667e-07

bias f4 [512]
0	0xaa8ff0bb	-2.5568943e-13
1	0xb892625c	-6.9801434e-05
2	0xaeb6dd2a	-8.3156884e-11
3	0xa6decedd	-1.5460415e-15
4	0xbe17b2ce	-0.14814302
5	0xaa003c42	-1.138959e-13
6	0xb7cd20f9	-2.4453258e-05
7	0x398ca7cc	0.000268279
8	0xb7a70bd0	-1.9913452e-05
9	0xb184cfe7	-3.8653414e-09
10	0xabd9798c	-1.5452513e-12
11	0x3a1745fb	0.0005770621
12	0x39795625	0.00023778582
13	0xa8a761e5	-1.858318e-14
14	0xb0b1d7f1	-1.2939819e-09
15	0xb6dc6f71	-6.5694844e-06
16	0xae0d9ae3	-3.2197255e-11
17	0xb4ea73bc	-4.3670104e-07
18	0xac564ece	-3.0454974e-12
19	0xace5ce0f	-6.5314486e-12
20	0xa9f90dd8	-1.1060223e-13
21	0xa909ff64	-3.0641627e-14
22	0xb3d7faf5	-1.00573665e-07
23	0xb4db93ac	-4.0899374e-07
24	0xb83aa253	-4.4497032e-05
25	0xb7c8312a	-2.3864752e-05
26	0xb852f54e	-5.029636e-05
27	0xb7e2127d	-2.6949909e-05
28	0xbd5af2af	-0.053454097
29	0xb619aeb9	-2.2900479e-06
30	0xafc72847	-3.6226508e-10
31	0xbcff048c	-0.031130098
32	0xb3589dc4	-5.0434906e-08
33	0xb4df227d	-4.156208e-07
34	0x390c0b3b	0.00013355624
35	0xb1bf94e1	-5.575757e-09
36	0xb45ad3f1	-2.0379936e-07
37	0xb843faf9	-4.672536e-05
38	0xbe0d2010	-0.13781762
39	0xb612f6c7	-2.1899339e-06
40	0x399bbbba	0.0002970377
41	0xb66e2310	-3.5485173e-06
42	0xbb3ee2d6	-0.0029126904
43	0xb40d8821	-1.3181172e-07
44	0xb5dd0adc	-1.6468944e-06
45	0xbdb2c89b	-0.08729669
46	0x3a0e8757	0.00054370373
47	0xb627cb1f	-2.5003171e-06
48	0xb67895ea	-3.7042141e-06
49	0xac05816c	-1.897228e-12
50	0xb7435fca	-1.1645208e-05
51	0x39084604	0.00012996054
52	0xb780cb1e	-1.5353373e-05
53	0xa53ffa03	-1.6651316e-16
54	0xb5c273f6	-1.4487875e-06
55	0xa42dd248	-3.769151e-17
56	0xb2fa21d4	-2.9119214e-08
57	0xb5ea79e3	-1.7469832e-06
58	0xb3c219c1	-9.0385136e-08
59	0xbda5748d	-0.08078871
60	0xb69ef86f	-4.7376884e-06
61	0xbd9b0323	-0.07568958
62	0xbd848163	-0.06469991
63	0xb6dd6405	-6.597957e-06
64	0xb23418c3	-1.0483009e-08
65	0xb1e2a3f9	-6.596107e-09
66	0xb7813cf9	-1.5406391e-05
67	0xaaa4e5c8	-2.9291695e-13
68	0xb3f30044	-1.13156176e-07
69	0xb838eaed	-4.408781e-05
70	0xb50a777f	-5.1582896e-07
71	0xb49b68ae	-2.8947164e-07
72	0xb85abede	-5.215301e-05
73	0xb6202656	-2.3864172e-06
74	0xbc9f4473	-0.019441819
75	0xa40b2569	-3.0172508e-17
76	0xb686569f	-4.003595e-06
77	0xb0811e80	-9.394654e-10
78	0xb78ecb72	-1.7022456e-05
79	0xaf27e39c	-1.5269425e-10
80	0xb76e79ef	-1.4214295e-05
81	0xb3db260f	-1.0204905e-07
82	0xb1a55504	-4.811797e-09
83	0xb780d362	-1.5357222e-05
84	0xb6af1de8	-5.218888e-06
85	0xb29ad507	-1.8024833e-08
86	0xb5751861	-9.130509e-07
87	0xbdd52699	-0.104077525
88	0xbd4b5706	-0.04964354
89	0xb80eeb8c	-3.407481e-05
90	0xafda1fae	-3.967648e-10
91	0xb72706f3	-9.955594e-06
92	0xa3e51bc6	-2.4839992e-17
93	0xb78882c5	-1.6273358e-05
94	0xa655e72a	-7.4212506e-16
95	0x3c5c7bb7	0.01345723
96	0xb58903a8	-1.020836e-06
97	0xaaa19b69	-2.8707183e-13
98	0xaba7cae1	-1.1922374e-12
99	0xb27d6d57	-1.4751399e-08
100	0xb766d890	-1.3759491e-05
101	0xad29ff18	-9.66318e-12
102	0xac5c0f0a	-3.1272229e-12
103	0xaf740ccb	-2.2196216e-10
104	0xae2f81c1	-3.9905638e-11
105	0xb4e33589	-4.2320997e-07
106	0xb30f6d16	-3.3393995e-08
107	0xb6a97d46	-5.0511762e-06
108	0xbd3cec67	-0.04612389
109	0xb725d7c7	-9.885006e-06
110	0xb0f461d4	-1.7781141e-09
111	0xb71f8a98	-9.509407e-06
112	0xa75017eb	-2.8878765e-15
113	0xb884e945	-6.3377e-05
114	0xb7028ba3	-7.7811155e-06
115	0xb8c2cc44	-9.288688e-05
116	0xaa0ef628	-1.2697536e-13
117	0xb31c17fb	-3.634339e-08
118	0xac8a6673	-3.93357e-12
119	0xb638fa88	-2.7563965e-06
120	0x3d4f3d82	0.050595768
121	0xbe52e25b	-0.2059416
122	0xb59f12a5	-1.1851849e-06
123	0xa812c014	-8.146278e-15
124	0xad8a466e	-1.572006e-11
125	0xb0a88656	-1.2261789e-09
126	0xb924d30a	-0.00015718877
127	0xb5ac240b	-1.2825489e-06
128	0xa3488fac	-1.08724454e-17
129	0xb6e33bfe	-6.772111e-06
130	0xb8018250	-3.087736e-05
131	0xb1920a90	-4.25036e-09
132	0xb129e611	-2.4723514e-09
133	0xb35a18fd	-5.0779807e-08
134	0xb7242af9	-9.785167e-06
135	0xb4bd66f0	-3.527889e-07
136	0xb8f741ed	-0.000117901574
137	0xb8cfd1a2	-9.909576e-05
138	0xb748c136	-1.1965914e-05
139	0xb661f649	-3.367097e-06
140	0xa0a74172	-2.8334209e-19
141	0xb60aeecb	-2.0702598e-06
142	0x3bc686e6	0.0060585616
143	0xb264f5c7	-1.332723e-08
144	0xa94ba228	-4.5215703e-14
145	0xb8a2a7e9	-7.756038e-05
146	0xaa375351	-1.6282571e-13
147	0xb7bd1801	-2.2541733e-05
148	0xadf2c5b9	-2.7600021e-11
149	0xb378c1d2	-5.7918278e-08
150	0xb69cb828	-4.670601e-06
151	0xa205d57f	-1.8137885e-18
152	0xac5f3441	-3.1719213e-12
153	0xb71b7c81	-9.267708e-06
154	0xbd88cdaf	-0.06679856
155	0xb715a680	-8.919858e-06
156	0xb518bb3e	-5.6896886e-07
157	0xa4a3afb9	-7.098767e-17
158	0xb5b7deb3	-1.3699376e-06
159	0xac95b6e1	-4.2551383e-12
160	0xb911f4d0	-0.00013919477
161	0xb709d404	-8.2152e-06
162	0xb40465ed	-1.2330538e-07
163	0xb6310529	-2.637806e-06
164	0xa04af518	-1.719116e-19
165	0xbe3b2d30	-0.18278956
166	0xaf062a13	-1.2202177e-10
167	0xb50b9ba9	-5.200805e-07
168	0xb74d34fe	-1.223129e-05
169	0xb24486c8	-1.1439347e-08
170	0xa7eed5a7	-6.6289912e-15
171	0xb65fe823	-3.336471e-06
172	0xb6935db0	-4.391848e-06
173	0xb31df03f	-3.6772914e-08
174	0xb6387ab0	-2.748955e-06
175	0xb6054bbd	-1.986263e-06
176	0xbabec75a	-0.0014555261
177	0xb03d6e31	-6.891439e-10
178	0xb6d0f646	-6.227553e-06
179	0xb091cd73	-1.0608531e-09
180	0xaddc3586	-2.5034873e-11
181	0xa5ed1088	-4.1124148e-16
182	0xbcc97b6e	-0.024594989
183	0xb8c709d1	-9.490888e-05
184	0xb211340f	-8.451948e-09
185	0xaea18b1d	-7.346144e-11
186	0xb6ed50a0	-7.0725364e-06
187	0xbe3ae48e	-0.18251249
188	0xb7d01e68	-2.4809691e-05
189	0xa6d235c9	-1.4586256e-15
190	0xa25527b9	-2.8887912e-18
191	0xb684269c	-3.9384013e-06
192	0xbdf8b951	-0.12144721
193	0xad4b0775	-1.154087e-11
194	0xbc0f284a	-0.008737633
195	0xa8a37830	-1.8148758e-14
196	0xb14cde0d	-2.9812128e-09
197	0xb77309c8	-1.4486206e-05
198	0xb4273d09	-1.5575291e-07
199	0xb12673d3	-2.4222018e-09
200	0xb74340f4	-1.1638029e-05
201	0xb1b9a5e1	-5.403067e-09
202	0xbd9b6cf2	-0.07589139
203	0xb7aec9ef	-2.0836449e-05
204	0xb7489aed	-1.1957e-05
205	0xb7885029	-1.624979e-05
206	0xb17d06d7	-3.6820234e-09
207	0xb8d01db9	-9.923749e-05
208	0xae8f8f39	-6.5283286e-11
209	0x3d8a9c34	0.06768075
210	0xa7c7e98d	-5.548681e-15
211	0xb797339d	-1.8024637e-05
212	0xb7c1d24e	-2.3105324e-05
213	0xb019eec9	-5.600041e-10
214	0xaac4652c	-3.4886796e-13
215	0x3595342e	1.1116551e-06
216	0xb875cd1d	-5.860358e-05
217	0xb6261b4b	-2.4751814e-06
218	0xa245f08e	-2.6825827e-18
219	0xb68f8050	-4.2766696e-06
220	0xb75ed244	-1.3281187e-05
221	0x392a171b	0.00016221071
222	0xadfd810c	-2.8820078e-11
223	0xb55b1cfb	-8.162603e-07
224	0xb3cae523	-9.448038e-08
225	0x387fd7d1	6.0997732e-05
226	0xb8ff8f25	-0.0001218601
227	0xb579572d	-9.2886586e-07
228	0xb786807e	-1.6033879e-05
229	0xaeca5277	-9.200545e-11
230	0xb5213c6f	-6.0065116e-07
231	0xb84b7300	-4.8506074e-05
232	0xa63683fd	-6.332281e-16
233	0xb3e1d8b0	-1.0516794e-07
234	0xb6606093	-3.3434815e-06
235	0xb4539ae9	-1.9707262e-07
236	0xbd516bed	-0.051128317
237	0x3d644170	0.05572647
238	0xafe758b5	-4.2081685e-10
239	0xbdb5c343	-0.08875134
240	0xb79b5f9f	-1.8521967e-05
241	0xb5632605	-8.4619415e-07
242	0xb7dc8dd3	-2.6292086e-05
243	0xb4985a71	-2.837801e-07
244	0xab85c997	-9.506171e-13
245	0x3dad70a6	0.084687516
246	0xae58e5e5	-4.93169e-11
247	0xb30cd4d6	-3.2789863e-08
248	0xb39874be	-7.099287e-08
249	0xb79350d3	-1.7561402e-05
250	0xa4b7f655	-7.97809e-17
251	0xabd5ff60	-1.5205441e-12
252	0xaecd55cb	-9.3375606e-11
253	0xad0a4e6c	-7.861805e-12
254	0xb74dd3bb	-1.22682495e-05
255	0xb7d25b74	-2.5076537e-05

running_mean f4 [512]
0	0x3c189d8b	0.009314905
1	0x3c24fccb	0.010070036
2	0xbbae4d43	-0.005319269
3	0xbc9155fb	-0.017741194
4	0x3bc6bca2	0.0060649673
5	0xbc6cf881	-0.014463545
6	0x3b99716e	0.0046827113
7	0xbb80a01d	-0.003925337
8	0x3c739852	0.014867859
9	0xbbbed871	-0.0058241417
10	0xbb8f25a7	-0.004368502
11	0x3b4bb96a	0.0031085857
12	0xbcb07fec	-0.021545373
13	0xbc271a19	-0.010199093
14	0xbca9d3db	-0.020730903
15	0xbca5f128	-0.020256594
16	0x3d1c940a	0.03822712
17	0xbc4d9f8a	-0.012550244
18	0xba1807e4	-0.00057995156
19	0xbcaba5af	-0.020953028
20	0xbb5008e4	-0.003174358
21	0xbbc4ef59	-0.006009978
22	0xbbc8d364	-0.0061287154
23	0xbcd46f8e	-0.0259321
24	0xbc3c7361	-0.011502118
25	0x3b1ab68d	0.0023607344
26	0x3ac27c66	0.0014838099
27	0xbb6623ec	-0.0035116626
28	0x3ac3cd2b	0.0014938464
29	0xba0c6758	-0.00053559756
30	0x3cec05ff	0.028811453
31	0xbacf0bce	-0.0015796365
32	0x3bd7f653	0.0065906434
33	0xbbc939e5	-0.006140935
34	0x3cafe115	0.021469632
35	0xbb7eb515	-0.0038865258
36	0xbc37e9cb	-0.011225174
37	0xbc27def3	-0.010246026
38	0x38f2ee82	0.00011583885
39	0x3c432c55	0.011912425
40	0x3bb320c7	0.005466554
41	0x383782db	4.375247e-05
42	0x3cab1b76	0.020887118
43	0xbca05474	-0.01957152
44	0x3c36d6ca	0.011159608
45	0xbc8ed7e1	-0.017436923
46	0xbbe1e24a	-0.006893431
47	0xbc0755d3	-0.008260208
48	0xbb390e31	-0.0028237219
49	0xbbbf7c5a	-0.0058436813
50	0x3bf8ca61	0.007592485
51	0xbab51400	-0.0013815165
52	0x3ba6ba0b	0.005088096
53	0xbc6d2fe0	-0.014476746
54	0xbc2eb279	-0.010662668
55	0xba1107f6	-0.00055324973
56	0x3cc1ac2a	0.023641665
57	0xbbc9cdf6	-0.0061585857
58	0xbbcec875	-0.0063105174
59	0x3a58377f	0.00082480157
60	0x3c79d465	0.015248393
61	0x3c3bec28	0.011469878
62	0x3c56f50b	0.013119946
63	0x3c0de441	0.008660377
64	0x3c3d0b89	0.011538395
65	0xbc4bae92	-0.0124317575
66	0x3bb67989	0.0055686873
67	0x3c4b565d	0.012410727
68	0xba247e4b	-0.00062749226
69	0xbcb036e0	-0.021510541
70	0x3bc3c2ad	0.005974135
71	0xbce25df7	-0.027632697
72	0xbca8d6f4	-0.02061031
73	0x3ab42aba	0.0013745644
74	0x3bc82594	0.0061079953
75	0x3cf158a8	0.02946122
76	0xbc9440af	-0.01809725
77	0x3b16963e	0.0022977735
78	0x3bbf3355	0.0058349767
79	0x3bf69f31	0.0075263013
80	0xbc9146a9	-0.017733889
81	0xbbed9477	-0.0072503644
82	0xba20a253	-0.0006127704
83	0x3cb5f085	0.022209415
84	0xbb3d7175	-0.0028906737
85	0xbc5942f0	-0.013260588
86	0xbcad3382	-0.021142725
87	0xbce99b49	-0.028516429
88	0x3cbda143	0.023148185
89	0x3b872f4d	0.0041255117
90	0x3c1e06a7	0.009645141
91	0x3bb93bed	0.0056528957
92	0xbc786f8c	-0.015163314
93	0x3beb7900	0.007186055
94	0xba814a5b	-0.0009864079
95	0xbc53db30	-0.012930676
96	0xbabc92c1	-0.0014386998
97	0x3b97887a	0.0046244236
98	0xbb99f85c	-0.004698796
99	0x3c3948b1	0.011308835
100	0xbc8a5049	-0.016883986
101	0x3b551e3c	0.0032519242
102	0x39b4e5dc	0.00034503534
103	0x3c01dd93	0.007926363
104	0x3cd463f9	0.025926577
105	0x3c8f1f32	0.01747093
106	0xbcc2079c	-0.023685269
107	0x3ac22bfa	0.0014814131
108	0x3c1427cc	0.009042691
109	0xbc324655	-0.010881026
110	0xbb145c4f	-0.0022638028
111	0x3bb799a0	0.0056030303
112	0x3b1da523	0.0024054728
113	0xbc5c1557	-0.013432822
114	0x3b9f0105	0.0048524165
115	0xbc8bb0b7	-0.017052038
116	0x3c7c71da	0.015408004
117	0x3c3e79da	0.011625731
118	0x3c138124	0.0090029575
119	0x3bc878e3	0.0061179264
120	0x3b6e4501	0.0036357048
121	0xbb4d2693	-0.003130351
122	0xbbf4aa1c	-0.0074665677
123	0x3c3f7755	0.011686166
124	0x3c713c11	0.014723794
125	0x3cb7194e	0.022350933
126	0x3c46a729	0.012124815
127	0xbc381674	-0.011235822
128	0xbc932015	-0.017959634
129	0x3bdffddc	0.0068356823
130	0x39a0249e	0.0003054486
131	0xbc2e5a78	-0.010641687
132	0xbc82f7be	-0.015987273
133	0xbb681a47	-0.0035416053
134	0xbb82e9d8	-0.0039951615
135	0xbb214963	-0.0024610392
136	0xbc421b96	-0.011847397
137	0x3b8e2a10	0.0043385103
138	0x3c1a7ec0	0.009429634
139	0x3b620c77	0.0034492293
140	0x3baad3d3	0.0052132397
141	0xbc14718b	-0.009060274
142	0xba912d5d	-0.0011076141
143	0x3b896d3d	0.0041939304
144	0x3c9f0468	0.01941128
145	0x3b9ba00a	0.0047493028
146	0xbc51b370	-0.012799129
147	0x3bc7f594	0.0061022732
148	0xbd102f8e	-0.0352016
149	0x3c5850ec	0.013202887
150	0x3b52bae8	0.0032154862
151	0x3c4be247	0.012444085
152	0xbbea438e	-0.0071491664
153	0xbb80614d	-0.003917849
154	0xbc9a74da	-0.018854547
155	0xbb92d672	-0.0044811303
156	0x3cf19a76	0.029492598
157	0x3c9fc92f	0.019505112
158	0xbc6184f4	-0.013764609
159	0x3c9b2432	0.018938158
160	0x3be88f6c	0.0070971753
161	0x3ca054dc	0.019571714
162	0xbc88f7d4	-0.016719736
163	0x3c7f4487	0.015580303
164	0x3c0c4726	0.008561885
165	0x3bb628be	0.005559056
166	0x3a3c3846	0.0007180016
167	0x3c5e6876	0.01357471
168	0x3c0fa24b	0.008766721
169	0x3b730141	0.0037079605
170	0xbb32a8e4	-0.0027261311
171	0x3b087310	0.0020820536
172	0x3c88a113	0.016678369
173	0x3bcb252d	0.0061995
174	0x3c92c588	0.017916456
175	0x3b5bdea7	0.003354946
176	0x3bc23c13	0.0059275716
177	0xbc531a0d	-0.012884629
178	0xbc6fdc33	-0.014639902
179	0x3bb6ff17	0.0055846083
180	0x3ca54da7	0.02017863
181	0xbcc7bed6	-0.02438299
182	0xbbd5ec62	-0.006528423
183	0xbca3ce3e	-0.019995805
184	0x3bd3da4b	0.0064652315
185	0xbcb8ab40	-0.022542596
186	0x3c505b8b	0.012717138
187	0x3ca37fdd	0.01995843
188	0xb8f72708	-0.00011785148
189	0x3c7b7fb6	0.015350273
190	0xbbb37d8b	-0.0054776124
191	0xbc4819d2	-0.012213187
192	0xbbf6ed32	-0.0075356
193	0xbbe697b2	-0.0070371265
194	0x3c22fc18	0.009947799
195	0x3be2009a	0.0068970444
196	0xbcbe7b37	-0.023252113
197	0xbc86e224	-0.016465254
198	0xbcb1c32b	-0.021699509
199	0xba4129b8	-0.00073685823
200	0x3c4e9d80	0.012610793
201	0xbcb93409	-0.02260782
202	0xbbaba9ee	-0.005238763
203	0xbc941844	-0.018077977
204	0x3bbe7ea1	0.005813435
205	0x3b27f7c2	0.0025629853
206	0xbc3ca3bd	-0.011513648
207	0x3b5bd667	0.0033544542
208	0x3ba2d48c	0.004969185
209	0xbbefec70	-0.0073218867
210	0xbca0a2a3	-0.019608801
211	0x3cb797d5	0.022411266
212	0x3bab9e14	0.0052373502
213	0xbc3e75cf	-0.011624767
214	0xbbf29a15	-0.007403622
215	0xbcaf1b8c	-0.02137544
216	0x3c6dd767	0.014516688
217	0xbc9c8eea	-0.019111115
218	0x3ca76c4f	0.020437388
219	0x3cd049f2	0.025425885
220	0xbc51edce	-0.012813045
221	0xbc920113	-0.017822778
222	0xbb14e84b	-0.0022721465
223	0xbbf9a552	-0.0076185847
224	0xbc162c5c	-0.00916585
225	0x3c965bcc	0.018354319
226	0xbc46b90f	-0.012129082
227	0x3c70b774	0.014692176
228	0x3c28835d	0.010285226
229	0xbb8381d5	-0.00401328
230	0xbbdbae2f	-0.006704114
231	0xbc62c1a5	-0.013840114
232	0xbb8c8073	-0.0042877733
233	0x3cb91691	0.022593768
234	0xbcec5611	-0.028849633
235	0x3ca0b05a	0.019615341
236	0xbc46a1fe	-0.012123583
237	0x3b6b8cfb	0.0035942185
238	0xbb9a03fa	-0.004700181
239	0x3b640f60	0.0034799203
240	0x39aded35	0.00033173864
241	0x3c14b454	0.009076197
242	0x3c115e27	0.008872545
243	0x3d126ee7	0.035750296
244	0xbb880d42	-0.004151971
245	0xbbfbe2fa	-0.00768697
246	0xbb2cb3dc	-0.0026352322
247	0xbcb48d56	-0.02204005
248	0xbcc07796	-0.023494523
249	0x3bb48f52	0.005510249
250	0xbc2f8119	-0.010711932
251	0xbbc065a5	-0.005871492
252	0x3cb35d88	0.021895185
253	0xbb2ff8b2	-0.0026851115
254	0x3cf369ee	0.029713597
255	0x39c32299	0.00037219076

running_var f4 [512]
0	0x3e4af7dd	0.19821115
1	0x3e2997e8	0.16561854
2	0x3ebd64c6	0.36990947
3	0x3ebad073	0.3648716
4	0x3e1224f8	0.14271915
5	0x3ee68785	0.45025268
6	0x3e7ab0f2	0.24481562
7	0x3df85d44	0.12127164
8	0x3dd57945	0.10423521
9	0x3e9abb8c	0.30221212
10	0x3e842189	0.25806835
11	0x3ea6b229	0.325578
12	0x3eb5c71a	0.35503465
13	0x3ef1ef3a	0.47252828
14	0x3e23b440	0.15986729
15	0x3e852563	0.26005086
16	0x3edb90cb	0.42883906
17	0x3e216982	0.15762904
18	0x3ea98f06	0.3311693
19	0x3ec08efe	0.37609094
20	0x3e60fdaa	0.21971765
21	0x3ec02698	0.37529445
22	0x3e7f2e38	0.24919975
23	0x3ec05307	0.37563345
24	0x3e6a5111	0.22882487
25	0x3e34ada2	0.1764436
26	0x3e929b1f	0.28633973
27	0x3de898f5	0.11357299
28	0x3e506be8	0.20353663
29	0x3e4b3416	0.19844088
30	0x3ede1544	0.433756
31	0x3ddb4f46	0.107084796
32	0x3eeb265d	0.45927706
33	0x3e05283e	0.13003632
34	0x3eb7f523	0.35929212
35	0x3ee36abc	0.4441737
36	0x3ea142d5	0.314963
37	0x3e9bac0b	0.30404696
38	0x3e0ac278	0.13550746
39	0x3db56f80	0.088591576
40	0x3e496466	0.19667205
41	0x3e1be6df	0.15224789
42	0x3e493c95	0.19652016
43	0x3e1ba15a	0.1519827
44	0x3eb81dad	0.3596014
45	0x3ecb73ad	0.3973669
46	0x3e84dd3a	0.25950032
47	0x3ec16172	0.37769657
48	0x3ead1a7d	0.3380927
49	0x3e83dcda	0.25754434
50	0x3e991267	0.29896852
51	0x3e4de7ec	0.20108002
52	0x3e997673	0.29973182
53	0x3e8e3c22	0.27780253
54	0x3e94395c	0.28950012
55	0x3e022543	0.12709527
56	0x3eb101ce	0.3457169
57	0x3e1f920e	0.15583059
58	0x3e2516ab	0.16121928
59	0x3e356927	0.17715894
60	0x3e6e4775	0.23269446
61	0x3e0124c7	0.12611686
62	0x3e9be769	0.3044999
63	0x3e7c18fc	0.24618906
64	0x3e2d27e8	0.16909754
65	0x3e56befd	0.20971294
66	0x3e9f699c	0.3113526
67	0x3e645755	0.2229894
68	0x3ea0f03b	0.3143328
69	0x3e959649	0.2921622
70	0x3e44f4ea	0.19234052
71	0x3e9aa84e	0.3020653
72	0x3e1ecce5	0.15507849
73	0x3e8ed909	0.2789996
74	0x3e09f79a	0.13473359
75	0x3e834656	0.256396
76	0x3e83d275	0.25746503
77	0x3e28a000	0.16467285
78	0x3f0097c9	0.50231606
79	0x3e3b8c48	0.18315232
80	0x3e3c029f	0.18360375
81	0x3ea63d97	0.32468864
82	0x3f1c2a46	0.61002004
83	0x3eab9268	0.33510137
84	0x3e535390	0.20637345
85	0x3ec93e8f	0.3930554
86	0x3efe9053	0.49719486
87	0x3e435b63	0.1907783
88	0x3ec0702a	0.37585574
89	0x3e4fdd43	0.20299248
90	0x3e5e6310	0.21717477
91	0x3e5034ed	0.2033269
92	0x3e81d11a	0.25354844
93	0x3e7982a3	0.2436624
94	0x3e9a1ca4	0.30099976
95	0x3e165be6	0.14683494
96	0x3e923148	0.28553224
97	0x3e51e98f	0.20499252
98	0x3e44e2e0	0.19227171
99	0x3ea5e9ef	0.3240504
100	0x3e474948	0.19461548
101	0x3ec738a3	0.38910398
102	0x3ea10a32	0.3145309
103	0x3e8e89ce	0.27839512
104	0x3f03c5f3	0.5147392
105	0x3e92eb87	0.28695318
106	0x3ec3a259	0.382098
107	0x3e9c56fc	0.30535114
108	0x3e034426	0.12818965
109	0x3e72318d	0.23651715
110	0x3e5a09b5	0.21292765
111	0x3e495775	0.19662268
112	0x3e64cfe7	0.22344933
113	0x3ea0ac9e	0.31381696
114	0x3ed0e734	0.40801394
115	0x3e7170ad	0.23578139
116	0x3ed646e6	0.41850966
117	0x3f0eaac0	0.55729294
118	0x3e56d483	0.20979504
119	0x3e5a9882	0.2134724
120	0x3e3ad735	0.18246157
121	0x3e124b64	0.14286572
122	0x3ea3206a	0.31860667
123	0x3ed73b06	0.4203722
124	0x3e3c8bcc	0.18412703
125	0x3ecaa0a0	0.39575672
126	0x3ee03b78	0.4379537
127	0x3e8df449	0.27725437
128	0x3ec4c755	0.38433328
129	0x3ea43fb5	0.32079855
130	0x3e90e47c	0.2829932
131	0x3ec367a0	0.38164997
132	0x3e2f6f60	0.1713233
133	0x3f0f3ced	0.5595234
134	0x3e0f8d7d	0.14018817
135	0x3e347757	0.1762365
136	0x3e946b7f	0.28988263
137	0x3e2face6	0.171558
138	0x3e8a79fb	0.2704619
139	0x3e8808a4	0.26569092
140	0x3ebd2816	0.36944646
141	0x3e99da48	0.30049348
142	0x3e2bef5c	0.16790527
143	0x3e04b510	0.12959695
144	0x3e29d97b	0.16586868
145	0x3ec9d24c	0.39418256
146	0x3e3bc48a	0.18336692
147	0x3e4ac183	0.19800381
148	0x3e8824aa	0.26590472
149	0x3e81a9f2	0.2532497
150	0x3e73457c	0.23756975
151	0x3de2da44	0.11076787
152	0x3e947125	0.28992572
153	0x3e695035	0.22784503
154	0x3e87914d	0.26478043
155	0x3e8cd0bb	0.27503
156	0x3ee95df9	0.45579508
157	0x3e763907	0.24045192
158	0x3ec482e8	0.38381124
159	0x3e53f7bb	0.2069997
160	0x3ec43ac9	0.383261
161	0x3ebf4b84	0.373623
162	0x3efce3ad	0.49392453
163	0x3e47bac0	0.19504833
164	0x3e8488e1	0.2588568
165	0x3dc070ef	0.093965404
166	0x3e8e7684	0.27824795
167	0x3dfca523	0.12336185
168	0x3ed4d3cd	0.4156784
169	0x3ea878fa	0.32904798
170	0x3ecb61d0	0.39723063
171	0x3e9fc23b	0.31202874
172	0x3e9ecf2a	0.3101743
173	0x3e57b5af	0.210654
174	0x3e9c72c6	0.30556315
175	0x3e8e6fa3	0.27819547
176	0x3d8f2472	0.06989373
177	0x3f0e62b2	0.5561935
178	0x3e8f2447	0.27957365
179	0x3e2cae26	0.16863307
180	0x3e7af059	0.24505748
181	0x3e8f2382	0.27956778
182	0x3e55efad	0.2089221
183	0x3e386756	0.1800817
184	0x3e119a3c	0.14218992
185	0x3ebf59e2	0.37373263
186	0x3e24055b	0.16017668
187	0x3e98ed33	0.2986847
188	0x3ea32fa5	0.31872287
189	0x3edfd056	0.43713635
190	0x3ec32e0c	0.38121068
191	0x3ed0d114	0.40784514
192	0x3ea706e1	0.32622436
193	0x3e8c8ee9	0.27452782
194	0x3eaeb438	0.3412187
195	0x3e5a0241	0.21289922
196	0x3ee542e2	0.4477759
197	0x3e8f722b	0.2801679
198	0x3e6d4f00	0.23174667
199	0x3e867ad4	0.26265585
200	0x3e8ea364	0.27859032
201	0x3e7692e9	0.2407948
202	0x3e52b982	0.20578578
203	0x3e751e65	0.23937376
204	0x3e62cf9d	0.2214951
205	0x3e9373aa	0.28799182
206	0x3e817760	0.25286388
207	0x3e58de5f	0.21178578
208	0x3edea7a8	0.43487287
209	0x3d84f485	0.06491951
210	0x3ed54979	0.41657618
211	0x3ea88cc1	0.32919887
212	0x3e91b2b4	0.28456652
213	0x3f09ecac	0.5387676
214	0x3e2fc4e1	0.17164947
215	0x3e61f019	0.22064246
216	0x3eba229e	0.36354536
217	0x3eb7fd6e	0.3593554
218	0x3ea9110a	0.33020812
219	0x3e2f8403	0.17140202
220	0x3e5f248c	0.21791285
221	0x3e815c25	0.25265613
222	0x3eabe2c8	0.33571458
223	0x3ea091d6	0.31361264
224	0x3e6b87e4	0.23001057
225	0x3eb965c8	0.36210465
226	0x3ea244f1	0.31693223
227	0x3ebdd06e	0.37073082
228	0x3e047208	0.12934124
229	0x3e3ea7dd	0.18618722
230	0x3e998852	0.29986817
231	0x3e98760c	0.29777563
232	0x3e9019cc	0.2814468
233	0x3edb8366	0.42873687
234	0x3efd7d71	0.49509767
235	0x3e643f77	0.22289835
236	0x3e061170	0.1309259
237	0x3eae8da0	0.34092426
238	0x3e08f1f4	0.13373548
239	0x3e022ed3	0.12713175
240	0x3e3c123a	0.18366328
241	0x3e70768c	0.23482722
242	0x3e2f8e5e	0.17144153
243	0x3f074b95	0.52849704
244	0x3e9da287	0.3078806
245	0x3ea6fd1e	0.32614988
246	0x3e81da21	0.25361732
247	0x3e5ebbff	0.21751402
248	0x3e62e59a	0.22157899
249	0x3de1e6c5	0.11030344
250	0x3e31b805	0.17355354
251	0x3e9f249d	0.3108262
252	0x3e7ec13a	0.24878398
253	0x3e8da916	0.27668065
254	0x3f24a79b	0.64318246
255	0x3e35171c	0.17684597
