model/soccer_ai_model.pt (torch, 774591 bytes, 11 tensors)

weight f4 [512, 26]
-0.14362222 -0.51698935 -0.12267244 -0.0099884905 -0.30471238 -0.19813861 0.16669093 0.15365069
0.0036943736 -0.30867636 -0.39131916 0.09369316 0.7604791 -0.006974699 0.034162037 -0.054755855
0.15572949 -0.14256908 -0.03695923 -0.08040958 -0.32543424 -0.11909674 0.55691016 0.165577
0.7136042 0.10187727 -0.1739152 0.1310016 -0.03701489 -0.2997617 -0.14787115 0.05620356
0.35835883 -0.106703505 0.3219785 0.32495287 0.15513532 0.5501282 -0.07643853 -0.0628799
0.30837405 -0.13052748 0.12854761 0.6516417 0.035812058 0.06946996 -0.23339929 0.36271673
-0.06328829 -0.23181354 -0.29039416 0.11385077 0.1283561 0.36446518 0.5107471 0.07530653
0.3729262 -0.1366509 -0.11407199 -0.099123254 0.019078758 -0.061707724 -0.032280654 -0.9294138
-0.15345348 0.3805809 0.042923905 -0.24974671 0.034524955 0.002511471 0.062044486 0.13329454
0.19437797 -0.9339584 -0.1485426 -2.1830542 -1.0712662 -0.07675101 -0.13568069 -0.011997249
-0.086028576 -0.16952081 0.10117265 0.13201931 -0.107928626 0.09995606 0.09379034 -0.115653686
-0.4265229 -0.22166634 0.13491952 -0.11535815 -0.22691664 -0.021048784 -0.3461311 0.09616991
0.0046640593 0.01554315 0.009079869 -0.24990445 0.25014386 -0.0981997 1.2732214 0.37593624
0.09059806 0.1362276 0.21298085 0.34562287 0.27951828 -0.14068373 -0.051007714 0.05339861
-0.67806196 -0.16991141 -0.26326177 0.0891075 -0.20489617 0.049782887 -0.7737052 0.7203814
0.078437604 -0.04815327 0.32675478 0.26162046 0.13779922 0.35882774 0.059686944 0.047291834
0.118220486 0.01191738 0.13785666 -0.30832186 0.2902405 -0.0738814 -0.09828902 0.35746983
-0.096323684 0.022911899 -0.13337797 -0.37605146 0.89968824 0.003983341 0.9648799 0.098481014
-0.5852907 -0.13871568 -0.06870969 -0.24729852 -0.3356112 -0.30667666 -0.6205678 -0.13745476
0.8453915 -0.23275825 0.8921794 -0.21377891 0.18485261 -0.6119177 0.70562714 -0.78857464
0.52068776 0.22923315 -0.4892027 0.07153334 0.25215346 -0.05552361 0.60520506 -0.2517226
-0.15330091 -0.06547334 -0.7987107 0.6436841 -0.36766905 0.44026 0.4955268 0.2763728
0.26934472 -0.15818712 -0.23901474 0.17809437 -0.31647065 0.26187897 0.16744141 -0.04477196
-0.18291862 -0.16855153 -0.40897903 -0.3674136 0.23047857 0.2395481 0.645359 0.33294004
0.47938567 0.20608343 0.31920603 -0.06951459 -0.10784046 0.088734455 0.15240322 -0.2903675
0.21826456 0.11587539 -0.39872435 0.05886809 0.47203878 -0.16332318 0.33003056 -0.022862779
-0.048406035 -0.060799405 0.5935962 0.12334145 0.400811 -0.109120965 -0.043103755 -0.63104033
-0.22533956 -0.11192342 -0.91738844 -0.16732764 -0.69184494 0.04271039 0.05109003 -0.12796523
-0.097082205 -0.19937484 -0.028314777 -0.10762349 0.014223845 -0.25007853 -0.3319566 0.62415534
-0.3185348 -0.21262884 -0.13224916 -0.18856354 -0.05067775 0.09650683 -0.20782071 -0.64236116
0.10137615 -0.10516269 -0.0075324303 -0.2094927 0.10438207 -0.43598616 -0.11147665 -0.07992529
-0.1175056 -0.19818588 0.05625156 -0.19398944 0.07623976 -0.09700004 0.29444686 -0.3850689
00000000: b411 13be 6a59 04bf b03b fbbd c4a6 23bc
00000010: 4303 9cbe d9e4 4abe 07b1 2a3e 9b56 1d3e
00000020: 4e1d 723b d40a 9ebe fc5a c8be 33e2 bf3d
00000030: c2ae 423f 048c e4bb 7eed 0b3d ad47 60bd
00000040: 8d77 1f3e a1fd 11be 9062 17bd c7ad a4bd
00000050: 519f a6be fee8 f3bd aa91 0e3f 048d 293e
00000060: c4ae 363f 08a5 d03d d416 32be 4925 063e
00000070: ed9c 17bd 5e7a 99be 896b 17be b435 663d
00000080: cf7a b73e 5e87 dabd 5eda a43e 3960 a63e
00000090: cbdb 1e3e 34d5 0c3f ce8b 9cbd 2dc7 80bd
000000a0: 34e3 9d3e ffa8 05be fca1 033e fed1 263f
000000b0: aaaf 123d 4446 8e3d 3900 6fbe 02b6 b93e
000000c0: 4a9d 81bd 8760 6dbe 8bae 94be 982a e93d
000000d0: c86f 033e 2e9b ba3e 52c0 023f 4f3a 9a3d
000000e0: 2ff0 be3e 37ee 0bbe 939e e9bd 2201 cbbd
000000f0: 0e4b 9c3c 3dc1 7cbd b838 04bd 10ee 6dbf
00000100: e922 1dbe 80db c23e fad0 2f3d 9abd 7fbe
00000110: 0a6a 0d3d 7e97 243b 5c22 7e3d 5d7e 083e
00000120: 050b 473e e617 6fbf 8d1b 18be 29b7 0bc0
00000130: 401f 89bf a22f 9dbd e1ef 0abe 1c90 44bc
00000140: c02f b0bd dd96 2dbe 9b33 cf3d 1230 073e
00000150: af09 ddbd c3b5 cc3d 2615 c03d d7db ecbd
00000160: 3661 dabe 80fc 62be 5828 0a3e e540 ecbd
00000170: d65c 68be 806e acbc 1838 b1be bbf4 c43d
00000180: f7d4 983b b2a8 7e3c bbc3 143c f4e6 7fbe
00000190: db12 803e ed1c c9bd ebf8 a23f b77a c03e
000001a0: 7a8b b93d 3f7f 0b3e a717 5a3e 7bf5 b03e
000001b0: 051d 8f3e 650f 10be 77ed 50bd 80b8 5a3d
000001c0: 7895 2dbf 42fd 2dbe 3fca 86be fe7d b63d
000001d0: 4dd0 51be 24e9 4b3d 8b11 46bf ea6a 383f
000001e0: e5a3 a03d 5d3c 45bd 674c a73e 1ef3 853e
000001f0: 3d1b 0d3e 45b8 b73e 4c7a 743d 15b5 413d
00000200: 951d f23d 1d41 433c 4c2a 0d3e 5ddc 9dbe
00000210: 679a 943e 224f 97bd c14b c9bd 4906 b73e
00000220: 5a45 c5bd bcb1 bb3c 3c94 08be d189 c0be
00000230: f851 663f b086 823b 5e02 773f 6ab0 c93d
00000240: 9cd5 15bf 7c0b 0ebe aab7 8cbd d33b 7dbe
00000250: 3bd5 abbe b904 9dbe 88dd 1ebf f1c0 0cbe
00000260: 946b 583f 2e58 6ebe df65 643f dce8 5abe
00000270: 014a 3d3e a3a6 1cbf fba3 343f 07e0 49bf
00000280: cb4b 053f 18bc 6a3e c778 fabe 1280 923d
00000290: 421a 813e ba6c 63bd b8ee 1a3f c9e1 80be
000002a0: eafa 1cbe e316 86bd 4e78 4cbf 7bc8 243f
000002b0: 1e3f bcbe c269 e13e b0b5 fd3e bc80 8d3e
000002c0: 8de7 893e cefb 21be 48c0 74be 5f5e 363e
000002d0: 7108 a2be 0015 863e c375 2b3e cd62 37bd
000002e0: 054f 3bbe c698 2cbe b365 d1be a31d bcbe
000002f0: 9302 6c3e 194c 753e 3f36 253f 1e77 aa3e
00000300: 0a72 f53e 8907 533e f96e a33e aa5d 8ebd
00000310: 76db dcbd 69ba b53d 970f 1c3e 0dab 94be
00000320: bf80 5f3e 1450 ed3d 9925 ccbe ab1f 713d
00000330: 11af f13e 313e 27be c4f9 a83e b94a bbbc
00000340: 6845 46bd cc08 79bd ecf5 173f 719a fc3d
00000350: 1937 cd3e d07a dfbd 908d 30bd dc8b 21bf
00000360: 6abf 66be 1b38 e5bd f8d9 6abf f057 2bbe
00000370: c01c 31bf 17f1 2e3d c843 513d 5109 03be
00000380: 09d3 c6bd eb28 4cbe 64f4 e7bc b469 dcbd
00000390: 210b 693c 4b0a 80be 37f6 a9be a5c8 1f3f
000003a0: fe16 a3be 60bb 59be 536c 07be cd16 41be
000003b0: 7993 4fbd 5fa5 c53d f4ce 54be c871 24bf
000003c0: 4d9e cf3d 895f d7bd 9bd2 f6bb 4185 56be
000003d0: 44c6 d53d 9439 dfbe df4d e4bd dfaf a3bd
000003e0: c7a6 f0bd 3df1 4abe 0968 663d 2ba5 46be
000003f0: 9723 9c3d f5a7 c6bd bdc1 963e c027 c5be

bias f4 [512]
-0.055648454 -1.4434912 0.006323532 -0.2725901 -1.5170789 -0.2462576 -1.78787 -1.2712486
-1.3950977 -0.09944951 -0.1868877 -2.5874763 -0.8746754 0.24721575 -0.6468654 -0.9352376
-0.66453093 -1.6991767 -1.4377893 -0.30771783 -0.6691699 -1.5118685 -0.8855332 -0.25039282
-0.50267893 -1.939949 -0.3124479 -1.6933153 -1.9934869 -1.054634 0.037707128 -0.59503317
-0.7140341 -2.1100397 -2.2879906 -1.6423597 -0.42938557 -0.98179615 -1.6464076 -0.8339167
-2.315042 -1.9443431 -1.7524301 -2.00546 -0.48435524 -0.898073 -1.184642 -0.49443
-1.7403033 -0.64475393 -0.57635635 -0.88094354 -0.34072047 -0.9204521 -1.3890831 -2.4239404
-2.0294466 -0.100641735 -2.4259048 -0.4198584 -0.6453496 -0.34570435 -1.392955 -0.8646056
-0.40234166 -1.5314298 -2.0321984 -1.4797615 -1.6245979 -1.6661142 -0.79659957 -1.9418273
-0.8303323 -0.7759282 -0.5607703 -1.4723508 -0.27910706 -0.9017733 -1.9668587 0.2039561
-1.6879798 -1.8034706 -2.2157402 0.27866003 -0.09706861 -1.4896814 -1.8069667 0.22085753
-0.8886098 -1.5344368 -0.2614875 -1.1111876 -1.0197675 -0.87183857 -0.07594511 -0.4631302
-2.054766 -0.8736813 -1.8297557 -0.2051447 -1.7285877 -1.6852579 -1.3304409 -1.2322338
-1.6592125 -1.101367 0.11774603 -1.048244 -1.3719107 -1.2329979 0.16323306 -1.2838795
0.02484419 0.14828505 -1.9789795 -1.3738134 -1.6498516 -0.41907036 -1.0760913 -0.7972754
-2.2074912 -1.7944146 -1.3128769 -0.8226241 -1.4580393 -1.0193052 -1.2619753 -0.7440869
-0.8581975 -1.7759396 -0.44175914 0.21201335 -0.7671198 -1.3914639 0.1452934 -1.0905188
-1.2635983 -1.2878181 -1.5250704 -1.30679 -0.0037494432 -1.3414499 -0.7155942 -0.6381114
-0.7220217 -0.6944394 -1.5812994 -2.1480348 0.040599 -1.4965339 -0.3083911 -0.41329688
-1.737079 -1.364277 -1.411428 -1.373236 -0.5482769 -0.9020101 -1.9243472 -0.99251616
-1.3835975 -1.720597 -1.5191815 -0.81542027 -0.14119592 -0.24053691 -1.4187609 -0.34685585
-1.7381436 -1.2804668 -0.7617543 0.17319572 -1.3818527 -0.9806355 0.020594934 -0.18557224
-1.3507581 -1.5695332 -0.85863924 -2.1214685 -2.1459641 -0.6340087 -0.002756607 -1.0949745
-1.8075457 -1.3607814 -0.93080413 -1.8753831 -0.71759635 -2.4450476 -0.2518047 -0.44861054
0.02601355 -1.5170863 -0.26248196 0.027237682 -1.6336927 -2.1872005 -0.017909667 -0.7641909
-0.6252643 -1.0850244 -1.6650164 -0.00063220016 -1.9958256 -0.3389177 -1.3221673 -0.004861384
-1.4854633 0.5392005 0.21859033 -1.515696 -2.0566401 -0.41785407 -1.3819088 0.046224557
-1.3783641 -1.7310112 -0.23744577 -1.2531966 -1.6939797 -0.2303588 0.15151457 -0.7949417
-0.7055692 -1.7231722 -2.1222806 -1.9347311 -0.7605287 0.16498247 -0.81926894 -0.11599944
-0.8199426 -1.117937 0.39865193 -1.3772348 -1.0576108 -0.66105723 -1.258454 -1.6377834
0.01793093 -2.3551722 -0.8434964 0.029621018 -0.5289782 -0.3153957 -0.70011383 -0.7261577
-0.77719426 -1.8325845 -1.6661035 -0.2557265 -0.3862235 -1.9759592 -0.63102293 -1.2305874
00000000: a2ef 63bd 52c4 b8bf a235 cf3b ee90 8bbe
00000010: a42f c2bf f42a 7cbe edd8 e4bf 46b8 a2bf
00000020: 9092 b2bf 2fac cbbd 7d5f 3fbe 3699 25c0
00000030: baea 5fbf 2026 7d3e f998 25bf bb6b 6fbf
00000040: b31e 2abf 9f7e d9bf 7b09 b8bf 318d 9dbe
00000050: b84e 2bbf e884 c1bf 4eb2 62bf 7d33 80be
00000060: 91af 00bf 4050 f8bf 2cf9 9fbe 8ebe d8bf
00000070: 942a ffbf 3ffe 86bf ca72 1a3d 1854 18bf
00000080: f0ca 36bf e40a 07c0 706e 12c0 d838 d2bf
00000090: 6dd8 dbbe fe56 7bbf 7cbd d2bf 917b 55bf
000000a0: a629 14c0 3ce0 f8bf a14f e0bf 7559 00c0
000000b0: 69fd f7be 1de8 65bf 59a2 97bf ee25 fdbe
000000c0: 42c2 debf 980e 25bf 178c 13bf 8485 61bf
000000d0: ea72 aebe c0a2 6bbf 7acd b1bf d721 1bc0
000000e0: 74e2 01c0 411d cebd 0642 1bc0 aef7 d6be
000000f0: a235 25bf 2900 b1be 594c b2bf cb56 5dbf
00000100: baff cdbe e405 c4bf 8a0f 02c0 d368 bdbf
00000110: d3f2 cfbf 3b43 d5bf f3ed 4bbf cc8d f8bf
00000120: a890 54bf 3ba3 46bf a48e 0fbf fe75 bcbf
00000130: 1fe7 8ebe 9dda 66bf 07c2 fbbf ded9 503e
00000140: b90f d8bf 20d8 e6bf b0ce 0dc0 87ac 8e3e
00000150: e8cb c6bd e1ad bebf af4a e7bf 7a28 623e
00000160: ef7b 63bf 6d68 c4bf b1e1 85be 653b 8ebf
00000170: be87 82bf d030 5fbf 1c89 9bbd 671f edbe
00000180: 4981 03c0 94a9 5fbf 6f35 eabf 7411 52be
00000190: 5d42 ddbf 88b6 d7bf e34b aabf d6b9 9dbf
000001a0: 1361 d4bf 98f9 8cbf d524 f13d dc2c 86bf
000001b0: c59a afbf e0d2 9dbf 9126 273e 2a56 a4bf
000001c0: 0b86 cb3c 09d8 173e 334f fdbf 1ed9 afbf
000001d0: 562e d3bf 6490 d6be 5cbd 89bf 3e1a 4cbf
000001e0: 8947 0dc0 61af e5bf 5a0c a8bf 7e97 52bf
000001f0: 08a1 babf 9878 82bf 6888 a1bf 7b7c 3ebf
00000200: d5b2 5bbf fd51 e3bf 412e e2be 071a 593e
00000210: f761 44bf 7d1b b2bf cbc7 143e 1f96 8bbf
00000220: 97bd a1bf 39d7 a4bf 8235 c3bf e544 a7bf
00000230: 38b9 75bb a1b4 abbf 2e31 37bf 455b 23bf
00000240: 6ad6 38bf c8c6 31bf 0568 cabf 6779 09c0
00000250: 234b 263d 6c8e bfbf 70e5 9dbe a69b d3be
00000260: 9b58 debf a1a0 aebf aca9 b4bf 32c6 afbf
00000270: e05b 0cbf 22ea 66bf 0251 f6bf 8a15 7ebf
00000280: b919 b1bf 863c dcbf 8a74 c2bf 62bf 50bf
00000290: aa95 10be 4f4f 76be f599 b5bf 1797 b1be
000002a0: 7d7b debf 56e6 a3bf 5402 43bf 385a 313e
000002b0: 8de0 b0bf ee0a 7bbf b5b6 a83c a606 3ebe
000002c0: a4e5 acbf 77e6 c8bf c8cf 5bbf 24c6 07c0
000002d0: 7a57 09c0 654e 22bf 31a8 34bb 2028 8cbf
000002e0: a85d e7bf 162e aebf 2e49 6ebf 8e0c f0bf
000002f0: 65b4 37bf a97b 1cc0 8cec 80be 48b0 e5be
00000300: 5e1a d53c e22f c2bf 0964 86be 8f21 df3c
00000310: d81c d1bf 18fb 0bc0 4bb7 92bc 04a2 43bf
00000320: 5211 20bf 14e2 8abf 421f d5bf 3cba 25ba
00000330: 3777 ffbf 9f86 adbe c73c a9bf 3f4c 9fbb
00000340: a923 bebf 0b09 0a3f 25d6 5f3e 5402 c2bf
00000350: fe9f 03c0 f8f0 d5be 63e2 b0bf f655 3d3d
00000360: 3c6e b0bf c691 ddbf fc24 73be bf68 a0bf
00000370: 54d4 d8bf 2de3 6bbe a326 1b3e 4d81 4bbf
00000380: 2fa0 34bf e890 dcbf 72d3 07c0 45a5 f7bf
00000390: 02b2 42bf 2af1 283e 9cbb 51bf 1d91 edbd
000003a0: c2e7 51bf 8f18 8fbf 1b1c cc3e 3b49 b0bf
000003b0: ca5f 87bf 0c3b 29bf 0515 a1bf e3a2 d1bf
000003c0: e3e3 923c 24bb 16c0 61ef 57bf c7a7 f23c
000003d0: 1e6b 07bf 8c7b a1be a93a 33bf 79e5 39bf
000003e0: 34f6 46bf 2192 eabf e142 d5bf 95ee 82be
000003f0: 16bf c5be 3bec fcbf b88a 21bf e383 9dbf

weight f4 [256, 512]
-0.6352382 0.1332973 -0.26268896 0.3981696 0.53388476 -0.47694796 0.44650772 1.0155233
0.36858705 -0.029014548 0.07549753 1.4393178 0.7417067 -0.53928673 -0.025364237 0.13713688
0.10512421 0.6996806 0.5712494 0.12075977 -0.30403745 0.99251837 0.30152994 -0.099194504
-0.011514793 0.37953728 -0.09482985 0.78367 0.6962236 0.4908378 -0.47184515 -0.22308265
0.43775702 0.381603 1.2374387 1.3721783 -0.17674007 -0.060913607 1.2832197 0.18872267
1.1867774 1.2607039 0.63882387 0.8994685 -0.50744534 -0.24722743 0.6212485 0.39660764
1.1629971 -0.29847637 0.22063546 0.3154723 -0.45094806 0.22623615 0.535993 1.7800359
1.0326787 -0.45991227 -0.023435192 -0.3099018 0.21582413 -0.14341438 0.79418546 -0.25429794
0.65474826 0.12637262 -0.065293245 0.8301671 0.3578336 0.3883084 -0.48249528 1.6603042
-0.32618192 -0.583882 -0.17826737 0.8842801 0.14635691 0.18948151 1.0608935 -0.49474436
0.8723323 0.66186464 0.06341918 -0.289656 -0.66934264 0.28556785 1.2828231 -0.63575965
-0.05267473 0.3603207 -0.3920079 0.13448587 -0.34838986 1.0204436 -0.46879828 -0.7382508
2.1575007 0.08634905 0.67619735 -0.19223839 0.9065706 0.15260084 0.64080733 1.3985995
0.86883175 0.47424376 -0.18835239 0.55978763 1.1812165 0.22866006 -0.19095366 0.07262321
-0.53984827 -0.9138507 0.5690003 0.7528984 1.079032 -0.37187442 0.6132789 0.5190253
0.90493727 1.1097362 -0.07442768 -0.09461912 1.1324719 -0.16082254 0.5827849 0.091845915
-0.5134382 0.43133065 -0.23137186 -0.15214354 0.3457431 0.30406725 -0.86340797 0.8413028
-0.22304891 0.27209622 1.0580194 0.70195794 0.027599357 0.026484579 0.36178932 0.08395433
-0.61622345 0.10433654 -0.048477013 0.8866651 -0.38782984 0.18080027 0.19496842 -0.3613442
0.5940459 0.38687047 1.4835135 0.7557002 0.2028725 -0.040988054 0.43484613 -0.17861438
-0.27251372 0.34310102 0.1812133 -0.17341086 -0.22176571 0.16148074 0.18176204 0.02883134
0.07307836 0.5627535 0.1915687 -0.5160209 0.54303414 0.4715753 -0.5213252 -0.8572662
1.1260751 0.3484171 -0.42479634 0.5556193 1.2013643 -0.034774266 0.6140183 0.08788729
1.6435707 0.66688 0.3127309 0.31836882 0.12820706 1.2044777 -0.06427297 -0.30620238
0.107186906 0.044396214 -0.12967819 0.46867806 1.9173437 0.056762487 -0.08357814 0.29270193
-0.35275096 -0.7676189 1.1865172 -0.39586648 0.45637557 0.33238903 0.45079926 -0.0536775
0.58028233 -0.9672421 -0.18554352 0.33711517 0.045617852 0.13586333 0.38860634 -0.14074978
0.50183517 0.85319096 -0.32489094 0.36042255 0.508256 0.36130434 -0.45066637 -0.30774108
0.23494336 0.5685729 0.3876213 0.13671255 0.3056876 -0.28959858 -0.43230206 -0.19152889
-0.18868627 0.22403307 -0.77398163 0.8246334 0.12517972 -0.64080405 -0.2513975 0.43931904
-0.69009846 0.51315594 0.15642765 -0.40131703 -0.18091105 -0.11393352 0.17499176 -0.3435389
0.45054567 1.2559519 -0.21402414 -0.008424281 -0.09255799 1.0323169 -0.049179073 0.51530194
00000000: f89e 22bf 167f 083e 2b7f 86be e3dc cb3e
00000010: acac 083f 8632 f4be a99c e43e abfc 813f
00000020: 71b7 bc3e ebaf edbc 739e 9a3d 913b b83f
00000030: 7ee0 3d3f b20e 0abf a9c8 cfbc 9c6d 0c3e
00000040: 5d4b d73d 451e 333f 673d 123f e650 f73d
00000050: ccaa 9bbe af15 7e3f 2262 9a3e 7d26 cbbd
00000060: 8ba8 3cbc b652 c23e 2736 c2bd 999e 483f
00000070: b63b 323f 184f fb3e b095 f1be c76f 64be
00000080: b021 e03e 7861 c33e 6464 9e3f 8aa3 af3f
00000090: 59fb 34be 8c80 79bd 8b40 a43f 8440 413e
000000a0: 52e8 973f bf5e a13f f689 233f 9143 663f
000000b0: f0e7 01bf 3029 7dbe 240a 1f3f 2810 cb3e
000000c0: 17dd 943f e5d1 98be 43ee 613e 9685 a13e
000000d0: aae2 e6be 73aa 673e d636 093f 37d8 e33f
000000e0: d12e 843f 9f79 ebbe 29fb bfbc 73ab 9ebe
000000f0: 0001 5d3e 38db 12be bd4f 4b3f 5733 82be
00000100: 959d 273f d367 013e 77b8 85bd d585 543f
00000110: f735 b73e 5cd0 c63e 9f09 f7be d984 d43f
00000120: 5101 a7be 4a79 15bf b98b 36be 2e60 623f
00000130: 96de 153e 7107 423e 5ccb 873f 224f fdbe
00000140: 2b51 5f3f f66f 293f eae1 813d cb4d 94be
00000150: 0a5a 2bbf f335 923e 8c33 a43f 25c1 22bf
00000160: 75c1 57bd f47b b83e 42b5 c8be aab6 093e
00000170: 2860 b2be e59d 823f 5406 f0be 01fe 3cbf
00000180: 7e14 0a40 c5d7 b03d 451b 2d3f 24da 44be
00000190: 0315 683f 6543 1c3e f30b 243f 4f05 b33f
000001a0: c26b 5e3f 14d0 f23e 73df 40be 3e4e 0f3f
000001b0: 1a32 973f dd25 6a3e 5b89 43be 7abb 943d
000001c0: 7f33 0abf 1ff2 69bf 01aa 113f f3bd 403f
000001d0: b81d 8a3f 5366 bebe d9ff 1c3f d8de 043f
000001e0: f8a9 673f d60b 8e3f 8a6d 98bd abc7 c1bd
000001f0: d7f4 903f aaae 24be 6431 153f b619 bc3d
00000200: b070 03bf 5fd7 dc3e bfec 6cbe 84cb 1bbe
00000210: 3d05 b13e b4ae 9b3e 4e08 5dbf 9f5f 573f
00000220: ef66 64be 3250 8b3e 2e6d 873f 84b3 333f
00000230: 0c18 e23c 30f6 d83c 733c b93e 3ff0 ab3d
00000240: d2c0 1dbf 65ae d53d d58f 46bd 7cfc 623f
00000250: a291 c6be b523 393e cda5 473e 1b02 b9be
00000260: 6413 183f e313 c63e c5e3 bd3f 9175 413f
00000270: cfbd 4f3e 17e3 27bd 27a4 de3e b0e6 36be
00000280: eb86 8bbe f0aa af3e fb8f 393e 9e92 31be
00000290: 8d16 63be 355b 253e d41f 3a3e b42f ec3c
000002a0: 1baa 953d 9d10 103f 962a 443e f219 04bf
000002b0: 4904 0b3f 5172 f13e 9175 05bf cc75 5bbf
000002c0: 3b23 903f ba63 b23e e87e d9be 113d 0e3f
000002d0: 4ec6 993f 766f 0ebd 4e30 1d3f 40fe b33d
000002e0: 8660 d23f a6b8 2a3f 441e a03e 3d01 a33e
000002f0: b648 033e 532c 9a3f 8ca1 83bd 8fc6 9cbe
00000300: cf84 db3d ced8 353d 5cca 04be 92f6 ef3e
00000310: 856b f53f c87f 683d 042b abbd 07dd 953e
00000320: c69b b4be ac82 44bf ccdf 973f 03af cabe
00000330: 0faa e93e e52e aa3e 29cf e63e f0dc 5bbd
00000340: 628d 143f 2e9d 77bf 1fff 3dbe 5c9a ac3e
00000350: c9d9 3a3d c21f 0b3e 69f7 c63e b620 10be
00000360: 4578 003f b96a 5a3f 1b58 a6be 4e89 b83e
00000370: 111d 023f e2fc b83e bebd e6be 3d90 9dbe
00000380: fe94 703e fe8d 113f 4d76 c63e 60fe 0b3e
00000390: 1683 9c3e 4446 94be b256 ddbe 2620 44be
000003a0: f936 41be ed68 653e a923 46bf 2d1b 533f
000003b0: 1d2f 003e bc0b 24bf 2cb7 80be 6dee e03e
000003c0: 4baa 30bf 305e 033f 922e 203e 6d79 cdbe
000003d0: bf40 39be fa55 e9bd 0a31 333e 55e4 afbe
000003e0: ecad e63e 08c3 a03f 2529 5bbe ff05 0abc
000003f0: 0b8f bdbd f622 843f ff6f 49bd d4ea 033f

bias f4 [256]
-1.4648544 -0.39897963 -0.43004873 -0.10584869 -1.0274935 0.16582263 -0.2550384 -0.77862436
-0.9307218 -0.7462446 -0.05157008 0.057571545 -0.18327878 -1.032273 -0.79902023 -0.82070994
-0.27364087 -0.28177902 0.07152884 0.27147448 -1.3374236 -0.5688971 0.8100435 -0.16710518
0.39435726 -2.2544968 0.33154076 0.8049378 -0.9686682 -0.55552214 -0.18250094 -0.5775735
-0.10791397 -1.3134044 -1.4726226 -0.3022743 -0.45203644 0.012964977 -0.1592254 0.13399008
0.111481756 -0.039176986 -2.3457704 0.17205244 0.14404608 -1.808779 -0.14648764 0.030502284
-0.024200553 0.9127331 -0.244459 -1.4522833 0.19644006 -0.6609337 0.36681005 -0.57380235
0.23514432 -0.6803535 0.12610495 -0.6818107 -1.0172434 -0.9253394 -0.51175016 -1.1510444
0.81461835 0.5261348 0.33901945 0.023505306 -1.4518636 -0.37197965 -0.061580494 0.34637138
-0.5648697 0.26736355 -0.15340002 -0.5708842 -1.6775622 -0.70822024 0.2645983 -1.0019459
0.056913998 -0.8059112 0.3976923 -0.023385957 -0.058523193 -0.6291285 -0.43153033 -1.5343268
-0.17497455 0.3875035 0.8154396 0.51226515 0.1563087 -0.80475634 -0.70049775 -0.11695765
-0.44211826 -0.5611438 -0.652246 -0.87155974 0.4608075 -0.5489954 -0.58950824 -0.84604394
-0.288749 0.46620452 0.022012888 -0.8425414 -0.21235919 -1.023771 -1.6149364 0.9956825
0.44904327 0.30199417 0.055892218 -1.258937 0.33098108 0.019804789 0.2326831 -0.0408464
-2.3224814 -1.2869891 -0.36299375 0.30009374 -0.8547353 -0.66282785 -0.5304949 0.28682226
0.24697226 -1.2239438 0.7916074 -0.16236746 -1.7846571 -0.21581759 -1.9927042 -0.44293338
-0.15229645 -0.20133714 -0.86173844 0.3142583 -1.0670134 0.027182057 -0.63474137 -0.20402724
-1.3202575 -1.7047672 -0.92009085 -0.5384811 -0.47226772 -0.7291765 0.54604584 0.074611865
0.109658405 -1.6898123 -0.6675264 0.14064139 0.115239136 0.2850641 -1.2487923 -0.81539303
0.63315755 -0.026740197 -1.4456168 0.0144468555 0.26341414 -1.1606665 0.53773177 -1.3020059
-1.0796708 -0.49276954 0.40323487 -1.7231032 -1.4353079 -0.4459728 -0.5920397 0.19629948
-0.009886356 -0.96388346 -0.4107636 -0.25509113 0.27872363 -1.1373193 0.30090258 -0.831034
0.22082606 -0.12999669 0.29239002 -0.894232 0.077795275 -0.059707988 -2.1045144 -0.20262124
0.289496 -0.2886734 0.104111254 -0.2646941 -0.21408641 -0.49930316 0.6581672 0.04115861
-0.2177987 -1.6249319 0.12516418 -0.13431612 -1.8932242 0.35297996 -0.8234726 -0.032304093
-1.4117076 -0.51561874 -1.4613012 -0.6865966 -0.1102874 -0.0063147293 -0.2070204 0.1378936
-1.4044071 -0.62540215 0.16497 0.24927716 -0.5927966 -0.84311235 0.02121374 -1.9432144
0.394122 -1.6098253 0.29580098 -0.07425841 -0.12607108 0.24905792 -0.13427557 -0.3441904
-0.051220246 0.21269087 -2.15306 0.7593052 1.0053227 -0.6887885 -0.07083835 0.002601283
-1.1603653 0.78200877 0.40797195 0.3088527 -0.08415318 -0.5809298 0.14546171 0.25224125
0.7888737 0.3460204 0.54268885 -1.714361 -0.31014884 -1.2302854 0.15007274 -0.056210034
00000000: 5980 bbbf 0f47 ccbe 592f dcbe 33c7 d8bd
00000010: e884 83bf 68cd 293e 6594 82be ed53 47bf
00000020: c943 6ebf e309 3fbf 263b 53bd 24d0 6b3d
00000030: 6fad 3bbe 8621 84bf 978c 4cbf 0c1a 52bf
00000040: a81a 8cbe 5745 90be b67d 923d b4fe 8a3e
00000050: b230 abbf 3ea3 11bf 035f 4f3f 9f1d 2bbe
00000060: 32e9 c93e ad49 10c0 b6bf a93e 6710 4e3f
00000070: a4fa 77bf b336 0ebf 87e1 3abe dbdb 13bf
00000080: 0002 ddbd a31d a8bf e67e bcbf b2c3 9abe
00000090: 5271 e7be 0e6b 543c fc0b 23be b234 093e
000000a0: 8c50 e43d 0c78 20bd 1a21 16c0 842e 303e
000000b0: d180 133e 1286 e7bf db00 16be eddf f93c
000000c0: 3d40 c6bc e0a8 693f 7653 7abe 6be4 b9bf
000000d0: 9527 493e f332 29bf 87ce bb3e b6e4 12bf
000000e0: acc9 703e a62b 2ebf a821 013e 258b 2ebf
000000f0: 0835 82bf 0be3 6cbf 0f02 03bf 6c55 93bf
00000100: d48a 503f c5b0 063f f593 ad3e 338e c03c
00000110: abd6 b9bf 1e74 bebe d43b 7cbd 9757 b13e
00000120: 4d9b 10bf e0e3 883e e514 1dbe 7825 12bf
00000130: 5cba d6bf ec4d 35bf 6e79 873e c33f 80bf
00000140: a71e 693d 3250 4ebf 539e cb3e e893 bfbc
00000150: 04b6 6fbd 910e 21bf 8bf1 dcbe d264 c4bf
00000160: 872c 33be dc66 c63e a6c0 503f cf23 033f
00000170: 630f 203e 8304 4ebf d253 33bf 7e87 efbd
00000180: 535d e2be 1fa7 0fbf 98f9 26bf 8a1e 5fbf
00000190: f6ee eb3e f68a 0cbf 03ea 16bf 5696 58bf
000001a0: e9d6 93be 5cb2 ee3e 5f54 b43c cbb0 57bf
000001b0: b074 59be ee0a 83bf 3cb6 cebf 0ce5 7e3f
000001c0: 00e9 e53e fb9e 9a3e 3def 643d d924 a1bf
000001d0: 5a76 a93e a73d a23c 7b44 6e3e 8e4e 27bd
000001e0: 89a3 14c0 0fbc a4bf 51da b9be e3a5 993e
000001f0: efcf 5abf 16af 29bf 84ce 07bf 5eda 923e
00000200: 4ce6 7c3e 31aa 9cbf c8a6 4a3f a843 26be
00000210: a56f e4bf 49ff 5cbe ee10 ffbf 2ac8 e2be
00000220: 9af3 1bbe 532b 4ebe e49a 5cbf 77e6 a03e
00000230: e593 88bf e8ac de3c 697e 22bf 84ec 50be
00000240: 33fe a8bf d035 dabf 138b 6bbf e6d9 09bf
00000250: 13cd f1be 50ab 3abf a9c9 0b3f 1bce 983d
00000260: 9694 e03d c54b d8bf 03e3 2abf 4c04 103e
00000270: 7f02 ec3d ecf3 913e 6dd8 9fbf 99bd 50bf
00000280: 9d16 223f 420e dbbc f909 b9bf 81b2 6c3c
00000290: 38de 863e b890 94bf caa8 093f 21a8 a6bf
000002a0: a732 8abf 4a4c fcbe cd74 ce3e a58e dcbf
000002b0: 2bb8 b7bf 8c56 e4be ea8f 17bf bb02 493e
000002c0: 62fa 21bc 11c1 76bf 9b4f d2be 4e9b 82be
000002d0: ddb4 8e3e ae93 91bf e70f 9a3e a5be 54bf
000002e0: 3a20 623e da1d 05be 25b4 953e 63ec 64bf
000002f0: 2153 9f3d 5d90 74bd 5db0 06c0 f17b 4fbe
00000300: d238 943e 00cd 93be 4838 d53d fc85 87be
00000310: 7839 5bbe aaa4 ffbe a57d 283f ee95 283d
00000320: 9f06 5fbe c5fd cfbf 0a2b 003e 2a8a 09be
00000330: 2c55 f2bf cab9 b43e 1acf 52bf 4c51 04bd
00000340: d6b2 b4bf 97ff 03bf eb0b bbbf cbc4 2fbf
00000350: 5cde e1bd caeb cebb 28fd 53be fb33 0d3e
00000360: 9dc3 b3bf 5b1a 20bf e5ed 283e 8342 7f3e
00000370: 85c1 17bf 36d6 57bf 70c8 ad3c 40bb f8bf
00000380: 5cca c93e c10e cebf 3a73 973e cb14 98bd
00000390: c718 01be 0a09 7f3e 897f 09be b939 b0be
000003a0: 52cc 51bd a3cb 593e bccb 09c0 d361 423f
000003b0: 6aae 803f 7154 30bf b213 91bd 497a 2a3b
000003c0: da86 94bf ba31 483f b3e1 d03e f121 9e3e
000003d0: 8158 acbd d1b7 14bf eaf3 143e c425 813e
000003e0: a0f3 493f 9629 b13e a8ed 0a3f 2e70 dbbf
000003f0: d4cb 9ebe fe79 9dbf abac 193e 7e3c 66bd

weight f4 [128, 256]
-0.26335752 0.48060387 -0.03150905 0.26825118 -0.3723062 0.029919181 0.47828177 -0.13167673
0.22204524 -0.29151517 -0.11641851 -1.1578517 -0.073051445 0.23580268 -0.36321694 -0.3549849
-0.3762809 -0.07063658 0.6844685 -0.32003158 -0.49328405 0.41921607 0.076202124 -0.54407763
-0.10962311 0.15237066 -0.34955025 0.288017 0.4719253 -0.8447994 -0.09417128 0.08824345
-0.052753184 -0.48236886 -0.34690592 0.16170914 -0.038854055 0.12671284 -0.070156656 0.29739028
-0.6651783 -0.5164723 -0.11371216 0.43067706 -0.42634463 0.42120546 0.32605118 -0.27139154
-0.7160766 -0.19183232 0.016369903 0.098745875 0.015398786 0.27046573 0.16339822 -0.47694743
-1.0521512 -0.07602031 -0.97272325 0.08264761 -0.042049278 -0.37218565 -0.79460657 0.26440558
-0.106980965 0.14036219 -0.30061984 -0.2159732 0.15623157 -0.06427525 0.12235938 -0.27841938
-0.20965569 0.3641348 0.5475396 -0.40732282 0.052843258 -1.1223032 -0.35648185 0.23395222
-0.3618271 0.010663745 -0.59122974 -0.0767064 -0.21881238 -0.394292 -0.30191502 -0.658351
-0.07891046 0.109763496 0.17273815 -0.09856153 0.69502306 0.08810623 -0.05733753 0.05726254
-0.04564864 0.18069035 -0.38436753 -0.15168664 -0.032254875 -0.6388405 -0.69621325 -0.5379699
-0.16128857 -0.79217654 -0.054472454 -0.23781034 -0.18073002 -0.37544775 -0.50567555 0.31705114
-0.25173193 -0.20304874 -0.026026636 -0.2106301 0.012629795 -0.5183195 0.26904333 0.32655486
-0.050218083 -0.72649115 0.20801611 -0.11665676 -0.49610367 -0.14404428 -0.45636016 -0.6642819
-0.5797835 -0.33704203 0.041699503 -0.28911418 0.5528794 0.40128672 0.35382572 -0.44026256
-0.58694834 0.21648286 0.057804633 -1.0516826 0.18433774 -0.04169447 0.17464273 0.027858838
0.01193592 0.47401473 0.43789852 0.098785445 -0.38692495 -0.20299037 0.37260482 0.21865295
0.07313727 0.30082136 -0.14721334 0.21376987 0.46054733 0.077896096 -0.04911539 0.24862245
0.106892005 0.100320704 -0.035063196 0.25261474 -0.10180382 -0.27337453 -0.08327333 -0.52527195
-0.80507225 -0.0018974704 -0.2574529 0.06246255 -0.3477197 -0.20797357 0.28026935 -0.4544705
0.117289 0.21063505 -0.31158093 -0.75030535 -0.35239115 0.15882836 -0.1704294 -0.19573452
0.48624215 0.0007374317 -0.38271025 -0.22599936 -0.084256314 0.08813666 0.094525084 -0.49738926
0.38539547 0.26113775 -0.14578103 -0.18476786 -0.10526673 0.17243469 -0.26497504 0.20701803
-0.16259612 -0.28690034 0.20429997 0.31972826 0.07993544 -0.0022094795 0.42924342 -0.32876468
-0.08730366 0.060661588 -0.7984309 -0.68523335 0.4029292 0.4060117 -0.15771134 0.5760884
0.21814692 -0.1852126 0.1023944 -0.48364893 -0.3664253 -0.6192385 0.17527452 0.20292309
0.13737841 0.09435545 0.12609293 0.14349476 -0.8486257 -0.6753077 0.12686244 0.26496494
0.16027787 0.35913607 0.30732766 -0.13947658 -0.068018146 0.11145269 -0.0829665 0.02151419
0.19045164 0.06907156 0.15579502 -0.54827046 -0.787659 0.05426029 0.435493 0.36458302
0.23127188 -0.26300043 -0.02656352 0.45814118 -0.22625446 -0.7337298 0.20896882 0.08348583
00000000: ccd6 86be b611 f63e a20f 01bd 3858 893e
00000010: eb9e bebe 1219 f53c 59e1 f43e 44d6 06be
00000020: d45f 633e 7a41 95be d46c eebd 7c34 94bf
00000030: ff9b 95bd 4276 713e 92f7 b9be 95c0 b5be
00000040: e4a7 c0be e9a9 90bd 5439 2f3f 2edb a3be
00000050: ba8f fcbe 7da3 d63e dc0f 9c3d ac48 0bbf
00000060: 1582 e0bd 0e07 1c3e 40f8 b2be f776 933e
00000070: 31a0 f13e c644 58bf dfdc c0bd fbb8 b43d
00000080: b913 58bd 0df9 f6be a79d b1be 1597 253e
00000090: 6e25 1fbd 03c1 013e 4bae 8fbd 8a43 983e
000000a0: 2049 2abf 8737 04bf ece1 e8bd b481 dc3e
000000b0: d849 dabe 3ea8 d73e 2ef0 a63e d5f3 8abe
000000c0: cc50 37bf b16f 44be 2d1a 863c 473b ca3d
000000d0: 314b 7c3c 7c7a 8a3e dd51 273e 7432 f4be
000000e0: e4ac 86bf 89b0 9bbd 6404 79bf 2643 a93d
000000f0: dd3b 2cbd 1e8f bebe 566b 4bbf 2b60 873e
00000100: d618 dbbd 1bbb 0f3e d8ea 99be 1428 5dbe
00000110: 2bfb 1f3e bea2 83bd 8e97 fa3d fc8c 8ebe
00000120: fbaf 56be e06f ba3e 8e2b 0c3f 9e8c d0be
00000130: 2c72 583d a2a7 8fbf ca84 b6be 2c91 6f3e
00000140: 6741 b9be fdb6 2e3c d55a 17bf 3f18 9dbd
00000150: 5a10 60be a4e0 c9be 9b94 9abe b189 28bf
00000160: cf9b a1bd afcb e03d 45e2 303e a1da c9bd
00000170: 08ed 313f 0a71 b43d c2da 6abd 208c 6a3d
00000180: 11fa 3abd e406 393e d2cb c4be be53 1bbe
00000190: b01d 04bd 0d8b 23bf 083b 32bf 65b8 09bf
000001a0: d528 25be 15cc 4abf 821e 5fbd 8e84 73be
000001b0: 4a11 39be b03a c0be f473 01bf 8754 a23e
000001c0: 02e3 80be 02ec 4fbe d035 d5bc 6baf 57be
000001d0: 33ed 4e3c 96b0 04bf 0cc0 893e 3332 a73e
000001e0: 7ab1 4dbd 53fb 39bf 2d02 553e bde9 eebd
000001f0: 4d01 febe 5880 13be 0aa8 e9be 610e 2abf
00000200: b16c 14bf c690 acbe 19cd 2a3d c606 94be
00000210: 8189 0d3f 7475 cd3e a528 b53e 186a e1be
00000220: 3f42 16bf afad 5d3e 8dc4 6c3d 899d 86bf
00000230: 08c3 3c3e d2c7 2abd 8bd5 323e 3838 e43c
00000240: e18e 433c 0fb2 f23e 3c34 e03e 0650 ca3d
00000250: 071b c6be b5dc 4fbe 0fc6 be3e 8fe6 5f3e
00000260: fec8 953d 4205 9a3e 18bf 16be 7de6 5a3e
00000270: dccc eb3e fd87 9f3d 382d 49bd e296 7e3e
00000280: 32ea da3d f174 cd3d 6d9e 0fbd b856 813e
00000290: 857e d0bd bff7 8bbe 358b aabd 3978 06bf
000002a0: 3719 4ebf 8bb4 f8ba ded0 83be bbd8 7f3d
000002b0: 5108 b2be 06f7 54be 777f 8f3e 5bb0 e8be
000002c0: 3735 f03d b7b0 573e 8987 9fbe 0314 40bf
000002d0: 9d6c b4be e7a3 223e 0b85 2ebe a16e 48be
000002e0: bbf4 f83e 3450 413a 99f2 c3be 606c 67be
000002f0: 938e acbd fe80 b43d 5e96 c13d cea9 febe
00000300: 8e52 c53e d9b3 853e 9f47 15be c933 3dbe
00000310: 1596 d7bd b892 303e cfaa 87be 89fc 533e
00000320: 997f 26be 9ae4 92be 0334 513e 6cb3 a33e
00000330: 31b5 a33d eacc 10bb cbc5 db3e d853 a8be
00000340: 43cc b2bd 4978 783d f865 4cbf 746b 2fbf
00000350: bc4c ce3e c4e0 cf3e 157f 21be 887a 133f
00000360: e861 5f3e 5fa8 3dbe 28b4 d13d d5a0 f7be
00000370: 199c bbbe 6a86 1ebf 2a7b 333e 12cb 4f3e
00000380: edac 0c3e 6e3d c13d 811e 013e 4af0 123e
00000390: 893f 59bf f7e0 2cbf 3ae8 013e 7ca9 873e
000003a0: e21f 243e afe0 b73e 0d5a 9d3e f3d2 0ebe
000003b0: 194d 8bbd 4f41 e43d 57ea a9bd 873e b03c
000003c0: c105 433e 6475 8d3d bb88 1f3e 745b 0cbf
000003d0: 05a4 49bf 0a40 5e3d f0f8 de3e a0aa ba3e
000003e0: 89d2 6c3e fea7 86be bd9b d9bc 7b91 ea3e
000003f0: 40af 67be b7d5 3bbf ecfb 553e 9efa aa3d

bias f4 [128]
-0.34637675 0.34264794 0.35977837 -0.22337651 0.6671029 -0.9196666 -0.6979428 -1.6082803
0.7769406 -1.4157317 0.23271939 -1.5864396 -0.42911768 0.2319748 -0.38447085 -0.6755663
-0.8484361 -0.10484102 0.2810519 -0.9185564 -0.523814 0.4638981 0.024035458 0.59349746
0.5893913 -0.021751745 -1.2015764 -0.39841378 -0.69174325 -1.3815446 -1.4286112 -1.0436022
-0.293626 -0.20796023 -0.4637 0.11510238 -0.06284908 -0.54591584 -0.89406455 -1.0389751
0.6378734 -0.5977461 0.15207545 -0.49861595 0.22376291 -1.7134463 -1.0545748 -0.37254518
-1.4546193 0.011912518 0.3332051 -1.00447 -0.3406431 0.5442835 0.26875243 -1.5055014
-0.4177737 -1.5042979 -0.46647742 -0.75314236 0.6140168 0.3048633 0.46354833 0.52897984
-1.0268652 -0.7529754 -1.5912651 -0.34093952 -1.1061292 -1.6371273 -0.20984893 -0.06366023
-0.07309141 0.4402604 -1.1392324 0.32388562 -0.11333029 -1.4062178 -0.32388943 0.405946
-1.36002 -0.35614043 -0.3620269 0.26306412 -0.8390601 -1.5367408 -0.08575093 -0.030244362
-0.2986564 -0.31287575 -0.63696265 -0.074153595 -0.61923575 0.0035202072 -1.094009 -0.25580397
-1.3785572 -0.48429748 -0.26156732 0.29499418 0.31963065 -1.6890986 -0.34310064 -1.5548937
-1.2526071 -0.2012058 0.40380147 0.5835679 -0.44700825 0.65025455 -0.27605772 -1.3903542
0.75619304 0.34509134 -1.0700629 -0.41128013 -0.82150275 -1.3136927 -1.7393447 -0.5175928
-0.552896 0.3823605 -1.7390293 -0.5767105 -0.33589593 -1.4319696 -1.0015696 -1.3166065
00000000: 4b58 b1be 8d6f af3e df34 b83e d0bc 64be
00000010: 41c7 2a3f 456f 6bbf 61ac 32bf 21dc cdbf
00000020: 94e5 463f b236 b5bf fe4d 6e3e 7410 cbbf
00000030: 50b5 dbbe cd8a 6d3e 5dd9 c4be eaf1 2cbf
00000040: 1c33 59bf e4b6 d6bd 09e6 8f3e 8326 6bbf
00000050: ad18 06bf 0d84 ed3e 02e6 c43c 73ef 173f
00000060: 59e2 163f b730 b2bc 41cd 99bf e4fc cbbe
00000070: 1616 31bf 74d6 b0bf bbdc b6bf c294 85bf
00000080: 2656 96be 87f3 54be 166a edbe ccba eb3d
00000090: 05b7 80bd 24c1 0bbf 6ae1 64bf 23fd 84bf
000000a0: ac4b 233f e305 19bf abb9 1b3e 974a ffbe
000000b0: 1b22 653e 3552 dbbf 4ffc 86bf 3ebe bebe
000000c0: f730 babf b92c 433c dc99 aa3e 7992 80bf
000000d0: c668 aebe 2a56 0b3f eb99 893e 45b4 c0bf
000000e0: 6fe6 d5be d58c c0bf 21d6 eebe f0cd 40bf
000000f0: 3430 1d3f 0b17 9c3e 3556 ed3e 396b 073f
00000100: 5270 83bf ffc2 40bf 93ae cbbf a08f aebe
00000110: a495 8dbf 638d d1bf a3e2 56be 4b60 82bd
00000120: f3b0 95bd d069 e13e 5ed2 91bf 56d4 a53e
00000130: b619 e8bd f2fe b3bf d6d4 a5be 27d8 cf3e
00000140: 2315 aebf 0a58 b6be 975b b9be 57b0 863e
00000150: a5cc 56bf ecb3 c4bf 2f9e afbd 06c3 f7bc
00000160: 7ee9 98be 4031 a0be fc0f 23bf d7dd 97bd
00000170: 3c86 1ebf 47b3 663b 7d08 8cbf bdf8 82be
00000180: 9074 b0bf d7f5 f7be 27ec 85be 7a09 973e
00000190: a1a6 a33e 6234 d8bf e3aa afbe c206 c7bf
000001a0: 6e55 a0bf e508 4ebe 11bf ce3e b564 153f
000001b0: 44de e4be 1577 263f 7057 8dbe 20f7 b1bf
000001c0: de95 413f d0af b03e d2f7 88bf 4f93 d2be
000001d0: 014e 52bf 1527 a8bf d9a2 debf f680 04bf
000001e0: 988a 0dbf c1c4 c33e 8398 debf 4da3 13bf
000001f0: 8dfa abbe c84a b7bf 6f33 80bf 9086 a8bf

weight f4 [64, 128]
0.079771385 -0.06939469 -0.18155275 0.13510954 0.03696529 0.10106378 0.10066997 0.06288243
-0.72221893 -0.10991467 -0.027070718 0.04306027 -0.04641635 -0.13469549 -0.084341355 -0.038923796
0.11829985 -0.082449615 -0.113815725 0.04318539 0.18602355 0.028030548 0.033152957 -0.070764564
-0.09060407 0.011113147 0.04446299 -0.105649695 0.008612143 -0.027267959 0.040317085 -0.122709155
0.08897795 -0.020122766 0.22877322 -0.054007478 0.004488048 -0.0077271103 -0.14787795 0.0518202
-0.15894455 -0.049190268 -0.13141179 -0.051131316 -0.020890202 0.021849679 0.003707326 0.19304116
0.035278875 -0.008037748 -0.026657322 -0.0824498 0.01727792 -0.12268403 -0.086663306 -0.01883183
0.158708 -0.12962122 -0.15406013 0.041837525 -0.1897885 0.04586218 -0.4820276 -0.16780603
0.008779368 0.035881184 0.048019454 -0.008142506 0.12190042 0.10561052 -0.3161125 0.15477227
-0.021325847 -0.43582925 0.013713574 -0.18064734 0.051085975 0.012575144 0.047978196 -0.1581275
-0.119911484 -0.075126365 -0.09659323 -0.057387054 -0.18916014 0.015533548 -0.07007022 0.1918646
0.019693429 -0.091050275 -0.08855994 -0.082323946 -0.047028173 0.017991826 -0.099391386 -0.112289615
0.0786644 0.01745536 -0.02187504 -0.44167843 -0.18542501 -0.16047285 0.14224689 0.018082479
0.01829611 -0.124449775 0.024427576 -0.07088103 0.10437353 -0.011406275 0.068900585 -0.037455898
-0.33184743 -0.09657203 -0.10511668 0.053096615 -0.08839357 -0.018373102 -0.097544 -0.0903821
-0.26013088 -0.3172193 0.0518342 -0.095492445 -0.015981875 -0.01200315 -0.002698995 0.13090001
-0.07842136 -0.05269228 0.09160595 -0.28818572 0.35402045 -0.07943244 -0.18787259 0.0528343
0.15113758 0.04491834 0.15132438 -0.13442315 0.01040944 0.14315434 -0.229895 -0.070335425
0.031166773 0.053166095 -0.010642925 -0.0050898017 -0.08988938 -0.03552928 0.1051849 -0.063538715
-0.074073695 -0.23401496 0.24970375 -0.05877733 0.08748291 -0.011305401 -0.04042356 -0.04880211
-0.059428856 0.05091323 -0.02458819 0.08858252 -0.016007403 -0.00445856 -0.038472142 -0.06083041
-0.08756206 -0.114387855 -0.16544412 -0.040786915 -0.3058608 0.0066217994 -0.101261154 -0.011872756
0.014222538 0.034848258 0.06606667 -0.033456348 -0.063105226 0.036612313 -0.115267314 -0.06347706
-0.12033686 -0.02141957 0.24344845 -0.101353996 -0.04581607 0.13571322 0.12221857 0.10393082
-0.0783556 -0.043768313 -0.09588307 -0.01576365 -0.039016105 -0.09381386 0.09195579 -0.2564711
0.07060724 0.039485145 -0.07561872 0.038249973 0.05974475 0.021575144 -0.034068666 0.057099108
-0.013849902 -0.013679502 -0.012116368 -0.10275286 0.035999738 -0.0147734275 -0.10645054 -0.13842167
0.034788392 -0.07481531 -0.039355915 0.019214509 -0.07357151 -0.106656715 -0.008051838 0.051627472
0.07675112 0.06480174 0.0154791055 0.31153113 0.049340747 0.023258181 -0.14767672 -0.11546948
-0.110532925 -0.186589 -0.13557494 -0.084503666 -0.12682246 -0.07941843 -0.07173272 -0.03837866
0.287661 -0.025293788 -0.06517097 -0.11238198 0.039729044 -0.03650574 0.04662015 -0.055077147
-0.0896805 0.11821757 -0.048218768 0.11687074 -0.20452054 0.07619147 -0.1136278 -0.1263279
00000000: 2e5f a33d ce1e 8ebd f7e8 39be 285a 0a3e
00000010: ea68 173d 87fa ce3d 0f2c ce3d 81c8 803d
00000020: 57e3 38bf f11a e1bd 69c3 ddbc f75f 303d
00000030: 121f 3ebd 9ded 09be 29bb acbd 8f6e 1fbd
00000040: 3147 f23d 58db a8bd 3818 e9bd 2ae3 303d
00000050: f57c 3e3e 52a0 e53c 65cb 073d 03ed 90bd
00000060: a08e b9bd eb13 363c d31e 363d de5e d8bd
00000070: f219 0d3c 0e61 dfbc 8723 253d f04e fbbd
00000080: 123a b63d 80d8 a4bc 8743 6a3e f236 5dbd
00000090: 7a10 933b b333 fdbb 516d 17be 6b41 543d
000000a0: 5cc2 22be bc7b 49bd d090 06be 126f 51bd
000000b0: ee21 abbc 19fe b23c 9cf6 723b 95ac 453e
000000c0: 9580 103d c2b0 03bc 7560 dabc 71db a8bd
000000d0: 6d8a 8d3c c441 fbbd 887c b1bd 3645 9abc
000000e0: 5a84 223e 6dbb 04be f0c1 1dbe d35d 2b3d
000000f0: eb57 42be fbd9 3b3d 52cc f6be 58d5 2bbe
00000100: 57d7 0f3c 26f8 123d 0cb0 443d 2568 05bc
00000110: eda6 f93d 544a d83d 7fd9 a1be 9f7c 1e3e
00000120: 8bb3 aebc 0325 dfbe e6ae 603c 9efb 38be
00000130: 873f 513d fa07 4e3c c984 443d 2dec 21be
00000140: 2794 f5bd dadb 99bd acd2 c5bd b00e 6bbd
00000150: 32b3 41be 6c80 7e3c fa80 8fbd 2778 443e
00000160: 1d54 a13c 9178 babd ea5e b5bd 7599 a8bd
00000170: 9da0 40bd 9863 933c b68d cbbd 19f8 e5bd
00000180: cd1a a13d 8bfe 8e3c 4933 b3bc ad23 e2be
00000190: 0ee0 3dbe ff52 24be 2ba9 113e b521 943c
000001a0: b9e1 953c 86df febd 571c c83c 132a 91bd
000001b0: cac1 d53d 63e1 3abc c01b 8d3d 5b6b 19bd
000001c0: e8e7 a9be 8ec7 c5bd 6a47 d7bd d67b 593d
000001d0: b007 b5bd 3083 96bc 26c5 c7bd 401a b9bd
000001e0: e02f 85be 916a a2be 1950 543d 8b91 c3bd
000001f0: 6cec 82bc dca8 44bc 9fe1 30bb a70a 063e
00000200: 619b a0bd dcd3 57bd e69b bb3d 148d 93be
00000210: 2b42 b53e 7aad a2bd ac61 40be c768 583d
00000220: cfc3 1a3e 4bfc 373d c7f4 1a3e 39a6 09be
00000230: 5b8c 2a3c 0d97 123e 9869 6bbe 050c 90bd
00000240: 7651 ff3c b1c4 593d aa5f 2ebc 5ac8 a6bb
00000250: ec17 b8bd 2687 11bd 2e6b d73d 9620 82bd
00000260: f3b3 97bd 9ea1 6fbe 57b2 7f3e 7fc0 70bd
00000270: 3d2a b33d 4a3a 39bc 2d93 25bd b9e4 47bd
00000280: ac6b 73bd 648a 503d 2c6d c9bc c16a b53d
00000290: f521 83bc 1d19 92bb f794 1dbd 4f29 79bd
000002a0: bd53 b3bd 2e44 eabd 2f6a 29be 2e10 27bd
000002b0: c999 9cbe aefb d83b 0262 cfbd f385 42bc
000002c0: a605 693c 0cbd 0e3d f64d 873d 8609 09bd
000002d0: 503d 81bd cbf6 153d 4511 ecbd 4300 82bd
000002e0: 2c73 f6bd 1878 afbc 8d4a 793e af92 cfbd
000002f0: a2a9 3bbd 68f8 0a3e bb4d fa3d afd9 d43d
00000300: e778 a0bd 6746 33bd 585e c4bd c522 81bc
00000310: 5acf 1fbd 7b21 c0bd 5153 bc3d 2e50 83be
00000320: 879a 903d 2dbb 213d fddd 9abd 01ac 1c3d
00000330: e9b6 743d 5bbe b03c 968b 0bbd c1e0 693d
00000340: b3ea 62bc fd1f 60bc bb83 46bc 1770 d2bd
00000350: 7674 133d 3f0c 72bc be02 dabd 69be 0dbe
00000360: 467e 0e3d c538 99bd ab33 21bd bf67 9d3c
00000370: a9ac 96bd d66e dabd dbeb 03bc 5477 533d
00000380: b12f 9d3d c6b6 843d 139c 7d3c 0281 9f3e
00000390: 8619 4a3d f187 be3c 9138 17be 437b ecbd
000003a0: 165f e2bd 3011 3fbe 28d4 0abe 4210 adbd
000003b0: bfdd 01be 21a6 a2bd 9be8 92bd f132 1dbd
000003c0: 4d48 933e eb34 cfbc 5c78 85bd 8628 e6bd
000003d0: ecba 223d 0b87 15bd c5f4 3e3d 9398 61bd
000003e0: 69aa b7bd 0e1c f23d 0b81 45bd ed59 ef3d
000003f0: d56d 51be 460a 9c3d b1b5 e8bd 1a5c 01be

bias f4 [64]
0.21174823 1.1673979 0.44249412 1.1178317 2.8481853 -0.17479347 1.3048239 -0.5917435
-0.095311634 -0.38355795 1.8806676 0.44100404 1.4162372 -1.1630698 -0.30392644 -0.27518046
0.06973119 -0.064823054 0.15252882 2.873479 1.5653827 -0.095580846 1.9920722 1.2527188
1.3871428 1.4960673 0.28199497 3.0131233 0.9527148 1.3620747 0.9003858 1.9239267
0.14969827 1.2694105 1.7548503 2.678859 1.3744121 1.406474 0.13689731 0.03912234
-0.37016433 0.30795935 3.2542593 1.1109544 1.5799696 0.6133184 0.9858712 0.43598056
-0.24281667 0.9534512 0.34715235 0.26716727 2.5299869 -1.023328 3.2544742 1.3261738
1.3153765 0.17564313 1.2517555 0.58789957 1.1033252 0.19630122 1.028804 0.16724582
00000000: 87d4 583e 4b6d 953f 978e e23e 1c15 8f3f
00000010: ab48 3640 0ffd 32be 7804 a73f 817c 17bf
00000020: bf32 c3bd b561 c4be b7b9 f03f 48cb e13e
00000030: 4347 b53f 79df 94bf 3f9c 9bbe 74e4 8cbe
00000040: 3acf 8e3d f3c1 84bd 8430 1c3e 14e7 3740
00000050: 765e c83f e4bf c3bd 39fc fe3f 1759 a03f
00000060: e58d b13f 227f bf3f a561 903e 03d7 4040
00000070: 1ee5 733f 7758 ae3f af7f 663f 3b43 f63f
00000080: 814a 193e 0b7c a23f ef9e e03f 6d72 2b40
00000090: bcec af3f 5707 b43f cf2e 0c3e bf3e 203d
000000a0: 2e86 bdbe d9ac 9d3e c945 5040 c133 8e3f
000000b0: 723c ca3f 6f02 1d3f 0e62 7c3f d838 df3e
000000c0: efa4 78be 6115 743f f4bd b13e 26ca 883e
000000d0: 4eeb 2140 69fc 82bf 4e49 5040 10c0 a93f
000000e0: 425e a83f cbdb 333e 8639 a03f 9680 163f
000000f0: c339 8d3f 3003 493e d9af 833f 7d42 2b3e

weight f4 [32, 64]
-0.047423612 -0.18728374 -0.042292085 -0.19243531 -0.12576857 -0.16808353 -0.49891266 -0.17704841
-0.0005474784 -0.23026027 -0.19358899 -0.0297969 -0.019081296 -0.031315666 -0.091677256 -0.009704655
-0.012520835 0.018445708 -0.04285317 0.16804339 -0.020945856 -0.046777777 0.09868554 -0.2242352
0.024279965 -0.1575229 -0.020247206 0.08363452 -0.4775239 -0.3316256 -0.00045313046 0.014271608
-0.013762948 -0.0075584347 -0.042268824 -0.059500277 -0.16772783 -0.019995587 0.011246785 -0.048026443
0.039869852 -0.035790104 -0.096568644 -0.59582424 -0.021830218 -0.012100587 -0.34818488 -0.036415037
-0.25156158 -0.22104283 0.021378918 -0.1547214 -0.35482308 -0.08657732 -0.120400846 0.011595154
-0.38930905 -0.11369365 -0.31347892 -0.003297772 -0.4079398 -0.026901802 -0.31612584 -0.05186622
0.0061969995 -0.40123254 0.03334867 -0.34072044 -0.24324432 -0.080845445 -0.55637074 -0.3218367
0.00459763 -0.2874537 -0.13383299 0.08994062 0.01698172 -0.2238153 -0.0042617475 -0.006716684
-0.028584635 0.0069287196 -0.0049965167 0.03403737 -0.15948756 -0.12610577 -0.014406875 0.08318422
-0.020429779 -0.06429147 0.031036772 -0.15397719 -0.30310252 -0.43262574 -0.027382486 -0.08060303
0.0034096902 0.013735122 -0.17064813 -0.032281965 -0.28935066 0.014023536 -0.03513192 -0.017981771
-0.11753733 -0.007799209 -0.20194343 -0.4718568 -0.09197226 0.0031983305 -0.5960973 0.017060326
-0.07573891 0.012052812 -0.003931264 -0.2078522 0.05185865 -0.086761564 -0.12610401 -0.08125255
-0.5587217 0.009315326 -0.45051256 0.01336986 -0.43157724 -0.045953594 -0.49979433 -0.056375604
-0.45395553 0.0075672553 -0.20043251 0.011831839 -0.10683086 -0.036827695 -0.010934085 0.06369333
-0.64221174 0.08555846 -0.0911233 -0.067555174 -0.07018716 -0.003951222 0.0417485 -0.022551645
-0.45979542 -0.52366024 -0.4646698 -0.09757176 -0.082783006 -0.009235043 -0.08295659 -0.07324247
-0.16227666 0.008419818 -0.11218024 -0.015226406 0.009887307 -0.012401873 -0.24921308 -0.048991684
-0.3573961 -0.08707386 -0.11284937 -0.015956763 0.0067611174 -0.2558413 -0.5750812 -0.35798094
0.038806804 -0.5054284 0.013464102 0.050232116 -0.07368583 -0.26861897 -0.021383535 -0.50360644
0.022369755 -0.14956464 -0.25879636 0.058822606 -0.052857704 0.048778642 -0.0174582 -0.0781314
-0.046415348 0.12520215 -0.003889752 -0.34266847 0.033368424 -0.5974739 -0.0030368657 -0.64781773
-0.35913372 0.018272867 0.061513968 -0.00072266744 -0.0702235 -0.06646426 -0.003262597 0.112122156
-0.6355112 0.111782886 -0.09836429 -0.022690712 -0.09723309 0.052710794 0.074372955 -0.09751693
-0.46680382 -0.5005346 -0.39031702 -0.02603516 -0.012986541 0.020017654 -0.116825365 -0.085076235
-0.22097218 -0.04511762 -0.041761953 -0.05637545 -0.010780565 -0.005272077 -0.29626152 -0.028238205
-0.47321683 -0.16156593 -0.037103012 -0.0031618918 -0.019256225 -0.3991003 -0.38803917 -0.35723862
0.13269511 -0.4726114 -0.018824492 0.00010562377 -0.070788085 -0.36346552 0.05338902 -0.55396026
0.033217642 0.003791437 -0.070994146 -0.08714604 -0.08450157 0.04443095 0.03104377 -0.12133165
0.050276928 -0.12713517 0.0046541626 -0.57344615 0.005078657 -0.41021785 0.03935148 -0.58185077
00000000: 433f 42bd 4fc7 3fbe 773a 2dbd c30d 45be
00000010: 7ac9 00be 171e 2cbe 7b71 ffbe 2e4c 35be
00000020: a784 0fba 59c9 6bbe 313c 46be a118 f4bc
00000030: 6150 9cbc db44 00bd 49c1 bbbd 4600 1fbc
00000040: 3024 4dbc 741b 973c ce86 2fbd 9113 2c3e
00000050: a596 abbc 0e9a 3fbd a51b ca3d ea9d 65be
00000060: c7e6 c63c af4d 21be 78dd a5bc 9348 ab3d
00000070: 037e f4be d5ca a9be 2492 edb9 76d3 693c
00000080: fd7d 61bc bfac f7bb 1322 2dbd 90b6 73bd
00000090: d8c0 2bbe c9cd a3bc 6f44 383c 60b7 44bd
000000a0: 924e 233d a598 12bd c8c5 c5bd f087 18bf
000000b0: 49d5 b2bc 8a41 46bc 4a45 b2be ef27 15bd
000000c0: aecc 80be 0d59 62be d722 af3c 496f 1ebe
000000d0: 5fab b5be 734f b1bd b894 f6bd 9af9 3d3c
000000e0: 8453 c7be 37d8 e8bd 4f80 a0be 6f1f 58bb
000000f0: 7cdd d0be 2b61 dcbc 3fdb a1be ac71 54bd
00000100: 3310 cb3b 5a6e cdbe 9d98 083d e972 aebe
00000110: 0a15 79be 4c92 a5bd 506e 0ebf c8c7 a4be
00000120: b7a7 963b 222d 93be 840b 09be ca32 b83d
00000130: 401d 8b3c d72f 65be 21a6 8bbb a117 dcbb
00000140: 532a eabc 500a e33b d2b9 a3bb c56a 0b3d
00000150: b550 23be df21 01be d00a 6cbc 7d5c aa3d
00000160: 5a5c a7bc 3fab 83bd d440 fe3c 32ac 1dbe
00000170: 4130 9bbe 1f81 ddbe 3c51 e0bc 3413 a5bd
00000180: 1c75 5f3b 4709 613c 62be 2ebe 183a 04bd
00000190: c525 94be f9c2 653c 7de6 0fbd 824e 93bc
000001a0: 69b7 f0bd 8290 ffbb 42ca 4ebe 3797 f1be
000001b0: f45b bcbd 159b 513b d599 18bf 19c2 8b3c
000001c0: 001d 9bbd 2879 453c d5d1 80bb 35d7 54be
000001d0: bc69 543d 0cb0 b1bd 6921 01be bd67 a6bd
000001e0: 6308 0fbf 4f9f 183c 95a9 e6be 420d 5b3c
000001f0: b1f7 dcbe d639 3cbd 0be5 ffbe 1bea 66bd
00000200: dc6c e8be bdf6 f73b 2e3e 4dbe 54da 413c
00000210: 23ca dabd a3d8 16bd e024 33bc a671 823d
00000220: fd67 24bf 4639 af3d da9e babd 5e5a 8abd
00000230: 49be 8fbd 4179 81bb 7a00 2b3d 3abe b8bc
00000240: 4e6a ebbe 990e 06bf 33e9 edbe b4d3 c7bd
00000250: 238a a9bd 944e 17bc 25e5 a9bd 2600 96bd
00000260: da2b 26be 47f3 093c c1be e5bd 2d78 79bc
00000270: 5ffe 213c 3a31 4bbc b731 7fbe 81ab 48bd
00000280: 9ffc b6be c853 b2bd 921d e7bd c2b7 82bc
00000290: 5d8c dd3b a2fd 82be 8638 13bf 4749 b7be
000002a0: e2f3 1e3d c163 01bf 8998 5c3c 31c0 4d3d
000002b0: 99e8 96bd 6d88 89be 862c afbc 5aec 00bf
000002c0: c740 b73c 7927 19be f580 84be f9ef 703d
000002d0: 5281 58bd 1dcc 473d 8004 8fbc 5b03 a0bd
000002e0: 051e 3ebd fe34 003e 36eb 7ebb 3e72 afbe
000002f0: 54ad 083d 0df4 18bf 2706 47bb 62d7 25bf
00000300: 60e0 b7be fbb0 953c 12f6 7b3d 6471 3dba
00000310: 57d1 8fbd 6a1e 88bd 4bd1 55bb 4da0 e53d
00000320: ddb0 22bf 6dee e43d 3873 c9bd dfe1 b9bc
00000330: 2422 c7bd 46e7 573d d950 983d f5b6 c7bd
00000340: e900 efbe 0923 00bf a2d7 c7be b047 d5bc
00000350: 80c5 54bc 10fc a33c 2342 efbd 733c aebd
00000360: 8846 62be 41cd 38bd 950e 2bbd f2e9 66bd
00000370: f8a0 30bc 63c1 acbb 97af 97be cf53 e7bc
00000380: 7a49 f2be 8a71 25be 54f9 17bd be37 4fbb
00000390: 3bbf 9dbc e056 ccbe 12ad c6be fbe7 b6be
000003a0: 3ae1 073e 1ffa f1be d235 9abc 5482 dd38
000003b0: 58f9 90bd 2718 babe 72ae 5a3d 57d0 0dbf
000003c0: 390f 083d c279 783b 6165 91bd 9f79 b2bd
000003d0: 290f adbd 3afd 353d 814f fe3c ba7c f8bd
000003e0: 2eef 4d3d b92f 02be f281 983b 5ecd 12bf
000003f0: dd6a a63b 1308 d2be 042f 213d 2cf4 14bf

bias f4 [32]
4.694402 4.777528 3.44788 3.4474263 4.568675 4.6465435 4.3010273 3.3872602
4.525372 3.3764462 4.4829907 4.333909 3.421748 3.5332043 3.5606983 3.4611027
3.5128183 4.3905225 4.585701 4.437138 3.490071 3.4211476 4.7759957 3.4303286
4.6066413 3.3399198 4.583555 3.560793 3.510668 4.490093 4.566501 3.417403
00000000: 8b38 9640 82e1 9840 11aa 5c40 a2a2 5c40
00000010: 9632 9240 7cb0 9440 04a2 8940 dfc8 5840
00000020: d9cf 9040 b217 5840 a974 8f40 62af 8a40
00000030: ebfd 5a40 0520 6240 7be2 6340 b582 5d40
00000040: 04d2 6040 297f 8c40 10be 9240 09fd 8d40
00000050: 535d 5f40 15f4 5a40 f5d4 9840 818a 5b40
00000060: 9b69 9340 3fc1 5540 7cac 9240 08e4 6340
00000070: c9ae 6040 d8ae 8f40 c720 9240 bbb6 5a40

weight f4 [1, 32]
-0.014455809 -0.0038384767 0.030656839 0.04052646 -0.0115315085 -0.013517155 -0.002849543 0.034339115
-0.01471125 0.037283655 -0.013638593 -0.0110557275 0.043219477 0.033257637 0.04172637 0.03312029
0.030319903 -0.01331101 -0.011460607 -0.01990849 0.037809618 0.03909449 -0.0066591543 0.025286099
-0.008843579 0.028090449 -0.009616432 0.036681324 0.039413754 -0.009172277 -0.0127690695 0.026147202
00000000: 0fd8 6cbc f48e 7bbb 0d24 fb3c 13ff 253d
00000010: a7ee 3cbc 0f77 5dbc 66bf 3abb 2ca7 0c3d
00000020: 7407 71bc bfb6 183d 6874 5fbc 1523 35bc
00000030: e806 313d 2939 083d 45e9 2a3d 24a9 073d
00000040: 7261 f83c 6c16 5abc 45c5 3bbc 2117 a3bc
00000050: 42de 1a3d 8b21 203d 0935 dabb cb24 cf3c
00000060: a9e4 10bc f11d e63c 3d8e 1dbc 283f 163d
00000070: 5170 213d 5147 16bc 5c35 51bc a832 d63c
