model/soccer_ai_model.pt (torch, 777075 bytes, 11 tensors)

weight f4 [512, 29]
000000 87 26 93 3c 0e c4 44 40 b8 c4 a9 3e de 6d 54 40
       0.017962707 3.0744662 0.33157897 3.3192058
000010 9a 1a 02 40 5f 8b 42 40 7b 06 99 bf 38 3c cb bf
       2.0328736 3.0397565 -1.1955103 -1.5877752
000020 d1 f4 4a c0 69 84 cb be 8c 79 0f c0 88 02 b5 bf
       -3.1711924 -0.39749458 -2.2417936 -1.4141397
000030 d0 0f f2 bf f2 dd 5f 40 90 a0 31 40 9c 54 97 3f
       -1.8911076 3.4979215 2.775425 1.1822696
000040 05 b6 a2 3f 5d b5 e2 3f 86 0b 68 bf 36 cb f7 bf
       1.2711798 1.7711598 -0.90642583 -1.935889
000050 6f e7 bb 3f 0b 5e f0 bf 94 ec 75 bf 27 2f 05 3f
       1.4680003 -1.87787 -0.96064115 0.52025074
000060 26 a3 91 bf 58 b8 f2 bf 04 d4 26 40 1f cb 11 3f
       -1.1377914 -1.8962507 2.6066904 0.56950563
000070 9b 02 be bf 0e 35 8a 3d 29 15 58 3d 59 d9 9a 3f
       -1.4844545 0.06748401 0.052754555 1.2097579
000080 56 3e 74 be 04 9c 44 3f d0 3f 1b bf e7 f9 05 40
       -0.23851904 0.7680056 -0.60644245 2.0933778
000090 48 7b b9 3f 28 d6 82 3e 48 ea 83 bf 9f 66 2b be
       1.4490747 0.25554013 -1.0305872 -0.16738366
0000a0 d2 2e 98 3f e7 cb a9 3f 70 7c ad 3f ed 26 54 bf
       1.1889288 1.3265351 1.35536 -0.82871896
0000b0 65 0b ca bf 08 cc ac 3e 53 cf 13 3f eb 53 2a 3f
       -1.5784727 0.33749413 0.57738227 0.665343
0000c0 6e 09 34 bf 3e 79 fa 3e 79 a9 fe be 63 ab 11 3f
       -0.7032689 0.48920625 -0.49738672 0.5690214
0000d0 86 4e 4a 3e 24 e1 98 3f a1 eb b8 3f 51 c9 a1 3d
       0.19756517 1.1943707 1.4446908 0.07899726
0000e0 23 e4 a5 3f e4 d8 13 bf 53 90 0a 3e 0f ca f4 3e
       1.2960247 -0.57752824 0.13531618 0.47810408
0000f0 21 7a 30 3f 86 33 c1 3e 5c fe 95 3e 33 63 5f be
       0.68936354 0.37734622 0.29295623 -0.21815185
000100 b3 54 d2 3f b1 a6 c6 3e 42 cc ae 3f cc 4f 3f 3d
       1.6432098 0.3879905 1.3656085 0.04670696
000110 2a 75 ac 3e ba df 83 3f 77 be d3 3e a5 67 b4 c0
       0.3368314 1.0302651 0.4135625 -5.637652
000120 1c 0e f7 bf 09 46 15 c0 8c 6b d6 3e 71 0a 17 3f
       -1.9301181 -2.3323996 0.41878927 0.5900031
000130 2f a8 68 3e 89 31 85 bd bb d3 d8 3e 9e 14 14 be
       0.22720407 -0.06503589 0.42349038 -0.1446099
000140 ef b2 85 3e 3b a2 d9 3f 95 4b 7d 3f a5 e4 d7 3e
       0.26113078 1.7002634 0.98943454 0.4216663
000150 a3 7b a1 3f d5 d3 04 3f 03 00 0f 40 0f 27 65 3d
       1.2615856 0.5188573 2.2343757 0.055945452
000160 bd 3c 17 40 39 b3 11 bd 56 82 26 40 33 d5 2e 3f
       2.3630822 -0.03557131 2.601705 0.68294066
000170 72 00 e2 3f 0f 8f a4 bf 7b ee 85 be ee cb 66 bf
       1.7656386 -1.2856158 -0.2615851 -0.9015492
000180 75 86 6f 40 6d 36 1e bf 57 31 82 bf cf c7 17 bd
       3.7425816 -0.618018 -1.0171307 -0.037055787
000190 2d f8 91 3f cf cf 57 c0 f7 b1 72 c0 76 e1 b7 3f
       1.1403862 -3.3720586 -3.792112 1.436568
0001a0 78 66 bd 3f b2 15 26 40 a9 d7 e2 bf de ca a4 3f
       1.4796896 2.5950742 -1.7722064 1.287441
0001b0 53 ce ba bf 98 30 20 40 cd 1b 95 40 43 d4 85 bf
       -1.4594215 2.502966 4.6596437 -1.0455402
0001c0 b3 1b 7c be fe 71 09 40 3e f2 9e 3f 61 2e 9a 3f
       -0.24619941 2.1475825 1.2417676 1.2045404
0001d0 11 be d2 3b 01 de b3 be 07 21 a2 3f 3e 4d 6d bc
       0.006431349 -0.35130313 1.2666329 -0.014483748
0001e0 73 4f 07 3f f6 5c d8 3e 51 d9 23 3f 97 c4 a0 be
       0.52855605 0.42258424 0.64003474 -0.31399986
0001f0 cc e9 8f be 9f bb 33 bf 0e c4 a1 3c 1e 64 89 3e
       -0.2810806 -0.7020816 0.019746806 0.26834196
000200 09 ca 0f bf 11 d0 58 c0 6e e6 81 bf 5a 90 b9 bf
       -0.56167656 -3.3876994 -1.0148447 -1.4497178
000210 18 88 08 3f 82 66 bc 3e 69 9d b3 3e 2e 88 41 bf
       0.5333266 0.36796957 0.35081032 -0.7559842
000220 96 80 47 3f ba a5 34 bf f3 1b b6 3e 7e 48 f5 3f
       0.7793058 -0.7056538 0.355682 1.9162748
000230 10 c8 00 3e 01 87 38 bf f3 7d 21 3f 6e 13 93 3f
       0.12576318 -0.72081 0.6308281 1.1490304
000240 0b 78 1e 40 ee 6f 81 bd 94 a4 a1 3f df 81 1a c0
       2.4760768 -0.06320177 1.262835 -2.4141767
000250 69 43 95 3f 9f 24 83 3f 71 42 22 40 cc 4d 37 bf
       1.1661197 1.0245551 2.5353053 -0.71603084
000260 50 62 14 3f ad 1d 7f c0 c6 a1 0e c0 0d ef 68 3e
       0.5796251 -3.9861863 -2.2286239 0.2274744
000270 f9 90 4d bf df 34 74 3e ee 26 57 3e eb 73 9f 40
       -0.80299336 0.23848294 0.21010944 4.9829
000280 8a 01 0c 40 86 fa 77 3f 31 46 6f 3f 79 38 e9 3f
       2.187594 0.96866643 0.9346648 1.8220359
000290 51 b4 04 bf cb 0f 48 3f bb 1f 44 bf ad a1 f3 3f
       -0.5183764 0.781491 -0.76610917 1.9033715
0002a0 93 cb ca 3f f5 c0 17 bf 95 fb 8a 3e 17 cd 68 3f
       1.5843376 -0.59278804 0.27145067 0.9093794
0002b0 e0 0c 46 bf ee 98 c8 3c c2 2f ff 3d ae 9d 7b bf
       -0.77363396 0.024486985 0.12460281 -0.98287475
0002c0 b4 8f c5 3f ba 93 5d bf 8d 71 e7 3f 07 c1 33 bf
       1.543448 -0.8655354 1.8081528 -0.7021641
0002d0 63 71 92 40 c7 34 b2 3f e0 4b 8d bd dd c1 99 3f
       4.576341 1.3922356 -0.06899238 1.2012287
0002e0 33 ff 9e bd 6e 45 9a 40 e9 0a ac 3f 0d 0b 9c bf
       -0.07763519 4.8209753 1.344083 -1.2190872
0002f0 e0 5d a8 bf 28 80 08 c0 14 7a f7 3f 87 da 1f 40
       -1.3153648 -2.132822 1.933413 2.4977129
000300 12 95 a7 3f 50 26 fa bf 6a 90 02 40 22 66 07 c0
       1.3092368 -1.9542942 2.0400643 -2.1156087
000310 b8 53 bf 3f b6 a4 77 3f e8 19 97 40 75 8b be 3f
       1.4947424 0.96735704 4.7219124 1.4886309
000320 e5 46 63 bf dc 5b d1 3f 56 bf 01 c0 46 e1 a5 3c
       -0.8878005 1.6356158 -2.0273032 0.02024902
000330 76 91 91 3c 37 69 0a 3f 06 da d5 3e ae 2e d5 3c
       0.017769556 0.54066795 0.417679 0.026023235
000340 37 0c 32 3f b2 86 86 3f 81 25 2c 3f df 4b 25 3f
       0.6954989 1.0509856 0.67244726 0.64568895
000350 00 17 ea be 0b 12 e8 be 91 1f 67 3f 4a dd b2 3d
       -0.45720673 -0.45326266 0.9028254 0.08733614
000360 61 b5 a1 c0 e8 3d a5 bf 6c 0e 03 c0 14 44 25 3e
       -5.053391 -1.2909517 -2.0477552 0.16139251
000370 f4 f8 57 be 5f 57 95 3f 76 ea 1e be 3b da 83 bd
       -0.21091062 1.1667289 -0.15519127 -0.064381085
000380 71 bf 87 be 09 a7 9c 3f 24 d3 94 3f 97 03 6d 3f
       -0.26513246 1.2238475 1.1626935 0.925836
000390 68 58 9f 3d 14 99 7a 3d ce cf 1d 3f 76 56 ce 3f
       0.07780534 0.061181143 0.6164521 1.6120136
0003a0 82 c5 2e 3e 6a 9c 5d be 5c 38 99 bf b3 ce 3a 3d
       0.17067531 -0.21641698 -1.1970325 0.04560728
0003b0 b1 01 f8 3f de 2e 3b 40 ab 06 87 bf 7b 51 77 bf
       1.9375516 2.9247355 -1.054891 -0.96608704
0003c0 0d d2 37 3d 75 58 a7 bf 8c 60 76 3f a7 72 b2 bf
       0.044878054 -1.307387 0.9624107 -1.3941239
0003d0 70 52 68 bf 41 59 51 40 61 75 df 3f d0 8a 44 bf
       -0.9075079 3.2710726 1.7457696 -0.7677431
0003e0 9d 94 e2 3f f9 e8 96 3f 4a f6 9f bf 9b 4c 1c bf
       1.7701603 1.1789848 -1.2497036 -0.6105439
0003f0 16 f4 d4 3f 35 ac a3 bf 24 ca 9d bf 6b 91 14 3c
       1.6636989 -1.2786928 -1.2327313 0.0090678735

bias f4 [512]
000000 2e fc 11 c0 5d 58 71 bf 93 a8 21 bf ed 93 11 c0
       -2.2810168 -0.94275457 -0.6314785 -2.2746537
000010 f3 60 ba bf 08 0b 9c bf 92 6e 15 c0 f5 de 46 bf
       -1.4560837 -1.2190866 -2.3348737 -0.77683955
000020 9c f8 b1 bf 22 72 aa bf 14 e2 e7 bf 07 69 d3 bf
       -1.3903995 -1.331608 -1.8115869 -1.6516427
000030 e7 4f 3c c0 d9 f7 06 bf d8 c0 37 bf 29 51 d0 bf
       -2.9423769 -0.52721936 -0.7177863 -1.6274768
000040 34 97 7f c0 6b 14 01 bf 33 b9 24 c0 d5 02 d8 bf
       -3.9936037 -0.5042178 -2.5738037 -1.6875864
000050 1f 24 22 c0 b9 c5 41 c0 4f d0 19 c0 3c c0 1e bf
       -2.5334547 -3.027693 -2.4033391 -0.62012076
000060 87 f6 1d bf 5f ff e3 bf 69 3a 0e c0 16 1a 43 c0
       -0.61704296 -1.7812308 -2.222315 -3.0484672
000070 0d 58 c2 bf fc f7 90 bf 6a de e7 be 71 cf 25 c0
       -1.5183121 -1.1325679 -0.45286876 -2.5907862
000080 75 50 7f bf 51 ce 9e bf 3c 56 53 bf e4 25 e2 bf
       -0.9973214 -1.2406713 -0.8255346 -1.7667813
000090 96 4f c7 bf 94 80 bb bf 79 ea 5d bf 56 58 11 c0
       -1.5571163 -1.4648614 -0.866859 -2.2710166
0000a0 02 3a 11 c0 b5 10 79 c0 10 87 3e c0 f6 e1 02 c0
       -2.2691655 -3.8916447 -2.9769936 -2.0450416
0000b0 2a c1 b3 bf 37 cb ed bf 91 20 81 bf cd a0 ce bf
       -1.4043324 -1.8577641 -1.0088063 -1.6142823
0000c0 ff 22 d5 bf 11 88 72 bf ba 1c 3c bf 1a de 01 c0
       -1.6651305 -0.9473887 -0.73481333 -2.029181
0000d0 5f b0 13 bf ae f6 9e bf 63 d2 4a bf e6 4b d1 bf
       -0.57690996 -1.2419031 -0.79227275 -1.6351287
0000e0 5b a5 30 c0 4b 92 a1 be 71 d8 ef bf f5 90 1e c0
       -2.7600925 -0.31556925 -1.8737928 -2.4775975
0000f0 ed d9 3b bf b0 06 59 bf b4 65 8c be ca 83 f6 be
       -0.73379403 -0.8477583 -0.27421343 -0.48147422
000100 57 f9 9c bf b1 38 ff be ea b7 bf bf 3f 62 a4 bf
       -1.2263592 -0.4984794 -1.4978001 -1.2842482
000110 b6 1a 10 c0 44 3e c3 bf fa 15 d1 bf 81 9b 12 c0
       -2.2516303 -1.5253377 -1.6334832 -2.2907412
000120 0f f4 4c bf 96 a7 70 bf c7 cf d5 bf 99 3d 05 c0
       -0.80059904 -0.94005716 -1.6704034 -2.0818846
000130 23 a8 2b c0 93 41 20 c0 e4 f1 c1 bf 6b 01 41 bf
       -2.6821373 -2.5040023 -1.5151944 -0.7539279
000140 ea 37 2a c0 9b a8 0f c0 6b 92 41 c0 85 a3 f2 bf
       -2.6596627 -2.2446659 -3.0245616 -1.8956152
000150 cf b6 ad bf 6d 75 a9 be 29 97 cf bf 60 67 b1 bf
       -1.3571414 -0.330974 -1.6218005 -1.3859673
000160 61 53 21 c0 91 bf 1c bf 9f ab b4 bf 97 aa 59 bf
       -2.520714 -0.6122981 -1.4114875 -0.85025924
000170 57 dc 49 bf 0c d3 bf bf 37 cc 01 c0 b2 cf 47 bf
       -0.78851837 -1.4986281 -2.0280893 -0.7805129
000180 96 b4 40 c0 2a 74 06 c0 bc 3a 4f c0 f1 16 f4 bf
       -3.011022 -2.10084 -3.2379599 -1.9069501
000190 78 7c 00 c0 39 b9 bf bf 6e cc fb bf 25 bb ff bf
       -2.007597 -1.49784 -1.9671762 -1.9978987
0001a0 fc 15 e6 be 3a 2b 80 3e 8c 2c f7 bf 73 eb a6 bf
       -0.44938648 0.2503298 -1.931047 -1.3040603
0001b0 b3 cd 51 bf 0c 5c fb bf ea 8c 08 c0 fd 0b 0d c0
       -0.819545 -1.9637465 -2.1336007 -2.2038567
0001c0 1f 6b 41 c0 7a a5 9b bf 4b 90 15 c0 3c 55 15 c0
       -3.0221632 -1.2159874 -2.336932 -2.3333273
0001d0 28 1b 43 bf 03 fc 2e bf 1c 6b af 3e 92 cd 50 c0
       -0.7621331 -0.6835329 0.34261405 -3.262547
0001e0 1c bc ae bf 9e a3 55 3e 6a af b8 bf f1 a3 54 c0
       -1.3651156 0.20863196 -1.4428532 -3.3225062
0001f0 d1 59 12 c0 54 bb 52 bf 71 8f cb bf 74 3f b2 bf
       -2.286732 -0.8231709 -1.590315 -1.3925614
000200 33 42 3f bf 4a b1 14 c0 13 d9 c4 bf aa a4 e3 bf
       -0.74710387 -2.3233209 -1.5378746 -1.7784626
000210 e5 a7 fa bf 44 de 51 c0 30 39 d7 bf 19 b2 cd bf
       -1.9582487 -3.279191 -1.6814327 -1.6069976
000220 84 d8 8b be a1 44 54 c0 cb 4a 03 c0 60 1e 27 bf
       -0.27313626 -3.3166888 -2.05144 -0.65280724
000230 c2 d0 f5 bf ac ae 70 3e 86 17 32 c0 c9 f7 aa bf
       -1.9204333 0.23504132 -2.7826858 -1.3356868
000240 fb f5 ec bf 0f df 31 bf 30 a6 38 bf d7 79 40 c0
       -1.8512567 -0.69480985 -0.7212858 -3.0074365
000250 de 5d 75 bf 6e 7b c8 bf 03 14 1f bf be 0a a0 bf
       -0.95846355 -1.5662668 -0.6213991 -1.2503278
000260 b2 1b 1e bf 02 44 6e bf 6b 38 6b bf b6 fe 40 bf
       -0.6176101 -0.9307252 -0.9188296 -0.7538866
000270 b8 b3 82 bf f2 4f 11 c0 df ac c4 bf 52 5e ed be
       -1.0211096 -2.2705045 -1.5365256 -0.46361023
000280 16 75 4d c0 aa 60 a6 bf 08 be 06 c0 b2 f2 1a c0
       -3.2102714 -1.299825 -2.1053486 -2.421063
000290 ab bd 1f c0 1c 5f 83 bf 25 50 9d bf 39 d4 af bf
       -2.4959514 -1.02634 -1.2290083 -1.373664
0002a0 75 2f 22 c0 e6 17 bb bf 10 2d e6 bf cb 63 17 c0
       -2.5341465 -1.4616668 -1.7982502 -2.3654659
0002b0 c5 ae ec bf ac 11 d5 bf 91 53 41 3e 73 1d e5 bf
       -1.8490835 -1.6646018 0.18879534 -1.7899612
0002c0 5a 00 da bf 8f 40 c2 bf 0f f4 9c 3d 0c f8 80 bf
       -1.7031357 -1.5175952 0.07663738 -1.0075698
0002d0 75 22 0c c0 55 e7 3b bf 32 02 96 bf 9e 8f 3b bf
       -2.189603 -0.7339986 -1.171942 -0.7326602
0002e0 d5 e9 eb bf f4 42 05 c0 ed 4e 41 c0 d6 fd 7a bf
       -1.8430735 -2.0822115 -3.0204422 -0.9804357
0002f0 3b 65 0a c0 9a 84 af bf b4 78 06 c0 18 92 9b bf
       -2.1624286 -1.3712342 -2.1011171 -1.2153959
000300 ce 7e 39 be 28 db 25 bf 8b 74 09 c0 9a f6 de bf
       -0.18114778 -0.6478753 -2.1477382 -1.7419007
000310 5f 03 73 3e 76 c3 e5 be c9 ec 93 bf b1 96 34 bc
       0.23731755 -0.44875687 -1.1556636 -0.011022256
000320 2f 1b 39 c0 84 84 08 c0 6a 97 33 be 52 a3 94 bf
       -2.8922842 -2.133088 -0.17538229 -1.1612341
000330 01 2f ba bf e0 8e d6 bf 8f b4 ea bf 2d d1 71 bf
       -1.4545594 -1.6762352 -1.8336352 -0.944598
000340 04 37 91 bf 5c f9 86 bf 32 d4 5d c0 10 3f 09 c0
       -1.1344914 -1.0544848 -3.4660764 -2.144474
000350 a2 56 62 c0 ec 2b 25 c0 d7 5e 89 bf 87 4a fd bf
       -3.5365376 -2.5808058 -1.0732068 -1.9788369
000360 bc c4 e3 bf b6 b6 9c bf 71 88 0b c0 fb 5a 0d c0
       -1.7794414 -1.2243259 -2.1802027 -2.208678
000370 27 8b ca 3d e1 18 c0 bf 38 0d 94 bf b2 01 58 c0
       0.098898225 -1.5007592 -1.1566534 -3.3751035
000380 47 d5 54 c0 2e ad c8 bf 7b 9d bc bf 70 74 0a bf
       -3.3255174 -1.567785 -1.4735559 -0.5408392
000390 db 7e e7 3e 21 00 be bf 78 be f4 bf a6 dc 0a c0
       0.4521397 -1.4843789 -1.9120626 -2.1697173
0003a0 1a 1e 73 bf 39 de 57 bf 9c 6f c4 be c9 03 e7 bf
       -0.94967806 -0.8432346 -0.383664 -1.804803
0003b0 b2 9d d3 be 18 b2 b2 bf 48 d3 f1 bf f3 5f 95 bf
       -0.4133125 -1.39606 -1.8892603 -1.1669906
0003c0 95 f4 54 bf 7d f3 c4 bf 3a 70 80 c0 24 d6 35 c0
       -0.831857 -1.5386807 -4.0136995 -2.841195
0003d0 51 f5 c1 3a c1 4c db bf 4c 0a c9 bf 7d 61 a1 bf
       0.0014797841 -1.7132798 -1.5706267 -1.2607876
0003e0 2d be 86 bf b5 12 00 c0 c0 ae 25 c0 80 41 14 c0
       -1.0526787 -2.0011418 -2.588791 -2.3164978
0003f0 9f 27 a2 c0 20 4d bc bf fa f5 6c bf 59 69 df 3c
       -5.0673366 -1.4711037 -0.9256283 0.027271913

weight f4 [256, 512]
000000 77 ec e1 3f 32 71 2c 40 a8 8b 22 40 4c 79 7d 40
       1.7650288 2.694409 2.539774 3.9605284
000010 e9 54 9d 40 2d 82 81 c0 e2 39 b0 40 95 ca 70 40
       4.916615 -4.0471406 5.507066 3.7623646
000020 43 2f 51 c0 62 92 91 3f 29 04 a5 bf 70 7e 72 40
       -3.2685096 1.1372797 -1.2891895 3.7889671
000030 f2 b6 dc 3f f6 77 cb 40 5a 60 83 40 ec d8 98 c0
       1.724333 6.3583937 4.1055117 -4.7764797
000040 4f 3f 24 40 7e 5f 72 40 a2 8e 10 41 b8 b3 4d 40
       2.566364 3.7870784 9.034822 3.2140942
000050 bc bc 84 40 a0 f8 02 41 34 f7 55 3f 33 9b 4e 40
       4.148039 8.185699 0.8358033 3.2282226
000060 23 c8 58 40 f5 68 2e 40 5d a3 5d 40 1b 24 7e 3f
       3.3872154 2.725156 3.463096 0.9927384
000070 b2 f3 20 bf d2 f0 81 40 8e fe 2a 40 bb 08 98 bf
       -0.6287185 4.060647 2.6717868 -1.1877664
000080 a9 9f 2b 40 de f0 d0 3f 5d b8 b6 3d fc 04 85 40
       2.68162 1.6323507 0.08921883 4.1568584
000090 ba 40 23 40 81 0e f1 3f f0 59 9c be ae 09 8d 3f
       2.5508256 1.8832551 -0.30537367 1.1018579
0000a0 a3 c6 01 bf 76 82 2b 40 40 7b bd 3f 31 23 94 bf
       -0.5069372 2.6798377 1.4803238 -1.157324
0000b0 29 8a ed 3f 8d 0b be 3f 2e 09 0b 40 32 01 59 40
       1.8557788 1.4847275 2.1724353 3.390698
0000c0 cc ea ac 3f d1 e0 49 40 23 10 00 40 d5 9d 93 40
       1.3509154 3.1543467 2.000985 4.6130166
0000d0 41 65 04 bd b6 8d 4f 40 7c 48 36 40 ae 73 16 c0
       -0.032323126 3.2430243 2.848174 -2.3508105
0000e0 eb 63 5b 40 59 31 d4 be e1 04 63 c0 8d 70 e0 3f
       3.4279735 -0.414439 -3.5471728 1.7534348
0000f0 b7 4f 2d 40 03 31 32 40 ca ff 26 c0 6b 12 92 c0
       2.7079904 2.7842414 -2.6093621 -4.5647483
000100 af 1f 02 40 d1 4f 61 40 2c f9 34 40 de cc 35 40
       2.0331838 3.5204966 2.8277082 2.840629
000110 e2 26 a9 3f b2 05 44 3f 83 0f ad 40 33 83 63 3f
       1.3214991 0.7657119 5.4081435 0.8887207
000120 74 1d 7a 40 21 bf 35 c0 5e 38 c5 3f 84 5c 9c 3f
       3.9080477 -2.8397906 1.5407827 1.2215734
000130 c7 63 4b 40 3d 67 86 40 05 21 5a 3f 4b 3f d5 3f
       3.177965 4.2001023 0.85206634 1.665994
000140 63 53 9b 40 17 bc 6e bf da 56 ac 40 f8 0c c8 bf
       4.853929 -0.9325575 5.385602 -1.5628958
000150 a2 37 bc c0 60 ba 68 bf a0 15 63 c0 8a 57 8c 40
       -5.881791 -0.90909386 -3.548195 4.385686
000160 aa dc 0b 3e 95 98 51 40 2c fe 36 40 01 b2 c6 40
       0.13658395 3.2749379 2.8592634 6.209229
000170 4f 1a 36 c0 1b b0 3c 3f 83 00 32 40 77 92 51 3f
       -2.8453557 0.73706216 2.7812812 0.8186411
000180 20 c7 2b 40 bd 4d bc bf 0a ed a8 40 d2 75 18 40
       2.6840286 -1.4711224 5.2789354 2.3821912
000190 c5 b8 59 40 55 32 9c c0 f4 0d ff 3d e0 b1 b5 40
       3.4019024 -4.881144 0.12453833 5.6779633
0001a0 dd ab 3d 40 a0 91 34 3f 77 0b 07 40 31 cb 01 c0
       2.9636147 0.70534706 2.1100748 -2.0280268
0001b0 72 44 e2 3f 6f 42 e6 3e 42 1c b0 3f 2b 7f 9c 3f
       1.7677138 0.4497256 1.3758624 1.2226309
0001c0 a9 c7 d7 40 30 ec 65 40 7a d0 78 3f 22 4e a0 3f
       6.7431226 3.5925407 0.9719311 1.2523844
0001d0 75 e7 6d 40 af 0d a4 3f 30 ab 8d 3f 92 2a 04 40
       3.717252 1.2816676 1.1067867 2.0650983
0001e0 8b 74 1f 40 cf ac 30 c0 72 3b 7c c0 c5 e5 b2 40
       2.4914882 -2.7605474 -3.9411283 5.590548
0001f0 b8 fa 82 bf ac 00 99 40 f3 30 4d 40 40 3a b1 3f
       -1.0232763 4.781332 3.2061126 1.3845901
000200 1c 63 14 40 cc 47 bf 40 17 9a 86 bf b3 4e ac bf
       2.3185492 5.9775143 -1.0515774 -1.3461517
000210 5d 45 19 40 8f c0 86 be c6 a7 4c 40 01 f5 e0 3e
       2.3948586 -0.26318786 3.19774 0.43936923
000220 ca a0 5e 40 f6 cc ae 40 22 7e 95 40 59 ea 56 40
       3.4785638 5.4625196 4.671647 3.3580534
000230 a8 36 5a 40 18 f7 f1 3d ec 99 75 3f 76 4c 97 3f
       3.409586 0.118147075 0.9593799 1.1820209
000240 db 48 71 40 a2 17 86 40 d0 67 4e 40 b5 fb d5 bf
       3.7700717 4.190385 3.2250862 -1.671744
000250 88 4a 72 40 be 90 2c 40 f3 30 4b 40 9d 11 1e 40
       3.785799 2.6963344 3.1748626 2.469825
000260 40 05 40 40 3e fd 8c 40 2d 4d 82 3f db f5 e2 3f
       3.0003204 4.4059134 1.0179802 1.7731279
000270 a8 55 53 40 6c 80 c5 3f 4f fd d2 3f 8b ab 35 bf
       3.302103 1.5429816 1.6483554 -0.7096488
000280 8f 00 84 40 b6 89 15 40 36 e1 69 be 4c 91 02 40
       4.125068 2.3365302 -0.22839817 2.0401182
000290 57 34 01 41 19 d5 70 c0 6b 21 46 40 cf 69 af 3f
       8.075278 -3.7630064 3.0957897 1.3704165
0002a0 04 47 45 40 d8 d0 f7 3f 8c 6f 82 40 9b 21 b9 40
       3.0824594 1.9360609 4.0761166 5.785352
0002b0 6d 94 a3 be a9 26 de 3f 8d 96 83 bf c0 b2 e2 3f
       -0.31949177 1.7355548 -1.028032 1.77108
0002c0 fd fb a5 40 30 3a 60 c0 20 46 72 bf a6 70 16 bf
       5.1870103 -3.5035515 -0.9463825 -0.5876564
0002d0 07 22 c5 3f a2 a5 8e 40 93 7a 16 40 12 92 a9 c0
       1.5401009 4.457719 2.3512313 -5.299081
0002e0 b3 95 6c 40 f7 12 30 40 cb fd 02 40 f3 f3 ab 40
       3.696637 2.7511575 2.0467403 5.373529
0002f0 c1 46 de 3f 12 11 8a 40 98 ae 8e 40 18 86 35 40
       1.7365342 4.314584 4.4588127 2.8363094
000300 c4 b9 67 be 2c ad c5 be bd 54 92 3f 2e 7f 22 40
       -0.22629458 -0.38608682 1.143211 2.5390124
000310 33 5e 38 c0 42 53 d3 3f e1 9d a0 40 94 4d 02 40
       -2.8807495 1.6509783 5.0192723 2.035985
000320 38 a6 0b 40 54 6e ea 3f 93 44 bd bf e2 29 89 40
       2.1820202 1.831492 -1.4786552 4.2863626
000330 4a eb c5 3f 15 32 6e 40 31 a1 8a 40 73 50 82 40
       1.546243 3.7218068 4.3321767 4.0723205
000340 a9 f0 06 40 d7 35 9c 40 66 91 ae 40 49 fd b1 3f
       2.1084387 4.8815722 5.455249 1.3905421
000350 70 f2 9b 40 63 0e af 40 c5 af 12 40 6b 22 eb 3f
       4.8733444 5.470506 2.2919781 1.8369879
000360 ea 4d 3f 40 71 81 04 40 67 7a b4 3f 11 85 c0 3f
       2.9891305 2.0704005 1.4099854 1.5040609
000370 b6 83 ba 3f f6 0f 7a c0 45 4c 2e 40 f7 4c ed 3f
       1.4571445 -3.9072242 2.7234051 1.8539113
000380 75 c9 23 40 5e 38 d4 40 ab ae 72 40 cd 79 45 40
       2.559171 6.6318808 3.791911 3.0855591
000390 fc ea 30 40 89 9c 2d 40 3d e2 b8 3e 57 9a 05 40
       2.7643423 2.7126791 0.36110106 2.0875452
0003a0 d1 74 00 c0 e8 51 d4 3f 46 da 4b 40 9c d3 a6 40
       -2.00713 1.6587496 3.1851974 5.213331
0003b0 da df e5 be 06 b9 23 c0 6e 8d 5f 40 c7 cf f5 3f
       -0.44897348 -2.558168 3.4930072 1.9204034
0003c0 3d 64 8b 3f b3 58 14 40 74 a5 84 40 d0 50 00 40
       1.0889965 2.3179138 4.145197 2.0049324
0003d0 1c 8a dd 3f 52 81 3c 3f d3 89 34 c0 6a 2e ef 3f
       1.7307773 0.7363483 -2.8209121 1.868604
0003e0 18 84 31 40 94 b8 6f 40 f2 20 29 40 bc df 4f 40
       2.7736874 3.7456408 2.6426358 3.2480307
0003f0 06 3c 13 40 37 62 07 40 97 d9 23 40 f5 fd 17 bf
       2.3005385 2.1153696 2.5601556 -0.5937188

bias f4 [256]
000000 87 53 09 c1 66 a6 98 c0 2e 4d db c0 98 0e ae bf
       -8.582892 -4.7703123 -6.8531713 -1.3598204
000010 04 89 af c0 cb f9 d9 c0 0e 13 d1 c0 28 d8 78 c0
       -5.4854755 -6.8117423 -6.533576 -3.8881931
000020 75 f9 37 3e 69 33 87 c0 bf ad 8a c0 d9 e1 7b be
       0.17966254 -4.2250257 -4.3337092 -0.24597873
000030 ac 02 57 bf f6 2e 09 c0 c3 16 9a c0 7d 7f a0 c0
       -0.8398845 -2.1434913 -4.8152785 -5.0155625
000040 e4 4d a6 c0 86 ef cc bf 7b fb 82 c0 d1 9d 61 3f
       -5.197008 -1.6010597 -4.0931983 0.88131434
000050 bd fb 59 c0 0d 8b d1 bf d5 05 fd bf 21 a4 8d c0
       -3.40599 -1.637056 -1.9767405 -4.4262853
000060 1e c4 e0 c0 33 a0 87 40 cf 8b 90 c0 f1 d6 c3 c0
       -7.02394 4.2383056 -4.5170665 -6.119988
000070 8f ce 89 c0 46 5e 36 c0 46 ea a6 c0 43 ce 53 3f
       -4.3064647 -2.849504 -5.216098 0.82736605
000080 78 02 4a c0 99 01 17 c0 6d 79 45 bf e4 ab ee bf
       -3.1564007 -2.3594725 -0.77138406 -1.8646207
000090 38 ab 87 3f a4 c2 13 3f cd cb 1f bf 6c ea 28 3f
       1.0599127 0.57718873 -0.6242035 0.659827
0000a0 3a 11 dc be 69 62 15 c0 37 69 bb 3e d2 db 0c 40
       -0.42981893 -2.3341315 0.3660371 2.2009168
0000b0 2a e7 03 3f d1 f6 e4 c0 89 ce 97 c0 61 9b 01 c1
       0.51524603 -7.155129 -4.743962 -8.100434
0000c0 21 49 dc c0 69 1d d7 bf 7c 05 e0 c0 54 43 29 c0
       -6.883927 -1.680585 -7.0006695 -2.6447344
0000d0 3d da a9 c0 ea 61 53 c0 8b 3c 4b bf 58 2b ce bf
       -5.3078904 -3.3028512 -0.79389256 -1.6106977
0000e0 5f 31 2c c0 1c 99 53 3d 5b 00 39 c0 c0 62 ab c0
       -2.6905134 0.05165969 -2.8906467 -5.3558044
0000f0 c6 aa ab c0 45 a6 60 c0 11 3f af c0 65 c4 e0 bf
       -5.3645964 -3.5101483 -5.4764485 -1.7559935
000100 2a 77 c8 bf 0e 32 f2 bf c0 66 76 40 8a a9 89 c0
       -1.5661366 -1.8921525 3.8500214 -4.3019457
000110 03 1c c2 be 8e f7 80 c0 f6 a6 9b c0 73 23 26 c0
       -0.37911996 -4.030219 -4.864131 -2.5959136
000120 c9 69 8f bf ae 89 3c c0 ec d9 72 c0 80 41 57 c0
       -1.1204158 -2.9459033 -3.794551 -3.3633728
000130 70 42 03 c0 87 38 ec bf cf 4f 8b bf 5d ad 07 40
       -2.05093 -1.8454751 -1.0883731 2.1199563
000140 35 df 01 3e 22 e6 3e c0 f5 bd 0f 40 b2 da a0 c0
       0.12682803 -2.9827962 2.245969 -5.026696
000150 24 4b 1c c0 96 73 49 c0 33 ae 5c c0 1f a0 96 c0
       -2.4420862 -3.1476798 -3.4481323 -4.707046
000160 1e b1 05 c1 be fc 44 40 06 8a 97 c0 ff 37 2b 40
       -8.3557415 3.0779262 -4.7355986 2.6752927
000170 55 a3 56 c0 7b 65 c5 c0 d0 e7 3f 3f 1e 44 14 c0
       -3.353719 -6.1686378 0.7496309 -2.3166575
000180 d8 ca 7b c0 1a 5d fe bf 01 dc 5c c0 cc 93 d5 bf
       -3.9342556 -1.9872162 -3.450928 -1.6685729
000190 c4 ff c2 bf d9 bd cb c0 77 27 55 c0 30 d6 82 bd
       -1.5234303 -6.366925 -3.3305337 -0.06388509
0001a0 16 ab 60 c0 69 0f 1a c1 cf ca 01 c0 5d 08 bf be
       -3.5104423 -9.628762 -2.0280035 -0.37311068
0001b0 63 65 1c c0 79 24 c2 c0 73 4a 46 c0 be da 8f 3f
       -2.4436882 -6.066952 -3.098294 1.123863
0001c0 66 b5 ba c0 d9 86 e2 c0 90 29 f8 bf b2 cd f8 c0
       -5.8346434 -7.078961 -1.9387684 -7.7751093
0001d0 9a cc 84 c0 cf dd eb bf 94 e8 9e c0 ce f2 12 bf
       -4.149976 -1.8427066 -4.965891 -0.5740174
0001e0 7a d4 2d c0 d1 39 fe bf 7f 83 04 c0 39 22 c8 c0
       -2.7160935 -1.9861394 -2.070526 -6.2541776
0001f0 16 49 0e c1 1b 59 2e c0 a6 2d ef bf 95 41 aa bf
       -8.892843 -2.7241886 -1.8685806 -1.3301264
000200 6e 44 f0 c0 c4 08 dd bf 57 f4 fb bf 2a f0 3f c0
       -7.508353 -1.72683 -1.9683942 -2.9990335
000210 e1 70 44 3d 4c 5a fc bf de d2 96 c0 46 5f 98 c0
       0.047959212 -1.9715056 -4.7132406 -4.76163
000220 cf a9 26 c0 4a 06 b1 3e 80 16 29 c0 4c 35 d5 be
       -2.6041143 0.3457511 -2.6419983 -0.41642225
000230 d7 23 1a bf 23 e1 d2 c0 de a9 8b c0 cc fb ad be
       -0.6021094 -6.5899825 -4.3644857 -0.33981168
000240 31 bf 51 c0 b5 4c 45 c0 93 8a 12 40 7f d5 26 c0
       -3.2772944 -3.0828068 2.289708 -2.6067808
000250 30 da 00 40 ff 6e 4c c0 4a 5c 7a c0 e9 43 53 c0
       2.013317 -3.1942747 -3.9118829 -3.30102
000260 4e c3 5d be c3 a9 29 c0 0f e0 1e c0 58 73 15 40
       -0.21656534 -2.6509864 -2.4824255 2.335165
000270 9f dd e4 bf d6 03 38 c0 5d a1 a1 c0 87 a7 2c bf
       -1.7880133 -2.8752341 -5.0509477 -0.67443126
000280 56 5c c6 c0 85 21 be 3e f5 f9 3e c0 52 c8 58 c0
       -6.1987715 0.37134948 -2.9840062 -3.3872266
000290 3e bd 7b c0 db b9 05 c1 28 23 47 3f 6f c3 8f c0
       -3.9334254 -8.357875 0.7778802 -4.4926066
0002a0 56 32 82 c0 3c 1e b0 c0 4a 92 29 bf a2 b6 84 40
       -4.0686445 -5.5036907 -0.66238844 4.147294
0002b0 96 72 c3 c0 57 07 31 3d 3a a7 b4 3e b2 0f 1f bd
       -6.1077375 0.04321989 0.35283834 -0.038833328
0002c0 6b 0a bb bf 1e fa c3 c0 f5 f6 79 c0 9b 33 a0 bf
       -1.4612554 -6.124282 -3.905698 -1.2515749
0002d0 70 50 57 c0 42 33 e1 3f 67 25 92 c0 73 40 c3 c0
       -3.3642845 1.7593768 -4.5670657 -6.1016173
0002e0 fb 2c 36 c0 ac 99 96 bf da 1d eb be 02 20 11 40
       -2.8464954 -1.1765647 -0.45921212 2.2675786
0002f0 aa 85 bb c0 00 88 fc 3e 99 1c ca bf 8f 51 53 c0
       -5.8600664 0.4932251 -1.5789977 -3.301853
000300 7a 10 88 bf 89 7b 64 bf fd 65 8d bf 8c f1 b4 bf
       -1.0630028 -0.89251 -1.1046749 -1.4136214
000310 aa 20 ae c0 05 47 be c0 35 e8 09 c1 5e 82 1b c0
       -5.4414873 -5.9461694 -8.619191 -2.429832
000320 56 64 37 c0 57 ef 9e 3f 5d 9a b9 3f 1b 24 3d c0
       -2.865499 1.2416791 1.4500233 -2.9553287
000330 65 fb f4 be e1 f1 2c c0 d1 7f 63 be 89 2b 98 3e
       -0.4784805 -2.702263 -0.22216727 0.29720715
000340 1b 26 23 c1 d3 1c b0 c0 1a 5e 11 c0 07 c1 b3 c0
       -10.196803 -5.5035186 -2.2713685 -5.617313
000350 b9 7b 86 bf 8f ea f3 bf 72 0e 73 c0 0d 26 da be
       -1.0506507 -1.9055957 -3.7977567 -0.42607155
000360 85 58 b0 c0 eb 48 14 c1 eb 36 bb c0 5c b8 df 3f
       -5.5108056 -9.267802 -5.850454 1.7478137
000370 06 3d b3 c0 08 eb 81 c0 5c 6c 12 c0 82 b8 f4 bf
       -5.601199 -4.0599403 -2.2878637 -1.9118807
000380 8c 2d ca bf 33 36 6b c0 ab ff 95 bf dc 91 3c bf
       -1.579515 -3.675183 -1.1718649 -0.73660064
000390 1d b0 83 c0 2b cf eb be 2a dc 0c c0 b5 1b 40 40
       -4.115248 -0.46056494 -2.2009377 3.001691
0003a0 d6 63 2a c0 9f fa 26 3f 25 ae eb bf 6f ff d6 c0
       -2.6623435 0.6522617 -1.841252 -6.718681
0003b0 c2 df 8e c0 5e 40 0f c0 c9 8f 01 c1 51 6f bc c0
       -4.464814 -2.2383037 -8.097604 -5.8885884
0003c0 b6 b7 13 c1 e8 d0 32 bf 4b 30 0a c1 fb 5f 84 3e
       -9.232351 -0.69850016 -8.63679 0.25854477
0003d0 09 40 44 c0 43 28 85 be 21 85 1e c0 d9 7f f7 c0
       -3.0664084 -0.2600728 -2.4768755 -7.7343564
0003e0 96 c1 86 c0 cf 87 29 c0 4f 43 99 3f 17 de a2 c0
       -4.211131 -2.648914 1.1973666 -5.0896106
0003f0 2a e4 a2 3e 6f f3 84 c0 fb f5 19 c0 cb 95 59 c0
       0.318147 -4.154716 -2.4056385 -3.3997676

weight f4 [128, 256]
000000 d3 3d 86 40 2f 21 20 40 80 ab 0d 3e 57 cb 3d 40
       4.195047 2.5020254 0.13834953 2.9655359
000010 ab dd 51 bf 89 f1 b6 bf ea f9 48 40 bc 61 48 40
       -0.81978863 -1.4292461 3.1402535 3.1309652
000020 bf 03 8d bf 89 9b 17 40 4d 07 24 40 29 7e 69 3e
       -1.1016768 2.368868 2.5629456 0.22802033
000030 05 03 b8 bf ed d3 84 c0 d5 9f 44 40 90 76 1c 40
       -1.4375921 -4.15087 3.0722554 2.4447365
000040 4f 8a 95 bf 90 3d 89 3c ae de 68 be 16 6b 03 3e
       -1.1682833 0.016752988 -0.22741196 0.12833819
000050 2e 31 1b 40 4e 33 7c 40 0d ea c7 3c 86 e4 a2 3d
       2.4248767 3.9406314 0.024403596 0.07953744
000060 72 53 a6 bf 4e 8e c2 be ea 5b 50 40 cf 8f 73 40
       -1.2994215 -0.37999195 3.25561 3.8056524
000070 2f 8d 4f 40 ac 9f 4a 40 27 7d d3 3f 53 0b 27 40
       3.2429922 3.1659956 1.6522568 2.6100662
000080 7a 2b 61 3f 06 8b a2 bf 36 8f 49 c0 b0 2b 20 40
       0.87956965 -1.2698677 -3.149366 2.5026665
000090 92 67 46 bf 16 7e c5 bf 34 ec 0c bd 6e 21 8f 40
       -0.77501786 -1.5429103 -0.03440495 4.472831
0000a0 0e be 56 c0 20 b6 3a c0 ca 86 d0 bf 10 4d 37 c0
       -3.35535 -2.917366 -1.6291134 -2.8640785
0000b0 a4 b9 1c c0 59 46 31 40 69 9d 33 bd f2 41 55 40
       -2.4488306 2.7699187 -0.04385129 3.33215
0000c0 36 fa fe 3e d8 f3 4b c0 e8 e4 a5 3f 77 52 b9 3f
       0.4980027 -3.186758 1.2960482 1.4478291
0000d0 80 a3 35 40 cb 5f 2b bf 0d 73 b3 bf 8e ad f6 bf
       2.8381042 -0.66943043 -1.4019486 -1.9271715
0000e0 76 e8 33 3f df 49 b8 be 06 95 0a 40 42 35 f6 3f
       0.7027658 -0.3599386 2.1653457 1.9235003
0000f0 99 32 10 3e 0a e3 8c 40 4e 8a 10 40 b3 d2 31 3e
       0.14081801 4.4027147 2.2584414 0.17365532
000100 b4 7a 6b 3e cb f9 a1 bf 7c 5f 39 c0 88 7f 09 c0
       0.22996026 -1.2654356 -2.896453 -2.148409
000110 b9 46 84 40 ed bc b4 bf f7 e7 6d bf f1 bb 96 40
       4.133633 -1.4120156 -0.92932075 4.710442
000120 ca cd 85 3f 0d 14 f1 3f a4 30 35 40 05 64 b8 be
       1.0453427 1.8834244 2.8310938 -0.3601381
000130 92 15 84 3f e0 f0 6b 40 af ee 51 c0 6d 04 0f c0
       1.0319083 3.6865768 -3.280193 -2.2346451
000140 f1 6e f0 be 84 63 cd bf ce 7f fe bf e7 44 38 bf
       -0.46959642 -1.6045995 -1.9882753 -0.71980137
000150 4c fa 80 40 81 cc ca be 15 09 aa 3f ee e7 3c 40
       4.030554 -0.3960915 1.3284022 2.9516559
000160 49 44 90 40 46 16 22 bf f0 b0 c8 3f 13 8f e5 bf
       4.5083356 -0.63315237 1.5678997 -1.7934288
000170 16 fd 64 40 68 44 7d 40 0d ba 48 bf d7 55 52 40
       3.5779471 3.9573002 -0.7840889 3.2864892
000180 8e 06 c8 be 60 04 6c bd 55 45 24 c0 db 73 d2 bf
       -0.390675 -0.05762136 -2.5667317 -1.6441606
000190 f9 13 44 3f 63 b0 92 bf bb 94 6e bf e4 9b c1 bf
       0.76592976 -1.1460079 -0.93195695 -1.5125699
0001a0 02 fb 19 40 56 a7 28 40 55 7c 59 40 d5 7a f6 bf
       2.4059453 2.6352134 3.3982136 -1.9256235
0001b0 cf 4f 95 40 94 55 bd bf 9a 86 0a c0 d2 e6 5d c0
       4.6659923 -1.4791741 -2.1644654 -3.4672132
0001c0 27 ef f6 3f b3 91 e4 bd f7 b7 79 bf 7f d7 16 3f
       1.9291734 -0.111606024 -0.97546333 0.5892257
0001d0 2c 34 fe bd ca 5d 7b 3f f8 0b 27 40 2a 46 95 bf
       -0.12412295 0.98189986 2.6101055 -1.1662037
0001e0 97 6a f0 bf 49 46 ba 3e 2f e5 a7 bf 3f e6 15 40
       -1.8782529 0.36381748 -1.3116816 2.342178
0001f0 e6 20 7b 40 84 61 98 bf 7e da 04 40 8c aa 8c bd
       3.923883 -1.190476 2.0758357 -0.06868467
000200 f3 3d 04 40 5f 78 75 be a0 5e d4 bf 49 c7 0f bf
       2.066281 -0.23971699 -1.6591377 -0.5616346
000210 48 9d 57 bf 72 e5 38 40 1e 26 0b 40 e9 d8 20 40
       -0.8422437 2.8890042 2.1742015 2.5132391
000220 ab 94 87 40 53 c5 b4 bf ed ea 0f bf 1b b8 a6 be
       4.236898 -1.4122719 -0.56217843 -0.32562336
000230 f3 7e 03 c0 e1 7a 55 40 d9 93 1c be 54 38 81 bf
       -2.0546234 3.335625 -0.15290774 -1.0095315
000240 d9 05 18 40 fd 76 94 40 ab 5b e6 bf a5 76 09 c0
       2.375357 4.639525 -1.7996725 -2.1478665
000250 87 9e c0 bf cd 5a c0 be 3d e6 ce bf 49 40 e4 bf
       -1.5048379 -0.37569275 -1.6164013 -1.7832118
000260 4c 46 47 3f 91 7f 8a 40 b0 1b 95 bf 3c 46 31 be
       0.7784164 4.328072 -1.1649075 -0.17311949
000270 6f b2 6c 3f 7f 2a 04 bf ed 73 4b 40 f7 9d 2c 40
       0.9245977 -0.51627344 3.1789505 2.6971414
000280 10 85 be 3e 80 c2 ae 3f 2b 41 82 40 f8 58 98 bf
       0.37210894 1.3653107 4.070455 -1.1902151
000290 da 0f 13 bf 25 8e 1c 40 bd d5 33 c0 70 e3 a7 3f
       -0.5744606 2.4461758 -2.8099205 1.3116283
0002a0 97 fc 7c 3f db 10 08 40 6f c3 50 bf 4c b0 26 c0
       0.9882292 2.1260288 -0.8154821 -2.6045103
0002b0 19 ea 74 3f 81 56 6e c0 94 31 f5 bf 92 9b 28 40
       0.95669705 -3.7240298 -1.9155755 2.6344953
0002c0 0a 21 07 c0 a9 5c 9b 3f 4b 7c 0a 40 2f 6c c6 3e
       -2.1113915 1.2137653 2.1638362 0.38754413
0002d0 a9 aa 6f 40 7f 58 43 bf 84 b6 31 40 fe b8 c2 be
       3.7447913 -0.7630691 2.7767649 -0.38031763
0002e0 77 97 ff 3f 00 5b 8d 40 62 92 02 c0 10 13 4d bf
       1.9968098 4.4173584 -2.0401845 -0.8010721
0002f0 5d c2 62 bf a5 24 b3 bf cd eb 03 40 ca d4 6b 3f
       -0.88577825 -1.3995558 2.0612671 0.92121565
000300 68 e6 8a 40 95 1d 88 bf 21 ed cb bf 9f cc 8e bd
       4.340626 -1.0634028 -1.5931741 -0.06972622
000310 85 e5 ae bf cf bb bb bf 62 55 bd 3f 61 63 91 40
       -1.3663794 -1.466669 1.4791682 4.543381
000320 1f 12 58 40 ec 3a 50 c0 23 35 f2 bf 4e e9 d6 be
       3.376106 -3.2535963 -1.8922466 -0.41974872
000330 fd 6d 06 40 0d 7b 53 40 f9 39 3f c0 4e 00 60 bf
       2.1004632 3.3043854 -2.9879134 -0.87500465
000340 e8 93 18 40 5f 14 b9 3f f2 ef 9f bf a7 10 3f bf
       2.3840275 1.4459342 -1.24951 -0.74634784
000350 b3 e5 0e 40 a3 2f 44 bf a2 e7 64 40 88 dc 86 bf
       2.2327697 -0.7663519 3.5766377 -1.0536051
000360 57 23 72 40 38 3a bf 3e 14 d5 ad 40 f2 56 04 c0
       3.783407 0.37349105 5.4322605 -2.0678067
000370 21 38 c2 3e ec 7e 63 40 44 4b b2 3f 49 af 7f 3d
       0.37933448 3.5546217 1.3929219 0.062423024
000380 0d f0 ff bf 6e bf 0d 40 bc de b9 bf e4 d2 4f be
       -1.9995133 2.214809 -1.4521098 -0.20295292
000390 92 f2 81 40 06 9e ad bf 97 87 73 be 37 09 27 bf
       4.0608606 -1.356385 -0.23782192 -0.65248436
0003a0 7d 83 38 be d0 c6 b9 be a3 09 0d c0 07 ce 70 40
       -0.18018909 -0.36284494 -2.2037132 3.762575
0003b0 7a 46 41 40 84 32 37 40 9a 4d 88 bf 07 c0 8e 40
       3.0199265 2.8624582 -1.0648682 4.460941
0003c0 e9 95 90 40 fe 1a 9a bf 2c cc b1 3f a7 d1 93 bf
       4.5182996 -1.2039487 1.3890433 -1.1548356
0003d0 a4 5c 8a 40 62 15 d6 bf 98 f8 f4 bf 1f dd 08 40
       4.3238087 -1.6725276 -1.9138365 2.1384962
0003e0 f4 6f 6c 40 0b 41 7e bf 75 71 87 bf 2c be 16 bf
       3.694333 -0.99318 -1.0581499 -0.5888393
0003f0 6e 06 fa bf 46 69 fc 3d ab 39 3c 40 97 c8 81 40
       -1.9533212 0.12324767 2.9410198 4.055736

bias f4 [128]
000000 dd 77 7a c0 f8 a3 e5 c0 8f 44 32 c0 b2 f2 fb c0
       -3.9135659 -7.1762657 -2.7854345 -7.873376
000010 e0 cd 30 c0 27 86 8d c0 d6 d7 aa c0 20 2d e7 c0
       -2.7625656 -4.422626 -5.338847 -7.2242584
000020 5c 6a 84 c0 fb 56 08 c0 55 d2 78 c0 6f b7 d8 c0
       -4.1379833 -2.1303089 -3.8878376 -6.772392
000030 3a 6d 70 c0 db 1f e3 c0 4e 42 bb c0 97 1a 9a c0
       -3.7566667 -7.0976386 -5.851844 -4.815746
000040 29 56 cf c0 92 c5 31 c0 09 b1 45 c0 99 a5 24 c0
       -6.4792676 -2.7776837 -3.0889304 -2.5726073
000050 ba 4b 05 c1 41 b5 c7 c0 eb 3f 1f c1 53 b4 a7 c0
       -8.330988 -6.2408757 -9.953105 -5.240762
000060 71 1f 1d c0 84 93 27 c1 da b1 98 c0 f3 72 1e c1
       -2.455044 -10.473515 -4.7717104 -9.903064
000070 08 d4 5c c0 eb d6 8e c0 4b b3 f8 c0 78 2c 09 c0
       -3.4504414 -4.463735 -7.7718863 -2.1433392
000080 57 f2 ea c0 87 e1 a3 c0 b8 14 4f c0 fe 83 a6 c0
       -7.3420825 -5.12128 -3.2356396 -5.2036123
000090 8a 48 a8 c0 1f b2 4d c0 78 b6 06 c0 54 83 83 c0
       -5.258855 -3.2139966 -2.104887 -4.1097813
0000a0 6a 78 95 c0 8e 4e 26 c0 39 a8 03 c1 92 22 6b c0
       -4.670949 -2.5985446 -8.22857 -3.673985
0000b0 66 69 ff c0 06 78 45 c0 90 ac 2f c1 96 d4 eb c0
       -7.981616 -3.0854506 -10.9796295 -7.3697004
0000c0 a4 75 54 c0 98 19 2a c1 47 7c 73 c0 1e d6 ef bf
       -3.3196802 -10.631248 -3.8044603 -1.8737218
0000d0 d7 07 0c c0 cd 95 d8 c0 44 16 b6 c0 c3 fa 17 c0
       -2.1879785 -6.768286 -5.690218 -2.3746803
0000e0 e8 04 43 c0 57 fb c6 c0 9e 66 60 bf 60 d0 a0 c0
       -3.0471745 -6.218181 -0.8765658 -5.0254364
0000f0 46 e4 b5 c0 0f 43 75 c0 17 2b e6 c0 f8 3e c6 c0
       -5.6841154 -3.832218 -7.19276 -6.1951866
000100 5b 81 b8 c0 1d 85 d5 c0 ce 29 16 c0 93 b9 98 c0
       -5.7657905 -6.672499 -2.3463016 -4.772653
000110 db c7 ad c0 28 33 c8 c0 91 42 a0 c0 b7 e7 4d c0
       -5.4306464 -6.2562447 -5.008126 -3.2172678
000120 d2 77 c7 c0 45 5d fc bf e0 ae 6d c0 5a 09 44 c0
       -6.2333765 -1.9715964 -3.7137985 -3.0630708
000130 d9 63 81 c0 6a 65 55 c0 09 3a d1 c0 4a 22 bf c0
       -4.0434384 -3.3343148 -6.5383344 -5.9729357
000140 36 28 ce c0 03 29 66 c0 79 cf f7 c0 04 38 13 c1
       -6.4424086 -3.5962532 -7.7440763 -9.201176
000150 a6 ad 63 c0 2c f5 e6 c0 84 ad 1a c1 c3 ba 89 c0
       -3.5574737 -7.217428 -9.667362 -4.304048
000160 fa 0f 03 c1 a0 17 ad c0 0c c3 42 c1 47 71 b6 c0
       -8.191401 -5.409134 -12.172619 -5.701328
000170 1c 55 10 c0 74 4e b2 c0 ae ca bc c0 c2 7b 7c c0
       -2.2551947 -5.572077 -5.899741 -3.9450536
000180 bd 25 5b c0 a4 2f f5 c0 7a d7 a9 c0 7d 0a eb c0
       -3.4241784 -7.6620655 -5.3075533 -7.3450303
000190 2e fa ac c0 78 c1 77 c0 ad 1a 54 c0 cd 7a ba c0
       -5.4055395 -3.8711834 -3.3141282 -5.8274903
0001a0 6a 62 44 c0 71 22 13 c0 04 82 eb c0 69 4f 48 c0
       -3.0685067 -2.2989771 -7.359621 -3.1298468
0001b0 7a 18 c4 c0 3e 6d 92 c0 98 f6 95 c0 ad 20 51 c0
       -6.127988 -4.575835 -4.686352 -3.2676194
0001c0 2c 10 11 c1 21 d6 00 c1 1a bb c1 c0 35 99 8c c0
       -9.066448 -8.052278 -6.0540895 -4.393702
0001d0 1e 36 f0 c0 8c 74 06 c1 dd 38 38 c0 b6 0b 5a c0
       -7.506606 -8.403454 -2.8784707 -3.4069648
0001e0 b1 49 27 c1 95 62 d8 c0 b3 0f b0 c0 27 a9 5a c0
       -10.455491 -6.762034 -5.5019164 -3.4165742
0001f0 e3 22 14 c1 ce 8e 0b c1 b7 da b8 c0 20 3b 9d c0
       -9.258517 -8.722364 -5.7766986 -4.9134674

weight f4 [64, 128]
000000 5a 9e 4e 3f 87 eb 62 bf c1 52 46 3f d2 e4 7d 3f
       0.80710375 -0.88640636 0.7747002 0.9917728
000010 42 45 00 3e 97 e8 a3 bf 1b 83 42 3f ac af 07 40
       0.1252642 -1.2805356 0.759813 2.1200972
000020 e7 3d 8a 3f ae 2e d7 3f cf f3 09 c0 ab d1 92 3f
       1.0800141 1.681112 -2.155506 1.1470236
000030 e0 31 ff 3f 2f d1 88 3f 4d bc f2 3d a7 99 8c bf
       1.9937096 1.0688838 0.11852322 -1.0984391
000040 b2 a9 52 bf 81 53 5e bf 0f 05 11 c0 1f c4 02 40
       -0.82290184 -0.86846167 -2.2659338 2.0432203
000050 1b d0 9d be f8 1e 83 3f b4 69 65 3f 49 f0 31 bf
       -0.30822834 1.0243826 0.89614415 -0.6950727
000060 a4 0c 10 40 72 c2 70 3f f2 7a 67 3f 23 7c ff 3e
       2.2507715 0.940467 0.90421975 0.49899396
000070 2c ee a4 3e 57 3b a6 3f e8 d3 d0 be 81 9a 7b 3e
       0.3221296 1.2986859 -0.40786672 0.24570657
000080 b1 b5 b2 3e 53 30 a6 be 77 df 2d bd 51 5c 78 be
       0.34904245 -0.32458743 -0.04244944 -0.24253966
000090 a2 7c f9 3e 0a 76 82 3e 29 00 f5 3f cd 36 11 40
       0.487279 0.25480682 1.9140674 2.2689698
0000a0 9b 11 06 bf 73 a1 82 bf cf 38 a4 3f dd 16 8c bf
       -0.52370614 -1.020552 1.2829837 -1.0944477
0000b0 c7 87 f7 3f ee 4b f0 be 42 57 8a bf 0d 46 52 3f
       1.9338311 -0.4693293 -1.0807879 0.8213814
0000c0 eb 2e 0a 3f f5 8d f2 3f 55 4d d6 3f f1 0d 35 bf
       0.5397784 1.8949572 1.674235 -0.707244
0000d0 46 7e 60 bf 05 74 27 3f b4 a6 60 be 70 8f c8 bf
       -0.8769268 0.65411407 -0.21938592 -1.5668774
0000e0 00 8c bb 3f e6 91 72 3f 9d 05 be 3f 0c fa c0 3e
       1.46521 0.94753873 1.4845463 0.3769077
0000f0 d0 94 5d 3f 74 51 ad bf 8c c7 b4 bf d8 a3 66 bf
       0.86555195 -1.3540483 -1.4123397 -0.90093756
000100 f0 1f ac 3f ff 04 13 bf fb 83 b5 3e 43 a7 a6 3e
       1.3447247 -0.574295 0.35452256 0.32549486
000110 a5 52 30 3f 3f b0 e0 3f db 3a 84 3f 6a fd bf bf
       0.68876106 1.7553786 1.0330461 -1.4999211
000120 49 fc a8 bf 11 3e d5 3f 50 e5 07 40 77 4a 0a 3f
       -1.3201991 1.6659566 2.1233711 0.54019874
000130 34 e6 03 c0 e7 c0 64 3d 43 96 6e 3f 4e f8 2f 3f
       -2.0609255 0.05584803 0.9319803 0.6873826
000140 b0 d1 a9 3f 8a eb 00 3f 51 94 c5 3f f1 65 f6 3f
       1.3267117 0.50359404 1.5435888 1.924986
000150 a2 7b 57 3e ec 35 04 3f 5c e6 bc 3f 9b 35 49 bf
       0.21043256 0.5164478 1.47578 -0.7859742
000160 02 6c 06 bf 6f 1d ca bd 24 a1 b1 3f ac 44 55 bf
       -0.52508557 -0.09868895 1.3877301 -0.8330791
000170 5b b1 ad 3f f7 e7 44 3f 13 7c 29 be 33 ab 71 3f
       1.356975 0.7691645 -0.16551237 0.94401854
000180 9e 17 a5 bf b3 07 cd 3f ec 6d cb 3d 57 97 9b 3f
       -1.2897832 1.6017975 0.09933075 1.215556
000190 ba e2 4e be 2a 05 83 3d 47 e3 00 40 28 87 19 3f
       -0.20203677 0.06397469 2.013872 0.5997186
0001a0 6e dd 14 bf 91 c4 40 bf 3e 2a 7f 3f 15 33 db 3f
       -0.58150375 -0.75299937 0.9967383 1.7124964
0001b0 70 23 c7 3f 4c f9 c6 be 2d a3 5a be 6e 38 d4 3e
       1.555769 -0.38862073 -0.21351309 0.41449302
0001c0 15 30 ba 3e 75 13 c9 3f 65 08 9e 3f 47 aa b7 be
       0.3636481 1.5709063 1.2346312 -0.358721
0001d0 bb f6 71 3f 27 90 c7 3f 19 e4 62 3f 26 bd 5d 3f
       0.94517106 1.5590867 0.886293 0.8661674
0001e0 17 2b 99 3f 88 9f c0 3f 53 e6 c2 3f ea b9 91 be
       1.1966275 1.5048685 1.5226539 -0.28462154
0001f0 51 fc ad bf b7 af c2 3e a1 ee c9 3f 25 d6 a1 3f
       -1.3592626 0.38024685 1.5775949 1.2643477
000200 ff b9 ba 3f 45 ec b0 3d 7a 13 c8 3f 5f f0 1e 3f
       1.4588012 0.08638815 1.5630944 0.6208553
000210 60 5d ae 3f 81 e1 0a be 60 c1 d7 3f 3f 8f 17 40
       1.3622246 -0.13562585 1.6855888 2.368118
000220 11 83 ff 3f a2 77 c9 3f 91 99 2e 3d 59 60 6f 3f
       1.9961873 1.5739634 0.04262692 0.9350639
000230 95 66 e6 3e 9d 46 c2 3f 50 f0 bd 3f a7 d0 85 3e
       0.4500014 1.51778 1.4838963 0.26135752
000240 6d e4 27 3f dc 01 0d 3f 7c 7c fc be 67 e2 15 40
       0.65582925 0.5508096 -0.49313724 2.3419435
000250 06 16 36 3f ea 51 5a 3f eb f5 84 3f 9b 54 be 3e
       0.71127355 0.8528124 1.0387548 0.37173924
000260 83 4a 13 40 26 b5 3f be 65 8d 48 3f d9 e6 2c 3f
       2.3014228 -0.18721446 0.7834075 0.67539746
000270 f3 e8 9d 3e 88 52 8c 3f 45 ce af 3d 31 de 6b 3f
       0.3084179 1.0962687 0.08584265 0.9213591
000280 23 7b 8c 3f 8c 6e eb 3e 84 e9 af 3f 45 2e e7 3f
       1.0975078 0.45982778 1.3743138 1.8060995
000290 d8 ca 36 3f 0c 28 93 3f 64 95 2d 40 45 d6 55 40
       0.71403265 1.1496596 2.712243 3.341203
0002a0 cd ea a8 be e3 2c e5 bd ec 4f f9 3f 66 12 a8 3e
       -0.3299164 -0.11190202 1.9477515 0.32826537
0002b0 57 ca 0e 40 7c 81 45 3f f2 3f 34 3f 9c 4b 8f 3e
       2.2310998 0.771507 0.7041007 0.27987373
0002c0 df 0f bf 3f 8c a7 0c 40 35 43 48 3f 17 a1 46 bf
       1.4926718 2.1977262 0.7822755 -0.77589554
0002d0 be af 00 3f 2d ad 78 3d d2 cd 4a be 1a 9b 6e bf
       0.5026816 0.06071203 -0.19805077 -0.93205416
0002e0 0b 1c 05 40 58 e7 ac 3f d1 03 a4 3f 01 b6 94 3f
       2.0798366 1.35081 1.2813665 1.1618043
0002f0 63 ba 79 3f d4 60 75 bf 08 aa a8 bf de df 56 3f
       0.9755003 -0.95850873 -1.317689 0.83935344
000300 6e 46 90 3f 8d 23 35 3f 66 3a b9 3f ba ce e0 3e
       1.1271493 0.7075737 1.4470947 0.4390772
000310 fe d0 c1 3f c9 a0 f1 3f d9 80 68 3f 31 16 d9 3e
       1.5141904 1.8877193 0.90821606 0.42399743
000320 ca 88 f6 bc 0b e2 c1 3f b0 35 c2 3f a1 a5 d9 3e
       -0.030094523 1.5147108 1.5172634 0.42509177
000330 d8 94 5b bf 8a e2 b3 3f 5a 95 10 40 27 17 10 40
       -0.8577399 1.4053509 2.2591157 2.251413
000340 12 a0 30 3f d9 6f da 3f a0 3b d7 3f 32 74 14 40
       0.6899425 1.7065383 1.6815071 2.319592
000350 94 57 50 3e 75 ca 32 3f e2 e1 36 3f e2 41 97 3e
       0.20345908 0.69840175 0.7143842 0.29542452
000360 df ac 1b 3e 4f 6f b3 3e af 71 d2 3f 59 19 da bd
       0.15202664 0.3504586 1.6440943 -0.10649366
000370 f9 6e db 3f c8 ac ba 3f 94 f0 b7 3e e1 8e 2f 3f
       1.7143241 1.4583979 0.35925734 0.6857739
000380 23 3d 23 3f 5c bf 03 40 28 e2 2f 3f ed f1 01 3e
       0.6376516 2.0585546 0.6870446 0.12689944
000390 b5 ad c0 3f 7b 3e c5 be 54 72 15 40 8e 23 20 3f
       1.5053011 -0.3852423 2.335103 0.6255425
0003a0 71 5c 1e 3f 7f e5 92 3d fc 34 69 bf 87 bb 87 3f
       0.61859804 0.07172679 -0.9109647 1.0604104
0003b0 d1 56 28 3b 33 68 91 3f 67 0d af 3e 4c 23 89 3f
       0.0025686512 1.1359924 0.34189913 1.0713897
0003c0 c1 92 cc 3f 05 d9 b5 3e 28 d7 3c 3f 0b f6 bf 3f
       1.5982286 0.35517135 0.737658 1.4996961
0003d0 aa d4 58 3f a5 6b 5c 3f 0b 78 fc 3f ae 20 94 3f
       0.846995 0.8610175 1.9724134 1.1572473
0003e0 59 52 8b 3f 02 e2 b2 3f 35 52 81 3f 4c 01 98 3f
       1.0884506 1.3975222 1.0103213 1.1875396
0003f0 87 6c 85 3e 68 42 89 3f 96 27 87 3e bf 63 98 3f
       0.26059362 1.072339 0.2639739 1.190544

bias f4 [64]
000000 56 4d 3f c0 b7 9d 90 c0 69 75 6a c0 41 de 28 40
       -2.9890952 -4.5192523 -3.6634161 2.6385653
000010 c3 f2 26 c1 01 ba eb c0 9f dd dc bf 32 ff 85 c0
       -10.434268 -7.3664556 -1.7255133 -4.187402
000020 0f 39 da 3f b0 a0 05 c0 e4 47 21 c1 35 56 4b c0
       1.7048663 -2.0879326 -10.080051 -3.1771367
000030 df 50 96 c0 2b c4 b6 3e 4a 94 1e c0 ca b2 a2 c0
       -4.697372 0.3569654 -2.4778008 -5.084325
000040 4c 8d 58 c0 0f 6f 9a c0 8c 26 9b 3f b9 7f f9 c0
       -3.383624 -4.826057 1.2121139 -7.796841
000050 4d f1 02 c0 6c b7 99 c0 26 12 07 c1 2b 89 cf bf
       -2.0459778 -4.8036404 -8.441931 -1.6213735
000060 41 16 12 c0 03 1c 90 c0 b4 dc f0 3f d5 1f 9a c0
       -2.2826083 -4.5034194 1.8817353 -4.8163857
000070 4a 27 9e 3e bd ce 80 c0 ca 6c b8 c0 f5 36 af c0
       0.3088935 -4.0252366 -5.76328 -5.4754586
000080 16 c4 aa c0 f6 b6 58 bf 05 51 73 c0 05 51 83 40
       -5.3364363 -0.84654176 -3.80182 4.10364
000090 36 69 dd c0 c1 a3 a1 c0 2d fd db c0 65 61 8c c0
       -6.919093 -5.0512395 -6.8746552 -4.386889
0000a0 b1 a3 c1 c0 8c b7 9e c0 25 21 85 bf 60 32 c8 c0
       -6.051232 -4.9599056 -1.040074 -6.2561493
0000b0 b2 46 dd c0 24 4b 43 c0 b9 1a 7b bf db 09 0f 40
       -6.91488 -3.0514612 -0.9808765 2.2349765
0000c0 9d e1 48 3f 82 38 8d c0 53 02 fd bc bb bb b7 be
       0.7846926 -4.413148 -0.030884897 -0.35885414
0000d0 5b 62 e6 be 01 f4 48 c0 50 dd 00 c1 ce ee 19 c1
       -0.44996914 -3.1398928 -8.054031 -9.620802
0000e0 b7 5e 3a c0 a6 c3 eb be fb 6b 08 c0 a7 c4 04 c1
       -2.912031 -0.46047705 -2.1315906 -8.298011
0000f0 d4 0c 29 c1 ae c9 32 c0 c9 a6 d6 c0 8d 59 3a 3f
       -10.565632 -2.7935596 -6.7078595 0.72792894
