model/soccer_ai_model1.pt (torch, 770532 bytes, 11 tensors)

weight f4 [512, 24]
0	0x3e45af70	0.19305205
1	0x3e85ff2a	0.26171237
2	0x3f0b8820	0.54504585
3	0xbf6ef515	-0.93342716
4	0x3f0e6168	0.5561738
5	0xbc403242	-0.011730732
6	0x3e436b69	0.19083942
7	0xbf062eda	-0.5241524
8	0x3fc1ebc3	1.5150074
9	0x3f820087	1.0156411
10	0x3cd79feb	0.026321372
11	0xbd9e8454	-0.07740083
12	0xbf1afbfd	-0.60540754
13	0xbf090824	-0.53528047
14	0x3eb3f68d	0.3514904
15	0x3ea5869a	0.32329255
16	0xbebef5aa	-0.37296802
17	0xbd7e2672	-0.062048383
18	0xbf15213b	-0.5825383
19	0xbd97f7d6	-0.07420318
20	0xbecef43d	-0.40420714
21	0x3facdb63	1.3504452
22	0x3f8c2470	1.094862
23	0x3e85446f	0.26028773
24	0xbe084cd8	-0.13310564
25	0x3e59ac16	0.21257052
26	0x3f3afaf0	0.7303915
27	0xbd86b0b2	-0.06576671
28	0x3f3fa3cd	0.74859315
29	0x3f1372c0	0.5759697
30	0xbefec7c0	-0.49761772
31	0xbe223581	-0.15840723
32	0xbaf49275	-0.001865937
33	0x3c9ae489	0.018907802
34	0x3f691916	0.91053903
35	0x3c9d25b8	0.019183025
36	0xbe9c5128	-0.30530667
37	0x3ff6e217	1.9287747
38	0x3faafaf8	1.335784
39	0x3f174446	0.5908855
40	0xbef5bebd	-0.47997084
41	0xbee50fa9	-0.4473851
42	0x3d049652	0.03236992
43	0xbe540ab1	-0.20707203
44	0xbe773922	-0.24142888
45	0xbf659a17	-0.8968825
46	0x3f6fe1b5	0.93703777
47	0x3c9a9a45	0.01887239
48	0x3d3fc8a1	0.046822194
49	0x3ead7630	0.33879232
50	0x3f003cc5	0.50092727
51	0x3e8bc576	0.27299088
52	0x3fbb44d5	1.4630381
53	0xbf1cdcde	-0.61274517
54	0xbdb61ffa	-0.08892818
55	0x3dfd4c7b	0.12368103
56	0xbcc48c5b	-0.023992708
57	0xbd784fc5	-0.06062295
58	0xbe1fdd87	-0.1561185
59	0xbe341d59	-0.1758932
60	0x3f3334d2	0.7000247
61	0xbe2d23da	-0.16908208
62	0xc01ee542	-2.4827428
63	0xbe95bc0f	-0.2924504
64	0xbe5c6619	-0.21523322
65	0x3e17f8ee	0.14841053
66	0x3f2e2d61	0.6803799
67	0xbeb1a28a	-0.3469432
68	0x3f18f5e8	0.59750223
69	0xc0070b78	-2.110075
70	0x3fb86e8e	1.4408739
71	0x3f5d9a2a	0.8656336
72	0x3c0fb59a	0.0087713245
73	0x3d3696bc	0.044577345
74	0xbf3f78d2	-0.7479373
75	0x3eb1b003	0.347046
76	0xbf3e677c	-0.74376655
77	0xbf48081f	-0.7813739
78	0xbed17f1e	-0.40917295
79	0x3f217f50	0.6308489
80	0xbe9e4142	-0.30909163
81	0x3ea1187b	0.3146399
82	0x3f57e1d0	0.8432894
83	0xbe9adf29	-0.30248383
84	0x3f01c101	0.50685126
85	0x3f311125	0.69166785
86	0x3fdc4c34	1.7210755
87	0xbf885955	-1.0652262
88	0x3e90200f	0.2814946
89	0x3e904915	0.28180757
90	0xbf11bb87	-0.5692677
91	0xbe827f3b	-0.25487694
92	0x3f1ba878	0.6080394
93	0xbe80590a	-0.2506793
94	0xbe34b3a7	-0.17646657
95	0xbe086453	-0.1331952
96	0x3ddbe664	0.10737303
97	0xbe6d4b5c	-0.23173279
98	0x3e452d2e	0.19255516
99	0x3f2df88d	0.67957383
100	0x3f0db4f7	0.55354255
101	0xbed4e1ae	-0.4157843
102	0xbe9b2127	-0.3029873
103	0xbdf9135d	-0.121618964
104	0x3ef51995	0.4787108
105	0x3e67abfa	0.22624198
106	0xbf4477f7	-0.7674555
107	0xbf222f09	-0.6335302
108	0xbe2e3e92	-0.17016056
109	0xbe387116	-0.18011889
110	0xbd0bb351	-0.034106556
111	0x3c36c7cf	0.0111560365
112	0xbc295b16	-0.010336658
113	0x3de6891b	0.112566195
114	0x3e9aee31	0.3025985
115	0xbf29e5fd	-0.6636656
116	0xbe200d00	-0.15629959
117	0x3f934e7d	1.1508328
118	0xbe436a6e	-0.19083568
119	0xbf16d690	-0.58921146
120	0xbda0cbf8	-0.07851404
121	0xbf3a65c1	-0.72811514
122	0x3e547d11	0.20750834
123	0xbf3fc953	-0.7491657
124	0xbe8a3e26	-0.2700054
125	0x3eb50e32	0.35362393
126	0x3f3086ef	0.6895589
127	0x3da52744	0.0806413
128	0x3b24578a	0.0025076591
129	0x3e0e6d01	0.13908769
130	0x3f432d73	0.76241225
131	0x3f5999aa	0.850001
132	0xbe829b7b	-0.25509247
133	0xbec3f4bc	-0.38272655
134	0x3f7a1dcd	0.9770172
135	0x3f6163b4	0.8804276
136	0xbe89bf17	-0.26903602
137	0xbe5a901d	-0.21344037
138	0xbf9a0db3	-1.2035431
139	0x3f593b52	0.8485614
140	0x3db31f5e	0.08746217
141	0x3b79938b	0.0038082327
142	0x3e672645	0.22573192
143	0x3bfacd44	0.007653864
144	0xbd28394c	-0.041070268
145	0xbd835121	-0.064119585
146	0x3f3f243e	0.74664676
147	0x3e49c21e	0.19702956
148	0xbfb7d643	-1.4362262
149	0x3f13063f	0.57431406
150	0x3f2b50cc	0.6692016
151	0xbe033a63	-0.12815242
152	0xbf5fb7e8	-0.87389994
153	0x3eaaa634	0.33329928
154	0xbe903789	-0.2816737
155	0x3c1bd402	0.009510996
156	0x3de63f5f	0.11242556
157	0xbf469b19	-0.7758041
158	0xbe0244be	-0.12721536
159	0x3eeeef83	0.46667108
160	0x3e219071	0.15777756
161	0x3e1a3fcf	0.15063404
162	0xbebe0317	-0.37111732
163	0x3cae4886	0.021274816
164	0xbe3d39da	-0.184791
165	0xbd9d9eba	-0.0769629
166	0x3f1d9315	0.61552554
167	0xbea3b69c	-0.31975257
168	0x3de0e960	0.10982013
169	0xbee70429	-0.4512036
170	0xbe017661	-0.12642814
171	0xbf892044	-1.0712972
172	0xbc8ae81a	-0.016956378
173	0x3d841548	0.064493716
174	0x3f05086c	0.51965976
175	0xbe9b01ec	-0.30274904
176	0xbdd2d15d	-0.10293839
177	0x3dea873b	0.114515744
178	0xbe625bd7	-0.22105347
179	0x3f80f748	1.0075464
180	0x3edec82d	0.43512097
181	0x3f90a473	1.1300186
182	0xbeff5979	-0.4987295
183	0x3cd3bfca	0.025848288
184	0x3e86ba84	0.26314175
185	0x3e8dec56	0.27719373
186	0x3fa5d885	1.2956702
187	0x3f545696	0.8294462
188	0x3e17f42d	0.1483924
189	0x3e542c30	0.20719981
190	0x3fa388e2	1.2776148
191	0xbd7ff247	-0.062486913
192	0xbd1943e1	-0.03741825
193	0x3eb25b3d	0.34835234
194	0xbcfb2e7f	-0.03066182
195	0x3f38caf5	0.7218469
196	0xbe84f7a9	-0.259702
197	0x3e1c4de6	0.15264091
198	0xbe0c4a32	-0.13700178
199	0xbd96e649	-0.07368142
200	0x3ddf7b29	0.10912163
201	0x3ee82c6e	0.45346397
202	0xbea6bf6c	-0.32567918
203	0x3d8f2a87	0.06990533
204	0xbe656ad6	-0.22404036
205	0xbe0952b7	-0.1341046
206	0x3e3eacfe	0.18620679
207	0xbef978b1	-0.48724893
208	0x3e7eb90c	0.24875277
209	0x3ec614bc	0.38687694
210	0x3ed36b34	0.41292727
211	0x3e836d54	0.25669348
212	0xbe855716	-0.26043004
213	0xc02b8ef4	-2.6806002
214	0xbf17eab0	-0.5934248
215	0xbf16e0b7	-0.5893664
216	0x3da46764	0.08027533
217	0xbfa97cac	-1.3241172
218	0x3ed4b505	0.41544357
219	0xbfb68b1e	-1.4261205
220	0x3ea9b3c4	0.33144963
221	0x3f943968	1.1580019
222	0xbf219d19	-0.63130337
223	0xbd9a0094	-0.075196415
224	0x3e55868a	0.20852104
225	0x3dc9ac48	0.09847313
226	0x3f069535	0.5257142
227	0xbf1be058	-0.60889196
228	0xbecaa719	-0.3958061
229	0x3fc47045	1.5346762
230	0xbdf35aca	-0.11882551
231	0xbe644df2	-0.22295359
232	0xbe8562b5	-0.2605187
233	0xbddd67ca	-0.10810812
234	0x3fc1a8a1	1.5129586
235	0xbead9b39	-0.33907488
236	0xbf071fb5	-0.52782756
237	0x3fc6657e	1.5499723
238	0x3ec2ccb9	0.38046816
239	0xbe0aee14	-0.13567382
240	0xbca6fc8c	-0.020384096
241	0xbe9093dd	-0.2823781
242	0x3eb4de11	0.35325673
243	0x3e9feca2	0.31235224
244	0xbf1428b7	-0.57874626
245	0x3f16ef18	0.5895858
246	0x3f4e89ab	0.80678815
247	0xbf8b932a	-1.0904286
248	0xbf2fe16d	-0.6870335
249	0x3f975b3b	1.1824716
250	0xbecc4df6	-0.3990323
251	0x3ecd52ff	0.40102383
252	0xbf967bcc	-1.175653
253	0xbf3b5a10	-0.731843
254	0xbf0429a5	-0.51626045
255	0xbe88fd71	-0.2675586

bias f4 [512]
0	0xc04d143f	-3.2043607
1	0xbf6e4806	-0.9307865
2	0xbf2b4dd9	-0.6691566
3	0xbfb396d9	-1.403041
4	0xbf03d4c0	-0.51496506
5	0xbf874e64	-1.0570798
6	0xbfccb3a9	-1.5992328
7	0xbfc84300	-1.5645447
8	0xbf8754dd	-1.0572773
9	0xbf5ecadc	-0.8702829
10	0xc07743f7	-3.8635232
11	0xbfc6b52f	-1.5524043
12	0xbf9fe5f3	-1.249205
13	0xc0103883	-2.2534492
14	0xc0045925	-2.067941
15	0xbef74f90	-0.4830289
16	0xbf900ee3	-1.1254543
17	0xbe6186ad	-0.22024031
18	0xbe595de0	-0.21227217
19	0xc00f43c5	-2.2385113
20	0xbfcac461	-1.584118
21	0xc003b86e	-2.0581317
22	0xc0330c9f	-2.7976453
23	0xbfb162ee	-1.3858316
24	0xbfa35a53	-1.276194
25	0xbfbbf8d3	-1.468531
26	0xc01ddb8d	-2.4665253
27	0xbfc787ff	-1.5588378
28	0xbf712d91	-0.94210154
29	0xc0113d8a	-2.269381
30	0xbf6eaf50	-0.93236256
31	0xc0125d75	-2.2869542
32	0xc0342ef2	-2.8153653
33	0xbfbfb315	-1.4976526
34	0xbfe08a8c	-1.7542281
35	0xbff27c38	-1.8944159
36	0xbf99fdda	-1.2030594
37	0x3ee88f86	0.45422
38	0xc066d9bb	-3.6070392
39	0x3f3f834c	0.7480972
40	0xbf928473	-1.144667
41	0xbfadec15	-1.3587672
42	0xbfac32ac	-1.3452964
43	0xbff73f3a	-1.931617
44	0xc001af71	-2.026333
45	0xbf0e902c	-0.5568874
46	0xbec99260	-0.39369488
47	0xbe87c553	-0.26517734
48	0xbfc43b9d	-1.5330693
49	0xbfb3cfe4	-1.4047818
50	0xbfdfe44d	-1.7491547
51	0xbfb06eaa	-1.3783772
52	0xbe1be073	-0.1522234
53	0xbffcf1c6	-1.9761283
54	0xbfbbe39a	-1.4678833
55	0xc01fa279	-2.4942915
56	0xbf8e85a9	-1.113454
57	0xbfab6508	-1.3390207
58	0xbf5d964a	-0.8655745
59	0xbf4950bc	-0.78638816
60	0xbfaa5617	-1.3307523
61	0xbf886ab1	-1.065756
62	0x3fe236d5	1.7672983
63	0xc01742e9	-2.3634589
64	0xbf9655b4	-1.1744905
65	0xbe9fbaa1	-0.31197074
66	0x3fffbf17	1.9980191
67	0xbee9adeb	-0.456405
68	0x3f42f43b	0.76153916
69	0xbfff18d1	-1.9929448
70	0xbfdb7822	-1.7146037
71	0xbfa56aa6	-1.2923172
72	0x3e3a4e7a	0.18193999
73	0xc0123416	-2.284429
74	0xc0582d2a	-3.3777566
75	0xbf949a41	-1.1609575
76	0xbff21e2c	-1.8915458
77	0xbfb12ec7	-1.38424
78	0xc02812cf	-2.626148
79	0x3f9464be	1.1593244
80	0xbebac462	-0.36477953
81	0xbfbb8e71	-1.4652845
82	0xbf83f061	-1.0307733
83	0xc018f391	-2.389866
84	0xc0216709	-2.5219138
85	0xc008f794	-2.140111
86	0xbffcc06f	-1.9746226
87	0xbf8d4bcc	-1.1038756
88	0x3d197070	0.037460744
89	0xbfa062ca	-1.2530148
90	0xc00c2d77	-2.190275
91	0xbfecdae5	-1.8504301
92	0xbfa0c04b	-1.2558683
93	0xbfb93bc0	-1.4471359
94	0xbf3d60a0	-0.73975563
95	0xbfc9cde7	-1.5765961
96	0xc02a4a2f	-2.6607778
97	0xbfe08cef	-1.754301
98	0xc02bc442	-2.6838536
99	0xc03d8cb8	-2.9617138
100	0xbf4c3f96	-0.79784524
101	0xbfd9e471	-1.702284
102	0xbe153592	-0.14571217
103	0xbf8c38e0	-1.0954857
104	0xbf53dbe7	-0.8275742
105	0xbfd52dd2	-1.6654608
106	0x3f1de474	0.61676717
107	0xbf7c4564	-0.9854338
108	0xbfdb2b60	-1.7122612
109	0xbef534e0	-0.47891903
110	0xbf85d8c3	-1.0456775
111	0x3f1275ce	0.57211006
112	0xbfdd930b	-1.7310499
113	0x3eb56cb3	0.35434493
114	0xc00b6eaf	-2.1786306
115	0xc015569c	-2.3334112
116	0xbe8c7a6c	-0.2743715
117	0xbea599ab	-0.32343802
118	0xbf675972	-0.9037086
119	0xbf8a775b	-1.0817674
120	0xbf62f2a5	-0.88651496
121	0xbf978f04	-1.184052
122	0x3f912b53	1.1341347
123	0xbf1a9bc6	-0.6039394
124	0xbf91384b	-1.1345304
125	0xbfc55505	-1.5416571
126	0xbf99cbd9	-1.2015334
127	0xbf8ee82a	-1.1164601
128	0xbf96fd08	-1.1795969
129	0xbffeb9e8	-1.9900484
130	0xbf6f6d18	-0.9352584
131	0xbfb3ce9b	-1.4047426
132	0xc038c4dc	-2.8870153
133	0xbfa8a368	-1.3174868
134	0xc006ca61	-2.1061022
135	0xbfc7ca69	-1.5608646
136	0xbfcd4c5d	-1.6038929
137	0xbeb7371b	-0.3578423
138	0xbfdf520d	-1.7446915
139	0xbfb1373c	-1.3844981
140	0xbecd1f8c	-0.4006313
141	0xc0118071	-2.2734644
142	0xbf7d5fe3	-0.98974437
143	0xc05a32e8	-3.409357
144	0xc02c8c67	-2.6960695
145	0xbf5f90c4	-0.8733027
146	0xbe401e7e	-0.18761632
147	0xbf4a1c42	-0.7894937
148	0x3facf1b1	1.3511258
149	0xc056b30a	-3.3546777
150	0xbf528a59	-0.8224235
151	0xbfc333cf	-1.5250186
152	0x3f87f41a	1.0621369
153	0xc001f341	-2.030472
154	0xbfb1eda8	-1.3900652
155	0xc01eab1d	-2.479194
156	0xbfefa87a	-1.872329
157	0xbdfc9bf3	-0.123344325
158	0xbf868517	-1.0509366
159	0xc001eb04	-2.0299692
160	0xc0092bf6	-2.1433082
161	0xbff89c57	-1.9422711
162	0xc02eb644	-2.7298746
163	0xc03a396c	-2.9097548
164	0xbf45e6d8	-0.77305365
165	0xbf1375a9	-0.5760141
166	0xbfdd6454	-1.7296243
167	0xbfb5a57c	-1.4191127
168	0xbfd91477	-1.695937
169	0x3ffa6d4a	1.9564602
170	0xbfb05410	-1.3775654
171	0xbfdeb971	-1.7400342
172	0xbfcfb19a	-1.6226075
173	0xbf8e5c01	-1.1121827
174	0xc04882cb	-3.132983
175	0xbfcbb2f5	-1.5913988
176	0xc069db08	-3.6539936
177	0xbf3e9d1c	-0.7445848
178	0xbfbf5d0a	-1.4950268
179	0xc0121d2a	-2.28303
180	0xc052384c	-3.284686
181	0xbf65feb6	-0.89841783
182	0xbfab6317	-1.3389615
183	0xc012e996	-2.295507
184	0xc007ad6a	-2.1199594
185	0xbf926062	-1.1435664
186	0xbf4042b0	-0.7510176
187	0xc027ac13	-2.6198776
188	0xbfcf8a04	-1.6213994
189	0xbf4925fb	-0.7857358
190	0xbf54c119	-0.83107144
191	0xbfcd5de8	-1.6044283
192	0xbf5371ee	-0.8259572
193	0x3f2a92a9	0.66630036
194	0x3f18ab17	0.5963606
195	0xbee76584	-0.45194638
196	0xbf3c74ce	-0.7361573
197	0xc03b936e	-2.9308734
198	0xbfd359f0	-1.6511822
199	0xbefc2562	-0.4924727
200	0xc023f2de	-2.5616984
201	0xbfb90c04	-1.4456792
202	0xbf6e68e0	-0.93128777
203	0xc0206a78	-2.5064983
204	0xbfffd649	-1.998727
205	0xbf8304f7	-1.023589
206	0xbf48b4c7	-0.78400844
207	0x3ef7398a	0.48286086
208	0xbfe9a3da	-1.8253129
209	0xbf8990c1	-1.07473
210	0xbf981126	-1.1880233
211	0xc00952d9	-2.1456816
212	0xbe9e8c85	-0.30966583
213	0xbf1fd699	-0.62436825
214	0xc016b3d9	-2.354727
215	0xbde1685a	-0.110062316
216	0xbfefb6bb	-1.872764
217	0xbf264f59	-0.64964825
218	0xbf20ce00	-0.6281433
219	0xbf4dffc1	-0.80468374
220	0xbf0b7c89	-0.544869
221	0xbe38d98c	-0.18051738
222	0xbf6ba2f4	-0.9204552
223	0xbfd4e0e4	-1.6631131
224	0xbf982ac6	-1.1888053
225	0xc01c9f60	-2.4472275
226	0xbf3b65da	-0.7320229
227	0xbf4b86d0	-0.7950258
228	0x3ec7b952	0.39008576
229	0xbf8d944d	-1.1060883
230	0x3d8c6bfd	0.06856535
231	0xc01e8617	-2.4769342
232	0xbf0d5ff1	-0.5522452
233	0xbfd30ea9	-1.6488849
234	0xbfcfbd20	-1.6229591
235	0x3e57204a	0.21008411
236	0xc03f1b79	-2.9860518
237	0xbf9f93fd	-1.2467037
238	0xc000ee2c	-2.0145369
239	0xbf8b6aa8	-1.0891924
240	0xbf58e6d0	-0.8472719
241	0xbfa6a6d3	-1.3019661
242	0xbfdc551f	-1.7213477
243	0xbfe6c814	-1.8029809
244	0xbf2f7f93	-0.6855404
245	0xbf5f1634	-0.87143254
246	0xbf92a4f2	-1.1456587
247	0x3e8bcc65	0.27304378
248	0xc003ac05	-2.0573742
249	0xc009db5c	-2.1540136
250	0xbf4488f9	-0.76771504
251	0xbef44dc3	-0.47715577
252	0xc00f5a43	-2.2398841
253	0xbfecfd10	-1.8514729
254	0xbf49e779	-0.78868824
255	0xbe9053ab	-0.28188834

weight f4 [256, 512]
0	0x3ed20f23	0.41027173
1	0x3f65104c	0.8947799
2	0x3d5c2c15	0.053752977
3	0xbd8ea5e4	-0.06965235
4	0xbf8ce4db	-1.1007341
5	0x3f098b22	0.53727925
6	0x400e587d	2.224151
7	0xbf6eac0b	-0.93231267
8	0xbecd20a1	-0.40063956
9	0x3f52d005	0.8234866
10	0x3f826602	1.018738
11	0x3aef1ca8	0.0018242793
12	0x3f04cea4	0.5187781
13	0x3d7fb281	0.062426094
14	0x3e52339a	0.20527497
15	0x3f9e0db5	1.2347933
16	0xbe99ea29	-0.30061463
17	0x3f3e3d62	0.7431241
18	0xbf79d06c	-0.9758365
19	0x3f629014	0.88501096
20	0xbf8894bb	-1.0670389
21	0xbf8ee2be	-1.1162946
22	0xbe31395a	-0.17307034
23	0x3def82cc	0.116948694
24	0x3fb71538	1.430335
25	0x3eaafed4	0.33397543
26	0xbfd33654	-1.6500955
27	0x3f170ee4	0.59007096
28	0xbe82c5a4	-0.25541413
29	0x3f33a8c4	0.7017939
30	0x3f4326cf	0.7623109
31	0xbf175e76	-0.5912851
32	0xbff45a87	-1.9090127
33	0xbf478f64	-0.7795317
34	0x3e6e997c	0.23300737
35	0xc02ef52b	-2.7337139
36	0x3eaa4b55	0.332606
37	0xbeed668c	-0.463673
38	0x3ef869f6	0.48518342
39	0xbdb37da8	-0.087642014
40	0x3f33f6c6	0.7029842
41	0x3ede802c	0.43457162
42	0x3ea281de	0.31739706
43	0xbecbaea0	-0.39781666
44	0xbfe2470d	-1.7677933
45	0x3f2f2c4c	0.68426967
46	0xbe866992	-0.2625242
47	0xbfbe1a56	-1.4851787
48	0xbf290e61	-0.66037565
49	0x3e4f41cb	0.20239942
50	0x3ef998c5	0.48749366
51	0x3f25c724	0.6475699
52	0xbeb8d21a	-0.36097795
53	0x3ef33aa3	0.47505674
54	0xbf172f14	-0.5905621
55	0xbf0a8958	-0.5411582
56	0x3ed82b50	0.42220545
57	0xbee4201f	-0.44555756
58	0x3ec067f1	0.375793
59	0x3f7c625b	0.9858758
60	0xbe9d036e	-0.3066668
61	0xbee0912f	-0.43860766
62	0x3e0c3fa8	0.13696158
63	0x3e41fbd7	0.18943726
64	0xbe3abe3d	-0.18236633
65	0xbe143ec0	-0.14477062
66	0x3d145d7b	0.036221962
67	0x3f72e1fa	0.9487606
68	0xbf47a9ed	-0.7799366
69	0x3fd3d0d1	1.6548101
70	0xbdc124a4	-0.09430817
71	0xbe8958b0	-0.26825476
72	0xbe2dca63	-0.16971736
73	0xbef5cd98	-0.48008418
74	0x3e9b9a54	0.3039118
75	0x3dbdfd1b	0.09276792
76	0x3f73e81d	0.9527605
77	0x3f30ed53	0.6911213
78	0x3ebd8d23	0.3702174
79	0x3c42f1d1	0.011898474
80	0xbed15a59	-0.40889242
81	0xc01a276f	-2.4086568
82	0xbebc678a	-0.36797744
83	0xbf3e07ec	-0.7423084
84	0x3f676ea1	0.9040318
85	0x3ee28d42	0.44248396
86	0xbf6128ca	-0.87952864
87	0x3cf2529f	0.029580412
88	0xbf2ba64f	-0.6705064
89	0xbd936c9a	-0.071984485
90	0xbf4a5c77	-0.7904734
91	0x3f827ee4	1.0194974
92	0x3f94f4bf	1.163719
93	0x3f30a010	0.68994236
94	0xbefba7bc	-0.4915141
95	0xbd1fb287	-0.038988616
96	0x3e31da15	0.17368348
97	0x3f07f009	0.5310064
98	0x3f650ef7	0.8947596
99	0x3eb5af6f	0.35485408
100	0x3ebf0565	0.37308803
101	0xbf338447	-0.70123714
102	0x3f14754f	0.579915
103	0xbe05f9f3	-0.1308363
104	0xbfb697bd	-1.4265057
105	0x3f9625fc	1.1730342
106	0x3e0890fc	0.13336557
107	0xbf50ebe4	-0.8160994
108	0xbf8dc884	-1.1076818
109	0x3f0a0846	0.53918874
110	0xbf99f506	-1.20279
111	0xbff1917c	-1.8872523
112	0x3f798c68	0.9747987
113	0x3edf8183	0.43653497
114	0x3dd20400	0.10254669
115	0xbcfdd3cf	-0.030984787
116	0xbf23763a	-0.63852274
117	0xbec146a9	-0.37749222
118	0x3f3ae8c8	0.73011446
119	0x3f903451	1.1265966
120	0x3d90804e	0.07055722
121	0x3db1de93	0.08685031
122	0xbf308e42	-0.6896707
123	0x3ea52fb0	0.32262945
124	0x3f773433	0.96564025
125	0x3f8a00af	1.0781459
126	0x3dd0db0d	0.101980306
127	0x3f6b7487	0.9197468
128	0xc012dfd4	-2.2949114
129	0x3db2081e	0.086929545
130	0xc0d77e5b	-6.7341743
131	0xc0156e5c	-2.3348608
132	0x3eb674a5	0.35635868
133	0x3fc56f8a	1.5424664
134	0xbe8d3743	-0.27581224
135	0x3ee7931b	0.4522942
136	0xbeb4c038	-0.353029
137	0x3e64cfd9	0.22344913
138	0xbece4771	-0.4028888
139	0x3df41202	0.11917497
140	0x3d39684a	0.045265473
141	0x3e3d410c	0.18481845
142	0xbfebc1c8	-1.8418512
143	0xbf18e620	-0.5972614
144	0x3f29c046	0.6630901
145	0x3f1d31da	0.6140419
146	0xbf2f5048	-0.68481874
147	0x3f64bd2f	0.8935117
148	0x3db665fe	0.08906172
149	0xbdd4fc83	-0.10399725
150	0xbf7e733b	-0.9939458
151	0xbf6f04f7	-0.9336695
152	0x3f0ecfe5	0.5578597
153	0xbfa4cf39	-1.2875739
154	0x3e68b2e7	0.22724496
155	0x3f0970aa	0.53687537
156	0xbe015045	-0.12628277
157	0x3f240c24	0.64081025
158	0xbc95f579	-0.018305527
159	0x3ecc9e72	0.39964634
160	0xbee8a602	-0.45439154
161	0xbda60d01	-0.08107949
162	0x3ef1f1f6	0.47254914
163	0x3f1873a5	0.5955146
164	0x3ed08807	0.4072878
165	0x3f45e935	0.7730897
166	0x3e9c33dc	0.30508316
167	0xbefbd967	-0.49189302
168	0xbf03d79e	-0.5150088
169	0x3dc38366	0.09546547
170	0x3e79c96b	0.24393241
171	0x3bfd5c06	0.0077319173
172	0xbe0b7096	-0.13617167
173	0x3eda01e0	0.42579556
174	0x3f1f1bc3	0.62151736
175	0x3f36747e	0.712715
176	0xbdad7ba6	-0.0847085
177	0x3db7c44b	0.08972987
178	0xbf0ea966	-0.5572723
179	0x3f8b3852	1.0876563
180	0x3ee1a610	0.44072008
181	0x3fa15cd3	1.2606453
182	0xbf0332e8	-0.5124955
183	0x3fbb3217	1.4624661
184	0xbe2f787e	-0.17135808
185	0x3ec59c18	0.38595653
186	0x3e7db0e7	0.24774514
187	0xbf2eae53	-0.6823475
188	0xbefcee96	-0.49400777
189	0x3f2b9d25	0.6703666
190	0x3e5f7eea	0.21825758
191	0x3fbf6b4c	1.495462
192	0xbfa483bb	-1.2852701
193	0x3d2db7c5	0.042411584
194	0xbf2c5d55	-0.67329913
195	0x3dfde0ab	0.12396368
196	0x3bf01975	0.0073272535
197	0x3f2c9737	0.67418236
198	0x3f23626f	0.6382207
199	0xbf9d422e	-1.2285821
200	0x3f252816	0.6451429
201	0x3fb45898	1.4089537
202	0xbcf54c68	-0.02994366
203	0xbf2f2245	-0.68411666
204	0x3f30b62d	0.6902798
205	0xbe1636b2	-0.14669302
206	0xbf43164a	-0.76205885
207	0x3abc3410	0.0014358778
208	0x3fb12c98	1.3841734
209	0x3eae32e9	0.34023216
210	0xbf92e6a9	-1.1476642
211	0x3ed1c8fc	0.4097365
212	0x3d082728	0.033240467
213	0x3eff9e5d	0.4992551
214	0x3dbba8be	0.091630444
215	0x3ef5a8ea	0.47980434
216	0xbf0cb636	-0.5496553
217	0xbc48c8b6	-0.0122548845
218	0x3f387655	0.7205556
219	0x3f9c717b	1.2222131
220	0x3f6180be	0.8808707
221	0xbf460785	-0.77355224
222	0x3e1a43c7	0.15064918
223	0x3e9586d8	0.2920444
224	0x3f931a55	1.1492411
225	0x3c769295	0.015049596
226	0x3e6e87f6	0.23294052
227	0xbf076e88	-0.5290303
228	0x3ef02981	0.46906665
229	0x3ebe79e3	0.37202367
230	0x3f091f44	0.5356333
231	0xbf0a4272	-0.5400764
232	0xbf250aa0	-0.6446934
233	0xbe1a0fb1	-0.15045048
234	0x3fbf4ef3	1.4945968
235	0xbd432de4	-0.047651187
236	0xbe8f5300	-0.2799301
237	0xbe4f8ecf	-0.20269321
238	0xbf65140d	-0.8948372
239	0xbf0357d9	-0.5130592
240	0x3f2d49ee	0.6769093
241	0x3e070555	0.13185628
242	0x3f9a2139	1.2041389
243	0x3f26a661	0.65097624
244	0x400382dc	2.054862
245	0x3dc1efd2	0.0946957
246	0x3f2e7d69	0.6816011
247	0x3e458ae2	0.19291261
248	0x3f5c7987	0.86122936
249	0xbf6b5888	-0.9193196
250	0x3f4173db	0.75567406
251	0xbfe955e9	-1.8229343
252	0x3f8fd360	1.1236382
253	0xbeec9f20	-0.46215153
254	0xbe0dc1c7	-0.13843451
255	0x3e66b421	0.22529651

bias f4 [256]
0	0x3f03c67f	0.51474756
1	0xbf7c5367	-0.9856476
2	0xbf241335	-0.6409181
3	0xc0083e27	-2.1287935
4	0xbe3a3d9d	-0.18187566
5	0xbf06377f	-0.5242843
6	0xc06d87b6	-3.7114081
7	0xbf1c1ecf	-0.6098451
8	0xbf8e01a1	-1.1094247
9	0xbe56d371	-0.20979096
10	0xbee42f49	-0.44567326
11	0xbda91f04	-0.08257869
12	0xbfa48fdc	-1.2856402
13	0xbfbee452	-1.4913428
14	0xc070c2c8	-3.7618885
15	0xbe7325b7	-0.23744856
16	0xbf8d538a	-1.1041119
17	0xbf9b3887	-1.2126626
18	0x3e4e0e23	0.2012258
19	0xc00284e3	-2.0393608
20	0xbeeaf12c	-0.45887125
21	0xbeb05be6	-0.34445113
22	0xbd8256c8	-0.063642085
23	0xbecfa4ca	-0.40555412
24	0xbfb52bd1	-1.4153997
25	0xc0870f75	-4.220637
26	0xbf48c604	-0.7842715
27	0xbfcbee30	-1.5932064
28	0xbf1e0d59	-0.61739117
29	0xbf49904b	-0.787358
30	0xbf15bd17	-0.58491653
31	0xbf1d0776	-0.6133951
32	0xbda46230	-0.0802654
33	0xc08c94e6	-4.393176
34	0xbf5375fb	-0.826019
35	0xbf8e6388	-1.1124125
36	0xbecc391b	-0.39887318
37	0xbf2481bd	-0.64260465
38	0xbf8808a4	-1.0627637
39	0xc0896560	-4.293625
40	0xbf3a42b4	-0.7275803
41	0xbfa74e32	-1.3070738
42	0xbdf2c050	-0.11853087
43	0xbee88088	-0.45410562
44	0xbf06ce66	-0.5265869
45	0xbcac4d07	-0.021032823
46	0xbf94fbe3	-1.163937
47	0xbe9647eb	-0.29351744
48	0xbcd73c65	-0.026273916
49	0xbe933ccd	-0.28757325
50	0x3e31c517	0.1736034
51	0xbd9a1dd9	-0.07525224
52	0xbe61ffc8	-0.22070229
53	0xc0129633	-2.2904174
54	0xbf81ecd5	-1.01504
55	0x3e6fb45e	0.23408648
56	0xbe6639e6	-0.22483024
57	0xc002e98a	-2.045504
58	0xbf552095	-0.8325284
59	0xbf76a4af	-0.9634504
60	0xbf89254b	-1.0714506
61	0xbf55a1f2	-0.83450234
62	0xbe9052c9	-0.2818816
63	0xbf1bce61	-0.60861784
64	0xbe91cbdc	-0.28475845
65	0x3eba3a3c	0.36372554
66	0xbd0b41fd	-0.03399848
67	0xbfc65d05	-1.5497137
68	0xbfaa0b35	-1.328467
69	0x3e9a5901	0.3014603
70	0xbebb0557	-0.3652751
71	0xbf507741	-0.8143197
72	0xbf5c2d18	-0.8600631
73	0xbea41de8	-0.32054067
74	0xc022f860	-2.5464096
75	0xbf9a9fa2	-1.2079966
76	0xbe5a3777	-0.2131022
77	0x3ed61c47	0.4181845
78	0xbee2d3c5	-0.44302192
79	0xbd3ad027	-0.045608666
80	0xbe866b7c	-0.2625388
81	0xbfd059ee	-1.6277444
82	0xbfe3412e	-1.7754266
83	0xbfe9d158	-1.8267012
84	0xbead8ba2	-0.33895594
85	0xbf9dea78	-1.2337179
86	0xbfcf05f1	-1.6173688
87	0xbf7ee135	-0.9956239
88	0xbec81782	-0.39080435
89	0xbe0cfb42	-0.13767722
90	0xc0829c1d	-4.081557
91	0xbff92538	-1.9464483
92	0x3e995ab3	0.2995201
93	0xc0100acb	-2.2506588
94	0xbfb29312	-1.3951132
95	0xbf83ee42	-1.0307086
96	0xbf035a74	-0.51309896
97	0xc09b3bcd	-4.85105
98	0xbf268381	-0.6504441
99	0xbf07fbe5	-0.53118736
100	0xbfbe74f1	-1.4879438
101	0xbfafc4dc	-1.3731952
102	0xbece1685	-0.40251556
103	0xbf26bee9	-0.65135056
104	0xbf559234	-0.83426213
105	0xbfab86c8	-1.3400507
106	0xbf3d969e	-0.7405795
107	0xbfcc5c5d	-1.5965687
108	0xbc38f026	-0.011287725
109	0xc095d2c7	-4.6819797
110	0xbe3f62f0	-0.18690085
111	0x3c1ec13a	0.0096896235
112	0xbdb34bbb	-0.08754679
113	0x3f5ac4c4	0.8545649
114	0xbf435d0e	-0.76313865
115	0xbd6504f5	-0.05591293
116	0x39313b34	0.0001690209
117	0xbfa5f28d	-1.2964646
118	0xbe63b805	-0.22238167
119	0xbf6b5620	-0.9192829
120	0xbeb72110	-0.35767412
121	0xc09a3994	-4.8195286
122	0xbf3bfae9	-0.73429734
123	0xbd7c0dfc	-0.061536774
124	0xc08c69d9	-4.387921
125	0xbfa46ac0	-1.2845078
126	0xbe44ce89	-0.19219412
127	0xbec38e36	-0.38194436
128	0xbf694eac	-0.9113567
129	0xbf9d261c	-1.2277255
130	0xbf984550	-1.1896152
131	0xbf458296	-0.77152383
132	0xbef5d056	-0.4801051
133	0xbf3c420d	-0.73538285
134	0xbf470126	-0.7773613
135	0xbd0071ea	-0.031358637
136	0xbf871ac4	-1.0555043
137	0xbf9ad7da	-1.2097123
138	0xbf601026	-0.8752464
139	0xbe2d2631	-0.169091
140	0xbf0cfe81	-0.5507584
141	0x3e9ac2d6	0.30226773
142	0xbfa50ea6	-1.2895095
143	0xbf1081ee	-0.56448257
144	0xbe7ee67e	-0.24892613
145	0xbf285c2e	-0.65765655
146	0x3f3299ee	0.6976613
147	0xbf93e214	-1.1553369
148	0xbf7e465e	-0.9932612
149	0xbf383fe3	-0.71972483
150	0xbe22348c	-0.15840358
151	0xbf25b119	-0.64723355
152	0xbeb89ce7	-0.36057207
153	0xbe41dc62	-0.18931726
154	0xc0917da6	-4.546588
155	0x3f2d3102	0.67652905
156	0xbfaeb41a	-1.3648713
157	0xbf853f9b	-1.0410036
158	0xbf38ab39	-0.72136265
159	0xbfab33a5	-1.3375136
160	0xbfc1a31e	-1.5127904
161	0x3e2a3cf6	0.16624817
162	0xc01fa169	-2.4942267
163	0xbd48ed59	-0.049054477
164	0xbfa8f85b	-1.3200792
165	0xbd3d27dc	-0.04618059
166	0x3dd723bf	0.10504865
167	0xbf99d4cd	-1.2018067
168	0xbeccb905	-0.3998491
169	0xbfa8ffb0	-1.320303
170	0xbf416999	-0.75551754
171	0xbf91b5a8	-1.1383562
172	0xbf82c89e	-1.0217474
173	0x3e8efb4d	0.27926102
174	0xbf966a02	-1.1751101
175	0xbf8876c4	-1.0661244
176	0xbea9192b	-0.33027014
177	0xc002c0ef	-2.0430257
178	0xbe71a68e	-0.23598692
179	0xbf4fd88d	-0.81189805
180	0xbfb5fcb9	-1.421775
181	0xc08853e3	-4.26024
182	0xbf1f8efb	-0.62327546
183	0xbee0c1c8	-0.43897843
184	0xbf3b4dd5	-0.7316564
185	0xbf95d0f2	-1.170439
186	0xbd77c4e3	-0.0604905
187	0xc001fd0f	-2.0310705
188	0xbf9bf92e	-1.2185419
189	0xbf4063f8	-0.7515254
190	0xbfe715a6	-1.8053482
191	0xbe3922db	-0.18079703
192	0xbfa64c7c	-1.2992091
193	0xbf98c142	-1.1933978
194	0xbfadc31b	-1.3575166
195	0xbf4ea6c9	-0.80723244
196	0xbf85f980	-1.0466766
197	0xbe06d340	-0.13166523
198	0xbf962659	-1.1730453
199	0x3c8eb17e	0.01741862
200	0xbf4824e6	-0.781813
201	0xbfdc2d9d	-1.720142
202	0x3eb70cf1	0.3575206
203	0x3d27e725	0.04099192
204	0x3db1087e	0.08644198
205	0xbf5756fd	-0.8411711
206	0xbf6c9b42	-0.92424405
207	0xbfac222f	-1.3447932
208	0xbf220499	-0.63288265
209	0xbe84f03e	-0.2596454
210	0xbef1227d	-0.47096625
211	0xbfbbcc6d	-1.4671761
212	0xbfdc5742	-1.7214129
213	0xbeec85c5	-0.46195808
214	0xbd7ad956	-0.061242424
215	0xbe3e5ae0	-0.18589354
216	0xbf445b22	-0.7670156
217	0xbf00b471	-0.5027533
218	0xbd947af3	-0.07250013
219	0xbf06221f	-0.52395815
220	0xbf99fc83	-1.2030185
221	0xbe9b8ec4	-0.3038236
222	0xbd9cca4b	-0.07655772
223	0xc02361da	-2.5528474
224	0xbfc146f7	-1.5099782
225	0xbff4c2c2	-1.9121935
226	0xbf9fa8d8	-1.2473402
227	0xbfbcb965	-1.4744078
228	0xbe74afa6	-0.2389513
229	0xbf3ce921	-0.73793226
230	0xbe17c308	-0.14820492
231	0xbf24282b	-0.6412379
232	0xbf6d24bd	-0.92634183
233	0xbf9cea53	-1.225901
234	0xbf8278fc	-1.0193172
235	0xc08c887e	-4.3916616
236	0xbd5f335c	-0.05449234
237	0xbf029cfb	-0.51020783
238	0xbfb5eff3	-1.4213852
239	0xbf38b173	-0.72145766
240	0xbfc915bf	-1.5709761
241	0xbc7d813e	-0.015472708
242	0xbf8f3347	-1.1187524
243	0x3d97e3e7	0.07416516
244	0x3df57685	0.119854964
245	0xbf521534	-0.82063603
246	0xbfd92ac0	-1.6966171
247	0xbfdc3d88	-1.7206278
248	0xbe1b5294	-0.1516822
249	0xbf74b1b5	-0.9558366
250	0xbf71c80b	-0.94445866
251	0xbf3b2dea	-0.73116934
252	0x3f3714c2	0.7151605
253	0xbf4fed08	-0.81221056
254	0xbf10ae79	-0.56516224
255	0xbfdb79a6	-1.7146499

weight f4 [128, 256]
0	0xbf7861b0	-0.9702406
1	0x3de835ff	0.11338424
2	0xbfeec5a0	-1.865406
3	0x3e799622	0.24373677
4	0x3eeba738	0.46026015
5	0x3f620d24	0.883013
6	0x3e492fc7	0.19647132
7	0xbf406e6f	-0.7516851
8	0xbf2e16d3	-0.68003577
9	0xbf6d1d4f	-0.92622846
10	0x3fa385ef	1.2775248
11	0x3f455a0f	0.77090544
12	0x3f3ffb77	0.7499308
13	0xbf09c718	-0.5381942
14	0xbe05812f	-0.13037561
15	0xbffa0e01	-1.9535524
16	0x3e491920	0.1963849
17	0x3fb741db	1.4316972
18	0xc0398e01	-2.8992922
19	0x3d3b8205	0.045778293
20	0xbfabb2c6	-1.3413932
21	0x3d6415fe	0.055685036
22	0x3d0f0ad4	0.034922436
23	0xbf287fdc	-0.658201
24	0x3d4ce693	0.05002458
25	0xbe07c819	-0.13259925
26	0xbd9e7519	-0.07737178
27	0xbf099d78	-0.53755903
28	0x3c74f3ca	0.014950702
29	0xbdfe8ca6	-0.1242917
30	0xbf2862ef	-0.6577596
31	0x3fa6791b	1.3005708
32	0xbf4a7ad1	-0.7909365
33	0x3ea24928	0.3169644
34	0xbef328cd	-0.47492066
35	0x3f85f061	1.0463983
36	0xbe229873	-0.15878467
37	0xbf60a376	-0.8774942
38	0xbf2f0922	-0.6837331
39	0x3e14c032	0.14526442
40	0x3f2b0040	0.66797256
41	0x3e305559	0.17220058
42	0xbf287ff7	-0.6582026
43	0x3f10c833	0.5655548
44	0x3dd3e415	0.103462376
45	0xbee09578	-0.43864036
46	0xbf3a7b80	-0.72844696
47	0xc000ed61	-2.0144885
48	0xbf24a51d	-0.6431444
49	0x3dd77064	0.10519484
50	0x3ea7a09d	0.32739726
51	0xbe6e6222	-0.23279622
52	0x3efc3fbe	0.4926738
53	0x3f1418c8	0.57850313
54	0xbf932478	-1.1495504
55	0x3fb7ddad	1.4364525
56	0xbf80ccb5	-1.0062472
57	0x3de9117e	0.113802895
58	0x3fb4dc7a	1.4129784
59	0xbeb52b47	-0.3538458
60	0xbf1a5bee	-0.60296524
61	0x3f587ebd	0.8456839
62	0x3ef7c34b	0.48391184
63	0x3f71f410	0.94513035
64	0x3dc19ed8	0.09454125
65	0xc0158219	-2.3360655
66	0x3d8ec685	0.06971458
67	0x3ea2ed50	0.3182168
68	0xbeb801bf	-0.35938832
69	0xbf036cb3	-0.51337737
70	0x3f3534b3	0.7078354
71	0x3ec95958	0.39325976
72	0x3f60364c	0.8758285
73	0x3f523fc1	0.8212853
74	0xbec282a5	-0.379903
75	0xbf95d7c5	-1.1706473
76	0x3f0dd07c	0.55396247
77	0xbfb480ac	-1.4101768
78	0xbeb4b84c	-0.35296857
79	0xbf3b5d1b	-0.7318894
80	0x3e5eedb6	0.21770367
81	0x3f6703cd	0.90240175
82	0x3e7aca38	0.24491203
83	0x3f69b466	0.9129089
84	0xbf39325d	-0.72342473
85	0xbf5f9104	-0.8733065
86	0x3f0b199f	0.5433597
87	0xbfb929ae	-1.4465845
88	0xbf388b28	-0.72087336
89	0xbf64df1e	-0.8940295
90	0x3ebc8f4a	0.3682807
91	0x3ed774f5	0.4208142
92	0xbfc6c763	-1.5529598
93	0xbe9f4e2b	-0.31114325
94	0xbf76b0a2	-0.9636327
95	0xbf89ea71	-1.0774671
96	0xbfc49944	-1.5359273
97	0x3dddcb04	0.10829738
98	0x3e9cdf0b	0.30638918
99	0xbf582b41	-0.84441
100	0xbe5cafaa	-0.21551386
101	0xbf0e5db3	-0.55611724
102	0xbfc4bb67	-1.5369691
103	0xbf8f4d75	-1.1195513
104	0xbfa318dc	-1.2741961
105	0xc0150e07	-2.3289812
106	0xbf0b9625	-0.5452598
107	0xbf24c3cc	-0.6436126
108	0x3e47c092	0.19507053
109	0x3e1b3c9e	0.15159842
110	0xbf4bdead	-0.7963665
111	0x3daf0df8	0.08547586
112	0xbfe1d7cb	-1.764398
113	0xbd6ead8c	-0.058270976
114	0x3f790fc6	0.97289693
115	0x3fafeb80	1.3743744
116	0xbee73f84	-0.45165646
117	0xbfaca164	-1.3486753
118	0xbf8a5d15	-1.0809656
119	0xbf55a97b	-0.8346173
120	0xbfed3940	-1.8533096
121	0x3e02c88c	0.12771815
122	0xbf82df93	-1.022448
123	0xbfe31ea8	-1.774373
124	0x3e8cf3a4	0.27529633
125	0xbfc7ee0f	-1.5619525
126	0xc004f43c	-2.077407
127	0x3f7e98ca	0.9945189
128	0xbfcec0cf	-1.615259
129	0x3f2d4a75	0.6769174
130	0xbfa71176	-1.3052204
131	0xbe3e946a	-0.18611303
132	0xbf9b6a76	-1.2141864
133	0xbfb36e5d	-1.4018055
134	0xbd91dc1d	-0.071220614
135	0x3e974836	0.2954728
136	0x3f4c0fe4	0.7971175
137	0x3eca0f0b	0.39464602
138	0xbf022863	-0.50842875
139	0xbf4c5d3f	-0.7982978
140	0xbf4eda3f	-0.8080177
141	0x3ec340f0	0.3813548
142	0x3f00cbec	0.5031116
143	0x3f674804	0.9034426
144	0x3ed8fe5d	0.42381564
145	0xc050723b	-3.256972
146	0xbe0e2c31	-0.13884045
147	0xbf94a754	-1.1613564
148	0xbebf8391	-0.37405065
149	0xc0109652	-2.2591748
150	0x3f8ead52	1.1146643
151	0x3f94d92f	1.1628779
152	0x3f72ab78	0.9479289
153	0xbfd760eb	-1.6826452
154	0x3d44f9ef	0.048089918
155	0xbbba3965	-0.0056831115
156	0xbe4a61f8	-0.19763935
157	0x3edc128a	0.42982894
158	0xbeab01b9	-0.33399752
159	0x3f0c6ad0	0.5485048
160	0x3f03739b	0.51348275
161	0x3eac749c	0.33682716
162	0x3e89aca9	0.26889542
163	0x3ea9df18	0.3317802
164	0xbf2bfa2d	-0.6717861
165	0x3ead3db6	0.33836144
166	0x3e69b936	0.22824559
167	0x3e777c3a	0.24168482
168	0xbe8ef069	-0.27917793
169	0xbf9496c4	-1.160851
170	0xbe49532b	-0.19660632
171	0xbf39ee52	-0.7262927
172	0xbfdeb4e5	-1.7398955
173	0xbd8bf384	-0.06833556
174	0xbe9886ed	-0.2979044
175	0xbf642631	-0.89120775
176	0xc00092ac	-2.0089521
177	0xbe5bbc9d	-0.21458669
178	0x3f9f29e2	1.2434657
179	0xbe40f34a	-0.18842807
180	0xbe7af1a8	-0.24506247
181	0xbe2152b5	-0.15754206
182	0x3ec333fd	0.381256
183	0xbf73f8da	-0.9530159
184	0xbd81311c	-0.06308195
185	0x3e0b9664	0.13631588
186	0x3eaa27df	0.33233544
187	0x3f414377	0.7549357
188	0x3edbcaff	0.4292831
189	0xbfbcd5a4	-1.4752698
190	0x3f84241e	1.0323522
191	0x3f31fe2b	0.69528455
192	0xbf7a53e3	-0.9778425
193	0xbea70c30	-0.32626486
194	0xbf19baeb	-0.6005084
195	0x3e7c787a	0.24655333
196	0x3d563fa6	0.052306794
197	0x3ee7ddf2	0.45286518
198	0x3e9c0018	0.30468822
199	0x3fa6b5e4	1.3024259
200	0xbf03a899	-0.51429135
201	0x3e31c65a	0.17360821
202	0xbe3b959f	-0.18318795
203	0x3fa59994	1.2937493
204	0xc00f53e8	-2.2394962
205	0xbecffd0f	-0.40622756
206	0x3f02c1c9	0.5107694
207	0xbd4520d2	-0.048127003
208	0xbf4dbbc9	-0.8036466
209	0xbe25a9cf	-0.16178058
210	0xc06224f1	-3.5335047
211	0x3d21dcdf	0.03951728
212	0x3c34f1ce	0.011043979
213	0xbf66696a	-0.900046
214	0xbfbf78ad	-1.4958702
215	0xbf2ea4c2	-0.6822015
216	0xbf1d39c8	-0.6141629
217	0xbfb11373	-1.383406
218	0xbf382209	-0.71926934
219	0xbf8bb827	-1.0915574
220	0xbfe89b84	-1.817246
221	0xc04caf9a	-3.1982179
222	0x3d0c6eb7	0.034285273
223	0x3d82dc58	0.063896835
224	0x3f430750	0.76183033
225	0xbd9155df	-0.07096457
226	0x3f474f03	0.7785494
227	0x3eecd7c0	0.46258354
228	0xbed80872	-0.42193943
229	0xbef975a9	-0.4872258
230	0xbe24b8b2	-0.1608608
231	0xbea634c0	-0.3246212
232	0x3f191010	0.59790134
233	0xbe9cd74d	-0.3063301
234	0xbdad2077	-0.08453458
235	0x3e943ae1	0.2895117
236	0xbec2c20d	-0.38038674
237	0xbe8ceb3e	-0.27523226
238	0xbf34e6b8	-0.7066455
239	0x3ef2fbd1	0.47457746
240	0x3f613e5a	0.87985766
241	0xbe6e8417	-0.23292576
242	0xbec7525d	-0.38930026
243	0xbf2cc6cf	-0.6749086
244	0x3f17125e	0.590124
245	0xc0163651	-2.3470652
246	0xbf2555b8	-0.6458392
247	0x3fce1ac2	1.6101916
248	0x3f28843e	0.65826786
249	0xbd733457	-0.059376087
250	0xbf134680	-0.5752945
251	0x3fb6b877	1.4275044
252	0x3e4066dd	0.18789239
253	0xbf849658	-1.0358381
254	0xc0079665	-2.1185544
255	0x3f147dbb	0.5800435

bias f4 [128]
0	0xbf031558	-0.5120444
1	0xbf59222f	-0.84817785
2	0xbfbc7e89	-1.4726115
3	0x3f08c853	0.5343067
4	0xbe79b615	-0.24385865
5	0xbfb62155	-1.4228922
6	0xbf0de4fe	-0.5542754
7	0xc0001509	-2.001284
8	0xbf26004c	-0.64844203
9	0x3e4b7f74	0.19872838
10	0xbf38a652	-0.72128785
11	0xbf980cab	-1.1878866
12	0x3face4ce	1.3507326
13	0xbf2131c5	-0.6296657
14	0xbf3b8d8e	-0.7326287
15	0x3eb12b35	0.34603277
16	0xbfa73200	-1.3062134
17	0xbefc11f0	-0.49232435
18	0xbeb10416	-0.3457343
19	0xbdade7e9	-0.08491499
20	0xbf0f0b98	-0.55877066
21	0xbd794e43	-0.06086565
22	0x3fbf6850	1.4953709
23	0x3fb2ea35	1.3977724
24	0x3e357a56	0.17722449
25	0xbf8d430d	-1.1036087
26	0xbf0a988b	-0.5413901
27	0x3f09a57a	0.5376812
28	0xbf1be4d6	-0.6089605
29	0x3f9a231b	1.2041963
30	0x3f879219	1.059146
31	0x3e8d151b	0.27555165
32	0xbeac23c0	-0.33621025
33	0xbf53a492	-0.8267299
34	0xbf40c19b	-0.7529542
35	0xbf15b2b2	-0.5847579
36	0xbe051363	-0.12995677
37	0x3e3f1045	0.1865855
38	0xbf25dc45	-0.6478923
39	0xbefd3f40	-0.49462318
40	0x3eff0e45	0.49815574
41	0xbfd7e99a	-1.6868165
42	0xbedec6ad	-0.43510953
43	0xbc3068b4	-0.010767151
44	0xbf6d2394	-0.9263241
45	0x3e89c6ef	0.26909587
46	0xbebf1a40	-0.37324715
47	0xbfa624d6	-1.2979991
48	0xbf297008	-0.6618657
49	0xbf1d4219	-0.6142898
50	0xbf148f88	-0.5803151
51	0xbdbd25e4	-0.09235743
52	0x3f1ec639	0.62021214
53	0x3e07a298	0.13245618
54	0xbf30ef41	-0.6911507
55	0x3e5cb513	0.2155345
56	0xbfbd37a8	-1.478261
57	0xbf350444	-0.70709634
58	0xbe3bcec0	-0.18340588
59	0xbf7ed3e8	-0.99542093
60	0xbf826ddb	-1.0189775
61	0x3ecc28b5	0.39874807
62	0x3ec65404	0.38735974
63	0xbec5a52f	-0.38602588
64	0x3f41fb11	0.7577372
65	0xbd59178c	-0.05300097
66	0xbf6b6b44	-0.9196055
67	0xc010857a	-2.2581468
68	0xbed60ef3	-0.4180828
69	0xbf4cc0dd	-0.79981786
70	0x3e4fa4ea	0.20277753
71	0xbfa755fd	-1.3073117
72	0xc003e86d	-2.0610611
73	0x3e9090d6	0.282355
74	0xbf0a82e5	-0.5410598
75	0xbe926507	-0.28592703
76	0xbf47c928	-0.78041315
77	0xbedd6a4b	-0.43245158
78	0xbf239975	-0.6390603
79	0x3f7953e1	0.97393614
80	0xbe3713aa	-0.17878595
81	0xbfd52558	-1.6652021
82	0xbea22419	-0.31668165
83	0xbf17e3b5	-0.5933183
84	0x3d9ca8ba	0.076493695
85	0xbfcb5ad4	-1.5887094
86	0x3f41b043	0.7565958
87	0xbf783af6	-0.9696497
88	0x3e313486	0.17305192
89	0xc004a5d8	-2.0726223
90	0xbfb25a94	-1.3933892
91	0xbfa078fe	-1.2536924
92	0xbfc000ac	-1.5000205
93	0xbf749aec	-0.9554889
94	0xbf926590	-1.1437244
95	0x3c265441	0.010151924
96	0x3fab86c0	1.3400497
97	0xbf152385	-0.58257324
98	0xbed30919	-0.41217878
99	0xbec63708	-0.3871386
100	0xbf9cba42	-1.2244341
101	0x3f14ed09	0.58174187
102	0xbf8d3545	-1.1031882
103	0x3d2dc2c0	0.042422056
104	0xbf736dc5	-0.9508937
105	0xbfc1ea67	-1.5149659
106	0xbfea81cc	-1.8320861
107	0xbf9eafe8	-1.2397432
108	0xbed8d4ce	-0.42349857
109	0xbeae1c9d	-0.34006205
110	0xbfd3804a	-1.6523526
111	0xbd9c6c29	-0.076378174
112	0xbefcf544	-0.49405873
113	0xbe970bbe	-0.29501146
114	0xbf5c7f01	-0.8613129
115	0xbf948301	-1.1602479
116	0xbf194a0e	-0.59878623
117	0xbfb026fc	-1.3761897
118	0xbe8fa635	-0.28056493
119	0xbe477ecf	-0.19481967
120	0x3e196185	0.14978607
121	0xbf43164a	-0.76205885
122	0xbf0938d5	-0.53602344
123	0xbf9bfea4	-1.2187085
124	0xbf2601e6	-0.64846647
125	0xbf006753	-0.5015766
126	0xbff50b14	-1.9144006
127	0xbe30c20a	-0.1726152

weight f4 [64, 128]
0	0x3e03715a	0.12836209
1	0xbec089ab	-0.37605032
2	0xbf9688b3	-1.1760467
3	0xbe6eb0ea	-0.23309675
4	0xbfaa8ce0	-1.3324242
5	0x3e813f69	0.2524369
6	0xbe6c9758	-0.23104608
7	0xbfc7a8de	-1.5598409
8	0xbf194d35	-0.59883434
9	0x3edf3a97	0.43599388
10	0xbf20f7ef	-0.62878317
11	0x3f68f513	0.90998954
12	0x3e7f98a9	0.24960579
13	0xbf0beb2e	-0.5465573
14	0xbfc06f31	-1.5033933
15	0xbee688ac	-0.45026147
16	0xbfb271cb	-1.3940977
17	0xbfd02627	-1.6261643
18	0x3ef34e0e	0.47520489
19	0xbf92ba03	-1.1463016
20	0xbeef10b0	-0.4669242
21	0xbe965100	-0.29358673
22	0x3e322689	0.17397512
23	0x3eac3090	0.336308
24	0xbf192354	-0.5981953
25	0xbefa0f82	-0.48839957
26	0xbf265af6	-0.64982545
27	0xbe0386b9	-0.12844361
28	0xbf5540db	-0.83302087
29	0x3ed2011c	0.4101647
30	0xbf91f600	-1.1403198
31	0xbf0f5509	-0.5598913
32	0x3ed45b0c	0.41475713
33	0xbf177f8b	-0.5917899
34	0x3ef1f350	0.47255945
35	0x3eb443d6	0.35208005
36	0xbfc7764b	-1.5582975
37	0x3c3709e3	0.011171791
38	0x3d83a807	0.06428533
39	0x3f2aeb1f	0.66765016
40	0xbfe662e0	-1.7998924
41	0x3eabf7e0	0.3358755
42	0xbf4a0549	-0.78914315
43	0xbc559f9e	-0.013038544
44	0x3f9d8e15	1.2308985
45	0x3e291153	0.16510515
46	0x3f8993b8	1.0748205
47	0x3f0f838a	0.5606009
48	0xbf606846	-0.8765911
49	0xbf80c754	-1.006083
50	0x3f2299ef	0.63516134
51	0x3dcb5c69	0.09929735
52	0x3eeae1b6	0.4587533
53	0xbf03bf0a	-0.5146338
54	0xbf937c2a	-1.1522267
55	0x3e094aac	0.13407391
56	0xbf4450d6	-0.76685846
57	0xbc093578	-0.008374564
58	0x3e6c7d94	0.23094779
59	0x3f8c0e52	1.094187
60	0xbe8d5964	-0.27607262
61	0xbf810764	-1.008038
62	0xbde1785f	-0.11009287
63	0xbddc0633	-0.1074337
64	0x3e525ea1	0.2054391
65	0xbfbcdebb	-1.4755472
66	0x3f9cec65	1.2259642
67	0xbf95e26e	-1.1709726
68	0xbea271ff	-0.31727597
69	0xbe0003a0	-0.12501383
70	0x3f1d5796	0.6146177
71	0xbfbcdd82	-1.4755099
72	0x3f5e1c00	0.86761475
73	0xbefb3516	-0.4906394
74	0xbe5e4e88	-0.21709645
75	0xbfad8e20	-1.3558998
76	0xbf54af03	-0.83079547
77	0xbf9b82a5	-1.2149245
78	0xc0106863	-2.2563713
79	0x3ebdba4c	0.37056196
80	0x3fa5ea29	1.2962085
81	0xbfa34c1f	-1.2757605
82	0xbe671785	-0.22567566
83	0x3f572c00	0.84051514
84	0xbf6e21fe	-0.9302062
85	0xbf1c3b30	-0.6102781
86	0x3e082616	0.13295779
87	0x3e5281d6	0.20557341
88	0x3de4f6ee	0.111799106
89	0xbedbfd9d	-0.4296693
90	0xbee1f8c7	-0.44135115
91	0xbf260ba2	-0.648615
92	0x3f17800c	0.5917976
93	0x3e1ba3e0	0.15199232
94	0xbeb808e9	-0.35944298
95	0x3e19d5cb	0.15022962
96	0xbe713cb5	-0.23558314
97	0xc03b1190	-2.922947
98	0x3e169ad0	0.14707494
99	0xbfbf0e43	-1.4926227
100	0x3edff0b3	0.43738326
101	0xbf85cdc2	-1.0453417
102	0xbfc811b7	-1.5630406
103	0xbdd798fb	-0.105272256
104	0x3e5ee637	0.21767507
105	0x3d1bae3a	0.038007952
106	0x3f130192	0.5742427
107	0xbfa736b7	-1.3063573
108	0xbed572e6	-0.41689223
109	0x3ee2c65b	0.44291958
110	0x3f3ce95b	0.7379357
111	0x3d1c223b	0.038118582
112	0x3eb88cb4	0.36044848
113	0x3f22f738	0.63658476
114	0x3f1cefae	0.6130322
115	0xbfa03640	-1.2516556
116	0xbf1efbb1	-0.621028
117	0x3e4f11c6	0.20221624
118	0x3f9c114d	1.219278
119	0xbb10da6c	-0.0022102846
120	0x3eedad60	0.46421337
121	0x3e6c5e8f	0.23082946
122	0x3dbfde07	0.0936852
123	0x3eb92d4d	0.36167374
124	0xbf45be36	-0.77243364
125	0x3f6d5809	0.92712456
126	0x3f5a9466	0.8538269
127	0x3f89d2d9	1.0767471
128	0xbf0609af	-0.52358526
129	0xbf26a776	-0.65099275
130	0xbf868c3b	-1.0511545
131	0xbfed9cca	-1.8563473
132	0xbf2ebfc9	-0.6826139
133	0x3db09f7d	0.0862417
134	0xbfabf494	-1.3434014
135	0xbf654008	-0.8955083
136	0x3e89d685	0.26921478
137	0xbec3e6ee	-0.38262123
138	0x3fbe9c15	1.4891382
139	0xbea911e9	-0.33021477
140	0xbd2444a3	-0.04010452
141	0x3fa3b0be	1.2788312
142	0xbffd402c	-1.9785209
143	0xc02116ae	-2.5170093
144	0x3fa5c676	1.295119
145	0x3ee2bcd3	0.44284686
146	0xbe813a12	-0.25239617
147	0xbefc80d6	-0.49317044
148	0xbf4aede3	-0.79269236
149	0x3d605315	0.054766733
150	0xbea44bfe	-0.32089227
151	0xbfc6cb95	-1.5530878
152	0xbff5fcea	-1.9217808
153	0xbfba8dff	-1.4574584
154	0x3ebd2f84	0.36950314
155	0xbfd7beef	-1.6855143
156	0x3e09ec3d	0.13469024
157	0xbf6510ab	-0.8947856
158	0xbfbe5513	-1.4869713
159	0xbeff0eb5	-0.49815908
160	0x3e3f8640	0.18703556
161	0xbeb4d6f4	-0.35320246
162	0xbf08e003	-0.53466815
163	0x3f829e36	1.0204532
164	0x3f18069a	0.59385073
165	0xc01de779	-2.467253
166	0xbf71ccdc	-0.94453216
167	0xbfdc4c0e	-1.721071
168	0xbfa63cdf	-1.2987326
169	0x3f26d26e	0.6516484
170	0xbfe9921a	-1.8247712
171	0x3e8d0aa2	0.27547175
172	0x3ec87413	0.39151058
173	0xc00f36c7	-2.2377183
174	0xbf415c6a	-0.7553164
175	0xbecc6f51	-0.39928678
176	0xbfa341fc	-1.2754512
177	0xbc76a075	-0.015052904
178	0xbf3d7d76	-0.74019563
179	0xbfe70258	-1.804759
180	0x3b90d1de	0.0044195494
181	0x3efeb5f4	0.49748194
182	0xbf7d2b7f	-0.98894495
183	0x3cb8a992	0.022541795
184	0x3fad256f	1.3527049
185	0xbe697514	-0.22798568
186	0xbf296995	-0.6617673
187	0xbdc78c38	-0.097435415
188	0xc00a0a55	-2.1568806
189	0xbfceb14f	-1.614786
190	0xbbaa7256	-0.005201618
191	0x3f643b52	0.89153016
192	0xbe9890a2	-0.29797846
193	0xbef1944d	-0.47183457
194	0xbe7b74c2	-0.24556258
195	0x3f423c92	0.7587367
196	0xbfef332d	-1.8687493
197	0x3e8a1ec8	0.2697661
198	0x3f202b52	0.625661
199	0xbf2080e0	-0.6269665
200	0x3d054995	0.032540876
201	0xc013a2ad	-2.306804
202	0x3fe7fd93	1.812426
203	0xbe7665aa	-0.2406222
204	0x3f421a89	0.7582174
205	0x3f360271	0.71097475
206	0xbf689ac5	-0.9086116
207	0x3d973338	0.07382816
208	0x3f3646e2	0.7120191
209	0x3f86e58e	1.0538805
210	0x3e0cb703	0.13741688
211	0xbee16cce	-0.44028324
212	0xbf8afe66	-1.0858886
213	0x3e98a235	0.29811254
214	0x3f025e7b	0.50925416
215	0xbf8ff214	-1.1245751
216	0xbf0053bb	-0.5012776
217	0x3f5c59c7	0.8607449
218	0xbead28c4	-0.33820164
219	0xbf30841d	-0.6895159
220	0x3f1f0666	0.6211914
221	0xbf469013	-0.7756359
222	0xbfa4447a	-1.2833397
223	0x3cfe270d	0.03102448
224	0xbfe88dfd	-1.8168331
225	0x3e757b20	0.2397275
226	0xbf2bc602	-0.6709901
227	0x3ee52643	0.44755754
228	0x3e1ee115	0.1551555
229	0xbff59a80	-1.9187775
230	0x3fafeafc	1.3743587
231	0x3e089dac	0.13341397
232	0xbfdd7538	-1.7301397
233	0xc0082adc	-2.127616
234	0x3e8c4857	0.2739894
235	0xbe851d9d	-0.25999156
236	0xbf68b41a	-0.90899813
237	0xbe4c50dc	-0.1995272
238	0xbf119898	-0.56873465
239	0xbf0b8cff	-0.5451202
240	0x3f24cad1	0.64371973
241	0xbfb7b0ce	-1.4350832
242	0xbf916eeb	-1.1361974
243	0xbef63389	-0.48086193
244	0x3f1f4285	0.62210876
245	0xbe14422e	-0.1447837
246	0xbf9e29c8	-1.2356501
247	0xbefe5b46	-0.4967901
248	0x3d7ddd7f	0.061978813
249	0xbeaeb772	-0.34124333
250	0xbfa46bfc	-1.2845454
251	0xbe3e1720	-0.18563509
252	0xbf031e15	-0.51217777
253	0xbe8789f1	-0.26472428
254	0xbe6a7baf	-0.22898744
255	0xbf99bebf	-1.2011336

bias f4 [64]
0	0x3fbe7a43	1.4881061
1	0x3f1555c2	0.5833398
2	0xbf68d0c2	-0.9094354
3	0xbe68eb02	-0.22745898
4	0xbfff3d05	-1.9940497
5	0xbe93823e	-0.28810304
6	0x3fcc5a0e	1.5964983
7	0xbf102fac	-0.5632274
8	0x3db6e0f0	0.08929622
9	0x4012626d	2.2872574
10	0xbf88dfb1	-1.0693265
11	0x4019f08a	2.4053063
12	0xbfcfb7df	-1.6227988
13	0x404bf626	3.1868987
14	0xc0283769	-2.628382
15	0xbf489eea	-0.78367484
16	0x3f28def4	0.659652
17	0xbffc1348	-1.9693384
18	0xbfbb35e5	-1.4625822
19	0xbeef10e3	-0.4669257
20	0xc015e101	-2.3418581
21	0xba96ecb6	-0.0011514637
22	0x3f6da51c	0.9283006
23	0x400880dd	2.1328652
24	0xbf6c5832	-0.92322075
25	0xc0201ffe	-2.5019526
26	0xbf385b01	-0.7201386
27	0xbf63b429	-0.8894678
28	0xbfc80ea6	-1.562947
29	0xbf88668a	-1.0656292
30	0xbeeeb2a9	-0.46620682
31	0xc0574e1f	-3.3641431
32	0xc0ad4580	-5.414734
33	0x3ef3b9b3	0.47602615
34	0xc0283393	-2.6281478
35	0x3ff4b029	1.911626
36	0xbe608eaf	-0.2192943
37	0xbf649683	-0.8929216
38	0xbec7291b	-0.38898548
39	0xc0009c6f	-2.009548
40	0xbf96213e	-1.1728895
41	0x3f86d692	1.0534232
42	0x3c01fdb8	0.007934026
43	0xbeb9cc17	-0.3628852
44	0x3e1156ef	0.14193319
45	0x3ea593b0	0.3233924
46	0x3fb9bd81	1.4510957
47	0xc0128376	-2.2892737
48	0xbdc12268	-0.094303906
49	0xbec2d7f7	-0.38055393
50	0xbf701f25	-0.9379752
51	0xbf59e044	-0.8510783
52	0x3f908a26	1.129216
53	0xbf94a46d	-1.1612679
54	0xc012af26	-2.2919402
55	0x3f83c2c8	1.0293818
56	0xbf0582ea	-0.52152884
57	0xbe46f585	-0.19429596
58	0xbf42e726	-0.76133955
59	0x3ff39e8e	1.9032762
60	0xbf988671	-1.1916028
61	0x3ff20f87	1.8910989
62	0x3f15e63d	0.5855444
63	0xbf29842f	-0.6621732
