model/soccer_ai_model.pt (torch, 770931 bytes, 11 tensors)

weight f4 [512, 26]
000000 b4 87 10 3e 50 a6 bc 3f f9 1a 03 40 66 44 ae 3f
       0.14114267 1.4738255 2.0485213 1.3614624
000010 69 ae 04 40 6d d9 f9 3e c3 df 38 bf 44 55 5e 3f
       2.0731452 0.48798695 -0.72216433 0.86848855
000020 52 d4 41 3f f0 c4 55 3f 93 8a 42 bf 72 1d 28 3f
       0.757146 0.8350363 -0.759927 0.6566993
000030 43 9e 4e 3f 92 69 23 be c3 16 1b bf 9d 35 fc bf
       0.8071024 -0.1595824 -0.60581607 -1.9703861
000040 0b 17 af 3f 78 7f 78 3f 17 49 25 bf 4d b3 65 bf
       1.3678907 0.970695 -0.6456465 -0.89726716
000050 90 1f 88 3e 02 06 15 3f a7 25 2f 3f 96 a2 e6 3f
       0.2658658 0.5821229 0.6841683 1.8018367
000060 3c d1 e7 bf 45 d0 79 3f 4c 5c 33 3e c8 1a 6e bf
       -1.8110728 0.9758342 0.17515677 -0.93009615
000070 42 09 e9 bf 56 62 26 bf e8 b6 99 bf b2 b7 57 3f
       -1.820595 -0.649938 -1.2008944 0.8426467
000080 a5 c6 22 bf 95 3a bb be 4e 2f e1 3e 9a 49 d8 be
       -0.6358436 -0.36568132 0.43981403 -0.42243654
000090 ed ab 7d bd 56 17 cf bf 80 64 ab be 7a d5 23 3e
       -0.06193154 -1.6178997 -0.33475113 0.15999404
0000a0 88 b7 b3 3f f6 9b fe 3f 1f 86 07 bf 8d f2 9b be
       1.4040384 1.9891346 -0.5293903 -0.3045849
0000b0 5f c3 b3 3d d2 06 5a 3d 6b e8 c8 bf 2e 51 c6 bf
       0.087774985 0.05322916 -1.5695928 -1.5493524
0000c0 c6 4d 88 be 79 04 ce be 1b 28 96 3f b2 4f ba be
       -0.26621836 -0.40237787 1.1730989 -0.36388928
0000d0 25 e4 95 bd 91 63 4c be b9 c9 0d bf 1f cf 60 bd
       -0.07318906 -0.19959857 -0.5538593 -0.054885026
0000e0 5e 61 f1 3e d2 02 0a 3e aa 84 8a c0 d6 f4 9b 3e
       0.47144598 0.13477638 -4.3286943 0.30460232
0000f0 62 04 d7 3f ee 1a a7 3d 5d 0b 7c be d0 52 3e c0
       1.6798213 0.08159433 -0.2461371 -2.9738045
000100 d1 3b be 3e 58 cb 37 c0 66 9a f6 3e ae ba 94 3f
       0.3715501 -2.871786 0.48164672 1.161947
000110 9c cb 86 39 5b 23 a1 bc c9 7c 1b be 5d b7 26 be
       0.00025710172 -0.01967018 -0.1518432 -0.16280885
000120 a2 98 76 be a2 ec 3d c0 e0 34 92 3e 4d e7 22 bf
       -0.24081662 -2.967568 0.28555965 -0.63634187
000130 44 49 40 c0 34 0e e3 3d cc 23 ef 3d b7 bf d8 3d
       -3.0044718 0.110866934 0.116767496 0.10583442
000140 bd 32 84 be fe 7c 0e 3d 18 5c 04 3f a7 ab c6 3b
       -0.2581996 0.03478717 0.51703024 0.006062943
000150 87 f7 83 c0 80 f6 91 bc 75 7c e5 3d 79 7c 05 3f
       -4.1239657 -0.017817736 0.11205379 0.52143055
000160 e6 4a 17 be e4 a6 02 c0 cf 9a 1d 3e 6d 62 b6 bf
       -0.14774665 -2.0414362 0.15391086 -1.4248787
000170 06 ec 3f 3f d9 76 a3 3f e0 a5 13 3f 69 c7 0b 3e
       0.7496952 1.2770644 0.5767498 0.13650288
000180 ca 80 d2 be be 5f be be ee b3 1c bf 0f 26 01 c0
       -0.41113883 -0.3718242 -0.6121205 -2.017948
000190 18 5e 8f bd 1e 37 76 3e 2c 38 da bf 68 60 3b 3e
       -0.07000369 0.24044463 -1.7048392 0.18298495
0001a0 fa 10 ec 3d 44 3d 4e 3f df 5b b8 3e 17 33 27 3f
       0.115266755 0.80562234 0.36007592 0.6531233
0001b0 ef d0 a3 3f df 19 29 3f f7 29 83 c0 7f d7 f2 3e
       1.2798136 0.660551 -4.0988727 0.47430035
0001c0 79 ab 71 3f e0 98 90 3e d6 24 36 bf 61 b7 c5 bf
       0.9440227 0.28241634 -0.7114996 -1.5446588
0001d0 83 ba 32 3f fa 13 1c c0 f0 17 e6 3e e1 e2 8a 3f
       0.69815844 -2.4387193 0.44940138 1.0850488
0001e0 08 a0 10 3f 61 89 04 3f d6 76 1b bf ee 42 15 bf
       0.5649419 0.51772124 -0.60728204 -0.5830525
0001f0 67 f1 b9 bf 1f 61 c1 bf c7 f2 15 3f 2a ec 34 3f
       -1.4526795 -1.5107764 0.58573574 0.7067286
000200 26 d6 53 c0 c7 4f 18 3f b5 d1 97 bd cd 54 83 3f
       -3.3099456 0.5949673 -0.07413045 1.0260254
000210 b0 a6 12 3f e9 94 98 3f 47 2b 93 3f 24 c7 8e 3f
       0.57285595 1.1920444 1.1497582 1.1154523
000220 c3 9a 62 c0 a2 b1 27 3f 9d 2c 38 3f 82 2d 5e 3f
       -3.540696 0.6550542 0.71943074 0.8678819
000230 af 86 e8 be d1 48 07 c0 cf 4d 28 3f 3f 7e 27 3f
       -0.45415255 -2.1138194 0.65743726 0.6542701
000240 75 04 64 3f de b5 cd bf c3 fa 5c 3f a8 b6 3b 3f
       0.890693 -1.6071126 0.8632013 0.73325586
000250 9e 17 7e be c3 f3 be be 4a 0e 5e bf 73 4a 12 c0
       -0.24813697 -0.3729535 -0.86740553 -2.285794
000260 29 ca 75 3f aa ff fe 3e 45 8f d0 bf 5d 14 4d 3f
       0.96011597 0.4980443 -1.6293722 0.80109197
000270 fb 43 25 be 35 5d db 3e ee e3 90 3e 0a cf e1 3e
       -0.16139214 0.4284455 0.28298897 0.4410327
000280 95 92 56 3f e8 d1 20 3f ee 77 97 c0 28 7e 35 3f
       0.83817416 0.6282029 -4.73339 0.70895624
000290 06 f0 37 3f e3 6a 17 3f d0 88 56 bf e0 dc e7 bf
       0.7185062 0.5914747 -0.8380251 -1.8114281
0002a0 45 ca 2a 3f 4d 3b 1d c0 0e 0b 5d 3e 16 2f 90 3f
       0.6671489 -2.4567444 0.21586248 1.126437
0002b0 f9 24 38 3f ec e9 da 3e ef 10 3a bf 35 3d 4d bf
       0.71931416 0.42756593 -0.7268209 -0.8017152
0002c0 36 5b 0e bf cd b0 fd bf b5 a0 62 3f 83 76 3d 3f
       -0.55607927 -1.981958 0.8852647 0.7400896
0002d0 3a e8 0a c0 c5 6d d4 3e 2f ff 8e 3d 9a a2 02 3f
       -2.170424 0.41489998 0.06982266 0.5102936
0002e0 0d 90 62 3f 16 db 29 3f 9c 65 29 3f 5f e6 92 be
       0.88501054 0.66349924 0.6617067 -0.28691384
0002f0 bd e8 3e 3f 33 28 e1 3e b3 e2 5a be 18 ed 9d 3e
       0.7457388 0.43975982 -0.21375541 0.3084495
000300 45 2d 1c 3e d6 38 6e be 13 ad 38 3f 47 bf b1 bf
       0.15251644 -0.23263869 0.7213909 -1.3886498
000310 c9 1d e5 bf 98 c5 ac bf c7 3c f1 3e 98 bb e0 3d
       -1.7899715 -1.3497801 0.47116682 0.10973281
000320 30 c1 b4 bb 90 41 00 3e e2 c0 0b 3f 09 20 b7 be
       -0.005516194 0.1252501 0.5459119 -0.35766628
000330 3a 14 14 3f 9a 49 75 3e 65 72 ba be 79 a4 17 3f
       0.57843363 0.23953858 -0.364154 0.5923534
000340 13 77 a0 bb 68 85 e7 3f 15 6c 23 40 b3 4f d7 3f
       -0.0048970073 1.8087587 2.5534718 1.6821197
000350 5c 8e fe 3f 1f a6 98 3f be 56 8a 3f 54 a9 e4 3f
       1.9887195 1.1925696 1.0807722 1.7864175
000360 03 bd 1c 3f 8b a6 fe 3f 50 75 a4 bf a9 7f 81 3e
       0.6122591 1.9894575 -1.2848301 0.2529271
000370 7e 8a d8 3f 03 53 9a bf 99 20 92 3e e7 ee 03 c0
       1.6917264 -1.2056583 0.28540495 -2.0614564
000380 a1 6c 0b 40 00 10 ab 3f fe 37 bd bf 40 af b8 bf
       2.1785052 1.3364258 -1.4782712 -1.4428482
000390 55 15 6a bf 1c c2 03 3f 38 a1 e3 3f c2 f6 f2 3f
       -0.914388 0.5146806 1.7783575 1.8981555
0003a0 27 0e 6a 3e 9a 11 02 40 3f c8 fc bb ea 17 28 3f
       0.22856961 2.0323243 -0.007714301 0.6566149
0003b0 03 cd 47 3f f2 75 53 3f 9f 1b a4 3f 77 6a 42 3e
       0.780472 0.82601845 1.2820929 0.18985926
0003c0 3e c0 55 c0 2b 81 6b 3f e2 7e 16 3f eb f9 87 3f
       -3.3398585 0.9199397 0.5878736 1.0623144
0003d0 f4 24 6e bf 76 ee e4 bf 46 0a a2 3f a5 c9 2f c0
       -0.93025136 -1.7885273 1.2659385 -2.7466824
0003e0 93 74 7a be 09 ca 8e bf 45 16 6a 3f 3e a9 74 3f
       -0.24458532 -1.1155406 0.9144023 0.95570743
0003f0 66 72 26 bf 68 b3 58 bf ae 52 09 bf 9c 2a 06 c0
       -0.6501831 -0.8464875 -0.53641784 -2.0963507

bias f4 [512]
000000 57 da dd bf 85 11 6d be 6e 17 8c be 6c cc 92 bf
       -1.7332257 -0.23151214 -0.27361625 -1.1468635
000010 16 4e 0b bf 89 ea 66 bf 9f 31 90 bf 2a ff 02 bf
       -0.54416025 -0.9020162 -1.1265143 -0.511706
000020 42 69 f5 bf df c9 d2 bf 4e d3 e2 bf 89 c4 87 bf
       -1.9172747 -1.6467856 -1.7720735 -1.0606853
000030 c4 b5 93 bf f0 6a f8 3c 21 e3 9a be e2 7f 06 c0
       -1.1539845 0.03032443 -0.3025141 -2.1015553
000040 63 0e b3 3d 15 bc f3 bd 65 74 7d bf ad a3 d8 bf
       0.087429784 -0.11901108 -0.9900573 -1.692495
000050 39 7b eb be 48 47 dc be 1d bc 03 c0 5d a9 23 3e
       -0.4599245 -0.43023133 -2.0583565 0.15982576
000060 df 1f 99 bf 1d 1b cc be 05 d1 0d c0 9d 9e a9 bf
       -1.1962851 -0.39864436 -2.2158825 -1.325153
000070 62 33 83 bf 4d fe 00 c0 c4 7c a5 be 6e 85 ad bf
       -1.0250056 -2.0155213 -0.3232175 -1.3556345
000080 76 e2 37 3e fd 75 2b be d3 45 fb bf 0b e0 79 be
       0.17957482 -0.16744228 -1.9630684 -0.24401872
000090 f5 12 26 bf d9 39 ce bf c0 a7 0c bf 5d 04 e1 bf
       -0.64872676 -1.6111404 -0.54943466 -1.7579457
0000a0 bd 41 0e bf 65 dd b2 bf 19 b4 07 c0 73 80 a0 bf
       -0.5556906 -1.3973814 -2.1203673 -1.25392
0000b0 10 51 e8 bf 71 ea ad bf a4 32 8d 3d ff 60 b4 bf
       -1.8149738 -1.3587171 0.068944246 -1.4092101
0000c0 57 d8 09 c0 49 de cd bf 67 1b c6 bf 15 4d e9 bf
       -2.1538293 -1.6083461 -1.5477113 -1.8226649
0000d0 f5 8d 8e bf 77 06 10 be 92 17 36 bf d0 b8 18 bf
       -1.1137072 -0.14064966 -0.71129715 -0.59657
0000e0 21 57 9d bf 5a 76 87 bf 6b 0c 46 c0 27 48 d3 be
       -1.2292215 -1.0582993 -3.094508 -0.41265985
0000f0 e9 30 c0 bf 57 59 02 c0 0d 34 df bf 4b d1 10 bf
       -1.5014926 -2.0367029 -1.743776 -0.56569356
000100 f2 f6 39 bf 7e 37 67 be 54 96 d4 bf 09 41 ad bf
       -0.72642434 -0.22579762 -1.6608377 -1.3535472
000110 a9 a5 ef bf f8 3c 02 bf 01 0c c8 bf dd 73 a2 bf
       -1.872243 -0.5087428 -1.5628663 -1.2691609
000120 6a 6e a6 bf 9d ef 84 bf 6f 55 66 bf 97 72 99 bf
       -1.3002446 -1.0385624 -0.8997411 -1.1988095
000130 68 0d 8f bf de a7 ce bd da 2d f0 bf 97 2c e5 bf
       -1.1175966 -0.10090612 -1.8763993 -1.7904233
000140 c9 90 28 3f a5 06 88 bf 9c e7 ab bf 06 af 20 bf
       0.65845925 -1.0627028 -1.3430057 -0.62767065
000150 72 05 b7 bf 29 78 95 bf 59 74 89 bf 6e 9b e5 bf
       -1.4298537 -1.1677295 -1.0738631 -1.7938058
000160 b0 3d 9a bf e4 5c 19 bf f6 ee 39 bf 03 63 97 bf
       -1.2050076 -0.59907365 -0.7263025 -1.1827091
000170 41 cd ec bf 4f 46 a3 bd 54 7e 02 c0 32 c8 8c bf
       -1.8500139 -0.07972395 -2.0389605 -1.0998595
000180 93 8a 13 c0 b6 bf 5d bf 6a 7a a4 bf 16 e2 99 bf
       -2.305333 -0.8662065 -1.2849858 -1.2022121
000190 6f 07 5d bf bf 22 b3 bf d7 d2 c7 bf 8f 3b 1b bf
       -0.8633947 -1.3994979 -1.5611218 -0.60637754
0001a0 8f 29 78 bf ad e6 bf bf 01 60 7e bf e6 b9 91 bf
       -0.96938413 -1.4992272 -0.9936524 -1.1384857
0001b0 22 08 31 bf 6b f4 24 bf 5b 87 a3 bf ac fd e8 bf
       -0.69153035 -0.6443545 -1.2775682 -1.8202415
0001c0 39 91 05 bf 5c f5 97 bf 6d 22 c4 bf d8 32 dc bf
       -0.5217472 -1.1871753 -1.5323006 -1.7203016
0001d0 c5 9a 22 bf 91 2e 9f be 41 1c 0a bf d9 58 62 bf
       -0.6351741 -0.31090215 -0.5394936 -0.8841682
0001e0 3b e5 75 bf 2b da 0c bd 41 64 7d bf 5e b6 95 bf
       -0.960529 -0.03438775 -0.989811 -1.1696279
0001f0 3a f6 9e be 6b 2a a4 bf 60 ed ee bf 3f 97 0e be
       -0.3104723 -1.2825445 -1.8666191 -0.13924883
000200 3d bf 37 bf 50 0b 8c bf 54 6b 2e be a2 08 40 bf
       -0.7177618 -1.0940952 -0.1703313 -0.7501317
000210 bc b5 ef bf 84 3d d1 3e 25 a0 a9 be fd e5 fb be
       -1.8727336 0.40867245 -0.33129993 -0.49198905
000220 c6 e4 54 bf 17 40 13 bf 62 34 70 bf 85 c1 a6 bf
       -0.8316158 -0.5751967 -0.9382993 -1.3027807
000230 1e 00 fc bf fa bc f9 3d a1 73 b4 bd 8f d6 87 be
       -1.9687536 0.121942475 -0.08811117 -0.26530883
000240 83 04 e8 bf 9c 65 38 3f b1 30 c1 bf 68 4b 86 bf
       -1.8126377 0.72030044 -1.5092984 -1.0491762
000250 36 e0 80 bf 75 8c 8f bf e1 4d ce be e6 d2 e1 bf
       -1.0068424 -1.1214739 -0.40293792 -1.7642486
000260 d0 33 3b c0 e5 e1 2a bd b0 36 bc 3e 7e 96 e3 bd
       -2.9250374 -0.041719336 0.36760473 -0.111126885
000270 dc f8 19 bf 28 6f 9e bf 42 f2 1b bf 3f cf 9c bf
       -0.60145354 -1.2377672 -0.6091653 -1.2250746
000280 22 15 93 bf 8f bc 75 bf da fa 4c bf 31 cc 05 c0
       -1.1490824 -0.9599084 -0.8007027 -2.0905879
000290 f0 17 c3 be 58 4f 75 bf 79 4f 20 be a2 83 bd bf
       -0.381042 -0.95824194 -0.15655316 -1.4805796
0002a0 b6 44 69 bf 14 7f 15 bf cc 4a 93 bf 09 83 26 3d
       -0.9112047 -0.5839703 -1.1507201 0.04065231
0002b0 7f 70 bd bf 6a 2a 84 3e 1f 6d f3 bf f1 76 a5 3e
       -1.4799956 0.2581361 -1.9017676 0.32317308
0002c0 e6 98 38 bf 9b 42 90 bf 3b 46 7a bf 81 ca 52 bf
       -0.72108305 -1.1270326 -0.97763413 -0.82340246
0002d0 e8 ee 48 bf 75 31 1f bf 3b 68 77 bf dd 97 b1 bf
       -0.7848954 -0.6218484 -0.9664342 -1.387447
0002e0 b0 a9 05 c0 d0 92 80 bf e0 99 95 3e 90 16 0f bf
       -2.088482 -1.0044804 0.2921896 -0.558938
0002f0 52 db b7 bd 0d aa a4 bf e5 94 0c bf 1d 43 9e 3e
       -0.08977379 -1.2864395 -0.54914695 0.30910578
000300 5f 54 24 be b4 0d 0d be 48 15 94 bf cd 01 e3 bf
       -0.1604781 -0.13774759 -1.1568995 -1.7734925
000310 71 59 66 bf f7 f2 84 bf d1 d7 92 bf 4e 7e 5d bf
       -0.89980227 -1.0386647 -1.1472112 -0.8652085
000320 be e7 d0 bf fd 88 20 bf c2 82 29 bf bd be 99 bf
       -1.6320722 -0.6270903 -0.66215146 -1.2011334
000330 aa 10 a5 bf 0d b7 3c bd a9 d0 80 bf e2 9d cd be
       -1.289571 -0.04607301 -1.0063678 -0.40159518
000340 bc d7 93 be 64 be 58 bf 99 e7 9b bf 59 5c 3b bf
       -0.2887553 -0.84665513 -1.2180053 -0.73187786
000350 c9 b8 67 bf e1 9a 46 bb 9f 8a 2a c0 ee e3 42 be
       -0.90516335 -0.0030304717 -2.6647108 -0.19032261
000360 46 43 c8 be d1 93 83 be 12 58 e6 bf 60 67 a0 bf
       -0.39113826 -0.25698712 -1.7995627 -1.2531548
000370 06 09 bb bf e2 f5 02 bf b1 29 0f bf 2f ad 28 3d
       -1.4612129 -0.5115644 -0.5592299 0.041180786
000380 dc 1e 2c c0 bd fb 97 bf 41 5b 21 c0 e8 9c c1 bf
       -2.6893835 -1.18737 -2.5211947 -1.5126009
000390 19 a6 ee bf 01 7b 78 bf b9 45 cd bf b9 21 0e bf
       -1.8644439 -0.9706269 -1.6036903 -0.55520207
0003a0 88 47 b0 bf 66 ab fe bf d7 51 a4 bf c5 fd 3b bf
       -1.377183 -1.9896057 -1.2837476 -0.73434097
0003b0 94 96 90 be c3 d0 b3 bf 47 66 66 bf 88 db 26 bf
       -0.28239882 -1.4048084 -0.8999981 -0.6517873
0003c0 a4 c9 9f bf 35 8a ff 3e 8e 84 d3 bd 29 9e c8 be
       -1.2483411 0.4991013 -0.10328017 -0.39183167
0003d0 c9 da bd bf cb 5b 82 bf 4a 90 48 be 01 24 44 bf
       -1.4832393 -1.0184263 -0.19586292 -0.7661744
0003e0 6f 38 a5 bf ca 45 27 c0 47 fd e6 bf 9d c9 f6 bf
       -1.2907847 -2.6136346 -1.8046044 -1.9280277
0003f0 4f dc 60 bf 66 3d 2f be d5 b1 a5 bf 1b b2 8f bf
       -0.87836164 -0.17113265 -1.2944895 -1.1226228

weight f4 [256, 512]
000000 e7 4d 32 40 75 fa 23 40 e9 df 54 3e f3 b5 c9 3f
       2.7860048 2.5621617 0.2078854 1.5758651
000010 c8 21 9c 3f c3 3a 95 3f a3 22 61 3f 1c a3 31 c0
       1.2197809 1.1658558 0.87943476 -2.7755804
000020 5a 11 89 3e 0b cd ee 3e 67 96 b1 3f 29 08 6a bf
       0.2677105 0.4664081 1.3874024 -0.914187
000030 ca d1 16 40 7a 82 b5 3f 39 a7 1b c0 df 54 80 3f
       2.3565545 1.4180443 -2.4320815 1.0025901
000040 fd ae 7b 3f 93 4d 93 3f a8 be e1 bf d0 f2 cb 3f
       0.98313886 1.1508049 -1.7636309 1.5933475
000050 9c 68 2c 3f 39 be 41 c0 7d 01 70 3f ba c8 b6 3f
       0.6734712 -3.0272353 0.9375227 1.4280007
000060 07 89 3a 40 e3 28 eb 3f 9a f6 62 be d5 aa 5e bf
       2.9146135 1.8371853 -0.22164384 -0.8697942
000070 dd be d8 3f e8 46 02 40 c7 ac ef be 9d 06 64 3f
       1.6933247 2.0355778 -0.46811506 0.8907259
000080 9f 8d 30 3e 90 24 c4 bd 48 6a a2 3d c1 73 28 bf
       0.17241524 -0.09577286 0.07930428 -0.65801626
000090 8b 78 42 bd 55 9a a7 bf a1 80 21 bf 58 ec cf bd
       -0.04747824 -1.3093973 -0.630869 -0.10152501
0000a0 f5 e5 ae 3f c2 b2 6a 3f 4a 5a 2e bf d8 cf c6 3f
       1.3663927 0.9167901 -0.6810652 1.5532179
0000b0 7b 54 57 3f d8 0a 21 3d 00 1d 29 bf 57 9d d1 3f
       0.8411328 0.039316982 -0.66059875 1.6376141
0000c0 48 9b 92 3f 82 25 8a 3f c1 b4 f4 3f fc d7 11 3f
       1.1453638 1.0792696 1.9117662 0.5697019
0000d0 2b 77 28 3e 10 21 85 3f 58 fb 2a bf 88 4f ab be
       0.16451709 1.0400715 -0.6678977 -0.33459115
0000e0 c9 ee fc be 22 2c 83 3f a7 21 0e 3f 0f 00 fb 3f
       -0.4940093 1.0247843 0.555201 1.9609393
0000f0 8e 1d 35 3f cc 1d ea 3f 85 57 09 3f 0c f2 17 40
       0.7074822 1.8290343 0.5364917 2.3741484
000100 a6 23 a6 3f 09 7a 1c 3f 82 1d 37 bf 50 52 25 3f
       1.2979629 0.6112371 -0.715294 0.64578724
000110 92 84 83 bf ae 77 98 bf de 88 32 3f 8f 5f 24 be
       -1.0274832 -1.1911523 0.6974009 -0.16052078
000120 ad d8 cc 3e 14 e8 6e 3e a4 22 b7 be d4 76 72 3f
       0.4000906 0.23330718 -0.35768616 0.9471257
000130 c2 95 81 bf 6b d6 1b bf 36 14 35 3f 72 a3 30 40
       -1.0123827 -0.6087405 0.70733964 2.759976
000140 13 2c de bd 12 53 6b bf f9 a2 cf 3f f6 54 a2 bf
       -0.1084825 -0.9192363 1.622161 -1.2682178
000150 42 1c bd 3f 1f 30 cd 3f 97 26 1b bf 4d b9 f4 be
       1.4774249 1.603031 -0.6060576 -0.47797623
000160 98 9f 18 be 27 4a 78 3f eb 3f 4d bf 06 f7 a5 3d
       -0.1490463 0.9698815 -0.80175656 0.081037566
000170 25 11 f0 3f 34 7e 76 3f 9f d7 ad bd ef 37 ed be
       1.8755232 0.9628632 -0.08488392 -0.46331736
000180 85 61 04 40 6f 6a 6b 3f 5d 74 ce be ac fa b4 3f
       2.0684521 0.9195928 -0.40323153 1.4138999
000190 e4 19 22 40 da e3 e3 be db 50 b1 bf e7 e4 87 bf
       2.5328302 -0.44509774 -1.38528 -1.061673
0001a0 2c 0a 75 be 54 b2 f0 3f 65 06 59 40 cd 92 37 3f
       -0.23929662 1.8804421 3.3910153 0.71708375
0001b0 b3 00 26 be aa 77 32 c0 17 c3 a3 3e 3e 54 97 3d
       -0.16211204 -2.7885537 0.3198478 0.07389115
0001c0 0c 66 5f 3f f8 97 70 3f fd cc cb bf ff dc 02 40
       0.87265086 0.93981886 -1.5921932 2.0447385
0001d0 41 ad e7 3f 87 fe e1 3e f7 66 a0 be 0e eb 97 bf
       1.8099748 0.441395 -0.31328556 -1.1868608
0001e0 9c 7c b3 3f 6a f7 8b 3f ee 51 ab 3f 77 e9 26 3d
       1.4022403 1.093488 1.3384378 0.040749993
0001f0 74 cb 0f 3f 0d 70 5d 3f ec 1e 0f 40 32 7b 38 3f
       0.5616982 0.864991 2.2362623 0.7206298
000200 15 7d 67 3f 80 28 6f 3f 26 24 74 bf 6c db 03 40
       0.90425235 0.93421173 -0.9536766 2.0602674
000210 b6 ce 5e 3f 77 53 96 bf 6a 4c f5 3e 08 49 b6 3f
       0.87034166 -1.1744221 0.47909862 1.4241037
000220 e4 79 e9 3f fc b1 c7 3f 78 ae 14 bf 9b a2 07 3f
       1.8240323 1.5601192 -0.5807872 0.5298249
000230 39 8c cb 3f 21 51 c8 3f 5f e2 07 c0 c3 79 ed bf
       1.5902168 1.5649759 -2.1231916 -1.8552784
000240 04 98 31 3e 65 f0 60 bd 77 cf 89 3d 31 e2 cf 3e
       0.17343146 -0.054916758 0.06729024 0.40602258
000250 58 66 c4 3f a7 6e a2 bf d6 23 be bf fe 61 05 c0
       1.5343733 -1.2690018 -1.4854686 -2.084106
000260 cc 7f aa 3f 33 fe 81 c0 ed 8a 16 40 19 31 8f 3f
       1.332025 -4.06228 2.3522294 1.1186858
000270 38 56 76 3f 0a 8e 63 bf ac c4 24 c0 87 6c 08 40
       0.9622531 -0.8888861 -2.574504 2.131624
000280 29 82 05 3f ac 4f 97 bf 1c d5 10 c0 a0 37 a0 3f
       0.52151734 -1.1821189 -2.2630072 1.2516975
000290 5e b0 48 40 33 40 9c 3f 19 71 6f 3e 57 98 7c 3f
       3.1357646 1.2207092 0.23382987 0.9866995
0002a0 46 5d 54 3d 64 a6 a4 3f b5 4f 57 bf 37 4a ab 3d
       0.051846765 1.2863278 -0.84106 0.08363765
0002b0 65 ae 9d bf 22 79 9a 3f 6b 24 03 40 ef 2b 32 be
       -1.2318846 1.2068217 2.0490978 -0.17399572
0002c0 65 e8 f8 3f 68 04 21 3f bb cf d7 bf 2d ff 34 c0
       1.9445921 0.6289735 -1.6860269 -2.8280747
0002d0 17 d6 af bf b8 2b 83 bf 1b d4 ef 3f 7c d9 bd 3f
       -1.373721 -1.0247717 1.8736604 1.4831996
0002e0 98 3f 1a 40 d8 da 7f bf 2e e9 20 c0 21 ed cb 3f
       2.4101315 -0.99943304 -2.5142322 1.5931741
0002f0 7a a1 07 c0 06 a7 05 40 a5 85 48 3f 9f cc 81 c0
       -2.1192307 2.0883193 0.78328925 -4.056228
000300 87 e9 47 3f f9 66 1f 3f 71 9e 10 3c 77 4d b5 3e
       0.7809071 0.622665 0.008826838 0.35410663
000310 cf ba a4 3f cd c8 75 3e 02 9a 2f c0 67 be d6 3e
       1.286951 0.2400238 -2.743775 0.4194214
000320 0b 72 e6 bd a6 4f f2 bf 53 82 95 3f 9c 0f 0b bf
       -0.11252221 -1.8930557 1.1680397 -0.54320693
000330 37 0c 5a 3f d9 0a a0 3d 48 ef 37 40 8b ab 00 c0
       0.8517489 0.07814569 2.8739796 -2.0104702
000340 5f d1 f0 3e 18 3f 3d 3f 3f 78 a4 be 3e 10 ef be
       0.47034737 0.739244 -0.3212299 -0.4669208
000350 47 c8 07 40 33 87 30 3f 8e 55 9e 3f 9d e4 69 3f
       2.121599 0.689563 1.2369859 0.9136446
000360 39 ec 82 3e 33 03 20 40 5f 36 0a c0 30 7d 8c 3f
       0.2557085 2.5001953 -2.1595685 1.0975704
000370 58 85 96 bf 69 49 17 bf 9b 46 c8 3f df 1d 95 3e
       -1.1759443 -0.5909639 1.5646547 0.29124352
000380 6c 4b 06 40 1c 6e 81 bf 79 0e 86 3e 6e 8d 0a 3f
       2.0983534 -1.0111728 0.26182917 0.54122055
000390 87 dc 1c 40 2e 66 2b 3e 1f 51 c4 3f b5 ac ce be
       2.45096 0.16738197 1.5337256 -0.4036614
0003a0 2f 3b f5 3f d2 99 94 3f 89 dc 8d 3e d3 6e aa bf
       1.9158686 1.1609442 0.27707317 -1.3315071
0003b0 6b d6 a0 3f 54 ed e9 3f 02 2f 11 bd 23 76 05 40
       1.2565435 1.8275552 -0.03544522 2.0853355
0003c0 23 ce d6 3f a7 78 94 3f d0 59 73 3f a2 fb d8 3f
       1.6781658 1.159932 0.9505892 1.6951792
0003d0 45 ff 90 3f 5f 6f 9c 3e f5 1d 40 c0 92 82 44 3f
       1.1327902 0.3055372 -3.0018284 0.76761734
0003e0 17 5e 0b 3f 2d a6 1e 3f cd 88 7d 3f 15 b6 87 3c
       0.54440445 0.61972314 0.99036866 0.016566316
0003f0 c4 ca 86 3f 9f 68 81 3f 12 2b 90 be 9f 66 e8 3f
       1.0530629 1.0110053 -0.2815786 1.8156317

bias f4 [256]
000000 ca d2 83 c0 05 02 34 40 bc 70 19 c0 83 69 89 c0
       -4.119481 2.8126233 -2.3975058 -4.29413
000010 69 2c 98 c0 d1 40 77 c0 32 35 81 c0 31 de 1c bf
       -4.755421 -3.863331 -4.0377436 -0.6127654
000020 a7 b0 2f c0 fe cc b6 bf 5d 09 d9 c0 ac 4d 44 c0
       -2.745157 -1.4281309 -6.782393 -3.0672407
000030 9f 71 03 c0 20 2e d7 bf 2b 5c 0f c0 34 2c 20 c0
       -2.05381 -1.6810951 -2.2400005 -2.502698
000040 a4 11 06 bf 7b 09 87 3f be 55 1f c0 1f 28 c9 c0
       -0.5237067 1.0549768 -2.4896083 -6.2861476
000050 a8 08 d5 40 5c 68 81 c0 b0 12 ac bc bf ca 45 c0
       6.6573067 -4.043989 -0.021005005 -3.0904996
000060 b3 4a 2a c0 8e 15 c4 40 ec 21 b6 3f 36 09 14 c0
       -2.6608093 6.127631 1.4229102 -2.3130622
000070 5d d1 b2 40 ca 2a 0d c0 f8 4a 11 c0 42 f0 1b c0
       5.588057 -2.2057366 -2.2702007 -2.4365392
000080 4d 3a 83 bf 44 93 f6 bf c5 8b 70 c0 fc 47 8f c0
       -1.0252167 -1.9263692 -3.7585309 -4.477537
000090 c0 d4 92 c0 83 6e ce 3e f7 bc 55 c0 fe 18 af c0
       -4.5884705 0.4031869 -3.3396585 -5.471801
0000a0 92 b5 05 bf 75 6b 04 c0 39 26 e6 bf a9 73 ea c0
       -0.5223018 -2.0690587 -1.7980415 -7.3266187
0000b0 d2 ed 89 c0 f6 a4 fa 3f cc 78 5d bf da cb 67 40
       -4.310281 1.9581592 -0.86512446 3.621817
0000c0 f4 0b 8e bd b6 aa 50 c0 47 64 e4 be 32 b6 30 c0
       -0.06935874 -3.2604194 -0.44607756 -2.7611203
0000d0 40 ab 5d c0 dc 40 49 3f f2 aa 28 c0 54 ba 48 3e
       -3.4635773 0.7861459 -2.6354337 0.19602329
0000e0 3c 5f 7d 3f 6c 81 61 40 b3 63 8b c0 5c eb 07 c1
       0.9897344 3.5235243 -4.3559203 -8.494961
0000f0 1d 5a 7c 3e ed 2e a7 bf 7f 4a 44 c0 4c eb ff bf
       0.2464375 -1.3061196 -3.0670469 -1.9993682
000100 e8 f0 7d c0 94 8e b8 be 9b b0 be bf c3 46 7f c0
       -3.9678288 -0.36046278 -1.4897646 -3.988694
000110 8d 9f 38 c0 a8 c0 d8 bf 3a bb 59 c0 70 2e 64 bf
       -2.8847382 -1.6933794 -3.4020524 -0.8913336
000120 23 44 85 bf cf c1 79 c0 d1 79 20 c0 d4 0a 45 c0
       -1.0411419 -3.9024541 -2.507435 -3.078786
000130 4d ac 3a 40 ae c7 c8 c0 50 0e 2f bf 95 ec fa bf
       2.9167664 -6.274375 -0.68381214 -1.9603449
000140 e6 15 e2 c0 16 f8 a5 c0 01 46 92 c0 14 a4 4d bf
       -7.065173 -5.186534 -4.5710454 -0.8032849
000150 63 4d be 3e fb 32 41 3e 21 65 0a c1 35 18 8d 3f
       0.37168416 0.18867104 -8.64969 1.1023012
000160 15 6d 69 bf c5 6e 2b c0 d7 cc 88 40 22 b2 52 c0
       -0.9118207 -2.6786358 4.275005 -3.2921224
000170 6a d9 2d c0 9d fd d4 c0 e4 88 74 c0 4f 90 86 c0
       -2.716395 -6.6559587 -3.8208551 -4.205116
000180 c8 00 22 c0 38 7a c2 bf a5 f4 91 3c 83 0d 00 c1
       -2.5312977 -1.5193548 0.01781685 -8.003299
000190 86 a8 62 c0 c1 f3 6c c0 af c3 9e c0 ba 52 a8 3e
       -3.5415359 -3.7023776 -4.961387 0.32875615
0001a0 f9 c6 65 c0 f5 0a cb bf 30 7e 9e 40 a6 53 62 c0
       -3.5902693 -1.5862719 4.9529037 -3.5363555
0001b0 06 2d 38 bf 26 44 5f bf 0d 87 b8 c0 14 6b a6 c0
       -0.719437 -0.8721336 -5.7664857 -5.200571
0001c0 ef 4e de bf 30 8a a2 c0 08 fa f3 bf 74 cb af c0
       -1.7367839 -5.0793686 -1.9060678 -5.4935856
0001d0 60 1a 99 c0 5a 2d 66 40 23 8b 0b c0 a8 d3 d4 c0
       -4.7844696 3.596518 -2.1803672 -6.650837
0001e0 af c4 e9 c0 89 d0 2f c0 8d 13 c2 bf 0a ed 82 c0
       -7.305259 -2.747103 -1.5162216 -4.0914354
0001f0 76 67 9b c0 8b c4 12 c0 31 3e b1 40 0a a1 ae 40
       -4.8563795 -2.293246 5.5388417 5.457158
000200 a1 61 d4 bf 4a cd 0c c1 2e 8c 36 c0 db f6 58 c0
       -1.6592294 -8.800119 -2.852306 -3.3900669
000210 2c e4 fc c0 a5 b6 77 c0 42 19 23 c0 27 ef fb bf
       -7.902853 -3.8705227 -2.5484166 -1.9682359
000220 04 c0 2f c0 bc bc 2c c0 9f 38 4e c0 20 2b a7 c0
       -2.7460947 -2.6990194 -3.2222059 -5.2240143
000230 a6 f7 24 c0 42 be f5 c0 11 41 77 c0 d6 38 06 c0
       -2.5776153 -7.679475 -3.8633463 -2.097219
000240 56 8d 3b c0 a4 e7 3e 40 7f c4 a5 3f 36 b3 40 bf
       -2.9305015 2.9828882 1.2950591 -0.75273454
000250 e9 49 cc c0 65 a0 fb c0 3d 42 a8 c0 ba 54 2f bd
       -6.384022 -7.8633294 -5.2580857 -0.04280541
000260 c1 b2 b7 c0 f2 e0 1e c0 1d 93 b3 40 96 31 37 bd
       -5.7405705 -2.4824796 5.611708 -0.044725023
000270 7a 11 7a c0 18 1b a8 40 58 d0 19 c0 b7 75 60 40
       -3.9073167 5.2533073 -2.4033413 3.5071847
000280 01 a0 08 bf 7b 3d 1b c0 37 78 2f 3f d1 d2 82 3f
       -0.53369147 -2.4256275 0.6854281 1.0220586
000290 51 e3 48 c0 1d f2 3f c0 0c 42 26 c0 57 14 3a c0
       -3.1388743 -2.9991524 -2.5977812 -2.9074914
0002a0 60 3c 7d bf 11 74 c4 c0 04 88 9c c0 c8 39 05 c0
       -0.9892025 -6.1391683 -4.8916035 -2.0816517
0002b0 cf 02 71 c0 79 ff bf 3d 56 57 12 c0 8c 22 03 c1
       -3.7657964 0.093748994 -2.2865806 -8.195934
0002c0 04 d1 c3 be 65 2f 7d c0 6c 93 c6 c0 68 14 c4 3f
       -0.38245404 -3.9560177 -6.205496 1.5318727
0002d0 d8 8b 48 c0 f2 46 f0 c0 d2 7b 1a bf bf 7b 85 c0
       -3.1335354 -7.5086603 -0.60345185 -4.1713557
0002e0 44 52 bc bf f5 5b 58 bf 5d ee e5 bf 5a 91 2a c0
       -1.4712605 -0.84515315 -1.7963368 -2.6651216
0002f0 09 78 06 3e 0f 3c 04 c0 71 58 b2 c0 24 c3 71 bc
       0.13131727 -2.0661657 -5.573296 -0.014755998
000300 fa e3 f1 bf 0d dc 9b bf b0 17 78 c0 37 0a 21 c0
       -1.8897698 -1.2176529 -3.8764458 -2.5162485
000310 2f c5 ef bf 74 f0 d5 be 52 65 de 3f 21 cc 4d bf
       -1.8732051 -0.41785014 1.737467 -0.803896
000320 5c 61 a7 c0 6f ab 74 c0 d8 34 9e 3f b4 f5 a9 bf
       -5.2306347 -3.8229635 1.2359877 -1.3278108
000330 d1 39 df c0 01 08 a5 bd c2 7f 9d be b8 46 59 c0
       -6.9758077 -0.08058167 -0.30761534 -3.3949413
000340 41 e2 93 c0 f7 4e 89 bd cf 34 9e c0 7f 25 cf 3d
       -4.621369 -0.067045145 -4.9439464 0.10114574
000350 c4 6f 3e c0 61 fc 5e c0 6a bb 44 c0 38 23 52 c0
       -2.9755716 -3.484154 -3.0739388 -3.2833996
000360 e7 71 e9 be e6 25 52 c0 e3 93 0c c0 3b 9f a3 40
       -0.45594713 -3.2835631 -2.1965263 5.1131873
000370 f1 20 2d c0 b1 33 08 c0 4a 42 1f c0 4f ed 4e c0
       -2.7051356 -2.128155 -2.488421 -3.2332342
000380 80 75 e7 bf 05 53 94 c0 84 47 88 40 71 4a ba c0
       -1.8082733 -4.635134 4.25873 -5.821587
000390 d4 a8 35 be d1 79 c8 bf ef 93 84 be ba 20 4c c0
       -0.17740184 -1.5662175 -0.25894114 -3.1894975
0003a0 55 69 89 bf 17 d4 0c 3d 47 47 75 3e 86 79 a5 40
       -1.073527 0.034381952 0.23952971 5.1710844
0003b0 12 91 4c c0 6e 1f b8 40 c1 e6 21 bf 29 f0 07 c1
       -3.1963544 5.7538366 -0.6324273 -8.496133
0003c0 cc 6f 23 40 be 86 4b c0 de 51 81 c0 da 66 2d bf
       2.5536985 -3.180099 -4.0412436 -0.67735064
0003d0 d9 9b 28 c0 2b d4 bb c0 1e 11 ce c0 2c b7 b4 3e
       -2.6345122 -5.8696494 -6.4395895 0.35296
0003e0 89 aa 97 c0 01 3d ba c0 87 81 d8 c0 97 01 9c bf
       -4.7395673 -5.819947 -6.7658114 -1.2187985
0003f0 df 45 03 bf 67 97 34 c0 f2 00 76 c0 8c 7a cb c0
       -0.5127849 -2.8217409 -3.8438077 -6.3587093

weight f4 [128, 256]
000000 c1 65 70 3f 99 5d 60 be 33 b4 ba 3f a4 33 a3 3f
       0.93905264 -0.21910705 1.4586242 1.2750134
000010 ea c7 81 3f 5d ce e2 3f 15 2f 5f 3f c1 58 b4 3f
       1.0139134 1.7719227 0.87181216 1.4089586
000020 37 df a4 3f 05 7d ed bf b0 23 3e be 26 fd 3b 3f
       1.288062 -1.8553778 -0.18568301 0.7343315
000030 6a 79 4c 3d 41 ae f6 3e 6c a5 79 bf 24 29 0a 3f
       0.049920477 0.4817982 -0.9751804 0.53969026
000040 4b f9 10 40 7d 5c 13 3f 29 c3 b4 3e a3 67 9a 3f
       2.2652156 0.57563 0.35305145 1.2062877
000050 a1 c8 8c 3d ca fd 9e 3f 0a 98 f9 3f 29 0d 21 bf
       0.068742044 1.24212 1.9499524 -0.62910706
000060 e2 4d 3d be 9a fa d3 bd 2f 34 85 be b1 d6 a0 3f
       -0.18486741 -0.10350533 -0.26016375 1.2565519
000070 73 7d e1 bd 3e 50 d1 3f cd 8a 39 bc 23 c5 24 bf
       -0.11010256 1.6352613 -0.011324597 -0.64363307
000080 77 01 68 3f 7a bf 13 be a7 53 29 be 88 f5 fb bd
       0.90627235 -0.14428511 -0.16535817 -0.12302691
000090 79 00 8f 3d b1 35 ac 3e 3a 78 71 3f db 9e 6c 3f
       0.06982512 0.33634713 0.94324076 0.92429894
0000a0 df 0b 58 3f 4f e9 a3 3f 79 5e 88 3f 24 87 6e 3f
       0.84393114 1.2805575 1.0653831 0.9317496
0000b0 cc 23 0e 3f 77 71 ac be ea cc 9c 3f 85 8e 81 3c
       0.5552337 -0.33680317 1.2250035 0.015815029
0000c0 0c 0c 38 3e 69 42 35 bf 29 ec 04 3f e0 a3 ac 3e
       0.17973346 -0.7080446 0.5192285 0.33718777
0000d0 d9 84 6e 3f 85 f9 76 bf 5c 05 60 3f fb 90 cd bd
       0.9317146 -0.96474487 0.8750818 -0.100374185
0000e0 18 17 2e 3f 3d e9 3e 3d ae 6c 7f bf e1 8a 94 3f
       0.6800399 0.046609152 -0.9977521 1.1604882
0000f0 98 1e 22 3c 42 c9 fe 3d 89 a6 92 3f 4f 48 7f 3f
       0.009894989 0.12440731 1.1457072 0.9971971
000100 a9 db de 3f 95 fa 33 3f ad 72 94 bf fd 54 ce 3e
       1.7410785 0.7030423 -1.1597496 0.40299216
000110 77 bc 9b 3e 8f 44 98 3f fe 5e e7 3f 88 cb e8 bd
       0.30417225 1.1895922 1.8075864 -0.113669455
000120 fd cd 02 40 7c 2a 90 3f e6 7c 9e 3f 8b a2 3d 3f
       2.0438225 1.1262965 1.2381866 0.74076146
000130 96 0b da bd 21 3f 23 3f aa 1a 36 bf 6e c7 29 3f
       -0.10646741 0.637682 -0.71134436 0.6631993
000140 87 2c 21 3f 9a 4c 66 3f b7 62 79 3f cc ee 8c 3f
       0.6295857 0.89960635 0.9741625 1.1010375
000150 14 67 cc bf b7 50 a9 bf 15 f9 74 3f 9f 22 f1 3e
       -1.5968957 -1.3227757 0.9569257 0.47096726
000160 63 82 1e bf ba 29 8c 3f c5 10 47 3d 65 32 5b be
       -0.61917704 1.0950234 0.048599977 -0.21405943
000170 53 72 2a 3f 65 fd 8e 3f d9 f3 dc 3e df 15 fc 3e
       0.66580695 1.117108 0.4315479 0.49235436
000180 66 b9 9a 3f 21 9d fc 3e 9d 14 4e 3f 33 5c 99 3f
       1.2087829 0.4933863 0.80500203 1.1981262
000190 3d 9d 38 bf 27 d5 72 3e 59 1a fd 3e 97 c2 28 bf
       -0.72114927 0.23714124 0.49434164 -0.6592192
0001a0 72 14 a0 3f 88 87 0a 3f 80 33 0d bf 48 25 50 bf
       1.250624 0.54113054 -0.5515671 -0.81306887
0001b0 55 6a 2c 3d 21 b2 e2 3e 7a f5 9f 3e dd 59 24 be
       0.042093594 0.44276527 0.3124197 -0.16049905
0001c0 42 92 36 3e 26 98 da 3e b7 6f ad 3f 0d bb 4b 3f
       0.1782923 0.42694205 1.3549718 0.7958229
0001d0 bb 59 bc 3e 87 ea 15 bf da df ed be 55 85 3c 3f
       0.3678721 -0.58560985 -0.46459848 0.7364095
0001e0 ca 8a 09 3f 5f ce 35 3f 5a df 6c be 59 86 56 3f
       0.537274 0.7101802 -0.23132077 0.8379875
0001f0 65 0d 24 be bb d0 78 3d 93 3f 29 be e3 a9 9e be
       -0.16020735 0.060745936 -0.16528158 -0.30988988
000200 43 bb 18 3f 68 ba ab 3f d3 17 96 3f e0 56 0f bf
       0.5966074 1.3416262 1.172602 -0.55991936
000210 64 f2 7a 3f 2c b5 17 3f 6b 0c de 3e a0 30 ca be
       0.9802611 0.5926082 0.4336885 -0.39490223
000220 fb da 0c bd b5 14 8a bf 72 11 b5 3e 6f 63 37 3f
       -0.034388524 -1.0787569 0.35364872 0.716361
000230 18 44 ad 3f c0 58 85 3f a6 0e 92 3f b5 bd 07 3e
       1.3536406 1.0417709 1.141072 0.13255961
000240 24 ea 0a 3d cc 7e fd be 42 0d 25 bf 87 13 c2 3e
       0.0339147 -0.495108 -0.64473355 0.37905523
000250 af 5c f4 3e a5 d0 4b 3f d0 ff f1 3e 96 51 b3 3e
       0.47726962 0.7961524 0.47265482 0.35023183
000260 ca ce 18 3f 22 74 44 3f 1b 80 a5 bc f9 6d ac 3f
       0.59690535 0.76739705 -0.020202687 1.3471061
000270 da be b4 3f 67 72 ec bc 60 2b 84 be b4 c4 26 bf
       1.4120743 -0.028863145 -0.25814342 -0.65143895
000280 72 85 d3 3d 0e 2c b3 3e 1f 1e c4 3f fe 49 53 3e
       0.10328187 0.3499455 1.5321692 0.20633695
000290 74 05 40 3f 6d 89 ce be b3 3e 21 3f 2a df 08 3f
       0.7500832 -0.40339223 0.62986296 0.5346552
0002a0 37 a0 ef bd 9b 01 ad 3e d8 e3 55 3f dc 62 b4 3f
       -0.117004804 0.33790287 0.83550787 1.409267
0002b0 7a 97 90 3f 72 86 02 bf 13 8f 19 3e cb 95 50 3f
       1.1296227 -0.509864 0.14995985 0.81478566
0002c0 40 fe 93 3f 77 0a cf 3f df 69 90 3e 72 7c 0a bf
       1.1561966 1.6175069 0.28205773 -0.5409614
0002d0 1f 7f d7 3c 1e 99 d0 be 26 bb 29 3f 74 35 3e 3f
       0.026305733 -0.4074182 0.6630119 0.74300313
0002e0 71 2c aa 3f 3d 2f 52 3e 27 55 19 3f c0 0c 33 3e
       1.3294812 0.20525832 0.5989556 0.17485332
0002f0 ff ab 19 3e 6e 15 30 3f ff 11 24 3f e5 8a 3c 3f
       0.15007018 0.687827 0.6408996 0.73649436
000300 6b 28 55 bf eb d9 f5 3e ff 47 19 3f c4 da 66 be
       -0.832648 0.4801782 0.5987548 -0.2254439
000310 9d 73 e8 3f 52 de 6c be 28 49 69 be 11 d2 ed bd
       1.8160282 -0.23131683 -0.22781813 -0.116123326
000320 d6 0d 81 3f 0d 47 ab 3f 86 26 7b bf 01 67 19 bf
       1.0082347 1.3381058 -0.9810566 -0.59922796
000330 31 07 a4 be 7f f0 31 3e a9 79 c4 3f 7c 54 8d bd
       -0.32036737 0.17376898 1.5349628 -0.0690088
000340 3f 14 c4 3e 74 f9 d6 3f 24 8c 14 3f 86 05 6a 3f
       0.38296697 1.6794877 0.5802634 0.9141468
000350 fb 0d 99 bc fb b8 7a 3f 2b 34 ef 3e d7 20 8f 3e
       -0.018683424 0.9793851 0.46719489 0.27954742
000360 d4 7e 8c 3f 29 8f 49 3f d6 75 52 3f c7 4c 8d 3e
       1.0976205 0.7873407 0.82211053 0.2759764
000370 0a 01 34 bd 73 60 15 40 68 10 14 3f 4c 5f 17 3f
       -0.043946303 2.3340118 0.57837534 0.59129786
000380 d0 12 d6 bd b7 81 58 3f 9d 01 ee 3c 60 99 8d bd
       -0.10452807 0.8457293 0.029053504 -0.069140196
000390 07 73 3a be e7 20 64 3d 6d a2 95 3f 89 84 61 3d
       -0.18207942 0.05569544 1.1690193 0.055058036
0003a0 31 48 eb 3f dc a9 c4 3e d6 c6 32 bf 17 2d ab 3e
       1.8381406 0.38410842 -0.6983465 0.33432838
0003b0 f2 0e c6 3e 66 fd a4 be 49 c5 a3 3f a6 83 33 3e
       0.38683277 -0.32224578 1.2794582 0.17530689
0003c0 6e 0b 85 3e 37 52 e9 3d 1e c8 94 be d2 4e 7e bd
       0.25985283 0.11392634 -0.29058927 -0.062086888
0003d0 e9 2c d6 3f df b9 2b 3f 8a 3f b0 3f dc c6 9e 3e
       1.6732455 0.6708049 1.376939 0.31011093
0003e0 2b ab 82 3e cd ec 88 3e 52 e4 4a bf b4 0f 27 3f
       0.25521216 0.26743165 -0.7925464 0.65258336
0003f0 6d 3f 24 3f 59 ea ae 3d a7 92 17 3f 83 5c 09 3f
       0.6415928 0.08540792 0.5920815 0.53656787

bias f4 [128]
000000 e1 22 09 c0 7e 73 af 3f 9f 4f 2e c0 24 7b 4f c0
       -2.1427538 1.370712 -2.7236097 -3.241891
000010 28 19 0a c0 fd d5 eb c0 93 e4 60 c0 85 66 fe c0
       -2.1577854 -7.3698716 -3.513951 -7.9500146
000020 c3 56 02 c0 85 7d 52 c1 c3 10 2b c1 9e 73 94 3f
       -2.0365455 -13.155644 -10.691592 1.1597784
000030 69 c8 41 c1 af 09 1e c0 6a 7e e7 3e ab 29 ba c0
       -12.111428 -2.469341 0.45213634 -5.8175864
000040 93 2c a9 c0 62 43 81 c0 a2 db 36 40 b6 17 00 c0
       -5.286691 -4.0394754 2.8571553 -2.0014472
000050 ed 75 50 c1 86 b2 5d c1 4b ec 72 c0 83 e5 c6 bf
       -13.02879 -13.856085 -3.7956722 -1.5538791
000060 28 ff b7 bf 9b 67 a6 c0 05 af 2d c1 b9 94 76 c0
       -1.4374743 -5.200147 -10.855229 -3.8528273
000070 a1 80 2c 40 f7 90 b8 c0 3b cd e6 bf 4a 17 e8 c0
       2.695351 -5.767696 -1.8031381 -7.252843
000080 26 18 5f c1 d0 5e 19 c1 4c 3c b4 c0 90 b5 48 c1
       -13.943396 -9.585648 -5.6323605 -12.544327
000090 09 2d 81 c0 d0 96 70 c1 ef 3c 06 be 27 dc 60 c1
       -4.0367475 -15.036819 -0.13109182 -14.053748
0000a0 a4 d2 be c0 a3 37 0f c1 ac ce 0b c1 9b be a3 c0
       -5.963213 -8.951083 -8.737957 -5.1170173
0000b0 a1 2d 31 c1 4d 33 85 c0 7f 7c a1 c0 07 70 bd c0
       -11.07364 -4.1625123 -5.0464473 -5.919925
0000c0 3e 5b 91 c1 19 f9 cc c0 7b 12 49 c0 69 08 2b c0
       -18.169552 -6.4054074 -3.141753 -2.6723883
0000d0 b0 a6 8a c0 89 cb 49 c1 9d f3 4f c1 37 2a d0 c0
       -4.3328476 -12.612191 -12.996976 -6.505153
0000e0 23 c1 9d c0 df e5 38 c0 00 94 4f c1 1b 17 d8 c0
       -4.9298263 -2.8890302 -12.973633 -6.7528205
0000f0 5b 55 ba c0 c5 35 fb c0 69 92 25 c0 f2 51 9c c0
       -5.8229194 -7.8503137 -2.5870612 -4.885003
000100 5e 00 1a c0 51 af a9 c0 1b 79 25 c1 9f d6 53 c1
       -2.4062724 -5.302651 -10.342067 -13.239898
000110 34 b8 49 bf 55 8a 03 3f 3d 6b 47 c1 09 5f 75 c0
       -0.78796697 0.5138295 -12.463681 -3.8339255
000120 69 df 86 c1 74 69 70 c1 0c 0e 9e c0 25 12 a8 c0
       -16.859087 -15.025745 -4.9392147 -5.252215
000130 c1 f8 22 c0 80 3c 96 c0 03 a3 d6 c0 b7 e6 96 c0
       -2.5464327 -4.6948853 -6.707399 -4.7156634
000140 d6 a6 87 c0 e9 b7 a2 c0 f8 58 41 c1 e0 93 bc c0
       -4.2391157 -5.08495 -12.084221 -5.893051
000150 20 c0 82 c0 fb 0c 6d c1 f9 2e ad c0 08 b8 20 c0
       -4.0859528 -14.815669 -5.411984 -2.5112324
000160 ec b0 f2 3e a7 bf 79 c1 4f 01 d6 3f b2 a9 91 c0
       0.47400606 -15.60929 1.6719149 -4.5519648
000170 3e d3 be c0 56 7d 1a c1 97 b5 ef c0 45 e7 9b c0
       -5.9632864 -9.6556 -7.4909167 -4.871981
000180 29 2d 1f 3e e3 e8 bd c0 fa b9 ba c0 2c 98 cc c0
       0.15544571 -5.9346786 -5.835202 -6.3935757
000190 86 3a c8 c0 45 ec a7 c0 a1 cf 9a c0 73 b0 5a c0
       -6.257144 -5.2475915 -4.8378453 -3.4170196
0001a0 a2 23 5a c0 58 29 a0 c0 bb a6 4e c1 27 ba 66 c1
       -3.4084249 -5.005047 -12.915706 -14.420447
0001b0 a3 11 cc c0 a1 57 ba bf f1 d6 51 c1 1b 9e 62 be
       -6.377153 -1.4557992 -13.114976 -0.22130625
0001c0 cc 58 0f c1 42 39 12 c1 3c 2c 2e c0 be 67 3a c0
       -8.959179 -9.138979 -2.7214499 -2.912582
0001d0 62 1a 02 c1 81 24 e4 bf 21 c2 3d c1 f4 df 16 c1
       -8.131441 -1.782364 -11.859895 -9.429676
0001e0 e9 25 d1 bf 3a 18 8f c0 0d 4f 80 c0 1e ea c1 c0
       -1.6339694 -4.4717073 -4.0096498 -6.0598288
0001f0 4e b3 36 c1 7a d7 52 c0 67 a8 a9 c0 26 d2 2e c1
       -11.418776 -3.2944016 -5.301807 -10.926306

weight f4 [64, 128]
000000 e6 53 4c 40 f6 88 be bf 3e d2 9d c0 57 76 96 c0
       3.1926208 -1.4885547 -4.9319143 -4.701946
000010 f4 9f 02 c0 2a 75 ee bf 03 4b 06 40 a7 51 92 3f
       -2.0410128 -1.8629506 2.0983284 1.1431168
000020 79 54 f3 3f 82 91 d5 3f 42 2e d4 3f 59 54 4d bf
       1.9010154 1.668503 1.6576617 -0.8020683
000030 57 3d 7f be 77 19 0e 40 37 9f 95 bf 96 6d 08 c0
       -0.24925743 2.2203043 -1.1689214 -2.1316886
000040 d8 30 b8 3f 57 ca e0 3f e2 24 70 bf 63 9e 03 40
       1.4389906 1.7561749 -0.9380628 2.0565422
000050 83 d4 33 3f 38 74 a4 3f b4 22 e9 bf a9 4a 04 40
       0.7024614 1.2847967 -1.8213716 2.067057
000060 25 66 0f 40 d2 1e 8c bf f9 e2 84 3f ef f7 44 c0
       2.2406094 -1.0946906 1.0381767 -3.0776327
000070 02 41 a3 bf d8 96 e3 3f 0f 2b ee 3f 3e e6 e1 bf
       -1.2754214 1.7780409 1.860689 -1.7648389
000080 4e fe c6 3f 8e 0c d3 3f 10 1f 53 c0 da cc 68 3f
       1.5546358 1.6488206 -3.298771 0.9093758
000090 d6 a7 07 40 e1 a3 75 3f a5 87 14 be 42 5a 16 3f
       2.119619 0.95953184 -0.1450487 0.5873147
0000a0 62 97 7e 3f 1c 2e a4 bf 92 a9 8e 3f ed d7 f5 3f
       0.9944974 -1.2826571 1.1145499 1.920652
0000b0 0e 01 e5 3f e9 dd 72 c0 87 e0 c1 bf e3 da 2b c0
       1.7890947 -3.7947943 -1.5146645 -2.6852348
0000c0 f9 dc 14 3f e7 b8 b9 bf 11 28 56 c0 22 67 2f c0
       0.5814968 -1.4509553 -3.3461955 -2.7406697
0000d0 37 91 18 c0 6a bc 8d 3f 2e 92 80 bd 0b fa a1 3f
       -2.3838632 1.1073124 -0.062778816 1.2654432
0000e0 e2 f9 f9 3e e2 9f 12 40 8d 38 34 3f 9c b1 6d c0
       0.48823458 2.2910085 0.7039879 -3.7139654
0000f0 da 93 a1 c0 c7 6f ff 3f 5e 40 e5 3f ad 28 b7 c0
       -5.0492983 1.9955987 1.7910268 -5.7237153
000100 b2 bb 22 40 68 a1 60 c0 6a de c7 3e 02 68 94 3f
       2.542706 -3.5098515 0.39036876 1.1594241
000110 ff 46 e8 bf 44 ec 96 bf c9 03 3f 3f a5 b5 19 bf
       -1.8146666 -1.1790853 0.7461515 -0.6004279
000120 57 66 6d 3f 7f 4b 54 3f 6e 72 cf 3f 38 ce 13 c0
       0.92734283 0.829277 1.6206796 -2.3094616
000130 e0 9b 3c 40 03 42 0b c0 39 55 cb bf 9d 1b d9 bf
       2.9470139 -2.175904 -1.5885383 -1.6961552
000140 7a 1e d6 3f 2e bd 2a c0 d9 ec f8 3e 95 cd 21 c0
       1.6728051 -2.6677966 0.486182 -2.5281727
000150 22 2b 1f c0 59 7c f8 3f 85 34 5f c0 90 32 18 40
       -2.4870076 1.9412948 -3.4875805 2.378086
000160 ff 44 07 c0 b8 47 76 3f 81 77 75 bf ab 46 ec bf
       -2.1135862 0.96203184 -0.95885473 -1.8459066
000170 24 08 33 c0 18 5e b0 3e 2b a9 07 c0 bf cf 5a c0
       -2.7973719 0.34446788 -2.1197002 -3.4189298
000180 63 e6 ca 3f 38 5f 1d c0 47 be 41 c0 8e 96 62 c0
       1.5851558 -2.4589367 -3.0272386 -3.5404391
000190 ed df ea 3e 09 ce 9d bf 24 25 99 bf 81 24 70 3f
       0.45873967 -1.2328502 -1.196446 0.938057
0001a0 71 6c 19 40 a1 04 d6 bf 0e 81 54 40 42 9e 00 40
       2.3972437 -1.6720163 3.3203769 2.0096593
0001b0 24 92 bd be 9c ae 72 bf c2 fd ac 3f 85 14 65 bf
       -0.3702556 -0.9479768 1.3514941 -0.89484435
0001c0 1d 06 b1 3f e2 1c d5 3f 1f 55 42 c0 07 bf 41 bf
       1.3829991 1.6649439 -3.0364454 -0.7568211
0001d0 ee 40 da 3f ff b2 b0 c0 ab e2 86 3f 89 7c ac 3f
       1.7051065 -5.52185 1.0537924 1.3475505
0001e0 46 0c e7 bf 65 61 96 c0 eb 24 fa bf 08 10 6d c0
       -1.805062 -4.699389 -1.9542516 -3.7041035
0001f0 d1 89 db 3f f2 85 04 c0 96 61 3b c0 a9 40 55 3f
       1.7151433 -2.0706754 -2.9278312 0.8330179
000200 2d ef 1e 40 53 55 99 bf 4d 72 96 c0 a7 e3 b4 c0
       2.4833481 -1.1979164 -4.7014527 -5.6527896
000210 80 74 a6 bf 1c a0 7d bf 1a 8d 32 40 cf e6 e2 3f
       -1.3004303 -0.9907243 2.7898622 1.7726687
000220 77 2e 25 40 c3 14 b1 3f 9a 06 01 40 7e 9c 5c bf
       2.580961 1.3834461 2.016028 -0.8617629
000230 1a cc 5d 3f 5b eb ee 3f 41 55 ae be 5d 29 a1 be
       0.8663956 1.8665575 -0.3404942 -0.3147687
000240 3c 28 ab 3f b4 fa 1e 40 68 15 e8 be af fb f4 3f
       1.3371654 2.4840517 -0.45328832 1.9139308
000250 f0 ab bf 3f 58 3e b5 3f 05 70 a7 bf ba c4 2f 40
       1.4974346 1.4159651 -1.3081061 2.7463822
000260 12 1e 2c 40 eb 0f a2 bf f0 c7 08 40 13 45 86 bf
       2.6893353 -1.2661108 2.1372032 -1.048983
000270 ef 60 6a bf b4 c0 9d 3f 72 ae d1 3f c1 df 0c bf
       -0.9155416 1.2324433 1.6381361 -0.5502892
000280 37 2c aa 3f 09 06 f0 3f 86 72 24 c0 52 00 0e 40
       1.3294743 1.8751842 -2.56949 2.2187696
000290 b4 c4 59 3f 80 6f 8d 3f ad 55 25 bf c8 47 f4 3f
       0.8506577 1.1049652 -0.64583856 1.9084406
0002a0 b1 30 ce 3f b2 ea f6 3e 9b 18 90 be 0d a1 f2 3f
       1.610861 0.48225933 -0.28143772 1.8955399
0002b0 53 a0 7e 3f 2d 2a 72 c0 e6 da 1e c0 3a fd e4 bf
       0.99463385 -3.7838242 -2.4821105 -1.7889779
0002c0 7e f6 0f 40 ed e2 82 3d 70 d9 61 c0 c2 8c 51 c0
       2.2494197 0.06390939 -3.5288963 -3.2742162
0002d0 e5 ae 29 c0 67 8f 30 40 03 8f 22 40 86 35 f9 3f
       -2.6512997 2.7587526 2.5399787 1.9469459
0002e0 ea 4f d9 3f 30 9b 2c 40 00 a7 b9 3f 0a 69 43 c0
       1.6977513 2.696972 1.4504089 -3.053286
0002f0 f5 6a 8a c0 ee b6 82 3f 7d 62 d8 3f 58 52 c2 c0
       -4.3255563 1.0212076 1.6905056 -6.0725517
000300 d7 ad 2b 40 30 2d 93 c0 0d 43 02 40 45 14 3f 40
       2.6824853 -4.599266 2.0353425 2.9856122
000310 c7 49 18 c0 79 7a 20 bf 01 98 f7 3f 53 1c 4b bf
       -2.379503 -0.6268688 1.9343263 -0.79340094
000320 74 56 16 40 ba 0f 29 40 15 62 02 40 d5 d4 c9 bf
       2.3490267 2.6415849 2.0372365 -1.5768076
000330 04 17 3d 40 bb 1c 08 c0 b6 c1 5e bf bb 9d bd bf
       2.9545298 -2.1267536 -0.8701433 -1.481376
000340 72 96 29 40 26 24 3d bf 44 da 38 40 b4 df 87 bf
       2.6498075 -0.73883283 2.8883219 -1.0615144
000350 26 fa 2d c0 d7 b2 0c 40 cb 18 0f c0 8c 82 39 40
       -2.7183928 2.1984155 -2.2358882 2.898593
000360 e9 e0 0f c0 74 e8 0c 40 43 e0 b0 be 25 56 da bf
       -2.2481024 2.2016878 -0.34546098 -1.7057539
000370 64 40 86 bf bb 86 e1 3f 17 a4 95 be eb 22 5b c0
       -1.04884 1.7619241 -0.29226753 -3.4240062
000380 18 c5 b6 3f 59 62 f5 bf 98 ce 06 c0 37 55 6f c0
       1.4278898 -1.9170638 -2.1063595 -3.739576
000390 2a 34 b9 be 47 e9 33 bf 9e d3 58 bf 92 8d db be
       -0.3617261 -0.7027783 -0.846979 -0.42881447
0003a0 61 a2 84 3f e4 1c 97 bf 0b 5d a2 3f 26 61 15 40
       1.0362054 -1.1805692 1.2684644 2.3340545
0003b0 86 17 af 3f 97 76 27 be 51 9e 04 40 97 bb 31 bf
       1.3679054 -0.16353832 2.0721629 -0.69426864
0003c0 e6 cd 73 3f 78 b1 ab 3f a3 30 29 c0 56 df 44 bf
       0.9523605 1.3413534 -2.6435935 -0.76903284
0003d0 22 26 00 40 9d f6 a8 c0 d0 ec fb 3e 5b 9b f6 3f
       2.0023274 -5.280104 0.4920411 1.9266161
0003e0 e5 9a 6f bf d1 e2 82 c0 45 f7 37 bf 5d a1 67 c0
       -0.93595725 -4.0901875 -0.7186168 -3.6192238
0003f0 c6 53 16 40 2c 94 64 c0 f5 00 16 c0 9b 1a d5 3f
       2.3488631 -3.5715437 -2.3438084 1.6648744

bias f4 [64]
000000 43 8c 8c c0 88 e7 cd c0 7f 44 ea c0 bd 01 cc c0
       -4.392122 -6.434513 -7.3208613 -6.375212
000010 0f 6b cd c0 a3 20 a2 c0 bd 67 dc c0 73 c2 7b c0
       -6.4193187 -5.066484 -6.8876634 -3.9337432
000020 0c e7 9b c0 1c cb e9 c0 61 fc cd c0 be 67 d8 c0
       -4.871954 -7.3060436 -6.437058 -6.762664
000030 57 56 d2 c0 77 d9 ed c0 45 a0 99 c0 d7 30 c6 c0
       -6.5730395 -7.432796 -4.800814 -6.193462
000040 a1 0e ca c0 39 7d db c0 4c d5 fb c0 dd 94 c8 c0
       -6.3142858 -6.859036 -7.869787 -6.268172
000050 ca b7 a1 c0 d5 05 d8 c0 aa 4a e0 c0 9a 4a e2 c0
       -5.053685 -6.750712 -7.0091143 -7.0716066
000060 ef 63 b0 c0 65 58 eb c0 61 02 bb c0 f0 57 cd c0
       -5.512199 -7.3545403 -5.8440404 -6.4169846
000070 9c d2 be c0 3b e8 08 c1 7f ea ac c0 b9 1f 0a c1
       -5.963209 -8.556697 -5.403625 -8.632745
000080 03 7c e5 c0 52 36 01 c1 87 c7 ab c0 9a 6c b6 c0
       -7.171388 -8.075762 -5.3681064 -5.700757
000090 aa ac b4 c0 d4 9b 88 c0 45 4a f1 c0 4d 28 9e c0
       -5.646077 -4.269022 -7.540316 -4.9424195
0000a0 12 9e f7 c0 bc eb 95 c0 77 1f 98 c0 e3 e2 d6 c0
       -7.7380457 -4.685026 -4.753841 -6.715196
0000b0 c8 d5 d3 c0 be ae 03 c1 91 c6 c8 c0 20 62 fc c0
       -6.6198463 -8.230162 -6.274239 -7.886978
0000c0 b7 02 94 c0 3a db 9f c0 eb de eb c0 9a ba b4 c0
       -4.6253314 -4.995511 -7.3709617 -5.6477785
0000d0 be 7a e7 c0 05 c2 da c0 3c d7 05 c1 de ce 70 c0
       -7.233733 -6.836184 -8.365047 -3.7626262
0000e0 65 a1 f8 c0 4d 3a 01 c1 50 ef fc c0 a8 4c a3 c0
       -7.7697015 -8.076734 -7.904213 -5.1031075
0000f0 2d b5 f9 c0 20 32 03 c1 a4 d3 ba c0 7b 43 b4 c0
       -7.803366 -8.199738 -5.838335 -5.6332374
