model/soccer_ai_model.pt (torch, 770495 bytes, 11 tensors)

weight f4 [512, 24]
-1.0994549e-37 -0.0070269606 0.013688993 -0.0041319756 0.0074147135 0.014859675 0.017285699 -0.021299943
-0.013021048 0.009416737 0.020595497 0.015207361 -0.021051124 -0.007896666 0.026584495 -0.00837527
-0.009783656 -0.009825593 -0.012907669 0.015217101 -0.021041194 -0.0014805075 0.019422032 0.0020448822
-7.236175e-38 -0.3112144 0.038805112 -0.15315448 -0.10376889 -0.20131917 0.27408102 0.023214806
-0.14399141 0.12007423 -0.0066857934 0.2620052 0.06759551 -0.104009345 -0.09764505 -0.009153268
0.048503425 0.007708284 0.17142105 0.25998652 0.09511355 0.10004318 0.018834027 -0.17898472
7.299156e-39 0.1552619 -0.054346085 0.08616132 -0.13199933 0.11153541 -0.08622594 -0.009980519
0.034866452 0.0523394 0.070819005 -0.046559416 0.021907346 0.041796386 0.037971918 -0.06074635
0.01406936 -0.0019866703 0.08644446 -0.044436395 0.011324955 -0.033943783 0.05948581 -0.0755946
-7.5043053e-38 -0.01945662 0.029792994 -0.023544014 0.025280097 0.033735473 0.018996887 -0.029225398
0.009668623 0.037388787 0.017362034 0.019595185 -0.031807713 -0.049310975 -0.009044559 -0.06310985
-0.027671278 -0.027671278 0.0071570766 0.019595185 -0.031807713 -0.05624554 0.03944604 0.052128945
3.4363927e-38 0.004865432 -0.0001287945 0.0046469863 0.0049750404 0.00423792 0.007282118 -0.0017204849
-0.011471682 0.023417499 0.0032948463 0.003578318 -0.013534811 -0.009899995 -0.010434902 -0.0004262054
0.0064234454 0.0064234454 -0.020910209 0.003578318 -0.013534811 -0.0060233874 0.0068115424 0.0008778617
1.2370332e-38 0.06214131 0.06572837 0.079393044 0.09489626 0.17752494 -0.11637269 -0.091562025
0.010498455 -0.037737057 0.09890688 -0.07402471 0.015744 -0.17365278 -0.15148371 -0.17001693
-0.13640913 -0.10636157 -0.114840314 -0.06956109 0.022736996 0.09246859 0.65422964 0.13388969
-6.779454e-38 0.25336912 0.40472212 -0.08078156 0.10086907 0.34952334 -0.081057854 -0.09686207
-0.2072489 -0.31913048 -0.16615339 -0.28700876 -0.16337788 -0.3187468 0.084990546 -0.22591281
0.009271405 -0.0315544 -0.026568653 -0.27393815 -0.115645625 0.38698256 0.39231476 0.025946978
7.940594e-38 -0.12425193 -0.2031498 -0.27375072 0.21680689 -0.013438268 0.35362804 -0.13025914
-0.083728015 -0.0023298229 0.022647299 0.3217552 -0.046600018 0.070961535 -0.114314064 -0.13158298
-0.34969738 -0.46479374 0.5786974 0.43339056 0.038809236 -0.1181639 0.6497589 0.32959488
4.249068e-38 -0.002283786 -0.0019838647 -0.000553834 -0.0034514128 0.012183993 0.003332708 -0.007950593
0.003674135 0.0073712524 -0.013493213 0.0005821665 -0.009299553 0.008361295 0.008807569 -0.012417957
0.01171951 0.01171951 -0.006549704 0.0005821665 -0.009299553 0.00718452 0.008305901 -0.0018078457
-1.0695416e-37 0.003460692 0.0036562548 0.0021460191 0.003041457 0.006195437 -0.001598191 0.00029579378
-0.029610375 0.01921927 0.017557291 0.0032410077 -0.0091595575 -0.014136913 0.012379573 0.002117727
-0.009119067 -0.009138102 -0.016300956 0.0032411183 -0.0091397315 0.024228344 0.02201159 0.009719958
3.220241e-38 0.016583359 0.04846758 0.018506432 0.05602058 0.031447638 -0.01902472 -0.015965784
-0.02079408 0.018927341 0.021644656 -0.016325396 -0.031936675 0.0022094056 0.0022742648 -0.0002692558
00000000: 69a6 1582 6b42 e6bb cc47 603c 8665 87bb
00000010: 20f7 f23b ff75 733c bd9a 8d3c 387d aebc
00000020: 3c56 55bc a848 1a3c e3b7 a83c 4c28 793c
00000030: 6873 acbc 0561 01bc bac7 d93c 6e38 09bc
00000040: a14b 20bc 86fb 20bc b07a 53bc 2651 793c
00000050: 955e acbc 970d c2ba f41a 9f3c 6e03 063b
00000060: c8fc c481 7e57 9fbe 1cf2 1e3d 87d4 1cbe
00000070: c984 d4bd 9d26 4ebe 5954 8c3e fa2c be3c
00000080: 7c72 13be 7ae9 f53d 8014 dbbb 8c25 863e
00000090: 846f 8a3d da02 d5bd 21fa c7bd 97f7 15bc
000000a0: 87ab 463d c695 fc3b 0089 2f3e f41c 853e
000000b0: e5ca c23d 70e3 cc3d d149 9a3c c547 37be
000000c0: 147b 4f00 fafc 1e3e 009a 5ebd 5975 b03d
000000d0: d52a 07be ad6c e43d 3a97 b0bd 5585 23bc
000000e0: 20d0 0e3d d761 563d 8e09 913d 16b5 3ebd
000000f0: 0977 b33c b032 2b3d 7188 1b3d 2ad1 78bd
00000100: 2c83 663c cc32 02bb cb09 b13d f002 36bd
00000110: 4e8c 393c a308 0bbd 65a7 733d 57d1 9abd
00000120: 6049 cc81 7d63 9fbc 7010 f43c 60df c0bc
00000130: 3518 cf3c 352e 0a3d 5c9f 9b3c 1a6a efbc
00000140: 2569 1e3c fc24 193d d33a 8e3c 1586 a03c
00000150: ce48 02bd 4efa 49bd a12f 14bc bd3f 81bd
00000160: e0ae e2bc e0ae e2bc e985 ea3b 1586 a03c
00000170: ce48 02bd b961 66bd 2c92 213d 2985 553d
00000180: 5318 3b01 346e 9f3b 030d 07b9 bf45 983b
00000190: aa05 a33b 40de 8a3b d59e ee3b e581 e1ba
000001a0: b9f3 3bbc 0ed6 bf3c 59ee 573b 3782 6a3b
000001b0: 1dc1 5dbc 9733 22bc 27f7 2abc 5274 dfb9
000001c0: c47b d23b c47b d23b e34b abbc 3782 6a3b
000001d0: 1dc1 5dbc d65f c5bb 5c33 df3b 4d20 663a
000001e0: 74b3 8600 e387 7e3d 989c 863d d298 a23d
000001f0: f858 c23d 19c9 353e ce54 eebd df84 bbbd
00000200: b601 2c3c 2c92 1abd b18f ca3d 449a 97bd
00000210: 90f9 803c 09d2 31be 8c1e 1bbe eb18 2ebe
00000220: d6ae 0bbe 18d4 d9bd 6631 ebbd 0b76 8ebd
00000230: f042 ba3c 2c60 bd3d 987b 273f 611a 093e
00000240: e68d b881 99b9 813e bd37 cf3e cd70 a5bd
00000250: 7194 ce3d b9f4 b23e a901 a6bd 9f5f c6bd
00000260: 0e39 54be 1265 a3be 1d24 2abe d0f2 92be
00000270: 884c 27be c832 a3be 860f ae3d b055 67be
00000280: 17e7 173c 303f 01bd 81a6 d9bc 9f41 8cbe
00000290: 9dd7 ecbd 9422 c63e 7bdd c83e c28e d43c
000002a0: dd29 d801 cc77 febd 8006 50be 0e29 8cbe
000002b0: a002 5e3e 2e2c 5cbc bc0e b53e a762 05be
000002c0: 9879 abbd f1af 18bb d486 b93c 19bd a43e
000002d0: a9df 3ebd 4854 913d 7e1d eabd b0bd 06be
000002e0: 890b b3be 72f9 edbe 8325 143f 5ee5 dd3e
000002f0: 6ff6 1e3d eaff f1bd 9956 263f a9c0 a83e
00000300: 5d57 6701 92ab 15bb ba03 02bb 2c2f 11ba
00000310: 1931 62bb 5f9f 473c 9069 5a3b 3443 02bc
00000320: c2c9 703b 8c8a f13b a312 5dbc 889c 183a
00000330: 275d 18bc d0fd 083c 9f4d 103c b074 4bbc
00000340: 3003 403c 3003 403c e69e d6bb 889c 183a
00000350: 275d 18bc 1f6c eb3b 7915 083c 3cf5 ecba
00000360: 1694 1182 c7cc 623b c79d 6f3b 3aa4 0c3b
00000370: 2e53 473b 1803 cb3b 647a d1ba c514 9b39
00000380: 7591 f2bc bb71 9d3c 4fd4 8f3c 1667 543b
00000390: f811 16bc 839e 67bc b1d3 4a3c 90c9 0a3b
000003a0: 2468 15bc fab7 15bc 9589 85bc f168 543b
000003b0: d0be 15bc 857a c63c a651 b43c 7540 1f3c
000003c0: 9c53 2f01 d3d9 873c f185 463d cd9a 973c
000003d0: d675 653d 3dcf 003d bbd9 9bbc adca 82bc
000003e0: 5958 aabc 830d 9b3c 2250 b13c d6bc 85bc
000003f0: 08d0 02bd adcb 103b d50b 153b e72a 8db9

bias f4 [512]
-0.0930021 -0.16789679 -0.35317293 -0.16721824 -0.08909162 -0.29623175 -0.4597779 -0.20200919
-0.06809989 -0.10837871 -0.1376259 -0.04242656 -0.09273921 -0.49177325 0.039206 -0.11056841
-0.119059026 -0.39844185 -0.32071462 -0.11421726 -0.05686915 -0.09841983 0.14477508 -0.4894891
-0.11608881 -0.10045562 -0.083346926 -0.098493025 -0.08698888 -0.24909629 -0.082480624 -0.088622995
-0.08475754 -0.05275467 -0.12190726 -0.24932227 -0.47067615 -0.074666224 -0.38974315 -0.0990107
-0.3916582 -0.3481025 -0.08184694 -0.13730107 -0.072737366 -0.14329156 -0.11162822 -0.10615431
-0.09213159 -0.29363218 -0.413358 -0.17405142 -0.09763755 -0.06879128 -0.098015405 -0.038047917
0.3053374 -0.123718135 -0.3274858 -0.2564175 -0.056818318 -0.07080188 -0.48992756 -0.07003195
-0.029129177 -0.10423901 0.049086735 -0.07392114 -0.09131363 -0.12009656 -0.09793628 -0.038477816
-0.11855247 -0.057845037 -0.075438894 -0.41326463 -0.069216 -0.42884487 -0.1173179 -0.4370377
-0.032255165 -0.46701872 -0.31500328 -0.11251512 -0.14897045 -0.033474196 -0.108418666 -0.017378738
-0.10595962 -0.12695782 -0.16016793 -0.4913589 -0.45733294 -0.09002269 -0.6605682 -0.150937
-0.0909349 -0.11645711 -0.0752668 -0.54804254 -0.73741645 -0.5112585 -0.32623017 -0.3640095
-0.15416425 -0.64684236 0.030128192 -0.44820076 -0.08543936 -0.5099088 -0.5391614 -0.4416094
-0.12236691 -0.56212574 -0.081020154 -0.10030141 -0.48894238 -0.55132276 -0.51096416 -0.08440304
-0.076219834 -0.1557619 -0.093366265 -0.093704484 -0.68786275 -0.074448965 -0.2731201 -0.26998147
-0.10363423 -0.46108487 -0.1104648 -0.27081203 -0.3618335 0.15462156 -0.08941703 -0.25697845
-0.08076755 -0.50059545 -0.071495764 -0.56573737 -0.5889613 -0.112567805 -0.20760973 -0.38651004
-0.1339983 -0.09175152 -0.10165509 -0.13682127 -0.106757924 -0.15999666 -0.3825797 -0.08117873
-0.058697067 -0.112821214 -0.43802953 -0.06591542 -0.09268956 -0.55008394 -0.42541447 -0.09160949
-0.18470094 -0.09717702 -0.117655836 -0.120386384 -0.5241667 -0.5567939 -0.41996464 -0.32136467
-0.25428578 -0.4669008 -0.099544734 -0.09357015 -0.40956512 -0.32006466 -0.4790965 -0.5453097
-0.09358352 -0.12630476 -0.20479167 -0.06487162 -0.20507908 -0.37174517 -0.11217345 -0.08260187
-0.06661423 -0.42950055 0.28246847 -0.48146322 -0.08534781 -0.1558105 -0.45085347 -0.39208114
0.15077572 -0.097598486 -0.5326474 -0.4395745 -0.08880352 -0.5440464 -0.26420552 -0.1420519
-0.10332996 -0.3857405 -0.11531251 -0.38313487 -0.1199325 0.23302627 -0.2818925 -0.11715342
-0.48902816 -0.14756358 -0.29768056 -0.055523712 0.05706003 -0.19596931 -0.049184967 -0.4187008
-0.12187116 -0.5746788 -0.10890235 -0.12416326 -0.24890493 -0.6094836 -0.37112755 -0.04641739
-0.37031165 -0.6106454 -0.42542276 -0.1793112 -0.08301745 -0.081175886 -0.5959442 -0.7987801
-0.35819992 -0.01138582 -0.5095202 -0.099278115 -0.051498722 -0.1113888 -0.05458014 -0.38021436
-0.09381968 -0.5105842 -0.34882322 -0.42221415 -0.3428332 -0.09621693 -0.14048302 -0.07610512
-0.16040288 -0.23720425 -0.21631505 -0.38598767 -0.45879567 -0.49225873 -0.09305742 -0.1587939
00000000: e377 bebd 23ed 2bbe 15d3 b4be 423b 2bbe
00000010: ab75 b6bd b0ab 97be 0268 ebbe 7fdb 4ebe
00000020: f577 8bbd a8f5 ddbd ceed 0cbe 79c7 2dbd
00000030: 0eee bdbd b4c9 fbbe 7896 203d b171 e2bd
00000040: 38d5 f3bd 9200 ccbe b534 a4be bdea e9bd
00000050: a0ef 68bd 5690 c9bd eb3f 143e 519e fabe
00000060: f8bf edbd adbb cdbd cbb1 aabd b6b6 c9bd
00000070: 3a27 b2bd 1913 7fbe 9aeb a8bd f97f b5bd
00000080: 5c95 adbd 4815 58bd 83aa f9bd 564e 7fbe
00000090: 77fc f0be 9bea 98bd 6a8c c7be 1fc6 cabd
000000a0: 6c87 c8be 7e3a b2be 5e9f a7bd a798 0cbe
000000b0: 54f7 94bd 06bb 12be 569d e4bd 6e67 d9bd
000000c0: 7daf bcbd f556 96be a9a3 d3be 893a 32be
000000d0: 32f6 c7bd 71e2 8cbd 4dbc c8bd 22d8 1bbd
000000e0: 2f55 9c3e ef5f fdbd 38ac a7be 2849 83be
000000f0: 53ba 68bd 9300 91bd c9d7 fabe e96c 8fbd
00000100: 50a0 eebc 437b d5bd 2c0f 493d f763 97bd
00000110: a402 bbbd 2ff5 f5bd d192 c8bd ea9a 1dbd
00000120: a3cb f2bd ebee 6cbd b57f 9abd 6c97 d3be
00000130: 1ec1 8dbd 8e91 dbbe 5e44 f0bd 68c3 dfbe
00000140: fe1d 04bd 141d efbe 1c48 a1be 546e e6bd
00000150: b68b 18be 3d1c 09bd 9b0a debd db5d 8ebc
00000160: 5b01 d9bd 3b01 02be 1003 24be 6593 fbbe
00000170: 8b27 eabe d15d b8bd ff1a 29bf 3b8f 1abe
00000180: 143c babd 1181 eebd 7b25 9abd 844c 0cbf
00000190: 53c7 3cbf d6e1 02bf a407 a7be 745f babe
000001a0: 3cdd 1dbe 7697 25bf 66cf f63c 927a e5be
000001b0: d5fa aebd 6289 02bf 7b06 0abf a11a e2be
000001c0: 819b fabd 79e7 0fbf e5ed a5bd d36a cdbd
000001d0: a856 fabe 7d23 0dbf 8cce 02bf 80db acbd
000001e0: 2519 9cbd 0c80 1fbe d036 bfbd 23e8 bfbd
000001f0: c617 30bf b378 98bd 66d6 8bbe 033b 8abe
00000200: 2f3e d4bd 5113 ecbe 5e3b e2bd e0a7 8abe
00000210: 3e42 b9be 1d55 1e3e 4720 b7bd ae92 83be
00000220: 7569 a5bd 0627 00bf 5f6c 92bd 2ad4 10bf
00000230: 2bc6 16bf f389 e6bd a597 54be a5e4 c5be
00000240: da36 09be 39e8 bbbd 8b30 d0bd e01a 0cbe
00000250: e6a3 dabd 2ad6 23be 7de1 c3be 0941 a6bd
00000260: 566c 70bd cf0e e7bd 6845 e0be aafe 86bd
00000270: 06d4 bdbd 4dd2 0cbf edcf d9be c29d bbbd
00000280: 3e22 3dbe bf04 c7bd 8bf5 f0bd 238d f6bd
00000290: ca2f 06bf 0c8a 0ebf 9b05 d7be e989 a4be
000002a0: bf31 82be 9f0d efbe 1cde cbbd b5a1 bfbd
000002b0: 85b2 d1be 84df a3be 234c f5be 6b99 0bbf
000002c0: b7a8 bfbd 0956 01be e8b4 51be 69db 84bd
000002d0: 4000 52be 6255 bebe 32bb e5bd 2b2b a9bd
000002e0: 0b6d 88bd 7fe7 dbbe b59f 903e 5982 f6be
000002f0: d5ca aebd ca8c 1fbe 44d6 e6be dcbe c8be
00000300: f364 1a3e b7e1 c7bd 945b 08bf e90f e1be
00000310: 9fde b5bd a046 0bbf f245 87be 0e76 11be
00000320: a89e d3bd c77f c5be f728 ecbd 412a c4be
00000330: 2c9f f5bd 709e 6e3e 3754 90be 22ee efbd
00000340: e661 fabe e81a 17be 9669 98be d56c 63bd
00000350: c7b7 693d 2eac 48be 2d76 49bd f45f d6be
00000360: 9697 f9bd 261e 13bf 3208 dfbd 4f49 febd
00000370: efe0 7ebe 1e07 1cbf 6e04 bebe 2920 3ebd
00000380: 7d99 bdbe 4253 1cbf 03d1 d9be 5b9d 37be
00000390: 0e05 aabd 8b3f a6bd cd8f 18bf da7c 4cbf
000003a0: fb65 b7be 978b 3abc ea6f 02bf 5352 cbbd
000003b0: 53f0 52bd d01f e4bd 6d8f 5fbd 75ab c2be
000003c0: 8824 c0bd a5b5 02bf f598 b2be 742c d8be
000003d0: d587 afbe 620d c5bd c8da 0fbe 00dd 9bbd
000003e0: a740 24be ace5 72be b181 5dbe 2da0 c5be
000003f0: 44e7 eabe 5609 fcbe e394 bebd de9a 22be

weight f4 [256, 512]
5.9960607e-06 -0.000974133 -0.0033510856 4.7218233e-05 -9.5130645e-06 0.002385485 -0.0042436174 -0.00681227
-4.0135426e-05 -6.848713e-06 -0.00013643141 0.00040308794 0.00015011957 0.0040706913 -0.023233319 -0.0451632
0.0005927706 -0.0006988162 -0.0029347849 -2.167393e-05 4.371641e-05 -3.9567985e-05 -0.020865986 -0.004583001
0.0006218247 -0.0009205286 -1.2171886e-05 0.0001278027 -1.9435483e-05 -0.00049096276 6.786405e-05 -2.1701737e-05
-2.5419282e-05 -0.00088118657 -5.708409e-05 -0.004750235 -0.0008131029 0.00053078745 0.00731077 0.0012294301
0.00060957845 0.0151901785 -2.9520685e-05 -0.0139806485 -2.090346e-05 -0.00013529534 -4.2776916e-05 -3.662072e-05
-6.9622554e-05 -0.0066745854 -0.0032543812 -0.031184059 -0.0001027738 -0.0002319388 -0.00026487184 -2.0710726e-05
-0.018734612 -0.00015106352 -0.006995126 0.012598693 -3.75173e-06 1.5006449e-05 -0.0029289306 0.00010827728
1.00539555e-05 -3.260368e-05 -0.001167042 3.0617477e-05 2.6226138e-05 -7.4775824e-05 -1.8721263e-05 -1.6681188e-05
0.0001727094 -2.181507e-05 -7.1964555e-06 -0.0012214133 -8.666804e-05 0.002045155 0.00018183068 0.021386292
0.0011655907 -0.0012155852 -0.0041422783 -3.886134e-05 -0.00067017257 0.00049951155 -4.7014673e-05 -0.0008821592
-0.000923083 5.5654767e-05 0.00370678 1.4631393e-05 -0.00087976066 0.0026265052 -0.00018440453 -0.0010427303
-4.716171e-05 -0.003667518 -2.859801e-05 0.0013829622 0.0076870783 -0.004042957 -0.00026760128 0.0073531647
-0.021164645 0.0016533242 -0.008470307 -0.0024548469 -0.00061755965 -0.0015587176 0.00046807883 -0.010899588
-7.7624776e-05 -0.0029994173 0.00019488503 0.00051905675 -0.002172537 -0.00692797 -0.00035569223 0.00032377144
-5.1137664e-05 -0.00019655815 -2.4255507e-05 1.3480308e-05 -0.010156453 -0.0018881708 0.000495085 0.0017711517
-0.00015225602 -0.008767297 -0.0004463506 -0.007163393 0.0006251662 -0.01703449 0.0002192983 0.008767239
-1.6955305e-06 -0.006881837 -7.1630464e-05 0.003048052 0.00903332 0.0009973078 0.013716418 0.0006567405
0.0054852488 9.280302e-06 1.09688e-05 1.3068386e-05 0.00038786724 -0.0049816594 0.006973629 -0.0011988701
-3.3129531e-06 -3.8633905e-05 -0.0001069856 0.00010685575 0.00014334756 -0.0017439981 0.0020475383 -1.8896295e-05
-0.0001355333 0.0002680507 -2.6906431e-05 9.052833e-06 -0.0026304256 -0.0012107833 0.004546423 -0.0006097831
-0.0035115718 0.0011865804 -3.1435437e-05 0.0008029562 -0.0014563862 0.006949038 -0.009788236 0.0023826186
-3.9582686e-05 -0.00019794171 -6.217039e-05 -0.0017121696 -0.006703375 0.00014617556 -0.0130673945 -9.1859065e-06
-8.825875e-06 -8.2272876e-05 -0.0068991887 0.004461111 -0.00010764694 -0.0008942064 -0.006893646 -0.006646866
-0.005121369 -5.9538e-05 -0.013009994 0.0014501137 0.0005145306 0.005402428 0.007534053 1.3089705e-05
-0.00057251455 -0.008711687 -0.00069237815 0.003419287 -7.814163e-05 -0.027881438 -0.000887579 -7.594827e-05
0.0036700675 2.6030453e-05 0.0036010505 0.002477346 0.0008699578 0.0008619387 9.2073686e-05 0.00015659558
-9.970511e-05 -0.0015543065 2.2644543e-05 -1.0497732e-05 -0.021112444 0.0010405413 0.0004889386 9.2970724e-05
-0.0013059688 -0.0031833402 -0.0048034815 -0.0077747116 0.0005659568 0.010418924 -0.0015467427 0.000735456
0.007966625 -0.0053088316 0.0016979417 -3.4459285e-05 -2.3343246e-05 4.9818835e-05 -1.0331667e-05 -0.006973003
7.8175006e-05 0.0005468049 -0.0032677045 0.00039917388 -0.0011907881 4.6715046e-05 -1.003772e-05 0.00034464648
0.00061360985 0.01653024 0.0035393033 0.008114208 -0.0028101832 -0.015920717 -4.3915054e-05 9.4467134e-05
00000000: c531 c936 f65c 7fba e39d 5bbb 310c 4638
00000010: 4d9a 1fb7 cc55 1c3b 0b0e 8bbb 7639 dfbb
00000020: 1657 28b8 ffcd e5b6 070f 0fb9 8c55 d339
00000030: 6a69 1d39 6f63 853b cd53 bebc 0cfd 38bd
00000040: 2964 1b3a c330 37ba 8555 40bb 69d0 b5b7
00000050: 235c 3738 cdf5 25b8 25ef aabc 002d 96bb
00000060: f301 233a a14f 71ba da35 4cb7 c702 0639
00000070: 6209 a3b7 f4b3 00ba 3c52 8e38 200c b6b7
00000080: 7e3b d5b7 6eff 66ba 936d 6fb8 dca7 9bbb
00000090: 6926 55ba 8b24 0b3a 2f8f ef3b d424 a13a
000000a0: 1ecc 1f3a 3ae0 783c 30a3 f7b7 170f 65bc
000000b0: d759 afb7 11de 0db9 5d6b 33b8 3399 19b8
000000c0: 5302 92b8 7bb6 dabb 7547 55bb b675 ffbc
000000d0: 4488 d7b8 9934 73b9 7fde 8ab9 f2bb adb7
000000e0: 5479 99bc ce66 1eb9 5f37 e5bb c06a 4e3c
000000f0: 3bc6 7bb6 35c4 7b37 4df3 3fbb ec12 e338
00000100: 69ad 2837 efbf 08b8 6ef7 98ba 446b 0038
00000110: 3400 dc37 f7d0 9cb8 9b0b 9db7 94ee 8bb7
00000120: 5419 3539 82ff b6b7 1579 f1b6 d417 a0ba
00000130: 8dc1 b5b8 0208 063b cda9 3e39 4e32 af3c
00000140: bcc6 983a 4554 9fba f3bb 87bb 0cff 22b8
00000150: 85ae 2fba a7f1 023a 9f31 45b8 b440 67ba
00000160: 0dfb 71ba da6e 6938 73ed 723b 5b79 7537
00000170: bd9f 66ba 7221 2c3b b75c 41b9 39ac 88ba
00000180: 80cf 45b8 be5a 70bb c2e5 efb7 8344 b53a
00000190: e3e3 fb3b c87a 84bb d64c 8cb9 d1f2 f03b
000001a0: 7a61 adbc 5bb4 d83a 0bc7 0abc 7fe1 20bb
000001b0: bae3 21ba e24d ccba 7a68 f539 2f94 32bc
000001c0: 7cca a2b8 df91 44bb 0d5a 4c39 4f11 083a
000001d0: 1f61 0ebb 0604 e3bb 347c bab9 debf a939
000001e0: a67c 56b8 2d1b 4eb9 4e78 cbb7 7b29 6237
000001f0: 4067 26bc 807c f7ba 98c8 013a fd25 e83a
00000200: eaa6 1fb9 b5a4 0fbc 2a04 eab9 e5ba eabb
00000210: 32e2 233a ea8b 8bbc 70f3 6539 77a4 0f3c
00000220: fc91 e3b5 0881 e1bb 5038 96b8 d4c1 473b
00000230: 7d00 143c 19b8 823a d4ba 603c 1c29 2c3a
00000240: 9abd b33b 98b2 1b37 a306 3837 4a40 5b37
00000250: a95a cb39 303d a3bb 0a83 e43b 6823 9dba
00000260: 1a54 5eb6 d70a 22b8 755d e0b8 be17 e038
00000270: 914f 1639 de96 e4ba fe2f 063b 7c83 9eb7
00000280: f11d 0eb9 2889 8c39 1fb5 e1b7 9fe1 1737
00000290: 3863 2cbb 25b3 9eba 29fa 943b dad9 1fba
000002a0: 6622 66bb 0887 9b3a 8bd9 03b8 7a7d 523a
000002b0: 36e4 beba c1b4 e33b d65e 20bc b525 1c3b
000002c0: 9605 26b8 938e 4fb9 7961 82b8 e16a e0ba
000002d0: fca7 dbbb b446 1939 a018 56bc 2b1d 1ab7
000002e0: d812 14b7 ea89 acb8 9712 e2bb 832e 923b
000002f0: 83c0 e1b8 2d69 6aba 18e4 e1bb f4cd d9bb
00000300: 28d1 a7bb 71b8 79b8 df27 55bc be11 be3a
00000310: 90e1 063a da06 b13b 38e0 f63b db9b 5b37
00000320: cd14 16ba 77bb 0ebc b680 35ba 1e16 603b
00000330: f8df a3b8 9d67 e4bc 6bac 68ba 6b46 9fb8
00000340: 8485 703b f95b da37 9aff 6b3b f85a 223b
00000350: e10d 643a baf3 613a af17 c138 ce33 2439
00000360: c618 d1b8 dfb9 cbba c9f4 bd37 6a1f 30b7
00000370: 01f4 acbc c662 883a 1d2c 003a 47f9 c238
00000380: 0b2d abba 969f 50bb 8666 9dbb 02c3 febb
00000390: b85c 143a 22b4 2a3c 13bc caba 9ecb 403a
000003a0: 7286 023c b5f5 adbb 788d de3a 6088 10b8
000003b0: 3dd1 c3b7 91f4 5038 2c56 2db7 ca7d e4bb
000003c0: e3f1 a338 7557 0f3a fc26 56bb 3648 d139
000003d0: 3814 9cba e6ef 4338 ae67 28b7 abb1 b439
000003e0: a9da 203a 6d6a 873c a8f3 673b 74f1 043c
000003f0: 0d2b 38bb 2a6c 82bc 6e31 38b8 a81c c638

bias f4 [256]
-0.044542927 -0.04215793 -0.051924154 -0.02719315 -0.05779297 -0.05484703 -0.03550016 -0.01981308
-0.020831678 -0.027326267 -0.0673696 -0.07407811 -0.03969424 -0.027834168 -0.1700746 -0.057523604
-0.014207436 -0.10646089 -0.025500106 -0.046807386 -0.22327222 -0.036749236 -0.0158052 0.16020954
-0.03098221 -0.041635565 -0.025808131 -0.022684861 -0.28443164 -0.030498326 -0.028922323 -0.02359367
-0.030579463 -0.048597872 -0.06322298 -0.040475693 -0.036065876 -0.031128459 -0.058169186 -0.017546132
-0.044610802 0.022123527 -0.0481125 -0.041573707 0.21319707 -0.049514428 -0.034521468 -0.026004601
-0.054951005 -0.034482837 0.31467313 -0.029141724 -0.01867788 -0.024559371 -0.01057188 -0.05870523
-0.1317168 -0.020496687 -0.035536576 0.005038365 -0.013414267 -0.01993295 -0.022277763 -0.045127753
-0.024298096 -0.03695389 0.28796995 -0.031328656 -0.0065407706 -0.028035112 -0.043657612 -0.37062156
-0.03782799 -0.0087455325 -0.04394997 -0.012658304 -0.022992253 -0.030284455 -0.10011558 -0.048953883
-0.037700914 -0.06744401 -0.061942764 -0.056622956 -0.010433482 -0.03686043 -0.020387081 -0.03262552
-0.13340767 -0.03590897 -0.056846313 -0.02818822 -0.0384966 -0.039118137 -0.085829556 -0.020652018
0.3158922 -0.025797905 -0.04283255 -0.065706424 -0.047272358 -0.03272207 -0.15671074 0.14587857
-0.0477785 -0.034111645 -0.014628045 -0.041335296 -0.022656007 -0.050052825 -0.03984878 -0.015122834
0.14248823 -0.04412702 -0.052222732 -0.00063074427 -0.03243136 -0.069252506 -0.05002704 -0.043797344
-0.0529686 -0.04505357 -0.0136081865 -0.032302957 -0.012756636 -0.06108647 -0.028934715 -0.05075436
-0.05833912 -0.018416582 -0.019011514 0.017172439 -0.039096627 -0.03266854 -0.04686243 -0.42588052
-0.45561346 -0.058569238 -0.5481489 -0.06370855 -0.04133887 -0.042562835 -0.031360645 -0.043655686
-0.056451257 -0.02481118 -0.030542355 -0.016756453 -0.014828256 -0.025431072 -0.5021194 -0.023682136
-0.19199786 -0.016433656 -0.04251759 0.31963718 -0.045861386 -0.044531945 -0.0452117 -0.027365651
-0.05619019 0.039808337 -0.08174466 -0.037431903 -0.033136226 0.27495092 -0.45074552 -0.048517257
-0.04070123 -0.03855771 -0.025209095 -0.0992633 -0.26415238 -0.0193795 -0.04188603 -0.03432437
-0.04853783 -0.04685819 -0.025892638 -0.032329842 -0.1215866 0.21683614 0.096348874 -0.014732274
-0.07776985 -0.03727634 -0.07840546 -0.052291576 -0.05004746 -0.037525598 -0.06367131 -0.11048538
-0.050798565 -0.038995914 -0.01296161 0.108568914 0.17427255 -0.021544687 -0.057013966 -0.056414243
-0.058000505 -0.044216268 -0.028703053 -0.049306255 -0.0563463 -0.006571737 -0.077070884 -0.031986833
-0.044506907 -0.043616794 -0.017543804 -0.05088766 -0.013980549 -0.043245565 -0.13879463 -0.04274189
-0.042065736 -0.056106906 -0.037386443 -0.048657697 -0.26798 0.19266294 0.10967823 -0.34751287
-0.047458265 -0.054260105 -0.28509402 0.10846114 -0.06109118 -0.062114205 -0.0397906 -0.027304115
-0.029537722 -0.02673302 -0.02544156 -0.14441371 0.085397035 -0.2799135 -0.05174184 0.08019558
-0.029809115 -0.019433029 -0.035157602 -0.01659673 -0.033248562 -0.060231872 -0.018789716 -0.017094312
-0.052151643 -0.016876139 -0.06904482 -0.07321325 -0.030741865 0.13159141 -0.14693557 -0.031200074
00000000: a572 36bd cbad 2cbd 6cae 54bd 2bc4 debc
00000010: 52b8 6cbd 48a7 60bd 9e68 11bd 0a4f a2bc
00000020: 32a7 aabc 56db dfbc 13f9 89bd 44b6 97bd
00000030: 6d96 22bd 7b04 e4bc 0928 2ebe df9d 6bbd
00000040: 4ec6 68bc 2b08 dabd 99e5 d0bc 1ab9 3fbd
00000050: 79a1 64be 5e86 16bd e879 81bc f80d 243e
00000060: 67ce fdbc 0e8a 2abd 936b d3bc 9ad5 b9bc
00000070: 06a1 91be a0d7 f9bc 82ee ecbc 8347 c1bc
00000080: c881 fabc 900e 47bd 0d7b 81bd d7c9 25bd
00000090: d0b9 13bd 1c01 ffbc d042 6ebd e8bc 8fbc
000000a0: d1b9 36bd 663c b53c 9d11 45bd 3149 2abd
000000b0: 5550 5a3e a4cf 4abd 6266 0dbd 9a07 d5bc
000000c0: 4e14 61bd e03d 0dbd d61c a13e a0ba eebc
000000d0: 5a02 99bc bc30 c9bc ae35 2dbc e574 70bd
000000e0: c5e0 06be abe8 a7bc cd8e 11bd de18 a53b
000000f0: 84c7 5bbc 6d4a a3bc db7f b6bc e1d7 38bd
00000100: cd0c c7bc f65c 17bd cc70 933e 7a52 00bd
00000110: f653 d6bb e4a9 e5bc 53d2 32bd 1cc2 bdbe
00000120: 86f1 1abd 6c49 0fbc e204 34bd c664 4fbc
00000130: 405a bcbc 1b17 f8bc 6609 cdbd de83 48bd
00000140: 466c 1abd 1620 8abd b2b7 7dbd 79ed 67bd
00000150: 32f1 2abc f6fa 16bd cf02 a7bc 56a2 05bd
00000160: 059c 08be 4915 13bd aed7 68bd fbea e6bc
00000170: 9cae 1dbd 573a 20bd 68c7 afbd 6c2e a9bc
00000180: 9fbc a13e 2156 d3bc 2f71 2fbd 1791 86bd
00000190: a9a0 41bd 9407 06bd c878 20be 3161 153e
000001a0: 63b3 43bd a7b8 0bbd 78aa 6fbc 334f 29bd
000001b0: 1799 b9bc 3104 4dbd 7938 23bd c3c5 77bc
000001c0: 6fe8 113e 89be 34bd 81e7 55bd 8858 25ba
000001d0: bfd6 04bd 42d4 8dbd 27e9 4cbd d864 33bd
000001e0: 9af5 58bd 188a 38bd dff4 5ebc 1b50 04bd
000001f0: 3601 51bc ce35 7abd 7f08 edbc cee3 4fbd
00000200: 00f5 6ebd 5fde 96bc 09be 9bbc 37ad 8c3c
00000210: c923 20bd 72cf 05bd d2f2 3fbd 030d dabe
00000220: 2b46 e9be 4ce6 6fbd 7c53 0cbf a179 82bd
00000230: f252 29bd 5e56 2ebd 0574 00bd 4ed0 32bd
00000240: 6f39 67bd d140 cbbc f633 fabc d444 89bc
00000250: 37f2 72bc d354 d0bc e68a 00bf 0a01 c2bc
00000260: 169b 44be e09f 86bc ed26 2ebd 7ca7 a33e
00000270: 26d9 3bbd 2167 36bd e72f 39bd ee2d e0bc
00000280: af27 66bd 110e 233d bf69 a7bd 3252 19bd
00000290: dab9 07bd 5ec6 8c3e 1ec8 e6be 08ba 46bd
000002a0: 55b6 26bd b0ee 1dbd 4e83 cebc 8f4a cbbd
000002b0: fb3e 87be c2c1 9ebc b090 2bbd b697 0cbd
000002c0: 9bcf 46bd 60ee 3fbd cc1c d4bc 4c6c 04bd
000002d0: 6502 f9bd 4b0a 5e3e 8f52 c53d a35f 71bc
000002e0: cd45 9fbd 13af 18bd 0b93 a0bd b12f 56bd
000002f0: 91fe 4cbd 71b4 19bd 1b66 82bd 2946 e2bd
00000300: 2812 50bd 2eba 1fbd ef5c 54bc 6159 de3d
00000310: 8174 323e 7c7e b0bc 7a87 69bd 9f12 67bd
00000320: f091 6dbd 1e1c 35bd aa22 ebbc 5bf5 49bd
00000330: 61cb 66bd ba57 d7bb 57d7 9dbd a004 03bd
00000340: e04c 36bd 86a7 32bd 06b8 8fbc 946f 50bd
00000350: ac0e 65bc 4322 31bd 2e20 0ebe 1f12 2fbd
00000360: 1f4d 2cbd 5bd0 65bd 8722 19bd 4b4d 47bd
00000370: ad34 89be 6f49 453e fb9e e03d 35ed b1be
00000380: 9963 42bd d83f 5ebd d8f7 91be e020 de3d
00000390: bf3a 7abd 776b 7ebd 78fb 22bd e1ac dfbc
000003a0: 18f9 f1bc 35ff dabc d26a d0bc 30e1 13be
000003b0: a4e4 ae3d d350 8fbe 40ef 53bd 953d a43d
000003c0: 3f32 f4bc 0432 9fbc 6b01 10bd def5 87bc
000003d0: a52f 08bd b2b5 76bd e4ec 99bc 5f09 8cbc
000003e0: f69c 55bd d43f 8abc 5f67 8dbd d4f0 95bd
000003f0: 5dd6 fbbc e6bf 063e 4776 16be 4c97 ffbc

weight f4 [128, 256]
0.0042596348 0.0016286713 0.0015509432 -0.012439933 0.0052060685 0.0015353534 0.001737694 0.0031371475
0.0017972477 0.0015837926 0.004244453 -0.035184857 0.003191929 0.0031426009 0.03687774 0.0030692946
0.001967847 -0.012624158 0.0023525958 0.0028528771 -0.020596687 0.0026407817 0.0019283064 -0.027872201
0.0029273531 0.002904579 -0.0050507416 0.003602272 -0.014546102 0.002873234 0.0026662857 0.005036579
0.001015782 -0.009408093 -0.004112357 -0.00011815224 0.0028754817 -0.0036378703 0.0036655776 0.0015355244
0.004739452 -0.023501461 -0.020002322 0.003322724 0.0006924353 0.0025540232 -0.0013612638 0.0026276077
0.0026688299 -0.002777928 -0.019060101 0.0027067407 0.002299878 -0.011382339 0.0022676578 -0.0057681557
-0.04189664 0.002837718 0.0025001543 -0.015107205 0.0038084344 -0.0023681864 0.0316795 0.00420427
0.002273093 0.0015552784 -0.0041528833 0.0024790552 -0.011367342 0.00296239 0.0014347888 -0.01349542
0.003000798 0.0014819226 0.003053202 0.0017989409 0.0024126861 0.0031105417 -0.010294307 0.0023227227
0.0025546583 0.0015652602 -0.040881176 0.0024591084 0.0016483264 0.002331376 0.0017925146 -0.0033822272
-0.05914382 0.0036433153 -0.025909185 0.0021040838 0.0034191047 0.0024597226 -0.026735326 0.0016618225
-0.004908807 0.0033112552 0.002768842 0.0030275662 0.0038630469 0.0037067253 0.022301402 -0.039912943
0.0053096693 -0.008068646 0.0022093272 0.0039062428 0.0017659108 0.003118913 0.0016420609 0.0028260075
-0.02481508 0.002025462 0.0015247866 -0.04107434 0.0027951999 -0.021738844 0.0030748365 0.0017912192
0.0038386101 0.0029914405 0.0010583954 -0.011669587 0.0011465882 0.004395529 0.0031205453 0.0047707683
0.001890756 0.0016131693 0.0021333124 -0.055264056 -0.019407324 0.0031886087 0.004292393 -0.022426693
-0.0015409681 0.0012911342 -0.02381278 0.0035960823 -0.023593744 0.0029217112 0.0015187456 0.002240942
0.0033816383 0.0034184696 0.0033244449 -0.017290954 0.002260059 -0.00548606 -0.013783645 0.0036067064
0.012324572 -0.026887365 -0.0052943607 -0.0061783977 0.0020155206 0.0009680653 0.018070038 0.0021830008
0.04581313 0.007225882 -0.02277261 0.013779944 -0.015170986 0.004189325 -0.01838361 -0.019971546
0.0027920965 0.0033938405 0.0012766776 0.0082749985 0.003030101 0.0022372506 0.003697865 0.036378838
0.0024582078 -0.0017093865 -0.004306743 0.002403692 -0.0013753573 -0.033946764 0.031792037 0.003030168
-0.02420143 -0.012978942 -0.0020991934 0.0013108511 -0.01777523 0.0044109845 0.028587885 -0.007271383
0.04538333 0.0019997528 -0.009819616 -0.00033948087 -0.018077506 0.0038212112 0.0032242388 0.0036852004
0.0019292913 0.0031493676 0.0028785525 -0.03631379 -0.06155615 0.001833426 -0.017902479 0.002465247
0.0038646439 -0.0034075566 -0.017922193 -0.011064709 0.014060451 -0.013772928 -0.008865518 0.0018457855
0.004273832 0.004483567 0.003367964 0.0029975115 -0.0300156 -0.012224296 -0.031421386 0.005973965
0.003228906 0.0040857224 -0.010385973 -0.029805874 0.00372026 0.004501608 0.0035046637 0.0029620929
0.0026239909 0.002167202 0.002070743 -0.030787446 0.0052997507 0.0023464197 0.00665495 -0.012714272
-0.022005292 -0.0029775891 0.003335122 -0.006468279 0.0031142677 0.0037963514 0.0023125645 0.002721989
-0.003672446 0.0013087795 0.0033687495 0.0027744244 0.0017548403 -0.010652631 -0.0078576775 0.0027295647
00000000: 6894 8b3b 2479 d53a 0549 cb3a dcd0 4bbc
00000010: ab97 aa3b e93d c93a 56c3 e33a 9a98 4d3b
00000020: a091 eb3a 4397 cf3a 0d15 8b3b ff1d 10bd
00000030: af2f 513b 18f4 4d3b 1d0d 173d 3826 493b
00000040: fff6 003b 8ed5 4ebc 022e 1a3b 56f7 3a3b
00000050: 62ba a8bc f710 2d3b 3abf fc3a 3e54 e4bc
00000060: d6d8 3f3b c05a 3e3b b180 a5bb 1814 6c3b
00000070: c652 6ebc de4c 3c3b dabc 2e3b e309 a53b
00000080: fd23 853a 6724 1abc f3c0 86bb 80c8 f7b8
00000090: 9472 3c3b 5669 6ebb 303a 703b a643 c93a
000000a0: 684d 9b3b 2386 c0bc e9db a3bc 0fc2 593b
000000b0: 8c84 353a 6661 273b 6f6c b2ba f133 2c3b
000000c0: 89e7 2e3b e60d 36bb ee23 9cbc 9363 313b
000000d0: 8db9 163b fd7c 3abc fc9c 143b cc02 bdbb
000000e0: d09b 2bbd 02f9 393b a1d9 233b 3684 77bc
000000f0: ed96 793b 9333 1bbb 5dc2 013d f9c3 893b
00000100: 2cf8 143b 7cda cb3a e914 88bb a577 223b
00000110: 173e 3abc a824 423b 860f bc3a e51b 5dbc
00000120: 09a9 443b 123d c23a 3b18 483b 71ca eb3a
00000130: 281e 1e3b 3bda 4b3b 74a9 28bc d238 183b
00000140: 0e6c 273b 6b29 cd3a 0573 27bd fe28 213b
00000150: a80c d83a 00ca 183b cff2 ea3a 5ba8 5dbb
00000160: ca40 72bd b0c4 6e3b 803f d4bc abe4 093b
00000170: 0f13 603b 4c33 213b 0b04 dbbc 83d1 d93a
00000180: 0fda a0bb a501 593b 7675 353b 226a 463b
00000190: 2c2b 7d3b 88ec 723b 6eb1 b63c c17b 23bd
000001a0: bcfc ad3b 5b32 04bc 5cca 103b e1ff 7f3b
000001b0: 2276 e73a ad66 4c3b 6c3a d73a 8a34 393b
000001c0: ff48 cbbc 9dbd 043b 59db c73a 913d 28bd
000001d0: ac2f 373b a915 b2bc 3283 493b 58c7 ea3a
000001e0: 3191 7b3b 0b0c 443b dbb9 8a3a cc31 3fbc
000001f0: 1e49 963a 5f08 903b 1082 4c3b 1b54 9c3b
00000200: 3ed3 f73a fb70 d33a 0bcf 0b3b 905c 62bd
00000210: 1cfc 9ebc faf7 503b 34a7 8c3b 2fb8 b7bc
00000220: 4ffa c9ba 463b a93a 0513 c3bc 40ac 6b3b
00000230: ab47 c1bc 2e7a 3f3b a510 c73a c5dc 123b
00000240: 7a9e 5d3b 6708 603b eede 593b c2a5 8dbc
00000250: 7f1d 143b 68c4 b3bb ccd4 61bc 7e5e 6c3b
00000260: 00ed 493c e442 dcbc 517c adbb 2874 cabb
00000270: d316 043b c3c5 7d3a 9e07 943c ad10 0f3b
00000280: 8ca6 3b3d 17c7 ec3b a08d babc 46c5 613c
00000290: ba8f 78bc 9b46 893b 3999 96bc 5e9b a3bc
000002a0: 9bfb 363b 326b 5e3b 3156 a73a dc93 073c
000002b0: a994 463b d69e 123b e157 723b fa01 153d
000002c0: e219 213b 7e0d e0ba 941f 8dbb 4387 1d3b
000002d0: 5545 b4ba c30b 0bbd 5e38 023d c895 463b
000002e0: 1442 c6bc a1a5 54bc 9f92 09bb ddd0 ab3a
000002f0: 5c9d 91bc 058a 903b 2431 ea3c c844 eebb
00000300: dfe3 393d 490e 033b 74e2 20bc 5afc b1b9
00000310: 4717 94bc 496d 7a3b c04d 533b 6783 713b
00000320: 46e0 fc3a 9f65 4e3b 19a6 3c3b c5bd 14bd
00000330: 4d22 7cbd 914f f03a 38a8 92bc fb8f 213b
00000340: f745 7d3b 5051 5fbb 90d1 92bc c148 35bc
00000350: ce5d 663c d9a7 61bc ad40 11bc 49ee f13a
00000360: 800b 8c3b e3ea 923b 0fb9 5c3b e671 443b
00000370: 47e3 f5bc 6a48 48bc b6b3 00bd 40c1 c33b
00000380: 0e9c 533b 86e1 853b ee29 2abc 732b f4bc
00000390: 9bcf 733b 3a82 933b 80ae 653b ac1f 423b
000003a0: 43f7 2b3b 9e07 0e3b 4db5 073b f435 fcbc
000003b0: 88a9 ad3b 64c6 193b c411 da3b 864f 50bc
000003c0: 7144 b4bc a823 43bb 1092 5a3b dbf3 d3bb
000003d0: be18 4c3b 35cc 783b 658e 173b 6663 323b
000003e0: 6bad 70bb 5a8b ab3a 3dc6 5c3b 1ed3 353b
000003f0: ab02 e63a 5f88 2ebc 7dbd 00bc 7fe2 323b

bias f4 [128]
-0.028924748 -0.04763559 -0.020128423 -0.07217409 -0.054774486 -0.043344937 -0.028873023 -0.023179539
-0.41290784 -0.102945685 -0.02310308 -0.11431959 0.37033108 -0.07469432 -0.056018945 -0.049272038
-0.055817034 -0.06978164 -0.06230685 -0.0545451 -0.030433018 -0.04179777 -0.049319655 -0.56163776
-0.04732226 -0.10179949 -0.13986014 -0.06852464 -0.024422336 -0.030625423 -0.036264252 -0.06905099
-0.08103351 -0.12367758 -0.04583003 0.41866803 0.11138433 -0.04795288 -0.09803994 -0.049460795
-0.03681773 -0.06524296 -0.050036374 -0.04109156 0.022951841 0.55258846 -0.06358129 -0.05116014
-0.07085666 -0.05368998 -0.030769031 -0.040913306 0.22966932 -0.06413184 -0.056086045 -0.013741995
-0.07175461 -0.06993154 0.38674498 -0.038079325 -0.040872037 0.37096527 -0.043585207 -0.03977989
0.031194648 -0.034799546 -0.04997035 -0.031961117 -0.035651304 -0.016978698 -0.050574336 -0.019317893
-0.062251408 -0.0474291 -0.08094901 -0.04423206 -0.052816696 -0.053629503 -0.057315007 -0.40019867
0.19000186 -0.38538858 -0.03495589 -0.11756006 -0.045153875 -0.0063007753 -0.041478768 -0.025337635
0.09228899 -0.08281753 -0.08000085 -0.036288608 0.23746148 -0.053287253 -0.057094134 0.0011825381
-0.030521391 -0.064078815 -0.03614396 -0.027477063 -0.024210293 -0.042317484 -0.03485575 -0.06775073
-0.045698635 -0.05673992 -0.044403978 0.012337846 0.4778003 -0.043332685 -0.025000973 0.14510885
0.32808307 -0.08368605 -0.24003693 -0.05044723 -0.022489825 -0.011249986 -0.028489947 -0.0608405
-0.04697957 -0.05586869 -0.0065482156 -0.25410846 -0.041829877 -0.07367052 -0.026043091 -0.016035406
00000000: 98f3 ecbc 891d 43bd 5de4 a4bc 02d0 93bd
00000010: 365b 60bd 768a 31bd 1e87 ecbc 04e3 bdbc
00000020: a868 d3be 30d5 d2bd ac42 bdbc 6420 eabd
00000030: 099c bd3e 56f9 98bd 1f74 65bd 7ad1 49bd
00000040: 67a0 64bd ade9 8ebd 7835 7fbd af6a 5fbd
00000050: aa4e f9bc 2334 2bbd 6803 4abd 7ec7 0fbf
00000060: fcd4 41bd 407c d0bd 7f37 0fbe a556 8cbd
00000070: 5a11 c8bc 2be2 fabc d389 14bd 9b6a 8dbd
00000080: e6f4 a5bd ac4a fdbd 45b8 3bbd a85b d63e
00000090: 781d e43d 3d6a 44bd 2ac9 c8bd 6797 4abd
000000a0: 30ce 16bd 1a9e 85bd f1f2 4cbd a04f 28bd
000000b0: 8005 bc3c 7076 0d3f e836 82bd 4c8d 51bd
000000c0: 4c1d 91bd 06ea 5bbd 560f fcbc b694 27bd
000000d0: 6f2e 6b3e 8e57 83bd 7bba 65bd 1b26 61bc
000000e0: 15f4 92bd 4438 8fbd 7003 c63e 11f9 1bbd
000000f0: 7069 27bd 29ef bd3e 6786 32bd 3df0 22bd
00000100: eb8b ff3c f889 0ebd b6ad 4cbd a9e9 02bd
00000110: 1a07 12bd e916 8bbc 0927 4fbd 8f40 9ebc
00000120: 55fb 7ebd 0445 42bd 98c8 a5bd ad2c 35bd
00000130: 5256 58bd 9caa 5bbd 24c3 6abd d7e6 ccbe
00000140: d98f 423e a751 c5be e82d 0fbd 54c3 f0bd
00000150: 45f3 38bd bc76 cebb a4e5 29bd df90 cfbc
00000160: 0302 bd3d 3d9c a9bd 7cd7 a3bd 5da3 14bd
00000170: 1a29 733e bc43 5abd 8adb 69bd 65ff 9a3a
00000180: ff07 fabc c13b 83bd b00b 14bd 9417 e1bc
00000190: aa54 c6bc 1955 2dbd e7c4 0ebd e5c0 8abd
000001a0: 7e2e 3bbd 1e68 68bd f2e0 35bd ad24 4a3c
000001b0: 3ea2 f43e 9d7d 31bd d7ce ccbc 6a97 143e
000001c0: 81fa a73e 9763 abbd 3ecc 75be c1a1 4ebd
000001d0: 953c b8bc dc51 38bc c063 e9bc e333 79bd
000001e0: a66d 40bd 91d6 64bd 6a92 d6bb 811a 82be
000001f0: ce55 2bbd 92e0 96bd 5258 d5bc af5c 83bc

weight f4 [64, 128]
-0.01517594 -0.0053427704 -0.28619972 -0.01564799 0.0044281627 -0.007335353 -0.0068945396 0.010393846
0.46946067 0.025488552 -0.002688029 0.015185685 0.08548066 0.017175747 -0.00021949725 -0.006080453
0.020446094 -0.0026472951 0.0049709924 -0.0013992103 -0.0071459324 0.0039157323 -0.016638542 0.33784524
0.017291501 -0.23636618 -0.00037716178 -0.0039263493 -0.0003483869 -7.5881035e-06 0.0076121916 -0.0045906445
0.08243319 0.04717382 -0.007803779 0.021680284 -0.14135559 -0.016982794 -0.18047598 0.012779552
-0.0066893557 0.009252639 -0.011517354 0.017445244 -0.48436353 -0.17573786 0.0075249313 0.010968902
0.021686854 0.013579722 0.010643844 -0.021392977 -0.41560087 -0.011700363 0.03749055 -0.014819997
0.037857957 -0.010617033 -0.3762505 -0.0021815381 0.0040005893 -0.40896243 0.005753597 -0.00091809954
-0.07755176 -0.006146946 -0.02482421 0.0031036274 -0.027173715 0.013151361 0.0006185816 -0.0027775967
-0.0058239275 0.009095599 0.03738916 0.00085298304 -0.0019508806 -0.0029666012 -0.0015282967 0.29672945
-0.23885626 0.05480568 -0.009269021 -0.01480984 -0.019150505 -0.00053996994 -0.022027608 -0.0075754765
0.051499043 -0.0021403758 0.2094826 0.01494536 -0.18622476 -0.009893374 0.009153308 -0.011866538
0.013315121 0.017826723 -0.012285115 0.003448171 0.0072957776 0.035646208 0.021262025 0.02181565
0.016092472 -0.011068342 -0.017795619 -0.1846673 0.04454706 -0.014128498 0.0025225468 0.0912469
-0.20026043 0.0042079007 -0.30405778 0.013898736 -0.006624573 0.010224392 -0.029715888 0.0028802315
0.01085277 -0.0060428744 0.003302808 -0.094766214 -0.006916048 -0.005781651 -0.002346739 -0.002049984
-7.826726e-05 -7.466992e-05 0.00014356142 -1.9162182e-05 -2.0578582e-05 -4.6463534e-05 -4.912983e-06 0.0001952236
-0.00036160822 -7.075191e-05 -7.822469e-06 0.00020325114 -0.010691197 -1.5607877e-05 -1.8475748e-05 -7.129467e-06
0.0047331685 -8.30847e-05 -2.1901042e-05 -1.5794396e-05 -7.653244e-06 -1.10035935e-05 -6.279748e-06 -0.0003475021
-4.542909e-05 -0.004760034 0.00024631314 6.91385e-05 -5.124507e-06 -3.569164e-05 -1.7045615e-05 -2.6167668e-06
-0.0013246718 -4.1434203e-05 -3.8891045e-05 -0.00055774645 -0.0001211028 -1.0357064e-05 -0.0016138626 -2.4967914e-05
-3.700313e-05 -0.0002789267 -0.00020558061 -9.959953e-06 0.0042935354 -0.0048504616 -2.6007776e-05 -0.0001680343
-0.0003061972 -1.9311065e-05 -1.7944867e-05 -9.609887e-06 -0.0014120849 -1.5085285e-05 -2.90551e-05 0.00087748986
-3.2299868e-05 -2.4677696e-05 0.0030711344 -2.7165548e-05 -7.240463e-06 -0.0004862462 8.0308266e-05 -7.772884e-06
6.295066e-05 -3.5472685e-06 -6.0918087e-06 -6.0844064e-05 -6.7272424e-08 -0.001291263 -4.294802e-05 -3.1597162e-06
-5.111396e-07 -3.7835922e-05 0.00014808492 -2.1248925e-05 -1.4215441e-05 -8.135285e-06 -0.00012603842 -0.009821755
-0.007162954 1.4260966e-05 0.00012400231 -5.2258973e-05 -8.19072e-06 -6.8361205e-06 -1.4081835e-05 -3.459532e-06
-0.0035621012 -3.995932e-06 -0.00044029427 -9.125799e-05 -0.0004270315 0.00014871318 -1.0251814e-05 4.584094e-06
-1.0477583e-05 -3.6188118e-05 0.0027508107 -5.1137367e-06 -2.0538295e-05 -1.06672105e-05 -2.012268e-05 -1.9579926e-05
1.4526537e-07 -2.199768e-05 0.00022199427 -0.0048378846 -0.009105488 -3.0696992e-05 0.00013555179 0.002008059
-0.0054136873 2.2446862e-05 0.0001786201 0.0004110251 -0.0006432117 -7.913918e-06 -0.0037382871 -0.00015114284
5.5372177e-05 -0.000268942 -6.8780787e-06 -0.00092264183 -2.0488838e-05 0.00014171547 -1.581292e-05 -7.5593994e-06
00000000: 81a4 78bc 6812 afbb c588 92be 3730 80bc
00000010: 1f1a 913b 675d f0bb 97eb e1bb f34a 2a3c
00000020: 265d f03e 5ecd d03c a529 30bb 61cd 783c
00000030: 7c10 af3d 27b4 8c3c d828 66b9 893e c7bb
00000040: 917e a73c 3e7e 2dbb b5e3 a23b b565 b7ba
00000050: 6d28 eabb 8b4f 803b 8d4d 88bc 0dfa ac3e
00000060: e8a6 8d3c fa09 72be ccbd c5b9 9ba8 80bb
00000070: b3a7 b6b9 509d feb6 b16f f93b 1e6d 96bb
00000080: bbd2 a83d 5639 413d d8b6 ffbb da9a b13c
00000090: 85bf 10be 801f 8bbc b2ce 38be 5361 513c
000000a0: 6232 dbbb 6198 173c 49b3 3cbc 54e9 8e3c
000000b0: 7ffe f7be a0f4 33be b393 f63b e9b6 333c
000000c0: a1a8 b13c 7b7d 5e3c 8463 2e3c 5340 afbc
000000d0: a3c9 d4be e1b2 3fbc b18f 193d 93cf 72bc
000000e0: f210 1b3d 10f3 2dbc e8a3 c0be 23f8 0ebb
000000f0: 6017 833b 8663 d1be ab88 bc3b 9eac 70ba
00000100: 75d3 9ebd 526c c9bb 245c cbbc 3a66 4b3b
00000110: 699b debc ce78 573c 4f28 223a 5708 36bb
00000120: a5d6 bebb b505 153c 6025 193d b99a 5f3a
00000130: b1b4 ffba 4f6b 42bb 2151 c8ba ecec 973e
00000140: bc96 74be ec7b 603d 18dd 17bc f9a4 72bc
00000150: 85e1 9cbc c58c 0dba 3e73 b4bc b43b f8bb
00000160: a9f0 523d 8c45 0cbb 9b82 563e 62dd 743c
00000170: b4b1 3ebe d117 22bc c2f7 153c de6b 42bc
00000180: aa27 5a3c 5909 923c 8247 49bc b6fa 613b
00000190: 6b11 ef3b c201 123d b32d ae3c bcb6 b23c
000001a0: 5cd4 833c fe57 35bc 1ec8 91bc 6d19 3dbe
000001b0: fa76 363d 377b 67bc 5051 253b a8df ba3d
000001c0: 1211 4dbe 6ee2 893b 76ad 9bbe 86b7 633c
000001d0: f212 d9bb 3584 273c bc6e f3bc 44c2 3c3b
000001e0: d1cf 313c 4e03 c6bb ec73 583b ca14 c2bd
000001f0: 04a0 e2bb 0174 bdbb bfcb 19bb 0659 06bb
00000200: 6a23 a4b8 1c98 9cb8 fa88 1639 79be a0b7
00000210: 2ba0 acb7 d7e1 42b8 34da a4b6 f0b4 4c39
00000220: 3c96 bdb9 a460 94b8 403d 03b7 d01f 5539
00000230: 212a 2fbc a9ed 82b7 5efc 9ab7 a839 efb6
00000240: b218 9b3b c23d aeb8 21b8 b7b7 357e 84b7
00000250: 6f66 00b7 139c 38b7 a0b6 d2b6 f130 b6b9
00000260: 1d8b 3eb8 0ffa 9bbb 9723 8139 73fe 9038
00000270: 2ef3 abb6 9bb3 15b8 2efd 8eb7 b69b 2fb6
00000280: 9ca0 adba a3c9 2db8 f11e 23b8 bb35 12ba
00000290: 92f8 fdb8 40c3 2db7 3e88 d3ba 3072 d1b7
000002a0: cf33 1bb8 e83c 92b9 2091 57b9 ac19 27b7
000002b0: c9b0 8c3b 9ff0 9ebb 462b dab7 5d32 30b9
000002c0: 1889 a0b9 32fe a1b7 4f88 96b7 263a 21b7
000002d0: b515 b9ba ce16 7db7 5abb f3b7 5907 663a
000002e0: b879 07b8 f302 cfb7 1645 493b 92e1 e3b7
000002f0: 1bf3 f2b6 dcee feb9 2c6b a838 4868 02b7
00000300: 6104 8438 9c0d 6eb6 3d68 ccb6 d132 7fb8
00000310: 6877 90b3 993f a9ba 1623 34b8 830b 54b6
00000320: 3f35 09b5 03b2 1eb8 3e47 1b39 b83f b2b7
00000330: db7e 6eb7 c87c 08b7 2e29 04b9 6deb 20bc
00000340: 37b7 eabb 6242 6f37 9e06 0239 a530 5bb8
00000350: e06a 09b7 d461 e5b6 0541 6cb7 4f2a 68b6
00000360: 2472 69bb cb14 86b6 4cd7 e6b9 c361 bfb8
00000370: 33e3 dfb9 e4ef 1b39 35ff 2bb7 11d1 9936
00000380: e0c8 2fb7 b2c8 17b8 f246 343b aa96 abb6
00000390: a749 acb7 52f7 32b7 20cd a8b7 923f a4b7
000003a0: 3efa 1b34 a887 b8b7 22c7 6839 1e87 9ebb
000003b0: 2f2f 15bc a5c0 00b8 e822 0e39 a499 033b
000003c0: 4d65 b1bb 454c bc37 f84b 3b39 db7e d739
000003d0: 359d 28ba 05c6 04b7 0dfe 74bb 197c 1eb9
000003e0: 6c3f 6838 c900 8db9 3fca e6b6 72dd 71ba
000003f0: 72df abb7 7599 1439 fda5 84b7 bfa6 fdb6

bias f4 [64]
-0.023147749 -0.011372045 -0.0053224973 -0.021029234 -0.008717396 -0.008105628 0.44811746 -0.027457401
-0.0011571334 -0.029159496 -0.022191316 -0.029532699 0.15504701 0.22923082 -0.047995176 -0.01951
-0.052723885 -0.016981144 -0.0321553 0.4911113 -0.029088015 0.26790577 0.18270051 -0.028069735
0.1273562 0.26175156 -0.023618849 0.009903098 -0.012121636 -0.003979389 -0.004972792 0.37116495
-0.0119938245 -0.0054255724 0.14786077 -0.073718034 0.28095388 -0.039463297 -0.0125946095 -0.048486166
-0.00092997943 -0.008803439 0.003648742 -0.008533047 -0.0034725685 0.0015474343 0.014257772 0.35341597
-0.00660678 -0.017391188 -0.022886284 0.17315328 0.3772538 0.15623505 -0.0029117796 -0.013867795
-0.036870595 -0.020439116 0.32819736 -0.021257998 0.2766021 -0.024467153 -0.02587128 0.022330781
00000000: 59a0 bdbc d051 3abc 5868 aebb 8045 acbc
00000010: 69d3 0ebc 78cd 04bc a76f e53e 58ee e0bc
00000020: f4aa 97ba e5df eebc 90ca b5bc 8fee f1bc
00000030: a5c4 1e3e 7cbb 6a3e 9796 44bd 6fd3 9fbc
00000040: 00f5 57bd 0a1c 8bbc 47b5 03bd f172 fb3e
00000050: fd49 eebc f22a 893e d815 3b3e 80f2 e5bc
00000060: aa69 023e 4d04 863e 517c c1bc 9b40 223c
00000070: d499 46bc 8965 82bb cef2 a2bb 5509 be3e
00000080: bf81 44bc 00c9 b1bb d068 173e 7bf9 96bd
00000090: 30d9 8f3e 44a4 21bd 9f59 4ebc 6e99 46bd
000000a0: ddc9 73ba 4d3c 10bc bc1f 6f3b 31ce 0bbc
000000b0: 0894 63bb 47d3 ca3a 6e99 693c f0f2 b43e
000000c0: b07d d8bb f777 8ebc 047c bbbc 184f 313e
000000d0: 6927 c13e 15fc 1f3e 8ed3 3ebb bf35 63bc
000000e0: 9f05 17bd ef6f a7bc 7c09 a83e 4125 aebc
000000f0: ca9e 8d3e 576f c8bc 02f0 d3bc 0bef b63c
