model/soccer_ai_model.pt (torch, 808854 bytes, 31 tensors)

weight f4 [512, 26]
00000000: 8a40 6280 d4c1 9093 60fa 1912 114f 8e93
00000010: 673c 0592 01e4 ce93 ae49 4e93 45a4 8593
00000020: b0ae 2293 c0b9 6591 c8e0 c413 2157 5093
00000030: 3066 7e93 4634 ad93 9cd2 1914 2aff a613
00000040: f803 a213 19e2 1113 cdf3 7613 cdf3 7613
00000050: eed3 e613 2157 5093 3066 7e93 9127 4693
00000060: 0ccc 4413 ad61 6a12 f142 3700 dbb5 b2ad
00000070: 90cd 8cad 2b00 cbad 7319 98ad c9f4 e22e
00000080: 127a 7dac 196a 822e 8422 112e 1687 0bad
00000090: f543 b7ae 9813 cdac 4c60 852e 9aad 92ad
000000a0: eb9c bfae da16 49ae 98aa 612e 4b38 67ad
000000b0: 23f7 492e 23f7 492e f2ac 1eae 9813 cdac
000000c0: 4c60 852e bcc2 822d 8537 c9ae 611d 342d
000000d0: 0227 8500 599c 1db7 d814 6bb7 b6c6 39b7
000000e0: 351c 76b7 a305 f137 abfc 48b7 3159 7638
000000f0: 2498 2236 ab94 be34 4ba3 8db8 1068 8eb7
00000100: d8fe 7038 1ca3 ddb7 790f 25b7 5052 3938
00000110: f725 66b8 447b 0138 54c9 af37 54c9 af37
00000120: 0a99 81b8 1068 8eb7 d8fe 7038 5a88 9036
00000130: 4132 6bb8 883f b437 2612 0400 cc0d ea2d
00000140: 7877 2e2d ca6b 152e 0a99 4b2d e2c0 dfae
00000150: a1b8 092d e604 43ae f6cf 8dae 7e20 592d
00000160: baae 932e 188f b02d a8c9 38ae f50e e42e
00000170: e50d bf2e 9fbf 712e 2f9d 89af d226 df2d
00000180: f6ac 2cae f6ac 2cae e67d 892e 188f b02d
00000190: a8c9 38ae 2c9a 14ae e65b 9e2e 5165 0dae
000001a0: ab3c 2a00 6ecd 1cb3 0033 77b0 de36 23b3
000001b0: 896c c2b1 4051 e0ad 3fad 40b3 db10 48b3
000001c0: 8afb 0634 1f1f 4bb3 a02a b833 f704 49b3
000001d0: 808c 54b3 7ba3 3833 1cb4 2bb1 da80 9232
000001e0: 409d a8b1 f9df 0833 0539 9b33 0539 9b33
000001f0: 4812 d233 f704 49b3 808c 54b3 f412 0eb3
00000200: ffe6 5233 1e03 91b2 b552 4d00 c5d0 ea2b
00000210: eec8 a3ab ef1c e02b c00b a5ab 1e53 192c
00000220: 1e03 bc2b b970 eb2b d260 ab2b 9ecd cbab
00000230: 602b 8aac f6ff b12b b89e 332c c2e3 762b
00000240: f9b0 b1ac b8dc 05ac 7c6d 27ad fb16 29ac
00000250: 7264 34ac 7264 34ac 58ce 48ac f6ff b12b
00000260: b89e 332c 1044 392c b2c5 56ac 2731 72ac
00000270: 97f5 7680 bd42 1ca6 3b5f 5526 32bf 2aa6
00000280: 7b8f 6b26 71e1 f227 3f43 daa6 d3bd 7e27
00000290: 8917 9f26 e31d 1ea6 fa6a 9da7 22d4 e9a6
000002a0: 1197 6627 9cba dba5 7b35 b3a7 5561 19a7
000002b0: 8d49 8c27 0d63 b8a6 e7e5 2c27 e7e5 2c27
000002c0: eafe 43a7 22d4 e9a6 1197 6627 36c1 2f26
000002d0: f1bb b8a7 06a5 3126 8a8f 8c81 c67b c4b0
000002e0: d3d2 87b0 f9eb ccb0 fd03 97b0 7b9f 7131
000002f0: 44ef cdaf 9d9c f830 183c 4830 c9dc 32b0
00000300: e8d3 d2b0 3826 f7af 8701 ea30 e089 122e
00000310: 4a24 50b1 e479 1fb1 27fd b030 58e3 042f
00000320: e571 1131 e571 1131 fc5c daaf 3826 f7af
00000330: 8701 ea30 088a 4aaf 0c79 f1b0 27a0 8db0
00000340: 3553 5800 6468 cc01 4cc2 7700 9b40 b001
00000350: e8e0 3100 9761 ad81 44f0 0300 3c47 f301
00000360: e135 0582 d2ba 5981 a5f7 0b82 48af 1901
00000370: 02fc 3802 ac87 5900 4cc9 e601 de2b 9d01
00000380: 120e ca82 c208 8101 7878 2482 7878 2482
00000390: b4e2 5e00 48af 1901 02fc 3802 c869 9780
000003a0: 7e46 9d81 f8fb 5080 f5f5 5680 33fb 173e
000003b0: 4013 96bd 56c8 ce3d 4a99 80bd 832f 923d
000003c0: 644e d03e b6f5 e53c 5b65 ef3c 0252 a03d
000003d0: 94d9 60be 72ec e73e 8a44 a63d 47df 1ebe
000003e0: 4a1d d63d fd38 08bd ceba 85bc 8147 4a3d
000003f0: 61c7 1a3d 6003 7f3d 9e57 853e a75a e73e
-9.023031e-39 -3.654184e-27 4.85869e-28 -3.5923805e-27 -4.204185e-28 -5.222654e-27 -2.6037182e-27 -3.3735902e-27
-2.0533402e-27 -1.8122153e-28 4.9699007e-27 -2.6296249e-27 -3.210969e-27 -4.3722885e-27 7.766061e-27 4.2155902e-27
4.0898463e-27 1.8413048e-27 3.1169768e-27 3.1169768e-27 5.826914e-27 -2.6296249e-27 -3.210969e-27 -2.5010621e-27
2.483928e-27 7.3957775e-28 5.074966e-39 -2.0317017e-11 -1.6007445e-11 -2.3078503e-11 -1.7291701e-11 1.0320773e-10
-3.6021225e-12 5.930562e-11 3.299984e-11 -7.93123e-12 -8.333948e-11 -5.8286258e-12 6.0652455e-11 -1.6675373e-11
-8.7135486e-11 -4.5722405e-11 5.1310595e-11 -1.3143329e-11 4.592161e-11 4.592161e-11 -3.6078647e-11 -5.8286258e-12
6.0652455e-11 1.4865768e-11 -9.150284e-11 1.0238339e-11 1.2228114e-38 -9.394332e-06 -1.4011945e-05 -1.1073125e-05
-1.466931e-05 2.8732064e-05 -1.1979758e-05 5.8734036e-05 2.4228439e-06 3.5498428e-07 -6.7538196e-05 -1.6976177e-05
5.74578e-05 -2.6421207e-05 -9.838369e-06 4.4184097e-05 -5.487163e-05 3.0870797e-05 2.0955376e-05 2.0955376e-05
-6.179705e-05 -1.6976177e-05 5.74578e-05 4.307408e-06 -5.607517e-05 2.1487256e-05 3.73852e-40 2.6608847e-11
9.917282e-12 3.3974414e-11 1.15731955e-11 -1.0175129e-10 7.828544e-12 -4.4342217e-11 -6.448879e-11 1.2342237e-11
6.715824e-11 2.007243e-11 -4.2015863e-11 1.03708965e-10 8.6881426e-11 5.496725e-11 -2.503184e-10 2.5369404e-11
-3.9261892e-11 -3.9261892e-11 6.252403e-11 2.007243e-11 -4.2015863e-11 -3.3788236e-11 7.2013326e-11 -3.2149675e-11
3.878854e-39 -3.6508418e-08 -8.993055e-10 -3.8001296e-08 -5.658482e-09 -2.5501934e-11 -4.486105e-08 -4.658146e-08
1.2571232e-07 -4.7292925e-08 8.575921e-08 -4.6803475e-08 -4.948788e-08 4.2989523e-08 -2.4986155e-09 1.7055232e-08
-4.9073208e-09 3.186867e-08 7.228122e-08 7.228122e-08 9.7822124e-08 -4.6803475e-08 -4.948788e-08 -3.307919e-08
4.9104525e-08 -1.688164e-08 7.101003e-39 1.6684645e-12 -1.1637616e-12 1.5924188e-12 -1.1727216e-12 2.1788747e-12
1.3359069e-12 1.6729041e-12 1.2177154e-12 -1.4481088e-12 -3.9270115e-12 1.264765e-12 2.5525537e-12 8.7712834e-13
-5.0502905e-12 -1.902296e-12 -9.517161e-12 -2.4029101e-12 -2.5635297e-12 -2.5635297e-12 -2.8536253e-12 1.264765e-12
2.5525537e-12 2.6327864e-12 -3.0520972e-12 -3.4417553e-12 -1.092469e-38 -5.421382e-16 7.402828e-16 -5.9239716e-16
8.1726456e-16 6.7412917e-15 -1.5145016e-15 3.5352485e-15 1.103922e-15 -5.4857766e-16 -4.369224e-15 -1.6225122e-15
3.2000805e-15 -3.8116896e-16 -4.9740464e-15 -2.128578e-15 3.893755e-15 -1.2794413e-15 2.3994425e-15 2.3994425e-15
-2.7199875e-15 -1.6225122e-15 3.2000805e-15 6.097717e-16 -5.1274026e-15 6.163286e-16 -5.1633846e-38 -1.4296055e-09
-9.882463e-10 -1.4910021e-09 -1.098783e-09 3.516077e-09 -3.745929e-10 1.8088887e-09 7.2844974e-10 -6.506978e-10
-1.5339738e-09 -4.4956194e-10 1.7026175e-09 3.3319014e-11 -3.0288612e-09 -2.3206832e-09 1.2877636e-09 1.2086099e-10
2.1165019e-09 2.1165019e-09 -3.9720038e-10 -4.4956194e-10 1.7026175e-09 -1.8420832e-10 -1.7569461e-09 -1.0304618e-09
8.111373e-39 7.508756e-38 1.0998125e-38 6.4744894e-38 4.58062e-39 -6.36902e-38 3.61698e-40 8.936632e-38
-9.786759e-38 -3.9990642e-38 -1.0283178e-37 2.822742e-38 1.3590508e-37 8.222029e-39 8.4777503e-38 5.773564e-38
-2.9689308e-37 4.7399683e-38 -1.208339e-37 -1.208339e-37 8.713862e-39 2.822742e-38 1.3590508e-37 -1.3905107e-38
-5.7773843e-38 -7.437229e-39 -7.986085e-39 0.14841919 -0.073278904 0.10096805 -0.062792376 0.071379684
0.40684807 0.028071266 0.029223135 0.07828142 -0.21958 0.4529758 0.081185415 -0.15514861
0.10454805 -0.033257473 -0.016324427 0.049384598 0.0377878 0.062259078 0.2604341 0.4518635

bias f4 [512]
00000000: a1c4 1214 9947 3c2d 006c c8b3 0650 4dad
00000010: c4d6 ce32 902f d0aa 6eae 0427 78af efb0
00000020: b85d 7200 5f5e fb3d 360f f032 ada5 e12d
00000030: 8050 ca97 054b c038 369d 3cbb 033c b829
00000040: 8e71 4820 c48d 4c24 3bd1 8108 94ed 9c3b
00000050: 6c58 8200 87d7 46bc 8055 5a2e e2ef 842e
00000060: 3c19 febd c0d8 e633 1065 b02a 3aa9 53bd
00000070: b647 6f0b 057a 6230 5c48 6938 18fc 6dbd
00000080: 8e01 f71d 910e 168d 1af1 6535 db7b 4cbb
00000090: 401d 4310 42fb d931 b80c 08b3 b8c3 a018
000000a0: d60a 91b5 8b22 0dbe 09eb 4d80 9e86 cab1
000000b0: 41d3 7ab7 044c c1bd c0fe 2300 9219 71bb
000000c0: 10fe dd1f 42b5 6b3a c32d df2e c14a adbd
000000d0: 2f08 8c1a 4d98 b7bd 000f 698d 26e1 64ad
000000e0: 78f0 c388 3a40 9726 2880 4099 2f92 d4a4
000000f0: 077c 3a85 3eea 8698 dbe6 c1ac 3a4b 40a6
00000100: 457d e032 e422 d527 b051 0683 4410 0d32
00000110: 822f d3a4 186b 9f2b 4572 583d 3125 8494
00000120: 65bd 0d23 87c5 3c98 c8b1 6937 36e6 a3b2
00000130: 0afb df01 446d 5aae 8260 f7ae 4a22 7c21
00000140: 7081 7ab9 e206 e9bb 0371 7b0d be48 2799
00000150: deef 8ba5 5553 2e14 918a 3e23 a067 89ab
00000160: aaeb 9896 33ff 3aa1 afcb 1fb5 89b3 dcb5
00000170: 0047 9e2f 7d34 c2bd b088 94ab 8cc0 3218
00000180: ddac 0c20 50cf 0480 b621 dc34 7834 671f
00000190: 23ea ad35 fa4a d834 d5db 5231 2c61 953c
000001a0: 1c0d 35b4 59ae 8a1e a8a2 3d80 6667 3693
000001b0: b968 6637 2ac9 db25 1872 772d 4199 2ab7
000001c0: 7f88 9e9c b8ff 7b89 7121 8f29 13c7 98bd
000001d0: 0060 4f30 b402 bc87 f215 4880 ef1e 1532
000001e0: a894 a512 021f a929 60d0 feae 760c c736
000001f0: d698 dd29 1026 b831 d1fc a9a5 a93f 0b27
00000200: 6071 389b 416b 31a0 d227 882e 1eea 56b1
00000210: a6ad 02ad 9488 9ab2 d345 478a 41a8 7a25
00000220: ed0a 1b36 2d61 472f 6e40 8a31 dc32 51be
00000230: a994 fe3c 4020 52ba 0040 f925 e549 b330
00000240: 2455 07af 3437 0200 03f7 1132 83d3 07b1
00000250: 486e 7627 01f7 f9bd 31b3 a0aa c017 c28a
00000260: a06a 0cb8 16a6 2a88 76b9 32a1 d4fb f9a3
00000270: 5f12 828a 903d 19ad 78c6 3ebe b22d b220
00000280: 6d82 6737 77d5 8d95 6e2d 93a5 623a b894
00000290: 06fa eeab 94ee 329d 3b54 a235 58e2 5c00
000002a0: 6c54 b096 2c3a f126 dc11 ffa9 25a3 358f
000002b0: ba69 31b6 4fc6 2b95 913b 4589 7f6d e48f
000002c0: 00b6 eaaf c0dc 9c82 eea1 b6b3 1a89 24b8
000002d0: 8457 c905 1647 3628 8682 f2bd 7e43 0db5
000002e0: 0e6d aabd 8314 442d 2c41 1080 fffc fe21
000002f0: 8b5f 1f36 9130 7131 d226 6580 632d 5633
00000300: c118 b0a4 9922 8837 80ac 0239 43b0 7400
00000310: 90b5 65bd 04f2 6633 d6f6 8bbe 37a3 04b6
00000320: 4593 8900 c35f 2390 4a0a 03a1 f789 2c30
00000330: 0705 1ebe 7905 2480 b05f 5f31 8105 cebd
00000340: df26 f3b3 5218 0b0a daaa 04be acc8 1580
00000350: 084b 8c9e 8b37 8c8b 3aeb 93a6 61b2 aaaa
00000360: e9ac 8798 14ba ef31 a03a 7b99 a0dc 0b81
00000370: 5c48 5a94 04cc 032b 55c2 4400 3a74 0035
00000380: c5ce f89b fa97 bca2 74e5 082f d888 0580
00000390: 7743 2e35 0069 0ebe 82c8 51b3 288d e58b
000003a0: 1261 5ba0 72f0 a0b6 0e72 8b83 90e5 d4ab
000003b0: c79a 0b2c 3a18 fa90 3851 1b05 ba0d 03a2
000003c0: 21dd 5d33 923b 5c35 b5ef e635 44da 5d2f
000003d0: 3df3 b8b5 404a ceb1 8c22 722f a8c8 2704
000003e0: 721a 15ae df77 782f 5857 ee33 534a 81a4
000003f0: 6245 f381 32e9 7738 547c d031 2499 cead
7.4098945e-27 1.0702461e-11 -9.332871e-08 -1.167067e-11 2.407922e-08 -3.6981225e-13 1.8413238e-15 -1.743941e-09
1.0502867e-38 0.12273859 2.7946594e-08 2.5653113e-11 -1.3074265e-24 9.169247e-05 -0.0028780228 8.181652e-14
1.6978231e-19 4.435553e-17 7.813095e-34 0.0047890637 1.1970334e-38 -0.012136347 4.96434e-11 6.045277e-11
-0.12407157 1.0749636e-07 3.1334007e-13 -0.05167506 4.6083675e-32 8.239172e-10 5.561892e-05 -0.058101743
6.5381963e-21 -4.623985e-31 8.5659997e-07 -0.0031201753 3.8479503e-29 6.344096e-09 -3.1676535e-08 4.1556656e-24
-1.0806496e-06 -0.13782708 -7.155648e-39 -5.894278e-09 -1.4950348e-05 -0.09438327 3.30563e-39 -0.0036788923
9.401745e-20 0.0008991548 1.0148995e-10 -0.08461524 5.7915864e-23 -0.08964596 -7.1816724e-31 -1.30102925e-11
-1.17926695e-33 1.0495138e-15 -9.952048e-24 -9.218799e-17 -8.768458e-36 -3.4874712e-24 -5.51102e-12 -6.671533e-16
2.6133998e-08 5.9157205e-15 -3.9472833e-37 8.210979e-09 -9.1587145e-17 1.1327354e-12 0.05284335 -1.3343263e-26
7.683731e-18 -2.4398156e-24 1.3929275e-05 -1.9080385e-08 8.2277486e-38 -4.966451e-11 -1.1249403e-10 8.54263e-19
-0.00023890077 -0.007111416 7.748138e-31 -8.648388e-24 -2.4275197e-16 8.8011894e-27 1.0329263e-17 -9.763197e-13
-2.470565e-25 -6.3357005e-19 -5.9528514e-07 -1.6443529e-06 2.879048e-10 -0.094826676 -1.0553971e-12 2.3103172e-24
1.1915657e-19 -4.41712e-40 4.100272e-07 4.8959554e-20 1.2957647e-06 4.0287688e-07 3.0683982e-09 0.018234812
-1.6861708e-07 1.4683427e-20 -5.660315e-39 -2.3022609e-27 1.3733451e-05 3.8126758e-16 1.4065658e-11 -1.0168472e-05
-1.0490846e-21 -3.0333264e-33 6.356277e-14 -0.074598454 7.5442586e-10 -2.8288685e-34 -6.620028e-39 8.679975e-09
1.0449611e-27 7.5104866e-14 -1.15875975e-10 5.932113e-06 9.8408843e-14 5.359432e-09 -2.9488142e-16 1.9324635e-15
-1.5256757e-22 -1.502797e-19 6.1916375e-11 -3.1274179e-09 -7.428202e-12 -1.7990068e-08 -9.594634e-33 2.174105e-16
2.310316e-06 1.8133468e-10 4.0236534e-09 -0.20429558 0.031076746 -0.000801567 4.3237983e-16 1.3044966e-09
-1.2308427e-10 2.03474e-40 8.496275e-09 -1.9765316e-09 3.4199142e-15 -0.122053154 -2.8546048e-13 -1.8690454e-32
-3.3477903e-05 -5.1352747e-34 -6.05542e-19 -2.7103287e-17 -1.2525455e-32 -8.710713e-12 -0.18630397 3.0184612e-19
1.379904e-05 -5.7286235e-26 -2.553122e-16 -1.860228e-26 -1.6980313e-12 -2.3681446e-21 1.2094455e-06 8.530062e-39
-2.8487611e-25 1.6738502e-15 -1.1327373e-13 -8.9554095e-30 -2.6436596e-06 -3.4689613e-26 -2.374102e-33 -2.2524712e-29
-4.269367e-10 -2.3048844e-37 -8.50449e-08 -3.9228333e-05 1.8934097e-35 1.0118444e-14 -0.118413016 -5.262481e-07
-0.08321582 1.1145865e-11 -1.492747e-39 1.7278677e-18 2.374846e-06 3.5097723e-09 -9.289311e-39 4.9867037e-08
-7.636977e-17 1.6228574e-05 0.00012462027 1.0716148e-38 -0.056081355 5.377116e-08 -0.27336758 -1.9764536e-06
1.2634293e-38 -3.2219854e-29 -4.4398144e-19 6.2769295e-10 -0.15431605 -3.308041e-39 3.2505163e-09 -0.100596435
-1.132264e-07 6.697181e-33 -0.129558 -2.000533e-39 -1.4854109e-20 -5.400961e-32 -1.0263932e-15 -3.0321842e-13
-3.5071277e-24 6.97697e-09 -1.2988235e-23 -2.568856e-38 -1.1020458e-26 4.682368e-13 6.314527e-39 4.785285e-07
-4.116178e-22 -5.1118414e-18 1.2450646e-10 -5.08268e-40 6.4918225e-07 -0.13907242 -4.8843965e-08 -8.841998e-32
-1.858214e-19 -4.796363e-06 -8.195871e-37 -1.5127222e-12 1.9839007e-12 -9.864494e-29 7.3029825e-36 -1.7761077e-18
5.1656688e-08 8.204307e-07 1.7206099e-06 2.0177376e-10 -1.377986e-06 -6.0038303e-09 2.2022045e-10 1.9722892e-36
-3.3902166e-11 2.2598055e-10 1.10986264e-07 -5.607074e-17 -8.936366e-38 5.910657e-05 6.067731e-09 -2.3487497e-11

weight f4 [512]
00000000: cbf2 d2a6 345d 82b4 e2a9 e03b 81d1 7334
00000010: db4f c6b7 dac6 c633 11f3 4eb1 b0e6 47b7
00000020: 6392 fc1d 949a 193f e66c d837 634b eb36
00000030: f91b 3cab 2c1d c8bb dba2 c93a 5fb4 8332
00000040: 4133 f1ae e140 b82f 27d1 39a2 9bd8 25bc
00000050: 5087 e195 df81 d13e 9fe1 80b5 c48a afb4
00000060: 34b8 ff3e da66 10b8 0d32 9cb4 c982 803e
00000070: 8bb5 25a3 bffd 4233 07aa 7239 4daf f53e
00000080: 326d 8faa d689 f823 fcd9 6eb7 61f2 7abc
00000090: 9e45 5a26 0406 b3b4 d3fc 1fb9 1ba4 602a
000000a0: 8c14 09ba ba97 e93e 826f f09b 2a4d a737
000000b0: a302 823a c060 aa3e 402d 7099 3ede c63e
000000c0: d4c8 3aad 43a5 16bc e469 aab5 0a98 e63e
000000d0: 4020 cc29 e3c7 083f 4873 21a5 3c3b 9133
000000e0: 619a ea21 9476 eeb1 87f9 8729 7cc9 08b0
000000f0: b96e a6a0 87a6 0aaa 62e5 01b3 1a14 f3b0
00000100: a850 e4b7 3ffc bdb1 46c6 129e 0b9d 5f35
00000110: 1c2f f7ad 36da fa32 e60a 2c3f 9560 32a7
00000120: 5b69 3aae 2495 8baa b39e 8e3b f02e cd33
00000130: ab18 d01e c6f3 05b6 d7b8 1a35 779e 0c2e
00000140: d2aa 43bc 437d 1e3c 7c45 6724 d7c2 afa8
00000150: 7865 bbae 91ea c126 ea7e 452e 5f42 3f33
00000160: 60f1 a329 c3bb 4d2e 1d06 75b9 7a67 8a3a
00000170: cd3c 0fb6 31ba 033f 4334 4333 be6b 7a2a
00000180: cb7e 4aad 50b3 421a 5c3f 8139 a90a 06ae
00000190: bfb5 1e3a dbb6 5f37 a7a7 2d35 6bb0 c5bb
000001a0: ba53 5237 68d6 9a2c 2cbb 0b99 06c6 7827
000001b0: 99f3 3839 794b 8230 6056 6d36 752d 13bb
000001c0: ffb1 62aa 68db 28a2 4ec9 1332 88ae 123f
000001d0: 214c 9237 c6ce 42a0 6eb2 8e9b 58ff 5536
000001e0: a5e2 fbaa c2ce c830 9cef 0d36 1c8d 8e3a
000001f0: f06a 9130 4c76 5538 a6a6 fbb0 145e f330
00000200: ba8d f52b 326a 352d bc06 8eb3 8136 3037
00000210: 37f9 45b3 5bf6 74b7 e6a9 f1a3 db27 d32e
00000220: aadf 113b 4046 01b6 0c66 9c37 1e04 173f
00000230: 6ad8 073f f97c 0b3c 2cc3 4634 a12f 43b6
00000240: cfc0 45b5 34ec 6f9a 76f6 1c38 4e37 4eb5
00000250: ffe3 93b2 64f8 183f 42d7 f5b2 49d3 0ca3
00000260: e09f c537 ccba 8522 7f0f 4b2d 369c 3f30
00000270: 9405 7ba1 59bd a836 1044 f93e 11c9 802d
00000280: 0733 3abb f01a 62a7 64f4 92b0 1aff 8127
00000290: bfb6 1a34 dd2f 9cab 667d cd3a b238 ed99
000002a0: f39b 1829 0311 9eb0 889b f9b1 00bf d124
000002b0: 64ed 723a c714 54a8 7b03 c0a2 3822 6c24
000002c0: 77ad 08b5 03d7 c61f c416 a9b7 7503 9cb9
000002d0: 0864 6b9f 802f 5c30 77fb cd3e 6afa cb3a
000002e0: 1f67 923e 7ffd b333 24dd e99d 1af6 d52d
000002f0: 2ebc 59ba 8bca f634 b2af df9c f044 1e37
00000300: 048d 1db0 f52e 933a c14b 1cba c00b a49d
00000310: 1e49 9c3e b074 81b6 0d7d 0c3f 9ea0 03bb
00000320: f6ce d390 8497 78a4 251a 0c2e cb3a 00b5
00000330: 49fb e73e 2eb2 4998 1ee2 0db5 46ed 153f
00000340: df6e acb9 e9ee 8e22 5e84 c23e 9499 2098
00000350: c961 692c a729 ba22 d731 46b0 a02b 84b1
00000360: b458 bea9 a9ae 8635 9ac7 98aa 94c1 8b95
00000370: 989c 17a6 a427 12b4 9ed0 d316 708b 68b5
00000380: 221f 76ab 44f0 c3ae 4c58 5ab5 18fa 431b
00000390: 45b2 7aba bcd0 bb3e cce7 5eb7 4a2f 5f24
000003a0: 9c64 f3ac 1966 75bb a98a 271f b697 1f32
000003b0: 75ce c9b3 7b7f 1aa6 6cba 6421 5dcb 94ad
000003c0: 9309 8b38 03c6 9b3a 9566 f6b9 72d9 30b6
000003d0: e9e4 4bba 313a afb7 1af8 19b4 19c4 1420
000003e0: d620 8135 1d66 65b6 3319 8738 becc f52f
000003f0: 1883 269f 577d e1b9 1024 dcb5 02bc 60b5
-1.4637486e-15 -2.42822e-07 0.006856189 2.2707356e-07 -2.3640625e-05 9.2562644e-08 -3.0115113e-09 -1.1915035e-05
6.6855205e-21 0.6000149 2.5799916e-05 7.012322e-06 -6.6829837e-13 -0.006106993 0.0015383618 1.533243e-08
-1.0968516e-10 3.3515504e-10 -2.51829e-18 -0.010122444 -9.109026e-26 0.40919396 -9.602408e-07 -3.2697255e-07
0.49945223 -3.4428063e-05 -2.909368e-07 0.2509978 -8.983111e-18 4.5399926e-08 0.00023142259 0.47985306
-2.5477672e-13 2.694659e-17 -1.4236659e-05 -0.015316577 7.572829e-16 -3.3345725e-07 -0.00015257606 1.9952132e-13
-0.0005229197 0.4562357 -3.977673e-22 1.9943884e-05 0.0009918999 0.3327694 -1.2416847e-23 0.38841432
-1.0617469e-11 -0.009194675 -1.2696805e-06 0.45037872 9.0650144e-14 0.5343 -1.4003583e-16 6.762863e-08
1.5897321e-18 -6.9401924e-09 6.0384904e-14 -4.976284e-10 -2.8194764e-19 -1.2314638e-13 -3.0243775e-08 -1.768629e-09
-2.7217277e-05 -5.529301e-09 -7.770178e-21 8.33025e-07 -2.810157e-11 2.9203061e-08 0.6720413 -2.475482e-15
-4.2385078e-11 -2.4794847e-13 0.0043524145 9.554594e-08 2.2033059e-20 -1.996044e-06 5.763845e-07 3.197306e-11
-0.011942582 0.009673419 5.0148996e-17 -1.9513401e-14 -8.5218e-11 1.3455645e-15 4.4905336e-11 4.4531017e-08
7.280526e-14 4.677837e-11 -0.00023367298 0.0010559403 -2.1344051e-06 0.5145598 4.5449507e-08 2.2241841e-13
-1.1510524e-11 4.0263107e-23 0.00024652004 -3.047754e-11 0.0006054304 1.333441e-05 6.469149e-07 -0.0060329936
1.25364695e-05 4.400747e-12 -7.223931e-24 3.4524262e-15 0.00017638355 9.480196e-10 3.536603e-06 -0.0022457514
-2.0134587e-13 -2.2884398e-18 8.6022975e-09 0.57297564 1.7440007e-05 -1.6500855e-19 -2.3607237e-22 3.1888103e-06
-4.4743823e-13 1.4610679e-09 2.1150108e-06 0.0010875794 1.0580532e-09 5.089333e-05 -1.8310018e-09 1.7707316e-09
1.7447634e-12 1.0312239e-11 -6.613615e-08 1.0503108e-05 -4.6094296e-08 -1.4600892e-05 -2.6201227e-17 9.602249e-11
0.0022258558 -1.9263389e-06 1.8644168e-05 0.5899066 0.53064597 0.0085136825 1.851119e-07 -2.9084988e-06
-7.366879e-07 -4.9614845e-23 3.7422833e-05 -7.682146e-07 -1.7216733e-08 0.59754014 -2.8619642e-08 -7.6341566e-18
2.3558678e-05 3.62475e-18 1.1542655e-11 6.9707384e-10 -8.504949e-19 5.028833e-06 0.4868474 1.4641207e-11
-0.0028411762 -3.1378403e-15 -1.0692358e-09 3.6081274e-15 1.440885e-07 -1.1097751e-12 0.001567763 -2.4528125e-23
3.3886044e-14 -1.1500848e-09 -7.2645356e-09 9.096287e-17 0.00092669413 -1.17728694e-14 -5.204539e-18 5.1203327e-17
-5.091637e-07 8.421197e-20 -2.0156971e-05 -0.00029757214 -4.984593e-20 8.0103035e-10 0.40230915 0.00155623
0.285943 8.381448e-08 -6.190324e-21 2.4324587e-11 -0.0008305934 4.596844e-07 -1.4802318e-21 9.433585e-06
-5.731666e-10 0.0011229204 -0.0005962216 -4.3422588e-21 0.30524534 -3.858084e-06 0.5487831 -0.002008475
-8.35437e-29 -5.3904766e-17 3.1855536e-11 -4.776927e-07 0.45308903 -2.6068599e-24 -5.2855637e-07 0.58565176
-0.00032889002 3.8742133e-18 0.37991613 -2.0757052e-24 3.3165573e-12 5.0459502e-18 -7.2102807e-10 -3.846665e-09
-8.4530825e-14 1.0034611e-06 -2.7139125e-13 -5.6447065e-26 -5.2600873e-16 -1.3611731e-07 3.4220544e-25 -8.6629643e-07
-8.743996e-13 -8.910253e-11 -8.133982e-07 1.6210832e-22 -0.00095633074 0.3668269 -1.3286201e-05 4.8395472e-17
-6.9176453e-12 -0.0037444888 3.5478323e-20 9.289513e-09 -9.397346e-08 -5.360225e-16 7.749613e-19 -1.6915963e-11
6.62982e-05 0.0011884574 -0.00046997206 -2.6352614e-06 -0.0007777946 -2.0888723e-05 -1.4339494e-07 1.2600971e-19
9.620805e-07 -3.4183097e-06 6.441995e-05 4.4710718e-10 -3.5260306e-20 -0.0004300873 -1.6401773e-06 -8.372009e-07

bias f4 [512]
00000000: b598 69aa e431 96b9 84da 5fbb 3f71 a2b9
00000010: e2e6 e6bb 9505 a8b5 eb5d beb4 175f b2ba
00000020: 35e1 23a1 1b52 de3d 1f17 15bb de32 61b6
00000030: fdaa 2fae c3cf afbb 8512 acba db02 3ab5
00000040: d81b 04b2 e88d b5b3 60a4 1ea4 1582 00bc
00000050: 8451 5898 36db a03c 359d b0b9 3461 08b9
00000060: 901b bcbd eb1e 01bc 7227 c9b7 0d42 33bd
00000070: b84e c2a5 dbfb 97bb 5230 5abc f5f9 c3bc
00000080: 381b 32af 003d 2fa7 1a35 c2bb 09f8 3e3c
00000090: 6190 63a8 53b4 29ba b54b f3b9 a416 0bad
000000a0: 300e 96bb 97cd c8bd 127a 6a9e 52dd 52bb
000000b0: 6c71 95bc eecb 97bd 6d63 559b 5879 ba3c
000000c0: e75c 10b1 766c 56bb 2995 26ba c8e7 43bd
000000d0: 5080 f0ad aa44 60bd fcce a1a6 334b 2cb5
000000e0: 66a3 a6a3 c80a ffb5 8e1f 60ab a885 76b1
000000f0: 4b04 aba2 1886 75ae 0622 edb5 445f e2b3
00000100: 6a7f a4bb 08f7 acb5 a609 88a0 bd53 27b9
00000110: 3cc3 edb3 1e7c 13b7 54d7 5d3d a3b0 f4aa
00000120: 12a2 c6b3 a978 8dad 1db2 63bb 2fc4 62ba
00000130: 16f5 6da1 d137 cab9 050b 90ba 7c37 aeb0
00000140: ffa4 8ebc 6fbf 27bc 7c59 3ea7 8dea 78ac
00000150: 0cdd bdb4 ce63 4bab 4fce 60b1 7c60 00b9
00000160: 6773 d1ac 690b 37b1 0113 33bc 9040 69bb
00000170: 0bed 31ba d630 5fbd 842a 4fb8 de39 bbac
00000180: 9401 c9af a2c4 a09b 552d 8fba a0e2 3cb0
00000190: b0d1 d2bb 1ba8 1dbc fcfd b8bb 801a 91bc
000001a0: 7d48 a6bc 18dc 1eaf 8502 d99a 61be 51a9
000001b0: e981 6bbb c344 0cb4 9a5e 44ba a71a 95bb
000001c0: 6aa2 b8b0 4269 13a5 883f c5b5 3ce7 46bd
000001d0: 164a 90bb 0e30 40a3 73c5 1f9e a11c b7bb
000001e0: 8f67 32a8 b0d8 beb6 0503 1cba 723c 07bb
000001f0: 4172 3cb6 def6 08ba 3bb4 23b3 5923 57b4
00000200: cc12 67af 5f7d f9b1 e870 31b8 03ea 0ebb
00000210: 1098 51b7 8fe6 15bb 1e19 5fa5 1006 80b5
00000220: c978 babb 70a6 52b9 1d3b d1ba 0ed7 06be
00000230: 81d4 863d 78c1 8ebb 0a36 3db4 9d5b 25ba
00000240: 65fa 31b9 9d80 c19f a2a1 27bb 428b 96ba
00000250: b2fd 8a30 95bf b1bd d003 05b6 9753 94a5
00000260: 13da 4dbc 54e1 d9a3 8eb3 0fb0 cc0c adb2
00000270: 5671 12a6 833b 90ba f001 f1bd a33a 56b1
00000280: 9325 f7bb 21c5 a2a7 d77d 24b4 3dfc a3ab
00000290: a6c1 3fb8 0062 39ae 4c41 b6bb cfdf 309d
000002a0: 3dcc a0aa a68c b2b4 f6ef b9b6 8d5c 21a8
000002b0: 0443 a0ba d7c2 4baa 5a31 c6a4 3fa6 85a5
000002c0: 560c 2aba daf2 a3a2 64d0 55ba a6b9 bfbb
000002d0: 8e52 c6a2 d184 13b4 c359 fbbd e835 79bb
000002e0: c607 69bd c692 b8ba 4ff6 2c9f b0c4 3bb3
000002f0: bb65 14bb 6a1f e4ba 3158 ef9f ad4e 52b9
00000300: e9f8 91b3 4dd7 06bb 86be a7bc 253f d7a0
00000310: 32a3 1abd c4b4 42ba 80ba 67be 16f1 64bb
00000320: 7edf 2993 acc0 3ca7 2b87 f4ad 3dd1 81bb
00000330: d5e6 ffbd 7e18 9a9a 8c8c efb9 2041 82bd
00000340: 5626 95ba 939a 8da6 0225 b6bd 9db9 0e9d
00000350: bd1b cbb0 5972 4fa5 f820 77b4 42d3 3db7
00000360: 3775 c3ac ec5a 5bba 0a65 dfac 0762 8699
00000370: d1cb 72aa dd2b eeb8 1f36 b59a 2776 21bc
00000380: b3d9 dfae 2202 17af 2f2d 5fb6 f608 099e
00000390: 1c70 02bb d9f9 94bd f005 81b9 f5e0 bba6
000003a0: f220 adae 54aa 06bb eec3 30a2 10db 12b5
000003b0: ce75 ffb7 7108 0ba9 dda6 1ba2 c340 43b3
000003c0: 59f6 65bb 89ed 5dbb b181 94bc 2edc 22ba
000003d0: a795 25bc 038a d3ba 63ad 3db6 45ef d8a2
000003e0: 8a2a fcb9 e9da 06ba 5ed7 35bb f165 6bb2
000003f0: c4d7 4aa1 5cc8 31bb 214c e1bb 6645 89b9
-2.0747538e-13 -0.000286474 -0.0034157345 -0.00030983423 -0.0070465663 -1.25186e-06 -3.5458592e-07 -0.0013608661
-5.5524607e-19 0.10855504 -0.0022749377 -3.3557221e-06 -3.994226e-11 -0.0053653433 -0.0013128078 -6.9294555e-07
-7.689742e-09 -8.454282e-08 -3.440002e-17 -0.007843514 -2.79585e-24 0.019635778 -0.00033686464 -0.00013006182
-0.09184945 -0.007880907 -2.3979435e-05 -0.043764163 -3.3706977e-16 -0.004638178 -0.0133171845 -0.0239229
-1.6198676e-10 -2.4319197e-15 -0.0059267404 0.011655816 -1.26323385e-14 -0.0006473709 -0.00046404978 -7.9062625e-12
-0.004579328 -0.09804838 -1.24131e-20 -0.0032175374 -0.01824256 -0.074119434 -1.7651073e-22 0.02276294
-2.1007567e-09 -0.0032718456 -0.0006354624 -0.047828466 -2.7341823e-11 -0.054752983 -1.1227722e-15 -6.418442e-07
-1.8066958e-17 -1.9002118e-06 -7.962458e-13 -3.5873686e-09 -4.635419e-18 -5.582565e-11 -1.7667778e-06 -1.0541274e-07
-0.0050200718 -1.2886894e-06 -2.304568e-19 -0.00015957556 -1.10716854e-07 -8.790781e-06 0.05416043 -4.3465673e-13
-9.249574e-08 -1.6083428e-11 -0.0034743615 -0.00086504495 -8.062309e-19 -0.0003857003 -0.0010989612 -1.2675936e-09
-0.01741266 -0.010238512 -2.6416306e-15 -3.5373122e-12 -3.5364826e-07 -7.2258595e-13 -3.2713563e-09 -0.00012242974
-5.9529495e-12 -2.663649e-09 -0.010929824 -0.003559146 -0.00067873363 -0.054489933 -4.939224e-05 -5.321284e-12
-3.6562808e-10 -2.659685e-22 -0.0010923544 -6.8716055e-10 -0.006433688 -0.009622599 -0.0056455117 -0.017712831
-0.020298237 -1.4448209e-10 -8.975317e-23 -4.657245e-14 -0.0035935587 -1.3063531e-07 -0.00074909034 -0.0045502963
-1.3433923e-09 -1.278588e-16 -1.4696134e-06 -0.048560366 -0.004403363 -1.0418517e-17 -8.4582215e-21 -0.0055881296
-9.903441e-15 -5.687667e-06 -0.00059513777 -0.0020635393 -2.8080688e-06 -0.00052247744 -3.8115314e-08 -2.0036295e-07
-2.1016006e-10 -7.261107e-09 -4.230524e-05 -0.0021806962 -1.2492776e-05 -0.002287302 -1.9350677e-16 -9.538508e-07
-0.0056906682 -0.00020089163 -0.0015963052 -0.13167974 0.06583501 -0.0043565594 -1.7621656e-07 -0.0006307902
-0.00016973315 -8.195145e-20 -0.0025578518 -0.0011485594 1.0112926e-09 -0.086791195 -1.9820764e-06 -2.573055e-16
-0.0125642 -2.3622617e-17 -5.227826e-10 -2.014567e-08 -5.0807524e-16 -0.0011004064 -0.11767948 -3.117443e-09
-0.007542321 -4.517776e-15 -1.531947e-07 -1.1651857e-12 -4.5718298e-05 -4.215117e-11 -0.005561983 -2.3409112e-21
-2.8563428e-13 -3.325742e-07 -5.5413648e-06 -8.957364e-15 -0.0012227003 -1.809762e-13 -8.595242e-17 -2.3184475e-16
-0.00064868235 -4.4438368e-18 -0.0008156358 -0.0058509884 -5.3755416e-18 -1.373876e-07 -0.1227298 -0.0038026515
-0.05689218 -0.0014081828 -3.662616e-20 -4.3718217e-08 -0.0022643644 -0.0017404382 -1.0136634e-19 -0.0002005647
-6.797365e-08 -0.0020575107 -0.02047659 -3.6464202e-19 -0.03775329 -0.0007427449 -0.22629738 -0.0034933737
-2.1440989e-27 -2.6194689e-15 -2.7799615e-11 -0.0039617107 -0.124951996 -6.3732476e-23 -0.00045690348 -0.06360078
-0.0011379223 -9.825738e-16 -0.088937774 -1.8889503e-21 -1.4778078e-09 -1.799313e-16 -2.3015662e-07 -1.1314465e-05
-5.555247e-12 -0.00083677354 -6.349259e-12 -1.3894868e-23 -2.1564631e-13 -0.000113568945 -7.494728e-23 -0.00985483
-1.0179537e-10 -1.3734128e-10 -3.325589e-06 -7.254573e-21 -0.0019903248 -0.07274217 -0.0002460922 -1.3036706e-15
-7.8729814e-11 -0.00205483 -2.3956172e-18 -5.4708016e-07 -3.0453226e-05 -3.0871522e-14 -2.1094754e-18 -4.5460876e-08
-0.0035089462 -0.0033863506 -0.018128248 -0.0006212619 -0.010106481 -0.0016139153 -2.826412e-06 -5.8800254e-18
-0.0004809688 -0.00051443145 -0.0027746777 -1.3701979e-08 -6.8725826e-19 -0.002712748 -0.0068755304 -0.00026182382

running_mean f4 [512]
00000000: 3395 2e3b 1bbc fa3a 2f3e 2f3b 9c50 d7bb
00000010: 5bdf dd3b d5ef 59bc 3fa7 8c3c 89a8 943b
00000020: a147 31bb f7c2 e639 63b8 a83c d40e 263c
00000030: 2c78 523c 8fab 28bc 9dab 05bc a873 c2bb
00000040: ca24 463c af31 a83b 41d7 4a3c 131f 28bc
00000050: 60a9 d63b 9177 19ba 49d3 233c d6e1 653c
00000060: ed0c a5bc adc3 49b9 3306 8b3c a7d2 3e3b
00000070: 5e4d 0e3c 1508 123b 9752 9e3c d1d2 053c
00000080: 40a0 61bc ac36 da3b fb26 643b c2e9 133c
00000090: 138f 03bc efd1 1ebc 8139 843c b659 64bb
000000a0: bf34 2f3c 2eb8 2e3c 2679 0f3c c834 9ebc
000000b0: f4ab 01bc 8c2d 16bc b8a0 cd3b 1f7f b3ba
000000c0: 29e2 04bc 7083 0c3c 70ce ce3b 1afb b03a
000000d0: be55 ba3b 15fc 753c bc80 573c 33dd 9ebc
000000e0: 7b70 1b3c 28a3 bc3b 52f4 153a fc0d 97bb
000000f0: 0d20 3d3c efd7 49bb 7968 573c 637c 363b
00000100: 69cf e03c dbe5 8d3b 019b 2a3c 9db6 05bc
00000110: 8e09 a13a 3e68 30bc 062d b43c 51ec f8ba
00000120: f216 983a 2572 963b c4a0 b33c ec67 ed38
00000130: 6a10 4fbc 116a 96bb 0992 c9ba b98f e7bb
00000140: da5c 43bc 34b7 35bc c63e 0bbc b025 813c
00000150: d929 003b 5d88 013b 212c 2d3b 749b 69ba
00000160: 5b77 6a3c fd6f d43c 5ec0 ad3b c1e7 823c
00000170: 170c 3b3c c6f8 46ba b46c 3fbb edb6 73bc
00000180: 82f3 1a3c 77b6 dbbc f532 f93b 6bde 143c
00000190: 73b4 9d3c 3fe4 3f3a f648 773c d168 d83a
000001a0: a0f7 1bbc 8362 6bbc ebb5 993c 8d3f 853a
000001b0: 625a ddbb 401e edbb 6b38 3ebc 878c a0bb
000001c0: 56a8 0eba 1448 9c3b 7e46 183c cf5c bdba
000001d0: ee34 4dbc 4505 cf3b 200a 2b3c 0061 473c
000001e0: 0e41 c53b 24e5 b1ba b5fe edbb 3fbc a4bc
000001f0: 4c20 3d3b 0fd4 2cbc 255d 1fbc 4aa1 853c
00000200: 98bf 1abb 1912 983c 60f3 a0bc 5594 ef3b
00000210: a04f d33a c066 33bc 56fe e53c ed9b 4d3a
00000220: 7420 2ebc 057c ed3c 9315 833b 54a6 803c
00000230: 6c0a 033d fc4f a33c 915c c03b aab9 063c
00000240: f08e 123c bfab c5b9 d6bb 5e3c dc18 1b3c
00000250: d34c ff3c 4735 a5bb fa44 3f3b 8d38 133c
00000260: 9655 65bb 413e 73bc 61c7 cf3a b48d 56bc
00000270: c899 adba e334 99bc f9ab 6138 773f 5bbb
00000280: d29c 29bb 696e 693c 157e 3cbc 89b3 23ba
00000290: 6b25 93bb e8cf 28bc 9489 ab3c 9ee8 e93a
000002a0: 1947 7d3b e801 da3b df5c 393b adad 353c
000002b0: 75db 123c 0156 8d3c de0c 9e3c 4631 7f3c
000002c0: 9efc 093c a775 96bb faeb 6e3c f7fc 253c
000002d0: e25f cebb 1abc 35ba c7d9 4dbb bd88 903c
000002e0: 7f5a 3ebc 4a1a 3db9 8549 1d3c b808 8e3a
000002f0: 925a 2c3c 52df 0dbb 5840 9b3b 0d90 93bb
00000300: 8648 803c 7388 b8bc 62ec 183c 1274 1dbb
00000310: ff23 8bbb a10b f939 c8ea 563c 8c02 bf3b
00000320: 3722 b83b d3dd 783c f555 2fbc 4227 723a
00000330: 8e6e be3c c6cf ec3c 169d 163c c00b d6bb
00000340: 9018 5abb 9807 30bb 8796 91bc 464d 1d3c
00000350: 88cd c03b f54c b33c cb80 d93b 9395 613b
00000360: 6bd1 8bbc c613 c53b fd71 51bb 79c6 a6bb
00000370: cbc5 103b 758e a33b acd4 b1b9 dd85 fc3b
00000380: 463e 64bc 788e 3b3b 89a0 46bb 6479 2bbb
00000390: 89a2 88b9 adb8 f73b d1a4 72bb c3a7 863c
000003a0: 2756 473c c854 473b d960 27bb 68dd 0fbc
000003b0: e9d1 303c 68e0 93bc 75f2 5cbc 0bea cbba
000003c0: f696 023c 1908 b6bc 2f35 04bc e3a6 263c
000003d0: ca51 17bc 1691 a6bc 711c 153b b9bf 98bb
000003e0: a390 82bb 0706 863c fa35 0cbc dda8 f3bb
000003f0: 09d0 a43c 5c6a df3b 054f 873a 5d84 453b
0.0026639223 0.0019129546 0.0026739945 -0.0065708887 0.006771011 -0.013301809 0.017169593 0.0045366925
-0.002705075 0.0004401428 0.020595735 0.010135371 0.012846034 -0.010294809 -0.008158592 -0.0059341975
0.012093732 0.005132876 0.012380422 -0.010261315 0.006550953 -0.00058543036 0.009999105 0.014030894
-0.020147765 -0.00019241749 0.01697073 0.0029117258 0.008685438 0.002228265 0.019326491 0.008167938
-0.013771117 0.0066593494 0.0034813273 0.0090279 -0.008029717 -0.009693607 0.016140701 -0.003484351
0.010693728 0.010664029 0.008756911 -0.019312277 -0.007914532 -0.009166133 0.0062752627 -0.0013694501
-0.008110561 0.008576259 0.0063112304 0.0013502568 0.005686491 0.015013714 0.013153251 -0.019392585
0.009487267 0.0057567544 0.00057203055 -0.0046098214 0.011543286 -0.0030798872 0.013147467 0.0027845136
0.02744265 0.0043303794 0.010412932 -0.008161214 0.0012286173 -0.010767041 0.021994125 -0.0018991326
0.0011603518 0.004591244 0.021927245 0.000113203976 -0.012638191 -0.004590281 -0.0015378605 -0.0070666936
-0.011923993 -0.011091042 -0.008498853 0.015765041 0.0019556193 0.0019765117 0.0026424008 -0.0008911409
0.014310683 0.025932306 0.005302473 0.01597965 0.011416457 -0.0007590171 -0.002920908 -0.014875156
0.009457471 -0.026820404 0.0076049515 0.009086232 0.019251084 0.0007320083 0.015093079 0.001651073
-0.009519488 -0.014366749 0.018763503 0.0010166034 -0.0067551592 -0.007236272 -0.011610131 -0.0048995647
-0.0005441954 0.0047693346 0.00929415 -0.0014447215 -0.012524826 0.006317767 0.010439426 0.012169123
0.006019718 -0.0013572318 -0.0072630295 -0.020109294 0.0028858362 -0.010548606 -0.009726797 0.01631226
-0.0023612734 0.018563317 -0.0196473 0.0073113837 0.0016121753 -0.0109497905 0.028075378 0.0007843364
-0.010627855 0.028989801 0.0040003746 0.015704311 0.03199236 0.0199356 0.00587041 0.008222977
0.008945212 -0.0003770273 0.013594588 0.009466376 0.031164562 -0.0050417515 0.00291854 0.008985651
-0.003499364 -0.014846385 0.0015852266 -0.013095308 -0.0013244683 -0.018701976 5.3804342e-05 -0.0033454576
-0.0025880826 0.014247515 -0.01150467 -0.00062447094 -0.0044905446 -0.010303475 0.020939626 0.0017845815
0.0038647114 0.0066530593 0.0028284115 0.011088771 0.008963455 0.017252924 0.019293245 0.015575713
0.008422045 -0.004591662 0.014582628 0.010131112 -0.006298051 -0.00069326314 -0.0031410323 0.017643327
-0.011618256 -0.00018034238 0.009600048 0.0010836339 0.0105196405 -0.0021648002 0.004737895 -0.004503256
0.015659582 -0.022526002 0.009333702 -0.0024025482 -0.0042462344 0.00047501645 0.0131175 0.005829161
0.005619313 0.015189606 -0.010701646 0.0009237417 0.023246076 0.028907668 0.009192726 -0.0065321624
-0.00332788 -0.0026859995 -0.017771972 0.009600943 0.0058838762 0.021887282 0.006637668 0.0034421429
-0.017067632 0.00601432 -0.0031958811 -0.0050895778 0.002209055 0.0049913474 -0.00033918524 0.0077063874
-0.013930863 0.0028618854 -0.0030308089 -0.0026164884 -0.0002606104 0.007559857 -0.0037024508 0.016437417
0.012166536 0.0030415524 -0.0025539903 -0.008780815 0.010792234 -0.018051341 -0.013485541 -0.0015557421
0.007970562 -0.022220658 -0.008069321 0.010171625 -0.009235809 -0.020332854 0.0022752548 -0.004661527
-0.003984527 0.016360296 -0.008557791 -0.0074359016 0.02011873 0.006818099 0.0010323232 0.003013871

running_var f4 [512]
00000000: 7423 b63d 67c1 303e 2c86 9a3e 31ef 913e
00000010: 59c3 163e ab70 883e 09a9 613e 504d a63e
00000020: 8c8e 643e 2df1 423e c845 663e a43a 163e
00000030: 2999 e03e 6223 1f3e aec8 ae3e f6b4 563e
00000040: 984e 9c3e febe fe3d a391 443e b59d a53d
00000050: 53d3 9a3e a2ec 0d3e ed4b 763e c60a 7d3e
00000060: 5c47 313e 8610 213e 8b19 a03e 9ad1 173e
00000070: 1c60 753e e847 713e 0049 623e 07f6 703d
00000080: a335 3a3e 649a 253e e738 9a3e 90ad 613e
00000090: e3d6 933e 2063 9f3e ccba 363e 4dca f43d
000000a0: 6232 c73d 3799 083e c078 5a3e 54a7 0d3e
000000b0: 02b0 2e3e 0a27 043e ea70 ad3e 360a 8d3d
000000c0: f185 a03e 3071 5d3e 9144 613e c4b1 e03d
000000d0: 1634 513e 05f8 3f3e f126 f33d 5586 4d3e
000000e0: 6900 d03d e319 aa3e bfba 903e 21d1 ad3e
000000f0: 9219 2e3e 884a 8e3e 30de 253e 7f7e 483e
00000100: 2e01 9b3e dfca 303e 89db 7d3e 94a8 8a3e
00000110: 1b38 cd3e 2536 ee3d e163 3f3e d47b 4f3e
00000120: b26d 1e3e 16f6 bd3e d4f3 1d3e 12b0 b03e
00000130: e23c 213e 46fa 113e 573e 913e 728c ce3e
00000140: 82f8 4b3e ec91 543e fa7c b63e d978 933e
00000150: de5c 853e 4f35 963e 6732 853e f0af 3f3e
00000160: cbc1 143e 89ef 713e 0e35 513e dc80 443e
00000170: 187f 1e3e cd8c 103e c5c6 923e 4f41 c13e
00000180: f242 dd3e d6c8 753e 8c80 a93e aae6 6e3e
00000190: 5728 733e 29f2 243e e559 613e d595 823e
000001a0: 3012 063f b1b6 223e 2e3d e43e de60 123e
000001b0: cf9a d33d da16 103e b2d7 403e f07c 2d3e
000001c0: bb47 963e c9a6 373e 4ac4 683e 1c3f 853e
000001d0: 3583 e73e 7ada 913e 3123 263e b6f2 a23e
000001e0: 6fd7 b33d 35a2 523e a6a1 ed3d 38a0 063e
000001f0: ce59 013e cdea 8e3e 70df 223e 4d37 873e
00000200: a4f3 8c3e bf87 193e cd3b a53e c9f0 883e
00000210: 636f 493e afc2 153e 633b 3b3e bc42 173f
00000220: 6423 803e abea 523e 37d0 773e 023f 703d
00000230: e85a 5e3e 780e 483e 8bd3 9f3e 5b76 4b3e
00000240: 3ea6 df3d 6728 773e df43 5f3e 9224 f03e
00000250: 5cb6 b83e 9574 893e d64d 283e 45d2 483e
00000260: b6e7 3b3e 33f6 853e ab6c 963e a0fa a93e
00000270: d800 323e fb41 8a3e 6c85 ac3d 096d ad3e
00000280: 36d0 813e 2f53 7f3e bde1 a33e 2d9b 533e
00000290: ba44 013e c95c 433e 9139 473e 022d 423e
000002a0: f803 a23d a40e 2b3e f947 e13e ddb4 583e
000002b0: 6dee ac3e e72e 443e 02d9 983e fcd6 2a3e
000002c0: a8f8 893e a9d8 a63e 3954 823e 0801 893e
000002d0: 954c 7d3e e793 463e e873 813e 1ede c03e
000002e0: 849b 6f3d 9448 473e 07d7 993e f62f 2e3e
000002f0: dbe7 c43e 1b50 903e 0c24 643e dbae 8b3e
00000300: be91 aa3e 5843 293e 1163 253e e7bf 3c3e
00000310: d1a0 973d e6a1 323e b2a8 593e d320 423e
00000320: 6a2e be3e 32fd 7e3e 0f3f 0d3e c439 873e
00000330: 3f7d 393e e03b d13e f13f b33e bb62 343e
00000340: b7c2 813e 9165 d53e eca2 b53d 42ba 6c3e
00000350: 8bdf 8d3e fc05 c03d a523 473e 3b36 7f3e
00000360: b4d1 8d3e 4e53 513e 11ab 2b3e ee3b 573e
00000370: ce75 c63e 323c 8a3e bc37 503e c9cb 743e
00000380: 0aa2 773e 268d ab3e 634b 8e3e df61 3b3e
00000390: e05f 543e 7e08 4f3d 4a25 233e cd18 943e
000003a0: 926e a63e 3c19 ce3d e701 3c3e 1df3 ce3d
000003b0: 5963 ac3e a5ed de3e 306e bb3d 5dc6 9d3e
000003c0: ff9b 8e3e 3730 883e b96a 3e3e 0066 4c3e
000003d0: 6329 b63d 0851 113e a1c8 bb3e 8a8b ca3e
000003e0: a778 5b3e 91c3 553e 2ea7 833e 237e 7c3e
000003f0: 11a4 a63e 0ccd a23e f41f 9d3d 6243 0b3e
0.08893481 0.17261277 0.3018049 0.285028 0.14722957 0.2664846 0.22037138 0.3248086
0.22320002 0.19037314 0.22487557 0.14670807 0.43866852 0.15540841 0.3413748 0.20967469
0.30528712 0.124387726 0.19196181 0.08086721 0.30239353 0.138598 0.24052401 0.24711141
0.17312378 0.1572896 0.31269488 0.1482605 0.23962444 0.23562586 0.2209816 0.05882838
0.18184523 0.16172177 0.30121538 0.22038865 0.28874883 0.31130314 0.17844695 0.11952648
0.09726407 0.13339697 0.21335125 0.13833362 0.17059329 0.12905517 0.3387521 0.06886713
0.3135219 0.21625209 0.21998812 0.10971406 0.20430025 0.18746956 0.11872662 0.20070775
0.10156328 0.33222875 0.28267476 0.33948615 0.17001942 0.27791238 0.16198039 0.19579504
0.30274338 0.17264889 0.24790777 0.2708174 0.40081868 0.11631421 0.18690445 0.2026208
0.15471533 0.3710181 0.15425044 0.3450933 0.15745881 0.14255628 0.28367874 0.40341526
0.19919017 0.2075879 0.35642225 0.28803137 0.26047415 0.29337546 0.26015016 0.18719459
0.14527051 0.23626532 0.20430395 0.19189781 0.1547817 0.14116211 0.28667274 0.3774514
0.43215138 0.24002394 0.33105886 0.23330179 0.23745857 0.16108002 0.22006948 0.25504938
0.523715 0.15890004 0.44577926 0.14294764 0.10332262 0.14071217 0.18832281 0.16942191
0.293516 0.17934717 0.22731128 0.2602471 0.4521729 0.28486997 0.16224362 0.318258
0.08781325 0.2056969 0.116030976 0.13147056 0.12631914 0.27913514 0.15905547 0.2640938
0.27529633 0.1499319 0.32272187 0.26746204 0.19671397 0.14625047 0.18284373 0.59086204
0.25027 0.20597331 0.24200521 0.05865384 0.21714365 0.1953677 0.31216082 0.19869368
0.1092038 0.24136506 0.21803235 0.469029 0.3607663 0.26846758 0.16435942 0.19611461
0.1835011 0.26164398 0.29379782 0.33199024 0.17383134 0.27003464 0.08423886 0.3387225
0.25354165 0.24934076 0.32008162 0.20664664 0.12623873 0.19078363 0.19455554 0.18962482
0.07910913 0.16704804 0.44000223 0.21162744 0.33775654 0.19158517 0.29853064 0.16683573
0.26947522 0.32587174 0.25454882 0.267586 0.24736245 0.19392358 0.25283742 0.37669462
0.05849792 0.1946128 0.30046865 0.17010483 0.38458142 0.28186116 0.22279376 0.27281842
0.33314317 0.16529596 0.16151072 0.1843258 0.0740372 0.17444572 0.21255758 0.18957834
0.37144786 0.24901274 0.13793586 0.2641126 0.18114184 0.40865993 0.3500972 0.17615788
0.25343868 0.41679052 0.088689655 0.23117927 0.27709612 0.093761414 0.19447191 0.24923031
0.27699053 0.20441934 0.16764475 0.21018955 0.38761753 0.2699905 0.20333761 0.23905863
0.24182907 0.33506125 0.2779189 0.18299054 0.20739698 0.05054521 0.15932193 0.28925171
0.32506233 0.10063407 0.183601 0.10104964 0.33669546 0.43540683 0.09151876 0.30815402
0.2785339 0.26599285 0.18595399 0.19960785 0.08894613 0.14191067 0.36676505 0.39559585
0.21432744 0.20875384 0.25713485 0.24657492 0.32547048 0.31797063 0.0767211 0.13599923

weight f4 [256, 512]
00000000: 04d3 d701 a4dc 2f11 2c5e 0b13 9639 3d11
00000010: 5af0 8a13 c858 f30c 80f8 500c ec8d 5412
00000020: 7015 f301 1321 561a 726c b012 207b 050f
00000030: 3a40 be05 bad6 5b13 1c0c b394 8a0a cd0c
00000040: 4495 8b09 8ce4 450b f058 3400 4eb7 b413
00000050: 28f7 4200 8a87 a498 e88e 4c11 eaf4 9c10
00000060: cc76 9499 aaff 9b13 b012 0b10 b2e7 ac99
00000070: baf3 d501 7e78 3513 7cf4 0e16 1437 ac1a
00000080: 6a66 c906 18c7 b800 7c11 5913 aaea 6997
00000090: 10f7 8981 2c56 bf11 00f6 3f10 dc2d b604
000000a0: 66b2 3c13 83a6 f199 b04f 0881 8441 f912
000000b0: 58c9 3214 6d9d 3319 1425 8601 a454 521a
000000c0: f8c0 a308 90e9 f712 b20f c211 2a1e c917
000000d0: de7e 8505 7a4e c41a d0f0 0480 749b ab0d
000000e0: dc57 c681 444d 5b8d 9894 eb04 2d3f 8689
000000f0: 4021 4b01 28da fc05 6442 2d8d 9442 9b0b
00000100: c868 4313 4a83 3d0d e7b8 6702 b35a 6411
00000110: 681f 820b 1a1b a80e b899 3799 1aa2 dd02
00000120: 0015 590b 1473 4505 6066 1113 0497 bf12
00000130: 1ff5 1e82 142e 7111 701b 2a12 d9f0 2609
00000140: 3298 3414 cef7 e913 40df bb80 d4e5 0604
00000150: cce5 570c 399c 1703 6edd 458a 4894 9510
00000160: 08e2 5a04 2c5b c008 e081 d313 3ce6 1013
00000170: 5e54 cf11 8b89 371a d49a ec0f 3cfb 8204
00000180: 7c33 0508 08ca 9881 788a 2c12 7c67 0d08
00000190: 74ad 7c13 22ef cd13 c26b 5c13 f49f 8395
000001a0: 5806 4e14 996a 2107 bc72 d701 7858 a080
000001b0: a8d2 c713 6057 9c0b fc30 e711 1c18 3313
000001c0: 0a81 6208 7c5d bf01 6464 5f0d acc0 8d99
000001d0: 7838 2f13 4e8e ac81 1e32 2482 6894 5b13
000001e0: e063 4781 329f 570e 98ec b511 0ead 9c12
000001f0: c884 cd0d 80b4 a011 1454 358b 606d ef0b
00000200: 8297 1907 5884 8309 daa9 c80f b674 aa12
00000210: e230 150f 686a b312 92e7 2102 e838 150d
00000220: 30aa 5d13 c8e2 f310 5c95 7812 da36 e499
00000230: 167b 3419 a61e 3713 4422 aa0d baa4 c111
00000240: 36e9 c810 c26c 1d82 8e77 c612 9085 2d12
00000250: f061 d289 288a 379a 989f 8f0d ac21 5e01
00000260: b4de 2a94 2a67 2502 08da 9c08 7cc7 390a
00000270: 00b2 4182 facf 2912 5430 b799 0cfa db08
00000280: 5c47 9613 9138 0002 50f5 b80b 1092 6903
00000290: 4e66 dc0f 98fe cf85 e22b 5c13 2aed aa01
000002a0: 7a98 0603 6cd3 4a0c 8211 580e 426e fc01
000002b0: 6a52 5312 63fb a702 14e4 6701 9cc1 db01
000002c0: 8840 c511 a42f 6d81 dc4f e411 702a 1a13
000002d0: e74b 4d82 901b 600c fc5d 0119 626b 1813
000002e0: caaa 4519 56dd 5812 d8b9 8f01 00ec d20a
000002f0: 9c28 ba12 8afc 8512 ecdb 8d01 e02b 0a11
00000300: 562c 240b 6a04 9c12 8cd5 b694 d8b6 1901
00000310: b183 021a 000c 0791 9e6d de99 0e03 0813
00000320: 546f 9181 ead1 de01 68e2 0c88 bc7d 1a13
00000330: b272 ca19 3878 4c00 5088 8a11 f435 9a98
00000340: a68f 3012 920c 9981 7bf1 ca99 3250 0b02
00000350: 9879 6c08 28ed 8380 7046 060c a0d2 d50e
00000360: 6c59 6c04 f01f 0612 2164 7005 805d cc01
00000370: dcaa dc01 2ca4 8d10 e079 3501 9240 bc13
00000380: d049 6906 c8cc b308 f4ba 068e 48e8 0181
00000390: 4681 9d12 588f 2c99 e002 5911 744f 2d81
000003a0: c6b3 9508 ac30 9f12 c4cb ec01 ba30 bc8d
000003b0: 0ae1 910f 6e4e c301 9855 0c80 1acc 100c
000003c0: 70c7 0913 aedd 0113 42bc 3114 5270 bf11
000003d0: 40ae c613 4cd0 7a12 509c fc8d 8fb2 2682
000003e0: 8418 9211 66ea 9e11 caba cb12 7c19 340a
000003f0: 1099 3c01 8496 d312 1e93 8513 b0aa 2211
7.928132e-38 1.3873056e-28 1.7590697e-27 1.4927216e-28 3.5073103e-27 3.7493511e-31 1.6098517e-31 6.7070337e-28
8.9294864e-38 4.428088e-23 1.1133895e-27 6.581119e-30 1.7891107e-35 2.7747554e-27 -1.8079157e-26 3.1591594e-31
3.36034e-33 3.811276e-32 4.80735e-39 4.561914e-27 6.149806e-39 -4.2529866e-24 1.6136799e-28 6.19085e-29
-1.5350823e-23 3.9379605e-27 2.7427313e-29 -1.7877964e-23 7.8593573e-38 2.290482e-27 1.1547814e-25 7.1226516e-23
7.575828e-35 1.6969153e-38 2.7397871e-27 -7.558255e-25 -5.068037e-38 3.0187594e-28 3.785762e-29 4.283011e-36
2.3816893e-27 -2.498607e-23 -2.5036428e-38 1.573026e-27 9.0264115e-27 9.285875e-24 4.927703e-38 4.3495354e-23
9.855572e-34 1.5645469e-27 3.0617476e-28 1.2996935e-24 1.2553864e-35 8.1190486e-23 -4.53729e-40 1.0576113e-30
-7.2859785e-38 -6.757759e-31 5.5384696e-36 -3.2318737e-33 3.7309067e-38 2.3778104e-35 -5.3389656e-31 5.9804004e-32
2.4664121e-27 5.8398155e-31 1.7024264e-37 1.8013977e-28 5.0121433e-32 4.1441295e-30 -9.4919215e-24 3.2566073e-37
4.1808478e-32 9.284032e-36 1.8352048e-27 1.2091023e-27 -1.1678353e-37 1.9025747e-28 5.367636e-28 2.009477e-33
9.117693e-27 5.9061823e-27 -1.7253325e-38 1.5857156e-36 1.663215e-31 4.4554247e-37 -9.526851e-33 5.89986e-29
2.5729565e-36 1.1577014e-33 5.3391955e-27 1.828887e-27 3.2710837e-28 3.795462e-23 2.3331034e-29 3.0793575e-36
4.008375e-34 -5.612588e-38 5.4444306e-28 4.255229e-34 3.189239e-27 5.198508e-27 2.7821033e-27 -5.316284e-26
1.0401593e-26 1.214362e-34 7.914316e-38 -1.4725416e-38 5.0442386e-27 6.022048e-32 3.6475563e-28 2.2604863e-27
6.8161086e-34 7.029646e-38 6.883802e-31 -1.4656878e-23 2.2115947e-27 -6.338702e-38 -1.20632e-37 2.7714856e-27
-3.6622184e-38 2.6577446e-30 2.8702577e-28 9.887645e-28 1.2666066e-30 2.535479e-28 -3.4922585e-32 9.222402e-32
1.1554965e-34 3.166156e-33 1.9786947e-29 1.075728e-27 7.355682e-30 1.1322719e-27 1.1894869e-37 4.598267e-31
2.797803e-27 9.619601e-29 7.84391e-28 -2.3596802e-23 9.330639e-24 2.3112958e-27 1.0485308e-30 3.0551552e-28
7.924541e-29 -1.156575e-37 1.2525029e-27 5.4753803e-28 -5.064776e-33 -3.7955115e-23 8.851476e-31 4.079912e-38
-8.626727e-27 1.2151892e-37 9.440167e-34 8.944945e-33 -1.4230484e-37 5.358335e-28 -1.8941276e-23 1.3239369e-33
3.793569e-27 9.420189e-38 7.124333e-32 6.8640217e-37 2.1733081e-29 -1.955971e-35 2.778954e-27 6.278845e-38
3.9554095e-37 1.5625136e-31 2.6632485e-30 9.272839e-38 6.6681444e-28 2.4682733e-37 4.2591637e-38 8.072571e-38
3.112089e-28 -4.3564206e-38 3.6021274e-28 1.9458456e-27 -1.5082804e-37 1.7264627e-31 6.688124e-24 1.9238041e-27
1.0219152e-23 6.84304e-28 5.2796577e-38 2.0311038e-32 1.1748261e-27 8.455736e-28 5.211079e-38 1.08998e-28
3.1618606e-32 9.846072e-28 -1.8461533e-26 2.8232846e-38 2.698975e-23 -1.065332e-28 -2.2998536e-23 1.716712e-27
-5.3424336e-38 8.185113e-38 -4.2395857e-34 1.9499525e-27 2.0932636e-23 7.022624e-39 2.185657e-28 -3.9862546e-24
5.571287e-28 -5.622136e-38 -2.0983844e-23 1.0235122e-37 7.11616e-34 -1.2115526e-38 1.0344181e-31 5.271138e-30
2.7782727e-36 4.232231e-28 1.13031365e-35 7.507193e-38 8.106041e-38 5.586764e-29 3.333189e-38 4.7521543e-27
4.3876658e-35 1.08213145e-33 -1.660679e-30 -2.3860212e-38 9.939961e-28 -8.92114e-24 1.7119168e-28 -3.1832086e-38
9.009876e-34 1.0046309e-27 8.69851e-38 -1.1598125e-30 1.4384786e-29 7.174423e-38 -1.132731e-39 1.1154776e-31
1.7390161e-27 1.6391386e-27 8.973344e-27 3.020371e-28 5.015405e-27 7.9142836e-28 -1.556833e-30 -1.2246998e-37
2.3049847e-28 2.5072464e-28 1.2857148e-27 8.671478e-33 3.4639964e-38 1.3353077e-27 3.371899e-27 1.2832144e-28
