stk-code/src/model/soccer_ai_model.pt (torch, 762303 bytes, 11 tensors)

weight f4 [512, 20]
00000000: 7865 1b3d 7363 143e 9c9d e4be de66 2d3e
00000010: dca2 3abf 0393 883f 755b 443a 6918 15bf
00000020: f1ee bebb f5b2 4a3f 5529 ba3f 97e2 34bf
00000030: 5c47 c83f aae6 e33f f4a7 babe 5d98 eb3e
00000040: d5f8 4f3c 3885 50be 49fb 56be 210b f0be
00000050: 138c 55bd 46e5 643f 9cd9 a93f 05f7 2c3f
00000060: c15f 1b3f 8179 ae3c f907 313f 8730 9abf
00000070: 436e 4a3e 2992 1dbf 0510 e23e 4cd0 31bf
00000080: f3fa 793e eb8a 9b3f 95c2 55bf 4f36 3c3e
00000090: 2ede ab3e 3b0a 06be b164 d5bd 8359 ea3c
000000a0: c0ad 213e 524e bd3f d527 093f 076b bb3f
000000b0: f707 543f f77b b63f ec67 27c0 98c9 25bf
000000c0: c6e4 6740 fd2d e8be 1ccc f3bd a9c7 73bf
000000d0: 9ad0 b6be 1bc3 9b3f 20d6 8dbe 66d5 f2bf
000000e0: cce1 8ebf e31f f53e 826b 34be f6c0 63be
000000f0: fdeb 623e 750e ff3f d4bb 8c3f 875e 1240
00000100: 2ee2 833f 992d fb3f 9c15 22c0 9912 88bf
00000110: 029e f03d 4667 4cbf a46a 9bc0 a9fc 52bf
00000120: 36c0 53be 6f9c 753e f654 a8be 722e 883b
00000130: 6188 a3bd 7d99 e53e 7808 8abd 3299 f93d
00000140: 5124 6b3e 4631 49be b550 da3e a0d6 a53a
00000150: baac 323e e79f ebbe 5f86 d83c da8c 7ebd
00000160: f122 4ebd 175a 15bf 4ab9 6a40 c731 283f
00000170: 58ac 47bf 26f6 eb3d 13f9 b4be 12f9 613e
00000180: d3a3 fabe 0ff3 aa3e 4a4d 52be affc e83e
00000190: 56c1 f6bd d704 5d3e 8f97 d8be fd7f b23e
000001a0: 9b04 0abf 444a bfbe 3454 bfbf e999 24bf
000001b0: 1ee7 16bd 8416 39be 41c7 bfbf 12b8 c9be
000001c0: d3ba a63e 6cc9 263e da88 3b3f 3dfb b93d
000001d0: c06c debe dde5 eb3e 04b8 30bd 1480 d1bf
000001e0: bd2d 2fbe 70c5 49be aaec 1a3f 80bc fdbe
000001f0: bea4 113d 37d9 e13e 04fb 733e e216 d7be
00000200: 6b52 2cbd 6e43 91be 0f7d a940 1f21 6a3e
00000210: 529b 37bf 50d2 893e 487a c5be bfea db3d
00000220: 6830 ed3f 4b9f e0bf c5ff ba3d e83c 443e
00000230: b5ec c23b 17f7 19be 3294 c9bc 61e1 29be
00000240: 63d4 12bf abe3 45bd 7ccb 9c3c 93a0 2abe
00000250: 2f6a 133d 9c36 cabe 331f f43e b6c7 4cbf
00000260: bfb5 77bd d3a0 cd3d d96c f23b 792e d7bd
00000270: 8b3b 123e 7b5f 9a3d 050e 4fbd e484 703d
00000280: 8373 743c 4615 d0bd 63eb 8b3f efcb 5ebe
00000290: a112 673f 92e0 383e db17 253c c505 f7be
000002a0: a0a8 403c 7c7b 8dbf ad61 6e3e 3d9f e1bf
000002b0: 398b 99bd 056d 1dbe f6ad bb3a 7dd0 b8bd
000002c0: 791f d23d 2de9 ab3e 2550 5abd 8c66 93bd
000002d0: 7b38 c0bf 0424 80c0 6faa a33e 101c 80c0
000002e0: 02de 433f fd04 503f 8c37 ebc0 12ac 53bf
000002f0: 946f 2cbe 18d2 6cbf 37b7 63c1 b850 083f
00000300: ab62 3140 e208 793f 1738 f9be 25b4 0d3f
00000310: b80e 32bf 273d c43e e41e 78bd 7f17 603f
00000320: 5297 903f 0e46 6440 2c7b 3b3f 1feb 7940
00000330: 2d01 743f e6df 3040 5168 c340 c74d d8bf
00000340: 01a7 9a3d ecaf 223e 6af0 e440 a1e0 a8bf
00000350: ad83 4dc0 02f6 c5be 5e68 b33f a6d1 1a40
00000360: ea27 afbe 389c 423f 27d8 2cbe 8637 7fbf
00000370: 661c b03c 19aa fcbe f448 cc3e 758e d1be
00000380: a310 fcbd db93 2cbd 06ab a4ba e382 afbe
00000390: 1204 643d 2a9e 29bf e6e2 3c3f 9113 61bf
000003a0: c079 a9bd 9e29 813d 06ec 00bd 43f6 0abd
000003b0: a0a6 5a3d 0d22 0b3e 594b 32be f718 c83d
000003c0: 1f58 7d3e 09ec 113e cb37 b43e c68b 893c
000003d0: 77f9 ddbd 7942 be3d c627 2ebf fdf4 5ebe
000003e0: d691 ddbd b07a 93bd 9eb5 ecbe 5a06 2b3f
000003f0: 2ec9 8d3e b50e 6fbe 3636 45be 9baf 1fbe
0.037938565 0.14491062 -0.44651496 0.16933772 -0.72904754 1.0669864 0.0007490435 -0.5824037
-0.005826824 0.79179317 1.4543864 -0.7065825 1.5646777 1.7804768 -0.36456263 0.4601468
0.0126936035 -0.20363319 -0.20994295 -0.4688349 -0.05213554 0.89412344 1.3269534 0.6756442
0.60692984 0.021298172 0.6915279 -1.2046059 0.19768624 -0.6155115 0.44152847 -0.6945846
0.24412136 1.2151769 -0.83500034 0.18380092 0.33567947 -0.1308984 -0.10419596 0.028607136
0.15788937 1.4789526 0.53576404 1.4642037 0.82824653 1.4256581 -2.615718 -0.6476073
3.6233382 -0.45347586 -0.11904165 -0.9522653 -0.35706025 1.2168916 -0.27702427 -1.8971374
-1.1162658 0.4787589 -0.17619136 -0.22241578 0.22160335 1.9926287 1.099482 2.2870195
1.03034 1.962329 -2.532569 -1.0630676 0.117488876 -0.7984508 -4.8567677 -0.8241678
-0.20678791 0.23985456 -0.3287732 0.0041559273 -0.079849966 0.44843665 -0.067398965 0.12187423
0.22963072 -0.19647703 0.426397 0.0012652464 0.17448702 -0.46020433 0.02643126 -0.062146045
-0.05032629 -0.5834059 3.6675591 0.65700954 -0.7799735 0.115215585 -0.3534628 0.22067669
-0.48953113 0.33388564 -0.20537296 0.45505282 -0.12048595 0.21583878 -0.4230313 0.34863272
-0.5391328 -0.37361348 -1.4947572 -0.6429735 -0.036841504 -0.18074995 -1.4982682 -0.39398247
0.3256441 0.16287774 0.73255694 0.09081123 -0.43442345 0.4607381 -0.04314424 -1.6367211
-0.17107292 -0.19704223 0.6051737 -0.49557877 0.0355575 0.44111034 0.23826224 -0.42009646
-0.042070787 -0.28371757 5.296516 0.22864197 -0.71721375 0.26918268 -0.38569856 0.10738134
1.8530397 -1.7548612 0.091308154 0.19163859 0.005948628 -0.15035664 -0.024606798 -0.16589881
-0.57355326 -0.048312824 0.019139998 -0.16662817 0.035989936 -0.3949479 0.47680053 -0.79992235
-0.06047606 0.100404404 0.0073982296 -0.10506911 0.14280526 0.07537743 -0.05055048 0.058720484
0.014920118 -0.101603076 1.0931209 -0.21757482 0.902628 0.18054417 0.010076488 -0.4824659
0.011758953 -1.105331 0.23279448 -1.7626721 -0.07497258 -0.15373619 0.0014318812 -0.09024141
0.10259909 0.33576337 -0.053299088 -0.07197294 -1.5017236 -4.0043964 0.31965968 -4.0034256
0.7651063 0.8125761 -7.3505306 -0.82684433 -0.16839439 -0.9250808 -14.23223 0.5324817
2.7716472 0.9727918 -0.48675606 0.55353004 -0.6955371 0.38327906 -0.060576335 0.8753585
1.1296179 3.5667758 0.7323482 3.9049757 0.95314294 2.7636657 6.106484 -1.6898736
0.07551385 0.15887421 7.1543474 -1.3193551 -3.2111619 -0.38664252 1.4016225 2.419046
-0.3421014 0.7601962 -0.1687933 -0.996941 0.021497916 -0.49348524 0.3989941 -0.40929
-0.12307861 -0.042133193 -0.0012563176 -0.34279546 0.055667944 -0.66256964 0.7378372 -0.8792048
-0.08275175 0.06306766 -0.03147509 -0.03392626 0.053381562 0.13587208 -0.17411555 0.09770387
0.24740647 0.14250197 0.35198817 0.016790282 -0.10838597 0.092900224 -0.6802944 -0.21773143
-0.108188316 -0.07201135 -0.46232313 0.66806567 0.2769255 -0.23345454 -0.19258961 -0.15594332

bias f4 [512]
00000000: 659f 9dc0 957c 19c0 473b 1ec1 62fd 7dc0
00000010: 42fa 0940 a6fe 7bc0 501a f8bf e806 2dbf
00000020: 6ab0 37bf bbb6 df3f 58bf 163f 328e 0abf
00000030: bfb3 79bf 1ea4 74c0 72a2 6140 fee8 1fbf
00000040: 4008 e8bf cb62 11c0 be80 2ebf e8f1 cfc0
00000050: a954 a5bf 46c0 7dc0 4d85 28bf 23a1 4cc0
00000060: b99a 96c0 8b74 56c0 432f 12bf 4dfc e23e
00000070: e951 2fc0 7b0a af3f ab7c 4ac0 7130 0b40
00000080: 78ef 25c0 406d c43f c410 0240 5d32 89c0
00000090: f5fd 5fc0 5a94 2c40 d6b1 74bf 6ce9 45bd
000000a0: 7afe 3340 503b 9ac0 f494 2dc0 3bae 86c0
000000b0: e1a4 0abf bad1 0fc0 3e3c 98bf ae18 0ebf
000000c0: 4719 b2c0 7e73 cf3e e663 c0c0 8103 9cc0
000000d0: 4325 a5c0 06b7 55c0 53c5 9cc0 0ff6 f4bf
000000e0: 0c6d 81c0 67b5 37c0 c96d 75c0 9c3e ee3d
000000f0: bf7d 1abc 23b1 fbc0 de07 49bf 7511 b9be
00000100: 6eb9 a23f 0fbd 0cc0 9579 88c0 d823 3bc0
00000110: b0b1 25c0 8138 33c0 f816 0340 2a90 d2c0
00000120: 5865 ea3e b135 3e3f 3c71 5340 2437 ac3f
00000130: 8e60 49c0 2e58 55bf 54aa 9dc0 8288 cdbf
00000140: 37e6 e6c0 83b9 66bf d3db 35bf d09b 0c3c
00000150: 6e3a 1fbf 9181 0bc0 9d5a 94c0 5f28 8cc0
00000160: cb97 63c0 60e4 bec0 9cc7 7ac0 b064 7b40
00000170: 0997 4fc0 6526 cabe 0820 d1c0 9fc4 1ebf
00000180: c99f d3bf 1ba4 74c0 1b26 5bc0 b22a d5bf
00000190: 6d91 33bf 045e a5c0 f1ed e5bf bd3e 203f
000001a0: fb63 78c0 b23b 44c0 205a f4bf 4233 23bf
000001b0: 7f3a eebf 9734 f2c0 21e2 a8c0 f6a4 bebf
000001c0: 6c50 4ac0 3ccd e0bf bca6 0640 62fe 723f
000001d0: cf4c 84c0 93ba dcc0 7d84 20c0 55d9 4cc0
000001e0: 6beb 0cc0 8a9d e1c0 fede 94c0 b1e5 38c0
000001f0: 686b a6c0 8b8e b8c0 a6c6 67bf f487 f9bf
00000200: 553b 1dc0 6d2d 83c0 6320 38c0 45e8 14c0
00000210: d345 84c0 23cd c3c0 c11e 4dc0 2a32 86c0
00000220: c640 2f40 e4fd c1c0 7b7b 71c0 2a8f 87c0
00000230: c271 5c40 b6aa 753f 8346 85c0 24af 7cc0
00000240: 996d 83c0 001f 8ebe c5f4 0740 5e5b 72c0
00000250: 6abf 27c0 855e a53f 5bc1 0ec0 364a 91c0
00000260: 225c 01c1 98ec 4ac0 892b d1bf 6a6a 96c0
00000270: 80ac d3c0 37a5 1dc1 3254 28c0 9af6 7fc0
00000280: a88a 77c0 7c20 d6c0 96ee a9c0 522c 0ac0
00000290: aaf5 533e f105 c4c0 251a 91c0 31d7 58c0
000002a0: 3fc5 64c0 d615 65c0 71ec 34c0 c157 b7c0
000002b0: 3420 eebf 8efa 80c0 27a7 fabf 1454 82c0
000002c0: b920 3fc0 6779 20c0 47db d43f 09a4 39bf
000002d0: 4afa 75c0 855d f8c0 e1c7 c8bf f9e6 a33d
000002e0: ff8f 21c0 630b 1ac0 5d60 a5bf 28b6 16c0
000002f0: d8e6 93c0 7ac9 91bf a641 83c0 d41e 9fc0
00000300: 4ed3 0dc0 cd7e 01c0 45a6 18c1 7625 823f
00000310: 6b4e 17c1 aa5a b8c0 db39 debf b014 c13f
00000320: dfd5 10c1 904c a4c0 222f 26be 23d4 f2bf
00000330: ab2c 0ebf 4a03 8d3f 2547 71c0 7116 6ec0
00000340: c3c6 1a40 19af a6c0 e954 9ec0 3061 a740
00000350: 097b 183f b129 adc0 02e7 d2c0 e505 a440
00000360: 72b7 81c0 bdf5 6dc0 3406 5140 4750 eebf
00000370: fc4e dec0 7a46 2ebf 76f7 2240 50bf e33f
00000380: 771c aac0 7038 523f 11e9 1bc0 57a5 58c0
00000390: 4a2b d2bf 5a12 4bc0 3560 aec0 0974 babe
000003a0: 0cce 82c0 5b0a 5fbf c2b3 93c0 bb8f f2bf
000003b0: f941 7abf f534 9fc0 dcf1 8cbf 86c4 89c0
000003c0: 2c0a 96c0 8317 2c3f dc5e 99bf b3df 85c0
000003d0: 5fd2 0fc0 3bbe bdbf 9c41 0ec0 bf34 623f
000003e0: dbec 72c0 4216 36c0 ef0e 8dc0 c30d b7c0
000003f0: 9c8d a4c0 e13d 99c0 81f8 28c0 e564 0f40
-4.9257073 -2.398229 -9.889472 -3.9685903 2.1558995 -3.9374175 -1.938303 -0.67588663
-0.7175356 1.747764 0.5888572 -0.5412322 -0.97539896 -3.822517 3.5255399 -0.6246489
-1.8127518 -2.2716548 -0.68165195 -6.4982796 -1.2916461 -3.9648604 -0.658284 -3.197335
-4.706387 -3.3508632 -0.57103366 0.44333115 -2.7393744 1.3675073 -3.1638591 2.1748316
-2.592741 1.534584 2.0322733 -4.287398 -3.4998753 2.6965547 -0.95583856 -0.04831831
2.812407 -4.8197403 -2.7122164 -4.2087684 -0.54157835 -2.2471757 -1.1893384 -0.5550641
-5.5655856 0.405178 -6.0121946 -4.8754277 -5.1607985 -3.3392959 -4.8990874 -1.9137591
-4.0445614 -2.870447 -3.8348258 0.116330355 -0.009429394 -7.865373 -0.7852763 -0.3614613
1.2712839 -2.1990392 -4.2648416 -2.9240627 -2.5889702 -2.8003237 2.048277 -6.580098
0.45780444 0.74300677 3.3037863 1.3454328 -3.1465182 -0.83337677 -4.927042 -1.6057284
-7.2156024 -0.9012682 -0.7103855 0.0085820705 -0.6219853 -2.179783 -4.636061 -4.379928
-3.5561397 -5.965378 -3.9184332 3.9280205 -3.2435935 -0.39482418 -6.53516 -0.6201877
-1.6533138 -3.8225162 -3.4242008 -1.6653655 -0.7014378 -5.1677265 -1.7963239 0.6259573
-3.8811023 -3.0661435 -1.9090004 -0.6375009 -1.8611602 -7.5689197 -5.2776036 -1.4894092
-3.1611586 -1.7562633 2.1039267 0.9491941 -4.134376 -6.897775 -2.5080864 -3.200765
-2.2018688 -7.050481 -4.6522207 -2.8890193 -5.200611 -5.7674003 -0.9053749 -1.9494615
-2.4567463 -4.099295 -2.8769767 -2.3266766 -4.1335235 -6.118791 -3.205002 -4.1936235
2.7383285 -6.0622425 -3.7731616 -4.236226 3.4444432 0.9596361 -4.1648574 -3.9481897
-4.1071286 -0.27758026 2.1243145 -3.7868266 -2.621058 1.291947 -2.2305515 -4.540309
-8.084993 -3.1706905 -1.6341411 -4.70049 -6.614807 -9.852836 -2.6301389 -3.9994264
-3.867838 -6.6914654 -5.3103743 -2.158955 0.20699182 -6.1257253 -4.5344415 -3.3881342
-3.574539 -3.5794578 -2.8269312 -5.729462 -1.8603578 -4.0305853 -1.9582261 -4.0727634
-2.9863722 -2.5074098 1.6629418 -0.7251592 -3.8434014 -7.761416 -1.5685998 0.08003039
-2.5244138 -2.406945 -1.2920033 -2.354868 -4.621929 -1.1389611 -4.1017637 -4.972513
-2.216022 -2.0233643 -9.540593 1.0167682 -9.456645 -5.7610674 -1.7361406 1.5084438
-9.052215 -5.134346 -0.16228917 -1.8970989 -0.5553691 1.1016629 -3.7699673 -3.7201197
2.4183815 -5.208874 -4.947865 5.2306137 0.59562737 -5.4113393 -6.590699 5.1257195
-4.053643 -3.7181237 3.2660036 -1.8618249 -6.9471416 -0.6807629 2.5463538 1.7792759
-5.3159747 0.82117367 -2.4361002 -3.3850915 -1.6419461 -3.172995 -5.449244 -0.36416653
-4.087652 -0.87125176 -4.615693 -1.8950113 -0.97756916 -4.9752145 -1.101131 -4.3052397
-4.6887417 0.67223376 -1.1982074 -4.183557 -2.247215 -1.4823679 -2.2227545 0.88361734
-3.7957065 -2.8451085 -4.408073 -5.72043 -5.1422863 -4.7888036 -2.6401675 2.240533

weight f4 [256, 512]
00000000: 9069 86be 82fc f13e 7a15 1d3d 100c 8340
00000010: ec47 3b40 2055 76bf 2702 db3f 8bb4 9c40
00000020: 74ce 9a40 63ed d4be 0c72 74be 4155 9140
00000030: 4ade a240 3da8 2540 070e 61be ef4c 2041
00000040: 5080 b640 255f 2740 0bad d140 b1d0 0e40
00000050: aabd 9240 3a1b 8cbf 040b 6ebf 9622 6d40
00000060: 1477 6b40 257d 76c0 f427 0241 0d5b 3541
00000070: 1749 74c0 95ee 3bbf ddd3 6d40 1ada f43f
00000080: 3628 ac40 56de d63e 2a15 8340 628b cfc1
00000090: 4d6d 6dc0 3c05 0640 066a fd40 9d60 b140
000000a0: dfc3 283c 258d 4e40 3c12 af3f b1eb 94c0
000000b0: b120 ae40 5635 31be 5b4e 50bf 0985 5abf
000000c0: b179 1440 f0a3 c93e f6de 7640 5499 3fc0
000000d0: e15d 6940 80f2 313f de98 2740 106c 6a40
000000e0: 35d7 bac1 6b96 f1bf 1aeb 88c0 a0fb 3d3f
000000f0: 192c 8040 8026 f2bf 3ee5 8bbf e0d3 bd40
00000100: 0bab c73e 5bc0 7ebf b21b f33f e2fe 34be
00000110: 53e5 34bf e77b d840 993c d43f 86a1 2ac0
00000120: f432 8d40 1b0e 19bf 05fc 9a3e 9788 5e40
00000130: 5aa7 2b3f 0329 6540 be9a c4bf 3df5 0741
00000140: 1af5 013f db2a 3340 1e2d af40 4d99 4e40
00000150: 0519 0741 d50d 5bc0 db93 74c0 2e9f 33bf
00000160: 2e18 cc3e 8100 fd3e 61b3 8840 118c 8b3f
00000170: f2f1 febf af5e 97bf dad4 733f f688 b640
00000180: dac5 cabf 0cea a440 d195 c7bf b27b 3a40
00000190: b18c 4240 82d3 3d40 d087 5e3f 682a f23d
000001a0: 4cb4 4abe de1a 1fc0 15b6 20bf f899 9740
000001b0: 7df9 8d40 1f1b b4bf dedc 82bb 8e93 5e40
000001c0: ab74 8bbf a884 f4be 812c afbd 488c a53f
000001d0: bed9 80bd b8ff 62be 91a7 1e3f 191e 3240
000001e0: 89e6 2c3f ebcf e83e 9716 4fc0 5bdb 7fbf
000001f0: 6491 8940 cafb 8b40 1e4a b240 60f8 5bc0
00000200: 6a62 1040 a9b1 cac1 db09 fa3f 0313 0740
00000210: 21ff 71c0 1896 713f 8007 013f 6794 6e40
00000220: 30d8 8f40 6f92 bbbf 9fd3 f93d 8392 cac1
00000230: 9597 3f3f 0e40 2541 6abd bec1 0fe1 dac1
00000240: f429 d83f 77c3 ea40 8df0 78be 2431 ae3f
00000250: 3421 7e40 baa9 3741 a861 ae40 f7a6 3fbe
00000260: f134 cd3e 400c 1e3f df81 6140 b9e0 3cc0
00000270: 7a4b aac0 20a1 0940 f0e2 5f40 107c dc40
00000280: d5c2 7740 2f27 6abf 8280 3740 cfda 9240
00000290: b442 cebd 1665 fc3f 9c12 1dc1 fee0 6fc0
000002a0: 842c 1bc0 066d bec0 ad09 8e40 1606 ef3c
000002b0: 81aa cb40 fb51 e93f c3bd 4940 dd0a 5f3f
000002c0: ae2e 9140 ffc6 f140 9fe2 0c41 2037 a5be
000002d0: cd58 0e40 85ec e3c0 ec27 87bf 9e80 0240
000002e0: 62b9 5c40 114f c5be 6414 9b40 64bd 8bbe
000002f0: e4df 4ebf 9783 3dbf b9a4 e5bf 347d 013f
00000300: 11f3 21c0 9904 8840 ec22 9540 0dd6 0641
00000310: 81f9 45bf f19e a33f 6f77 e340 a31e 3e41
00000320: ba93 a83f 8d2a 26c1 58b9 7440 7c3d cd40
00000330: 7747 cf40 0c8c 2ebe c724 33c0 1018 e63f
00000340: a303 5fbc b5dd dabe 3c4a a8bf f627 86be
00000350: 8e34 c0be 8ea0 0f3f aae9 5b40 1da0 cbbd
00000360: 707e 20c0 c4d2 32c0 2076 3f3f 8c1d 4b3f
00000370: 90f8 8cbd 7b9c a840 c9b2 b640 177c 1d41
00000380: 8d37 98bf bb84 c040 e087 42c0 540d 6b40
00000390: 020b 9f3f fb10 9240 e8ac b7bf a62e 9a40
000003a0: 8faa 5d40 e54a 7f40 4a83 8fc1 0098 4440
000003b0: a2e2 8dbd dc8c 1b40 385d d140 2aed ccc1
000003c0: 4217 67c0 0d46 0d41 cdc9 ba40 5f50 14c0
000003d0: 7c5c 1cbd 97a7 6a40 292d 0abe 9b32 e840
000003e0: 95df f2bf fa78 6540 5c06 b1bf 9a9a 0b40
000003f0: dc8d 83bf 2fda 2f40 53b4 d240 0bcc bb40
-0.26252413 0.4726296 0.03835056 4.0952225 2.9262648 -0.9622364 1.7110032 4.897039
4.837702 -0.41587362 -0.2387163 4.541657 5.089635 2.5883934 -0.21978007 10.018783
5.703163 2.6151822 6.5523734 2.2314875 4.5856524 -1.0945809 -0.9298556 3.705236
3.679143 -3.8513882 8.134754 11.334729 -3.816961 -0.7341092 3.716056 1.9129059
5.3799086 0.41966504 4.0963335 -25.943058 -3.7097962 2.0940695 7.9191923 5.5430436
0.010300606 3.2273648 1.367744 -4.653771 5.4414907 -0.17305502 -0.8136956 -0.85359246
2.3199275 0.39382887 3.8573585 -2.9937334 3.646355 0.6951065 2.6187053 3.6628456
-23.355082 -1.8874029 -4.278699 0.74212074 4.005383 -1.8917999 -1.0929334 5.9321136
0.38997683 -0.9951226 1.8992827 -0.17675355 -0.7066242 6.765125 1.6580993 -2.6661086
4.41247 -0.5978715 0.302704 3.4770868 0.67052233 3.5806282 -1.5359724 8.497373
0.5076462 2.7994907 5.4742575 3.2281067 8.443608 -3.4227192 -3.8215244 -0.70164764
0.39862198 0.49414447 4.271897 1.090212 -1.9917586 -1.182577 0.9524666 5.704219
-1.584163 5.15357 -1.5592595 2.9137998 3.0398371 2.9660344 0.86925983 0.118244946
-0.1979534 -2.4860148 -0.62777835 4.737545 4.436705 -1.4070777 -0.0039936146 3.477756
-1.0894979 -0.4775746 -0.0855341 1.2933435 -0.06291531 -0.22167861 0.61974436 2.783087
0.6753927 0.4547113 -3.2357538 -0.99944085 4.298998 4.374486 5.5715475 -3.4370346
2.2560067 -25.336748 1.9534258 2.1105354 -3.7811968 0.9436965 0.5040207 3.7278078
4.49514 -1.4654063 0.12198567 -25.321539 0.7484067 10.328138 -23.842487 -27.359892
1.6887803 7.3363605 -0.24310513 1.3608747 3.9707766 11.478937 5.449421 -0.18716036
0.40079454 0.6173744 3.5235517 -2.951216 -5.3217134 2.1504593 3.4982262 6.8901443
3.8712666 -0.9146604 2.8672185 4.58921 -0.10071316 1.9718349 -9.817043 -3.7481074
-2.424592 -5.9508085 4.438681 0.029177707 6.3645635 1.8228143 3.1522071 0.8712595
4.536948 7.5555415 8.805327 -0.3226862 2.22417 -7.122622 -1.0559058 2.0391002
3.4488149 -0.38536885 4.846239 -0.2729293 -0.8081038 -0.74028915 -1.7940894 0.5058167
-2.5304606 4.250561 4.660513 8.4272585 -0.7733384 1.278288 7.1083293 11.88248
1.3170083 -10.385388 3.8238125 6.4137554 6.4774737 -0.17045611 -2.7991197 1.7976093
-0.013611707 -0.42747274 -1.3147655 -0.26202363 -0.37540096 0.5610436 3.4361367 -0.099426486
-2.5077171 -2.794114 0.7478962 0.7934196 -0.06883347 5.2691016 5.7093244 9.842795
-1.1891953 6.0162024 -3.0395432 3.6726885 1.2425234 4.564573 -1.4349642 4.8181944
3.463535 3.9889462 -17.939106 3.0717773 -0.069279924 2.4304724 6.5426292 -25.615803
-3.6107945 8.829602 5.837134 -2.3174055 -0.038174137 3.6664789 -0.1349379 7.2561774
-1.8974482 3.5855088 -1.3830066 2.1813111 -1.0277667 2.7476919 6.584512 5.8686576

bias f4 [256]
00000000: 8f24 3ac0 c71b 0cc0 1ec8 a4c1 6576 1040
00000010: 4705 66c1 32e0 28c1 a25b dc40 5906 66c0
00000020: c42a 443f 1b16 f5c0 3125 98c1 bde1 c5c0
00000030: 1a8a 1040 c291 a3c0 c87f 2740 2d0a 2440
00000040: f187 80c0 4697 0241 790d 24c1 41f4 10c0
00000050: acbb 4ebf c6af e740 cf78 00bf b79d 1741
00000060: b47b 10c1 8e93 9440 c29e fb3f a6c7 e540
00000070: e5ea a0bf 5cd2 9740 a0a7 a440 bc43 58c1
00000080: 0be8 74c0 ce26 92c1 f429 a340 ef2b 3340
00000090: b241 583f 4d15 1f40 edd5 8dc0 52e5 d6c1
000000a0: ea45 5ac1 ea1c b2be 9155 933e 435f 00c1
000000b0: 96ed 09c1 efe2 9040 c084 81c1 d25d 0640
000000c0: c941 3e3f 79e3 d840 490a ef3f 22d6 37bf
000000d0: 00cc 0cc0 f916 07c1 8668 cb40 a682 d93f
000000e0: 4ccf ca40 6d14 be40 69bb 0141 4526 8ac1
000000f0: 6c10 adc1 ab21 a8c1 bf57 dc40 9cef 08bf
00000100: 1709 8fc1 8aa2 b540 c25e 81bf 4e97 e840
00000110: 0134 91c0 9692 a640 1e02 9540 a0d8 80bf
00000120: f2da 9640 0f7c 2fc1 1643 d040 1f1b f440
00000130: b5c6 0340 f02d 6ec0 e13c 53bf c43d b0c1
00000140: 01cb 563d e238 a7bf 7e13 2fc1 8c70 d2bf
00000150: fe61 40c0 fb86 973f 2f26 cabf 3178 af40
00000160: e699 07c1 fcc9 0fc0 23ad 78c1 6e5f 0240
00000170: 9ece c5bf 6c6c 9040 cc74 c9c0 f6cf 21bf
00000180: 90cc 803f a73f 09c0 e332 8b3f fcf5 80c0
00000190: 6b90 5fc0 d229 d83f b6bb 8e3f 66eb 64c0
000001a0: 8e42 5040 bbef 50bf 3ae3 4dc0 6bd1 0ec0
000001b0: 9c4a 36c0 bbf8 b63f 5ff1 0341 ecd3 bf40
000001c0: c2a9 1240 8313 5640 ecfb a3c0 b465 b5c0
000001d0: c658 9940 9dc4 c3c1 394f 2bbe 1858 54c0
000001e0: 91e6 8ebf 69b6 4ec1 d2fc 86c1 795c 7140
000001f0: 8b7f 2ec0 1fcd 31c0 7ccb 683f c838 99bf
00000200: 0d30 f040 f6a7 8abf e3c2 80c0 7fd0 33c0
00000210: 43da f7bf b17e a23f 7b96 52c0 a418 8fc1
00000220: 217a 85c1 313e 30c0 7908 99c1 49a8 3cc0
00000230: 462e 0241 078a 93c0 dd9a a340 0f92 3340
00000240: 3103 9ac0 71f5 57c0 2e8a 7fc0 129a 80c1
00000250: 8e50 8140 0bee 0cc1 b523 ebc0 b90b 53c1
00000260: 54e8 d940 b58a ab40 97df ec40 1238 f7bf
00000270: 9632 ca40 ddf5 d2c0 f06f 46bf 64d2 89c0
00000280: 65e4 1dc1 73c6 2dc0 86a3 ccc0 7151 e6c0
00000290: 8476 df40 57ae 8640 c8c9 1f41 6eca 8bc0
000002a0: 1044 aa3f 3dbb 90c1 b609 75c1 8fab 92bd
000002b0: 3f2f b4be 526a fdbf 9115 49bf 1d32 35c1
000002c0: 700c 87c0 033f ee40 42ec 9cc1 4952 d93f
000002d0: 7249 e040 2b7a 9d40 abed 0641 c65e 05be
000002e0: 8cf4 ae40 0ed8 79c0 6729 e4bf b7c5 b6bf
000002f0: 44cb b9c0 7dc4 96c1 c1d1 7cc0 d518 ad3f
00000300: 8019 a2c0 08a9 d73e 91ee 45c1 d8bd 2d3f
00000310: caba bcbe 176b 01bf 0d87 b540 dd13 87c1
00000320: 2281 b3bf 92df 4b3f 6a86 d0bd 8490 e540
00000330: 6fb4 c140 24f4 9a40 ad12 9b3f 48e3 5fc1
00000340: 311c 76c1 0370 a0c1 f047 1dc0 8729 b23e
00000350: 7229 86c0 fe96 d440 e116 243f db6a 1f40
00000360: 6983 923f faa4 1dc0 3501 1941 ba62 b740
00000370: b5be 34c0 1cc1 633f d0a2 3b3f 6e7f cb40
00000380: 8a41 aabf 11bf 98c0 aa66 fa40 a75b ab3f
00000390: e92a 9b40 a4ae 363f 9c89 8ebf 59c4 bb40
000003a0: 303a 44c0 b4aa 3bc1 2834 99c1 1f2b 29c1
000003b0: af44 0fbc 140c 903f 6039 29c0 7214 c7c1
000003c0: 33b1 f640 3991 dd3f 9038 9c3f 915e d540
000003d0: 927f 8ac0 fddb 0240 360d ecbf 7162 d540
000003e0: b80f cf40 4ec6 b640 7259 8cc0 55a6 6940
000003f0: 984f 77c0 d104 6cc1 99cb 43c1 29cd 633f
-2.9084814 -2.1891954 -20.597713 2.2572262 -14.376288 -10.554735 6.8861856 -3.5941374
0.76627755 -7.6589484 -19.01816 -6.183806 2.258429 -5.1115427 2.6171741 2.563121
-4.0165944 8.161932 -10.253289 -2.264908 -0.80755115 7.2402067 -0.5018434 9.476005
-9.030201 4.643012 1.9657824 7.180621 -1.2571684 4.7444286 5.145462 -13.516537
-3.8266628 -18.268948 5.098871 2.7995565 0.84475243 2.485675 -4.432364 -26.861973
-13.642069 -0.34787685 0.2877622 -8.023257 -8.620504 4.527702 -16.18982 2.0994763
0.7431913 6.7777677 1.8675014 -0.71811116 -2.1999512 -8.443109 6.356509 1.6992996
6.337805 5.9399934 8.108254 -17.268686 -21.633018 -21.01644 6.885711 -0.53490615
-17.879438 5.676091 -1.0107043 7.26847 -4.537598 5.205394 4.6565084 -1.0066109
4.7142267 -10.967788 6.508189 7.6283107 2.059003 -3.7215538 -0.8251477 -22.030159
0.052439693 -1.3064234 -10.942259 -1.6440597 -3.005981 1.1838068 -1.5792903 5.483422
-8.475073 -2.2467031 -15.54227 2.0370746 -1.545368 4.513235 -6.2955074 -0.6320795
1.0062428 -2.14451 1.0874904 -4.0300274 -3.4931896 1.6887763 1.1151035 -3.5768676
3.2540622 -0.816158 -3.2169938 -2.2315319 -2.8483038 1.4294657 8.2464285 5.9946194
2.2916112 3.344941 -5.124502 -5.668665 4.7920866 -24.471003 -0.1672944 -3.3178768
-1.1164113 -12.919534 -16.873447 3.771269 -2.7265346 -2.7781446 0.9093549 -1.1970453
7.5058656 -1.0832508 -4.02379 -2.8096006 -1.9363483 1.2694913 -3.2904346 -17.887032
-16.684633 -2.7537959 -19.129137 -2.9477713 8.136297 -4.610599 5.112654 2.8057897
-4.8128896 -3.3743556 -3.9928088 -16.07523 4.0410833 -8.808116 -7.348109 -13.190362
6.8096104 5.360682 7.4022937 -1.9313986 6.318675 -6.5925126 -0.77514553 -4.3069324
-9.86826 -2.7152374 -6.3949614 -7.1974416 6.9832172 4.2087817 9.986763 -4.3684607
1.3302021 -18.091425 -15.314871 -0.071616285 -0.35192296 -1.9798071 -0.7854853 -11.324735
-4.2202682 7.445192 -19.61536 1.6978236 7.0089655 4.921163 8.433024 -0.13024434
5.467352 -3.903812 -1.7825135 -1.4279088 -5.8060627 -18.845942 -3.9503024 1.3523203
-5.065613 0.42121148 -12.370744 0.67867804 -0.3686126 -0.5055403 5.6727357 -16.884699
-1.4023783 0.79638016 -0.101818874 7.173891 6.0532756 4.8423023 1.2115074 -13.992989
-15.381883 -20.054693 -2.4575157 0.34797308 -4.1925592 6.6434317 0.6409741 2.490897
1.1446353 -2.4631944 9.562795 5.7308016 -2.8241398 0.88966537 0.7329531 6.3593054
-1.3301251 -4.7733235 7.825032 1.3387345 4.848988 0.7136023 -1.1135745 5.867718
-3.0660515 -11.729176 -19.150467 -10.573028 -0.008744403 1.1253686 -2.644127 -24.884983
7.709131 1.7309943 1.2204762 6.6677938 -4.3280725 2.044677 -1.8441532 6.668267
6.470669 5.711707 -4.3859186 3.650777 -3.864233 -14.751176 -12.237206 0.88984925

weight f4 [128, 256]
00000000: 21fb 953e 15aa 163e f54d 10be a530 103e
00000010: 7db7 8bbe a4c8 a6bd a2e1 4bbe c0b7 61bf
00000020: 2802 4abc b408 ebbc bdd1 e6be 07c6 6ebe
00000030: d682 9b3e ce12 3ebf 20d8 113e 3e43 b1bd
00000040: d120 90bd c8b5 e13d e953 6a3d d506 1b3d
00000050: a8cb cebe b73b 0abf ea83 4dbe 2242 8c39
00000060: 9da9 c9be b9c2 9d3e 2266 43be 816c 163f
00000070: ca73 7e3e 10f9 9f3d d29d 05bf b0e3 013e
00000080: d2f7 70be febd fabe f3df 6cbd febc 833b
00000090: 40b1 92be 8ec3 21be b735 16be db1b 9b3e
000000a0: 66fe 6a3e 5313 5dbd a187 5bbe fba3 75bc
000000b0: 1ee8 d3be 5b38 2fbf d05b afbe d772 01be
000000c0: 3b28 a6be 7cd2 97be 815a 733d c9c5 c83d
000000d0: 9f94 92be a316 d73d 16d7 2fbe d79e 0fbe
000000e0: da9a 2ebe ec97 7d3e 6814 0bbe 549f 103e
000000f0: 1459 11bd 25da eb3b 0688 f33e 58e8 4abe
00000100: 8d47 ea3c 0a40 173d 872c 14be 5d25 84bc
00000110: 2a46 7f3f d0e7 1d3e 511a 1bbe ee26 0c3d
00000120: f963 a73e bb09 003f f815 08bf b230 74be
00000130: 81d7 343e e6e4 4cbe a18d e9bd 5c29 203e
00000140: c963 aabe 836a c8bd 64cd ac3e 3a2c 8a3e
00000150: 8212 0a3f 5ef3 7a3e 2298 acbe 5e22 e0be
00000160: 4e5e 01be b099 3cbe ade3 8b3e fed0 e8be
00000170: 33fe d1be b10b 013f f6ba 25be 5183 dcbc
00000180: a68b 6cbc 3ddb c3be 1f34 133e 1b1b 9a3b
00000190: 66e5 cb3e 790b 85bd 28a8 9d3e 89a5 013f
000001a0: d517 063e dc26 283e 7ffb 29bf aa85 d63d
000001b0: d05b abbd bd1d 4b3e 5579 97be 400f 95be
000001c0: 2554 b03e 0ebd c13d 7107 ad3d 26ae b23e
000001d0: 6d85 2c3d 6315 e7bd 6406 9b3e 5dc9 d3bd
000001e0: db5e d9be 3e48 1fbe 5741 903d 25ea 41bd
000001f0: 7218 93bd 36ea e13d 4522 8abe 21d7 8d3d
00000200: 3e56 123e f5ce 70be f524 d43c 751e 053e
00000210: 271d 0cbe e98a c23c 9b60 ee3e b404 423c
00000220: c408 d73d e485 c9be 1852 313c ea37 853e
00000230: 4d5b bc3e 5b7f 733d fd62 883d ab9c 243e
00000240: 6738 48be 5b94 9cbe 5c62 cdbd 2c8a 193f
00000250: 12e8 6ebf 52b3 dabe a49a 2dbe 0ae2 903e
00000260: c0b6 67be b76d 763e df11 623e 98d9 21be
00000270: 3761 a93d fe8f 23be d669 98bd d46e 2bbe
00000280: bf15 12be 1e4b 083f aaba 963e d2a3 843e
00000290: 2b60 8c3e ac49 893e f849 febb a68d 92be
000002a0: 5685 3fbe 55d0 0fbf 4b18 e4bc 2cbc dcbe
000002b0: de0e 48be b140 853d fdba c33d 091e 09be
000002c0: eb12 89bc cbb6 ecbc 1ea5 613e e209 febe
000002d0: e916 353d 2814 b63e ba2c df3d d973 363e
000002e0: 76e3 733d c69d 3dbe 8af5 963c be31 97bc
000002f0: bfb0 983e 5c50 86be bc9b cdbe 7ae1 003f
00000300: ff2a 9fbd 3456 05bc 9e20 48be 158c 063e
00000310: e161 053e 9d53 4bbd 8dc7 633e ecc3 553e
00000320: 5b5c 873c b285 7b3e db17 a73e c01c 933e
00000330: dafd f13c aa4c b83d 79c1 a93e 3c59 b3bd
00000340: c30c b7be 4a26 2bbe 0b1c c43e ef5b c8bd
00000350: 71c4 71be a935 973c 1aa2 193d 9e75 cf3a
00000360: 0b3b 103e e3de adbd e5e8 3e3d c459 393d
00000370: 4211 c73e 5df2 773f de8d aabd 1ea0 82bd
00000380: cb23 803e 3686 9b3e 7327 c0be d194 b2bd
00000390: e8cf 6abe 487c fc3e e3ce 63bf c4c4 d0be
000003a0: f215 aa3e e2e0 a0be effd 193f 6555 143e
000003b0: c406 75bd 1bb0 7bbc f38f fa3d 8860 bd3d
000003c0: f423 e03e f5ed 24be df43 23be f99a 2a3e
000003d0: bdb3 89be 7196 b93c 3ce0 c4be d6ae 3fbe
000003e0: 7dcc 18bd 8d51 8f3e dca1 953e 29ae 313e
000003f0: 72e2 51bd 143c cd3d b47e 293e f484 943e
0.2929316 0.14713319 -0.14092238 0.14081056 -0.27288428 -0.08143738 -0.19910291 -0.88171005
-0.012329616 -0.028690673 -0.45081893 -0.23317729 0.30373257 -0.74247444 0.14242601 -0.086554036
-0.07037509 0.11021 0.05720893 0.037848312 -0.40389752 -0.5399737 -0.20069852 0.00026752154
-0.39387217 0.30812624 -0.1908193 0.58759314 0.24848858 0.07811177 -0.5219394 0.12684512
-0.23532036 -0.48973078 -0.057830762 0.0040203324 -0.28650856 -0.15797254 -0.14668928 0.3029469
0.22948608 -0.053973507 -0.21438457 -0.014992709 -0.4138803 -0.68445367 -0.34249735 -0.12641464
-0.32452568 -0.29652774 0.059412483 0.098033495 -0.28629014 0.105023645 -0.17171893 -0.14025436
-0.17051259 0.24764985 -0.13582003 0.14123279 -0.035485342 0.0071976357 0.47564715 -0.19815195
0.028598571 0.036926307 -0.14470111 -0.016131097 0.99716437 0.1542046 -0.15146758 0.034216814
0.3269346 0.5001485 -0.5315852 -0.23846701 0.17660333 -0.20009193 -0.11403967 0.15640777
-0.33279255 -0.097859405 0.3375045 0.26986867 0.5393449 0.245069 -0.33709818 -0.4377622
-0.1263363 -0.18418002 0.2732214 -0.45471948 -0.4101425 0.50408465 -0.16184601 -0.026918085
-0.014437592 -0.38253203 0.14375351 0.0047029383 0.39823455 -0.06496329 0.30792356 0.5064321
0.13095029 0.16421074 -0.6639938 0.10474713 -0.08367121 0.19835563 -0.29584756 -0.29113197
0.34439197 0.094598874 0.08448685 0.3489849 0.042119432 -0.11283376 0.30278313 -0.103411414
-0.4245518 -0.15554902 0.070437126 -0.04734244 -0.07182397 0.11031 -0.2697927 0.06925798
0.14290711 -0.23516448 0.025896529 0.129999 -0.13682996 0.023747878 0.4655808 0.011841942
0.10499719 -0.39359963 0.010822795 0.26019222 0.36788407 0.059447628 0.066595055 0.16075389
-0.19552766 -0.30581936 -0.10028526 0.5997646 -0.9332286 -0.42714936 -0.16953522 0.28297454
-0.22628307 0.2406529 0.2207713 -0.15805662 0.082704954 -0.15972897 -0.074420616 -0.16741496
-0.14266108 0.5323962 0.29439288 0.25906235 0.2741712 0.2681402 -0.0077602826 -0.28623694
-0.18703207 -0.56177264 -0.027843615 -0.43112314 -0.19536921 0.065064795 0.095571496 -0.13390364
-0.016732654 -0.028895756 0.22035643 -0.49616915 0.044211302 0.35562253 0.10897203 0.1781763
0.059543096 -0.18517217 0.018427629 -0.018456336 0.29822347 -0.26233184 -0.40157878 0.5034405
-0.07771873 -0.008138228 -0.19543692 0.13139375 0.13025619 -0.049640287 0.22244091 0.2087552
0.01652353 0.2456272 0.32635388 0.28732872 0.029539991 0.089989975 0.3315542 -0.087572545
-0.35751924 -0.16713825 0.38302645 -0.0978316 -0.23610093 0.018458204 0.037508108 0.0015827899
0.14085023 -0.08489778 0.046608824 0.045251623 0.38880354 0.9685419 -0.0832784 -0.06378196
0.25027308 0.30375832 -0.37530097 -0.08719791 -0.22930872 0.4931357 -0.8898756 -0.4077512
0.33219868 -0.31421572 0.60153097 0.144857 -0.059820905 -0.015361811 0.122344874 0.092469275
0.4377743 -0.16106398 -0.1594386 0.1666068 -0.26894942 0.022654744 -0.38452327 -0.18719038
-0.03730439 0.27991906 0.2922505 0.17351593 -0.051241346 0.100212246 0.1655224 0.29007685

bias f4 [128]
00000000: d76c 81c0 9f07 a3c1 d00c 65c1 e9bc 4cc1
00000010: 8af1 efc0 64e0 9fc1 61ff aec1 4550 0cc1
00000020: c040 dcbf 5aa7 45c1 5ba2 9ac1 315d 3ac0
00000030: 6267 7bc0 6d24 0ac0 2491 9cc1 140c 82c1
00000040: fba6 6bc0 0f3c 50c0 fdb8 efc0 3118 02c0
00000050: 3e33 e5bf fc54 95c1 f145 51bf 7be1 7dbf
00000060: 93fa 26c0 ef7a 1ec0 7c6d a6c1 bceb 33c0
00000070: 08c8 d5c0 c17d 82c0 ef87 51c0 6a6a 20c0
00000080: 282e 49c0 4f99 8ec0 528f 06c0 1bec 21c1
00000090: 545d 7fc1 8806 73c1 d37a b3c0 4598 43c1
000000a0: 7b70 10c1 4baf 56c0 9d3d 93c0 9247 11c0
000000b0: 94e1 2fc1 c266 6cc0 f15c 8ec1 ec82 57c1
000000c0: e081 04c0 bd62 89bf 6a6b d1c0 67c1 8ac1
000000d0: cb4c 1fc0 0087 97c1 089f a3c1 d10a 19c0
000000e0: 5a27 2ec0 7b4b 9bc1 13db b0c0 2d89 68c0
000000f0: ac81 29c1 4861 81bf 0828 abbf 2aef dabf
00000100: 0773 07c0 be30 43c0 c043 3bc0 af40 2ec0
00000110: 3e9c 5fc1 972b 9ec1 e114 dabe 9222 48c0
00000120: 7787 c4c0 a5ea f9bf 23bb b2c0 40f0 00bf
00000130: db92 62c1 4e70 14c0 6097 92c1 6307 f03f
00000140: 7957 cebf ff00 95c1 8ae6 c33d a813 aec0
00000150: 13ab 2fbf 858c 0ac1 915a dcc0 e926 bec1
00000160: 0d49 fac0 3c49 d0c0 5274 4dc0 075f 2bc0
00000170: 1b51 17c0 aa87 10c1 4c4a 0ec0 6fbe 43c0
00000180: 924c 2ac0 7ab3 8ac1 ab5d 6ac0 c3f6 acc1
00000190: 2da9 30c1 5df7 0fc1 4eaa 49c1 5962 11c0
000001a0: 3ed2 5ec1 5a97 1cc0 5a0b 8cc0 0699 a1c0
000001b0: 947c 98c0 e196 95c1 52c3 1ec1 fd31 57c1
000001c0: a364 f5c0 fa62 aac1 ee2b debf 246d 85c0
000001d0: 90cf 17c0 1716 60c0 d6db a3c1 3356 8bc1
000001e0: a5e4 4cc0 3d63 f1bf 535e 40c0 b9ce 07c0
000001f0: 8503 91c0 a354 59c0 c76e 95c1 0dc6 9ebf
-4.044536 -20.378721 -14.315628 -12.796121 -7.4982347 -19.984566 -21.874697 -8.769597
-1.720726 -12.353357 -19.329275 -2.911938 -3.928185 -2.1584733 -19.57087 -16.255898
-3.6820667 -3.2536657 -7.4913316 -2.0327265 -1.7906263 -18.666496 -0.8174735 -0.9917218
-2.6090438 -2.4762533 -20.80346 -2.811263 -6.680668 -4.077851 -3.2739217 -2.506495
-3.1434422 -4.4562144 -2.1024976 -10.120143 -15.960285 -15.189095 -5.608743 -12.224675
-9.027461 -3.354449 -4.601271 -2.2699933 -10.992573 -3.6937718 -17.795382 -13.469463
-2.070427 -1.0733258 -6.544362 -17.344435 -2.489062 -18.940918 -20.452652 -2.3912852
-2.7211518 -19.411856 -5.5267425 -3.6333725 -10.594158 -1.0107813 -1.3371592 -1.7104237
-2.1163957 -3.04985 -2.9260101 -2.722698 -13.975645 -19.771284 -0.42594054 -3.12711
-6.141536 -1.9524733 -5.585344 -0.5036659 -14.160853 -2.3193545 -18.323914 1.8752254
-1.6120445 -18.625486 0.09565456 -5.4398994 -0.68620414 -8.659307 -6.8860555 -23.769
-7.8214173 -6.5089397 -3.2102246 -2.677675 -2.3643253 -9.033121 -2.2232847 -3.0584981
-2.6609235 -17.337635 -3.661967 -21.62049 -11.041303 -8.997891 -12.604078 -2.2716277
-13.926329 -2.4467378 -4.3763857 -5.0499296 -4.7652073 -18.698671 -9.922686 -13.449704
-7.6685348 -21.298328 -1.7357156 -4.169573 -2.3720436 -3.5013483 -20.482342 -17.41709
-3.2014554 -1.885841 -3.005757 -2.1219923 -4.5316796 -3.3957908 -18.67909 -1.240419

weight f4 [64, 128]
00000000: e737 1b3f d1a9 073a e89f 0a3f cfa9 c9bf
00000010: 6917 65be 71b5 22be 5666 543e caa7 01bd
00000020: c2b7 48bf dd01 4fbc 1225 e53d 5261 e43e
00000030: da2a f6bf c3a4 38be 2d40 073e 98a0 053e
00000040: af68 10bf d32c f3be 1e7c a8be 01d7 9abf
00000050: c526 b1be 2c46 03bc 26e9 43bf 77bd aebe
00000060: 35ef 553f bbbe 1dbf 0217 033f d88a d6be
00000070: eab7 90bf a623 e0bf c3f0 00bf 953f b9bf
00000080: f942 c3be 81af 42be 0840 763e 9a19 363d
00000090: d3dd 4c40 b9c4 353e 0974 2ebe 383c d03d
000000a0: de4a d9be 7631 533e c095 9b3f 3c5b 35bf
000000b0: db50 83bf 90e3 a7bf 7e27 a43e e9fb 4cbe
000000c0: 3f76 61bf 98ee 11bf 7b51 9ebf 20d9 013b
000000d0: ecbe 3a3f 55d1 673e 69e7 9c3e fb43 92bf
000000e0: 15d5 b4bf fe70 e93c d279 3cbf d759 6d3f
000000f0: c6a9 68be 8011 ddbe d7f9 6dbf 08ae 123f
00000100: 9526 5ebe 8abb 55bf d3f0 cb3e 22ca 02be
00000110: 089e f4bd c94e 3c3e 1204 5dbd 9459 9dbf
00000120: 87e7 09c0 9393 55bf 9fdd 44bf 7fff c2be
00000130: 4689 2040 7621 b1bf d2f2 25be 11de 413e
00000140: fbc4 d1bf 20e3 5c3e 0aa9 9b3e 0afd 943f
00000150: 98bc 0cbf 89d4 1640 a58e cebf 635c de3e
00000160: 0ea2 63be 517b 45bf de24 b03c c5e2 803e
00000170: 146e cebe cb96 6bbf 12ed 453f 0824 1e3f
00000180: 5052 77bf 4a79 8a3e a11a ddbf 70ed 5c3e
00000190: 7c86 3dbd 793e 76be f1c5 2dbc f499 bebf
000001a0: 4c46 9b3f bd75 c5be 6f3d 57bf 5d8e 73bf
000001b0: a203 d4bf 27ce 1b3e 21f0 363e 0e42 483f
000001c0: 23f1 09bc c8c7 cebd 7897 94be aa78 a3bf
000001d0: 6b1c 44bf 3042 23bf 94dc 513d d0d5 ebbd
000001e0: 353a a0be fba4 25bf a58e e2bf 2b68 3ebf
000001f0: c7a0 bdbe e79a ffbc b2a1 ac3d ea3a dabe
00000200: af62 5ebf 0ddd 0abf a59c 21c0 9770 f73c
00000210: 3d94 2bbf 44ef a03e 3849 313e 0ca9 50c0
00000220: fc78 83bf 3d60 833f 156c 0a3e 4b09 46c0
00000230: e053 09c0 fe7d a6be 8d9f 2d3f 9865 a7be
00000240: 305c 7abf 4c86 20c0 4543 91c0 e443 06c0
00000250: bb3e 8cbe bbd3 11bf 0a23 4bbe a8a4 35bf
00000260: 92e5 b8bf f0ac 7dbf 2754 1b3d cc5d 75bf
00000270: 7fa3 09c0 dfd5 c0bf 46ed 4cc0 2f82 1cc0
00000280: 9dbc 4fc0 4741 06c0 8854 29bf bfa3 bb3f
00000290: 19b6 3dc0 af01 743f 9c83 9b3c d898 25be
000002a0: 6b15 34bf 6dde 88c0 bd8f 46c0 e2b6 debf
000002b0: e3cb 3fbe 020f 32c0 6cbc b43e 2e1c 6f3f
000002c0: 8dcd b2bf b15f 783c 2cba d3bf 460c cf3d
000002d0: aa10 66c0 5358 613f b3f3 843e 099e a5bf
000002e0: 1758 05be 0ef7 813f 34dd 7dc0 0d45 07c0
000002f0: f6c4 0f40 b06f 63bf b1ea f4bf 3a46 b0bf
00000300: d126 d4bc 9412 28c0 fb06 5fbf 6845 cabf
00000310: 0986 e1bc b5f1 943e c8ab 97be ba63 b4bf
00000320: e2dc 09bf 143c 9fbf 1d0a ec3b e365 b13e
00000330: 703f 28c0 dde3 acbf eeb8 293f 875d 68bf
00000340: 669e 73bf e72e f73e f3ce 78be 6b30 5ec0
00000350: 0ab8 04bf 4a26 80bf e86a 9cbf 48e1 94bc
00000360: 5ba6 4fc0 7e28 f8bf 4b48 f7bf 9c2b 43c0
00000370: 1aa6 a1be c05b e4bf 8ff2 8ebf 4732 56bb
00000380: 8344 c8be c5be 75be b5e5 edbf d59e 703e
00000390: ab27 d63f 094e 0c3f 97a7 de3e 0d9d dabf
000003a0: 7ae1 17c0 aec0 02c0 3ff1 5a40 4267 d5bf
000003b0: 24df 0dc0 494e ed3d 56ee e93f 060a 733f
000003c0: 8bb5 90bf a60f 1d3e c939 5ebe adba d4bf
000003d0: 5ff1 d53e 3acc 0bbf 5de9 cd3e 71fe a83f
000003e0: 971e 4ac0 8ac7 16c0 a962 dabe 4e83 11c0
000003f0: 1556 b63d 4eb5 38bf ea42 6bbd 766a 593e
0.60632175 0.0005175146 0.5415025 -1.5754946 -0.22372212 -0.15889527 0.20742163 -0.031654157
-0.7840539 -0.012634722 0.11188711 0.446055 -1.9231827 -0.18031602 0.13208075 0.13049543
-0.56409734 -0.47495136 -0.32907194 -1.2096864 -0.3459989 -0.008012336 -0.7652763 -0.34128925
0.83568126 -0.61619157 0.5120698 -0.41902804 -1.1306126 -1.7510879 -0.50367373 -1.4472529
-0.38137034 -0.19012262 0.24047863 0.04445801 3.201039 0.17750825 -0.17036451 0.10167736
-0.42439932 0.20624337 1.2155075 -0.7084234 -1.025905 -1.3116322 0.3206138 -0.20017971
-0.88071054 -0.5700469 -1.2368616 0.0019813254 0.72947574 0.22638448 0.30645302 -1.1426996
-1.4127527 0.028496262 -0.73623383 0.9271521 -0.22721013 -0.43177414 -0.9295935 0.572968
-0.21694405 -0.83489287 0.39832172 -0.1277242 -0.119442046 0.18389429 -0.05395896 -1.2292962
-2.1547563 -0.83428305 -0.76900667 -0.38085553 2.5083785 -1.3838336 -0.1620591 0.18932368
-1.6388239 0.21571016 0.30402404 1.1639721 -0.5497527 2.356722 -1.6137282 0.4342986
-0.22229788 -0.7714129 0.021501955 0.2517301 -0.40318358 -0.92026967 0.77314866 0.6177373
-0.96609974 0.2704566 -1.7273751 0.2157495 -0.046270832 -0.24047269 -0.010606275 -1.4890733
1.2130828 -0.3856639 -0.84078115 -0.95139104 -1.6563609 0.1521536 0.1786504 0.7822579
-0.008419308 -0.10096699 -0.2902181 -1.2771199 -0.7660586 -0.6377287 0.05123575 -0.11515391
-0.31294408 -0.64704865 -1.7699782 -0.743777 -0.37036726 -0.031201793 0.084292784 -0.42623073
-0.8686933 -0.54243547 -2.5251858 0.030205054 -0.6702307 0.31432545 0.17313087 -3.2603178
-1.0271297 1.0263745 0.13517793 -3.0943172 -2.1457443 -0.32518 0.6782158 -0.32694697
-0.97796917 -2.5081968 -4.5394616 -2.0978937 -0.2739161 -0.569637 -0.19837585 -0.7095437
-1.4445059 -0.99092007 0.03792205 -0.9584625 -2.150604 -1.5065268 -3.201982 -2.4454458
-3.245887 -2.0977342 -0.6614461 1.4659346 -2.9642394 0.9531507 0.018983655 -0.16171587
-0.7034518 -4.2771516 -3.102523 -1.7399561 -0.1873012 -2.782166 0.35300004 0.93402374
-1.3968979 0.015159533 -1.654119 0.10109763 -3.594767 0.880254 0.25967178 -1.2938854
-0.13021885 1.015352 -3.9666262 -2.1135895 2.2463965 -0.88842297 -1.9134122 -1.3771431
-0.025897415 -2.626134 -0.87120026 -1.5802431 -0.027529733 0.29090658 -0.29623246 -1.4092934
-0.53852665 -1.2440209 0.007203354 0.34648046 -2.628872 -1.3507038 0.66297805 -0.9076771
-0.9516357 0.4827797 -0.24297695 -3.4717052 -0.5184332 -1.0011685 -1.2220125 -0.018173829
-3.2445285 -1.9387357 -1.9318937 -3.0495367 -0.31572038 -1.78405 -1.1167773 -0.0032683776
-0.3911477 -0.23998554 -1.8585726 0.2349809 1.6730856 0.5480657 0.43487236 -1.7079178
-2.373137 -2.0430102 3.4209745 -1.6672137 -2.2167444 0.11587197 1.8275859 0.9493717
-1.1305403 0.15338 -0.21701731 -1.6619469 0.41785714 -0.546085 0.40217105 1.3202649
-3.158117 -2.355929 -0.42653397 -2.2736392 0.089031376 -0.7215165 -0.05743686 0.21232018

bias f4 [64]
00000000: 3865 7241 0b6f 5641 7b3e bc3f b98a a2c1
00000010: 8b60 f340 3c6c 6441 d85d a5c1 a7bf 9740
00000020: e1d1 e93f 718a 3740 ba6e 4240 a76a 0541
00000030: 72a7 99c1 95ff 2c41 9d8e 0841 e125 adc1
00000040: 54a4 a1c1 2207 ea40 cddf 6941 4cb9 9940
00000050: b7cb a040 1806 5241 3e2e 34c1 1cd2 1b41
00000060: 8a3c 9641 e098 6d40 705a 2c40 7153 3840
00000070: f18e 1d3f eb85 8241 3c4b 5941 86db 0641
00000080: ec3a 3041 1ba5 0341 536c 3241 bcc4 5041
00000090: f5c2 8340 4bc0 263f 91ab 8e40 6db8 2440
000000a0: 7631 9641 2819 9ec1 2b81 6441 da47 9ac1
000000b0: 2ad1 b340 52bf 4c40 1e04 e33f 150a ad40
000000c0: 8bde 86c1 18b1 4c41 388e 783f 3dbb d43f
000000d0: f956 d740 13aa 023f 431c 6141 a465 5441
000000e0: f0fd 9340 9e96 2a41 363f 1941 b569 4541
000000f0: 61b6 3341 9133 f240 ba6f 8340 115a bb40
15.149712 13.40211 1.4706568 -20.317736 7.605535 14.276424 -20.670822 4.742145
1.8267175 2.8678248 3.0380082 8.338538 -19.20676 10.812398 8.534818 -21.643496
-20.205238 7.3133707 14.617139 4.8038692 5.0248675 13.126488 -11.26129 9.738796
18.77956 3.7124557 2.6930199 2.8800929 0.61546236 16.31539 13.580868 8.428595
11.014385 8.227809 11.151446 13.048031 4.1175485 0.65137166 4.458443 2.5737565
18.77415 -19.762283 14.281535 -19.285084 5.6192827 3.1991773 1.7735631 5.4074807
-16.858664 12.793236 0.9709201 1.661964 6.729367 0.5104076 14.0694 13.274815
4.624748 10.661772 9.577932 12.338307 11.232026 7.5687947 4.1073885 5.8547444

weight f4 [32, 64]
00000000: 63b0 a53e fb84 fd3c ad51 643e a4b3 943e
00000010: 9af8 543c 75d6 c53d 5f1f 2ebd 98d5 9e3d
00000020: 2b70 7e3e c4b8 583e 07ef e23e 6552 90bd
00000030: 35af 133d a05f 943d 27b4 ffbd cfbf a93e
00000040: 37cd c23e facc 2f3e 46ca 803e 972e d63e
00000050: 1b07 b23c a79f 34be d511 173e e224 af3e
00000060: 2887 b73d 0c7e 043f ad1d c23e 0e11 583e
00000070: b00d 803e 1035 3f3e 7a66 4f3e bfcc 3a3e
00000080: 728f c33e da98 2a3f 6ee3 833d 6562 953e
00000090: afaa 753e a43a 233e eb99 863e a0fb 493e
000000a0: 1262 013e 35be 20be 9628 f33e 3f5f 0bbe
000000b0: 36b2 49bd 41eb 393d b945 db3e 467d 4d3e
000000c0: 3618 9fbd 5729 38bd 1b96 293e d63b fe3d
000000d0: d2a6 f63e 19f5 2a3e 0ddb ad3d 7480 e43c
000000e0: cb49 a23e e11f 0e3e 17fa 593e bfe9 8b3e
000000f0: cb97 8a3e 2ff2 643e 2973 a43e 1972 a53e
00000100: 34b5 d33d dd1f 2f3e ad8d 1d3e ccdb 86bd
00000110: a10c 6c3d d268 78bd de2a 433b dfa3 483e
00000120: e1cb e13d e434 743d 44e5 413e 0951 3b3e
00000130: 1dc3 6f3c cd0c 303d 2bea b33d d5a2 74bd
00000140: 3648 0e3e e8cf 6f3d e551 f13d 42fc a33d
00000150: b6b6 8b3e c148 0a3e 7221 a43c 0b02 bb3d
00000160: 24d9 b83e c229 c73e 4d21 ad3e d0c5 6a3e
00000170: 0216 403e 99c9 c23e 149e 493e b398 933d
00000180: 278f a13d 76d9 733d 7646 503e 3aad 2d3e
00000190: 4f12 803e 497c 783d 61fc 8e3d 7cb8 9c3e
000001a0: ec8c 513d df39 a3bd 63e7 3dbd 1fe8 993a
000001b0: 000e fd3d 46f0 713e e766 3fbe 1f92 bfbd
000001c0: 35d8 3fbb 2fd4 2d3e 2f2e 843e 8dff 9f3e
000001d0: de25 9d3d 1323 a93d d019 833e 9d50 1dbd
000001e0: 92f8 8a3e 6675 45bd b57b ae3e 2a5c 423c
000001f0: 52f2 543e dd05 483d 4099 f93d 9dd4 7dbd
00000200: a418 b03e e9f4 d73e 5b8c a13e 5648 d03d
00000210: 749a 1c3e a1ff d23d c29f a5bd afac 853e
00000220: 7aa6 003e 1404 6d3e 728b 483e 0ea6 fa3e
00000230: cdcb bbbd 5a26 133d d1a7 a13c d4f9 353e
00000240: a77b 073f 5009 103e e940 b63d fbeb 863e
00000250: f773 9c3e 1dc9 20bd 0fb8 883d 5318 f73d
00000260: b6a7 b23e 8f1f ac3e 7679 113e 6542 fb3e
00000270: f673 833e 01ad 1abe 3f82 7a3e 4c1b c53e
00000280: 1225 00be 0eff ab3e 23bc f23e 8720 893e
00000290: ae0b 0f3f 0fcc f33e d664 823e 2f4c 313e
000002a0: 0d7a e43d 4c19 d2bd 2b85 9b3e e3a3 303d
000002b0: 8dc5 e53e 1b2c 1a3e 7a94 f1bd 298a 743d
000002c0: 321f 89bd 759b 8d3e 481b 1b3e 289e 0c3e
000002d0: a21f ed3e 792e 373e 3bc7 483e f432 a63e
000002e0: 3a6e a43e f861 20bd 3699 c23e 974b d03e
000002f0: e4b1 4f3d fa5d 2c3e 59d8 b23e b6d5 cf3e
00000300: 2306 823e 2d17 be3e d7b3 c83e 66a8 553d
00000310: 5a6e 223e 1731 223e 9edb 7abc 451e 833e
00000320: 3998 403e 662f dd3d 231c dd3e 298c b53e
00000330: db40 c93c 0d38 813e 5119 fd3e 67eb 9a3d
00000340: ecde 2f3d 940a b03e fb56 8a3d 4f8a 083f
00000350: 8cee ac3e 193c d63e 6074 0c3f f778 f53e
00000360: a167 0b3f cecf a03e 8045 003f 71e4 c33e
00000370: f7b6 d53e a1f5 af3e e975 9c3e 38e7 fc3e
00000380: f0f5 103f b3d7 f63e e8dd a83d e063 033e
00000390: e669 e33e 84e2 a13d 75e2 133f f6cc 3e3e
000003a0: 9c61 703e 3829 79bc aecf 1bbd f82d 02be
000003b0: bc98 c13e 614f 9b3e a46b 83bd e397 9e3e
000003c0: 0448 863d 932b b43d 6733 203f 5c0d d33e
000003d0: 71b7 013f 650a f43e 60e1 913e a5af ad3e
000003e0: dabe c83e f866 a33e 3dcd 9c3e 1d18 3a3e
000003f0: 8e35 743e ccfc 0cbe 0de1 163e 2379 fc3e
0.32361135 0.0309472 0.22296782 0.29043305 0.012998724 0.09660045 -0.042510387 0.077555835
0.24847476 0.21164232 0.44322988 -0.070469655 0.036055762 0.072448015 -0.12485533 0.3315415
0.38047192 0.17168036 0.25154322 0.4183242 0.021731904 -0.17639028 0.14752896 0.34207827
0.08961326 0.5175483 0.37913266 0.21100256 0.25010443 0.18672585 0.20253935 0.18242167
0.38195378 0.6663948 0.06439863 0.29176632 0.23990892 0.15940338 0.26289305 0.19724894
0.12635067 -0.15697558 0.47491902 -0.13610552 -0.04924222 0.04539037 0.42826632 0.2006732
-0.0776829 -0.0449613 0.16561167 0.124137565 0.4817415 0.1669506 0.08489046 0.027893282
0.31696925 0.13879348 0.21286808 0.27326772 0.27068934 0.2235801 0.3211911 0.32313612
0.10337296 0.17101999 0.15386076 -0.06584892 0.05762923 -0.06064684 0.002978019 0.19593762
0.11025215 0.059620753 0.18935114 0.18292631 0.014633921 0.042980958 0.08784898 -0.0597256
0.13894734 0.058547884 0.11783198 0.08007099 0.27287835 0.13504316 0.02003548 0.09131249
0.36103165 0.38899046 0.3381447 0.22927022 0.18758395 0.38044432 0.19689208 0.072068594
0.07888632 0.05953356 0.20339379 0.16960612 0.25013968 0.060665403 0.06981731 0.306095
0.051159784 -0.079700224 -0.046363246 0.0011742151 0.12356186 0.23626813 -0.18691598 -0.09354042
-0.0029273157 0.16975473 0.25816485 0.31249657 0.07673238 0.08258643 0.2560563 -0.038406957
0.2714277 -0.048207663 0.34078756 0.011862794 0.20795563 0.048833717 0.12187433 -0.061970342
0.343938 0.4217904 0.31552395 0.10170047 0.15293294 0.103026636 -0.08087112 0.2610831
0.12563506 0.23146087 0.19584444 0.48954815 -0.09169731 0.035925247 0.019733341 0.17771083
0.52923054 0.14066052 0.088990994 0.26351914 0.30557224 -0.039254297 0.066757314 0.12065186
0.34893578 0.33617827 0.1420649 0.49074093 0.2567441 -0.15105058 0.24463747 0.38497388
-0.12514141 0.3359303 0.47409162 0.2678263 0.55877197 0.47616622 0.25467557 0.17314218
0.11156092 -0.10258731 0.30375037 0.043125045 0.44877282 0.15055887 -0.11795898 0.059702072
-0.06695403 0.27657667 0.15147126 0.13732207 0.46313196 0.17888822 0.1960725 0.3246075
0.32115346 -0.03915593 0.38007516 0.4068267 0.05070676 0.16832724 0.34930685 0.40592736
0.25395307 0.37127057 0.39199707 0.05216255 0.15862408 0.15839039 -0.01531115 0.2560903
0.18808068 0.10800056 0.4318553 0.35458496 0.024567058 0.25238076 0.49433377 0.07564431
0.042937204 0.3438307 0.067548715 0.5333604 0.33775747 0.41842726 0.54865074 0.4794385
0.54455 0.31408542 0.5010605 0.38260224 0.41741154 0.34367087 0.30558708 0.49395156
0.5662527 0.4821144 0.0824545 0.12831068 0.44416732 0.079045326 0.5776742 0.18632874
0.23474735 -0.015207581 -0.038039856 -0.12712848 0.3781184 0.30334 -0.06417015 0.30975255
0.06556705 0.087973736 0.62578434 0.4122113 0.50670534 0.4766418 0.2849226 0.3392307
0.39208108 0.31914496 0.30625334 0.18173261 0.23848554 -0.1376831 0.14734288 0.4931117

bias f4 [32]
00000000: 5957 b3c0 e0bf 0842 49f6 0442 ade2 0942
00000010: d935 0e3e 5dfd 2cc1 ec90 ca41 4921 4fc1
00000020: a915 f641 a2b7 0942 e0ff 70c1 e9cc 0542
00000030: e58a 2cc1 c4c3 0c42 d583 dc41 ba2d aa41
00000040: 230b c241 b923 2dc1 aeb2 f141 0730 b941
00000050: 8ab0 0642 5297 0842 6a4c 0542 55d7 50c1
00000060: 4799 8a41 310d 67c1 d0cc ecc0 ed55 5441
00000070: 9559 ab41 2415 90bf ed44 0c42 0cd7 75c1
-5.6044126 34.187378 33.240513 34.471363 0.13887729 -10.811856 25.320763 -12.945626
30.760576 34.42933 -15.0624695 33.450108 -10.78391 35.191177 27.564371 21.272327
24.255438 -10.821221 30.212246 23.14845 33.6724 34.147774 33.324623 -13.052571
17.324842 -14.440721 -7.4000015 13.270978 21.418741 -1.1256452 35.06731 -15.365002

weight f4 [1, 32]
00000000: b55d 0a3c 1d44 793b 053d 2c3c b1d3 bf3b
00000010: 150b 303c 35f4 88bb 3737 053c 9058 8a3b
00000020: 5c4f 473c c86e 1d3c e147 633c b8e5 c9bb
00000030: f28d ab3b 40af 7e3c 5458 bf3b a9f0 913c
00000040: b6df 023b 9551 c63c e286 0c3c caba 3fbc
00000050: eaf0 543c b987 c03b 5c8e 633c a23d 9f3a
00000060: b6bd bb3b 2ef6 d6bb 6289 d63c ba61 ac3c
00000070: 8084 1e3c 92f0 893c 1318 113c 34b3 ad3c
0.008445193 0.0038034983 0.010512595 0.005854093 0.01074483 -0.0041795024 0.00813084 0.0042219833
0.012164917 0.009608932 0.013872118 -0.006161418 0.005235427 0.015544713 0.005839387 0.017814951
0.0019969768 0.024208823 0.00857708 -0.011702249 0.0129968915 0.0058755544 0.013888922 0.0012149105
0.0057294024 -0.0065601086 0.026188556 0.021042693 0.009675145 0.016838346 0.008855837 0.021203615
