stk-code/src/model/soccer_ai_model.pt (torch, 766399 bytes, 11 tensors)

weight f4 [512, 22]
00000000: 5951 89bd f0ee 763e a628 af3d c9f6 bdbd
00000010: b0b4 1cbe fa4c 243e bbbc 1b3e c268 973c
00000020: cfeb 43be 4155 b5ba c3d8 7d3e 8639 7e3e
00000030: a8aa c6be 8d74 87be ff3a f0bc 491f 8a3d
00000040: 750b f43d f9fc 1a3d 9098 8f3d 9996 06be
00000050: 672a a23d 5c8f 073e fd52 dcbc 1577 24be
00000060: 7e00 7a3e 9e72 75be d222 983e af38 0f3e
00000070: 8ad5 443e f8ea e6bd 6314 4abe 0713 1a3e
00000080: eb94 d1bd 9883 3fbe 699f 353d 45f0 1e3e
00000090: 1eec a0bd 0e47 b9bd 04c4 0bbe 206d 31bc
000000a0: 4c30 94bc f768 5d3d 7eb8 4abe 0b61 303d
000000b0: a05e 1a3e c3d2 08be fc41 d1bd 959b a7bb
000000c0: 76e6 05be d8ef 10bd 9e99 973c 82fc 2ebe
000000d0: 8149 4dbb 9a58 9b3e 9f73 023d 667f 74be
000000e0: ad4b d6bd 4404 84be 0c9c 9d3e 68df cc3c
000000f0: d20c e2bd 88ed d5bd 5a85 94bd 139a 5bbc
00000100: f958 99be d2bc 6fbb 3057 d4bd b8b8 353e
00000110: 30d1 03be 2607 f03c b7b8 9b3d 7e44 56bd
00000120: b6fc d1be dd41 a73d 45bf 49be d4aa a33d
00000130: 5735 12bf 4042 f03c 7d92 2c3d e211 063e
00000140: 3074 a4be b6cf bc3d 1425 663e b185 5d3d
00000150: 843f 41be fa6b 86bd 0a46 3abe e94e c43c
00000160: 0a7f 70bc d5c6 aa3d e546 86be 2e30 4dbe
00000170: 0ec8 77be dcfe d53c fca0 1dbe cb4d 0cbe
00000180: a49f 1abe 932a 42be 365a 05bc dc03 b2bd
00000190: 8761 363e f8a7 c1bd 624b 42bc 8943 cebd
000001a0: 8e48 97bd bab3 703d eb0b 343d 905c bf3d
000001b0: 6e0b c83d 7076 09be 71f2 2e3d abc9 0abe
000001c0: cfce 7ebe 2a34 493e 8568 78be 967b bc3a
000001d0: 17da 8a3c 210e f33e 49ff 9cbe d6f0 64bc
000001e0: f1c0 07be 4626 f73e cca9 04bc d0ad 28be
000001f0: 5d4a d4bb 167d f5bc cf82 ed3d 6b07 c93d
00000200: ea15 95bb 9e9e 833b 6748 a8bd 04d5 343e
00000210: 42ba 34bd d6d2 10be 5378 253e c43e aa3a
00000220: 6803 2f3c 308e 0a3d 8b46 fabe 0cc4 633d
00000230: c05a 223b 58d7 173e 9bca 50bf 2e0d 653e
00000240: 947e 5f3e ed4e 8bbe f318 bf3d b74b 2cbc
00000250: 8cfd 73bb 72db 3ebc 89ee d53d 9a8b 27bd
00000260: 6fec 6b3e 67be a13c f299 d23d 5690 0d3d
00000270: 0d9c 46be 28cb 11bd 77ea 4abe 68c8 2a3e
00000280: f858 b23e 487c 8ebe 2e31 a03d d2bc 353d
00000290: ce4e cc3e 4238 54be 6cb5 09be fedc e73d
000002a0: 7958 c7bd 04a3 583d 83fc 6c3e 2e7b 03be
000002b0: 9f29 043e 69d9 e63c 8c5c 03be a442 d43c
000002c0: 725c 7dbc f3d1 1a3e 60fc 5cbe 0914 6a3e
000002d0: f76c 87be 8c0e 3e3c d348 f7bc bc18 0ebe
000002e0: 7734 b0bd 6374 57be 2dc9 25be e1c8 febd
000002f0: 89aa e83d c1a1 febc 9eee 1fbe e6f7 853c
00000300: 00cc bdbe a833 12be 033e 2b3d 652b 88bd
00000310: 0d1b 12be 6b60 0fbd c4b8 30bd cd52 5c3e
00000320: 34cb eb3d e9eb 93bc 0d4d 8abe 4236 d93c
00000330: a90c 37bb 0615 06bc c5e3 dbbb 2218 193d
00000340: 429a ba3e 7c1a 85be 7547 3fbe 6ca3 b03d
00000350: e45c 43be 27fd 5fbd ebb3 b13d 989c 8abe
00000360: 60af 4fbe b485 413d 57f5 20be eb4c 6f3c
00000370: 9d6f a6bd 9265 08be 0ddd 813d 2a90 543e
00000380: 7d6d 25bb 32d6 94bd 3322 183e 5aab 7c3e
00000390: a0d6 8fbe 3149 27be 83ce 5cbe 660e 9bbe
000003a0: d3dd 2c3e c0f6 f4bd d96f 923d 6481 213d
000003b0: 1962 81be f174 8ebc 6138 273e 8b70 abbd
000003c0: a93c 9b3d 8c98 1fbe f829 b2bd 7f9e 7b3d
000003d0: 9386 cf3d 09bf d5bd b4b1 59be 70d9 5bbc
000003e0: 1cfe 463e b54e 83bc e99f 38bc ad69 083e
000003f0: a124 033f 64ec be3d a364 50be eee5 783e
-0.06704969 0.24114585 0.08552675 -0.09275586 -0.15303302 0.16044989 0.15208714 0.01848257
-0.19132923 -0.0013834612 0.2478972 0.24826631 -0.38802075 -0.2645611 -0.029325007 0.067442484
0.11916248 0.03783891 0.07011521 -0.13143386 0.07918244 0.13238281 -0.02689504 -0.16061051
0.2441425 -0.23969504 0.29714066 0.13986467 0.19222084 -0.112752855 -0.1973434 0.15046321
-0.10233482 -0.18702543 0.04434148 0.15521343 -0.07857536 -0.09046756 -0.13648993 -0.01082924
-0.018089436 0.05405518 -0.1979694 0.043061297 0.15075159 -0.13361649 -0.10217664 -0.0051149824
-0.13076195 -0.035384983 0.018505868 -0.17088512 -0.003132433 0.30341035 0.031848546 -0.23876724
-0.10463653 -0.25784504 0.30783117 0.025008872 -0.110376015 -0.10445696 -0.07251997 -0.013403433
-0.29950693 -0.0036581052 -0.10368192 0.17746246 -0.12872767 0.029300284 0.07603591 -0.052311413
-0.41013116 0.08166859 -0.1970187 0.07991567 -0.5711264 0.029328465 0.04213189 0.13092759
-0.32119894 0.09219305 0.22475082 0.054082576 -0.18871886 -0.06563564 -0.1819078 0.023963409
-0.014678726 0.083387055 -0.26225963 -0.2003791 -0.24197409 0.026122503 -0.15393442 -0.1370155
-0.1509996 -0.18961553 -0.008139184 -0.08692142 0.17810641 -0.094558656 -0.011858793 -0.10071475
-0.073868856 0.05876515 0.04395668 0.09343827 0.09767805 -0.13424087 0.04271168 -0.13553493
-0.24883579 0.19648805 -0.24258621 0.0014380093 0.016949696 0.47471717 -0.30663517 -0.013973435
-0.13257195 0.48271388 -0.008097123 -0.16472554 -0.0064785914 -0.029966872 0.115972154 0.09815868
-0.0045497315 0.0040167114 -0.08216935 0.17659384 -0.04412294 -0.14142928 0.16159181 0.0012988676
0.010681964 0.033827007 -0.48881945 0.055606887 0.002477333 0.14828241 -0.8155915 0.22368309
0.2182563 -0.27208653 0.093309306 -0.010516099 -0.0037229983 -0.0116489995 0.104458876 -0.04090462
0.23039411 0.019744111 0.10283269 0.034561478 -0.19395466 -0.035594136 -0.19816004 0.16678011
0.34833503 -0.27829194 0.0782188 0.044369526 0.39903873 -0.20724586 -0.13448113 0.11321448
-0.09733672 0.05288984 0.231432 -0.12839958 0.12906502 0.028179841 -0.12828273 0.025910683
-0.015463935 0.15119152 -0.21580648 0.22859205 -0.2645032 0.011600148 -0.030186092 -0.13876623
-0.08603757 -0.21040492 -0.16190024 -0.12440658 0.11360652 -0.03108299 -0.15618369 0.016353559
-0.37069702 -0.14277518 0.041807186 -0.06648902 -0.14268132 -0.03500406 -0.043144956 0.21515961
0.11513367 -0.018056827 -0.2701191 0.02651513 -0.002793113 -0.008183723 -0.006710502 0.03737653
0.36445814 -0.25996768 -0.18679602 0.0862492 -0.19078404 -0.054684784 0.08676895 -0.27072597
-0.20281744 0.04724665 -0.1571859 0.014605741 -0.08126757 -0.13319996 0.0634099 0.20758119
-0.0025242262 -0.07267417 0.14856796 0.2467474 -0.28093433 -0.16336514 -0.21563153 -0.30284423
0.16881494 -0.11961126 0.071502395 0.039430037 -0.25270155 -0.017389746 0.163301 -0.08371075
0.075799294 -0.15585536 -0.08699411 0.06143045 0.1013309 -0.10436828 -0.21259195 -0.01341854
0.19432873 -0.016028741 -0.011268594 0.13321562 0.51227766 0.09322432 -0.2035089 0.24306461

bias f4 [512]
00000000: a91f b7be c21e 0bbe 2c1f cabe 388f 763c
00000010: 39bc 73be cdc7 c0be c199 a0be 113d b8be
00000020: 0440 cabd e583 c2bc 1c8e 64be ab34 bbbe
00000030: 24ff 173e 6e8c a4be 56f9 a9be 6ae4 64bd
00000040: 93a7 dabe 524d e6be 5575 02bf bb2d a3be
00000050: 2fd5 9cbe fa50 c1be 7ad9 25be 9d93 b2be
00000060: 28af d8be 6f14 73be d4a2 60be c8d6 90be
00000070: f2bf b6bc d761 a1be a8e6 c7be 929c 41be
00000080: 7762 aebe 0309 0ebe c034 9fbe 3ff5 8dbe
00000090: 43f5 6abe dfe6 7cbe 9728 60be b548 c6be
000000a0: d759 dabe 6437 9ebe 74cb 7cbe 9dc9 3fbe
000000b0: 0384 d7be acb0 80be 5d99 1ebe 5872 f3bd
000000c0: 5d70 18bd bffe abbe 6023 6cbe 8a61 03bf
000000d0: b8a6 1dbf 33e2 9bbe e0fc 89be 32f3 adbe
000000e0: 0871 23be 4e08 f4be 8955 99be 5741 a5be
000000f0: e81c b2be 1db3 a8be 4438 38be eef8 37be
00000100: 1ec5 ecbe a933 67be df3a c4bd 9c78 5cbe
00000110: 0012 7abe 33ca bfbe f6e6 8fbe 634b f2be
00000120: e5bb 97be 14ae adbe ac2b 31be 3c8b 03bf
00000130: 8004 38be f2d1 d4bd 677e 94be f836 b8be
00000140: d31a c0be 6475 80be cc23 b4be c0f2 88be
00000150: b37c dabe 0810 b1be 83eb e1be 79f7 8cbe
00000160: 11ba 94be bf79 cabe 1cc4 27be 0ffb afbe
00000170: f056 dfbe 0e75 a3be 3c01 e4be e7eb 02bf
00000180: 8a05 c1be e769 9ebe e9e9 0dbf 5676 4dbe
00000190: 1fce debe e601 28be 1da1 9dbe f955 aabe
000001a0: 5851 90be afde 90be 4f4a 10be e710 2ebe
000001b0: dd71 01bf e9a0 8bba 6bfe aabe db4b 9fbe
000001c0: 4084 36be 66d2 9ebe e46b 1cbf 7de9 c0be
000001d0: e36f 11be bcdd 64be 8ac2 49be 7ea8 d9be
000001e0: ed08 d1be fecb 32bd 20be 2fbe bca7 babe
000001f0: 6a81 ba3c 9ff2 88be 1b8c e0be 524a babd
00000200: 0fd5 26be 57b5 57be 3a75 bfbe 820b 20bd
00000210: a316 fdbe be95 efbe 4280 1ebe 8a76 5dbe
00000220: d0b0 c8be ffe9 e2be c210 d6be 49ee 87be
00000230: 72d2 523d 8b4b 6abd bd5e 28be 50a8 ffbe
00000240: 021e f7be 8468 acbe 90e0 cdbe fd9c 26be
00000250: 9572 553b 39c4 e6bd 2c2a 8ebe 2c83 aebd
00000260: 7428 d9be f132 6bbe 770f 1dbe 77ac 65be
00000270: d956 b4be 590a 34be d02b cdbe f1dd 52be
00000280: 93d4 f3be 2ec2 99be d246 07bf 454b febd
00000290: 064a 2cbe 6e43 cdbe 0241 2ebe 1695 b1be
000002a0: 7e27 26be 90b2 09be 0f03 04bf 2ce2 b0be
000002b0: 1fd2 70be 2d40 12bf 6068 10bf 4a25 e9bd
000002c0: c655 aabe 0cab 7dbe 3928 22bf dd01 cabe
000002d0: 1aa0 1ebe 117f d6bd 230b 5fbe 3716 a2be
000002e0: 5962 b83c 1b2b b9be ee9a f2bd e4e7 0dbd
000002f0: 7348 b13b 9bca 6cbe 6a82 b9be 9027 b5be
00000300: 5d13 94be 6c6d 94be 2992 9dbe bd74 99bd
00000310: e4a7 11be 448c 75be 2b7f a5be 5a52 c4bd
00000320: 775e a5be ef8f fdbd 4699 54be b4d6 03bc
00000330: b657 e4be 3fbe d8be f6c1 9abe 11a5 56bd
00000340: a880 663d f460 04bf 8a10 90be 6f28 02be
00000350: c0b8 61be a061 bdbe 946d e8be 4c07 ffbe
00000360: 62cd a8be d8e3 fcbe eb37 2ebe d4c1 c5be
00000370: 73df efbe 0ef2 98bd 7ce7 cdbe 166a 47be
00000380: bd90 d4be 8ff8 bfbd 1aa4 d0be 0cfe 23bf
00000390: 5d22 16be 1ec1 86be c37e b5be 7690 ddbe
000003a0: f44f 3cbe 1f0b 0abe 7578 21be 5b04 72be
000003b0: cf90 b1be 1974 b1bc 9af9 d1be 020d ffbe
000003c0: 5182 c4be d750 8fbe bdf1 22be dad4 a0be
000003d0: 3c5a c4bd 6796 a5be 3a56 9cbe a7cc adbe
000003e0: 45db 4abe 6dcd d1be 6fa1 debe 4f87 bebe
000003f0: e913 ddbe 1691 e1be 73bb 96be 0d24 3cbe
-0.35766342 -0.13585952 -0.39476907 0.015048794 -0.2380227 -0.37652436 -0.31367305 -0.3598409
-0.09875491 -0.023744533 -0.22319835 -0.3656362 0.14843422 -0.3213839 -0.3319804 -0.055881895
-0.42705974 -0.44980866 -0.50960284 -0.31870827 -0.30631396 -0.37757093 -0.16196242 -0.34878245
-0.42321134 -0.23738264 -0.21937114 -0.28288865 -0.022308324 -0.31519958 -0.39043164 -0.18907383
-0.34059498 -0.13870625 -0.31094933 -0.2772617 -0.22945122 -0.24697445 -0.21890484 -0.38727346
-0.42646667 -0.30901635 -0.24686986 -0.18729253 -0.42092904 -0.2513479 -0.15488191 -0.11887044
-0.037216533 -0.33592793 -0.2306037 -0.5132071 -0.6158252 -0.30446014 -0.2695074 -0.33974606
-0.15961087 -0.47662586 -0.2994807 -0.32276413 -0.3478768 -0.32949153 -0.17990214 -0.17966053
-0.46244138 -0.225783 -0.09581541 -0.21530384 -0.24420929 -0.37458953 -0.28105897 -0.4732314
-0.2963554 -0.33921874 -0.17301816 -0.5138433 -0.17970467 -0.103916064 -0.29002687 -0.35979438
-0.37520465 -0.25089562 -0.3518356 -0.26747704 -0.42673263 -0.34582543 -0.44124994 -0.27532557
-0.29048207 -0.3954601 -0.16383404 -0.3437123 -0.43621016 -0.31925243 -0.44532192 -0.5114121
-0.37699538 -0.30940172 -0.55435044 -0.20064673 -0.43516633 -0.16406974 -0.30786982 -0.33268717
-0.2818706 -0.28294894 -0.14090846 -0.16998635 -0.50564367 -0.0010652813 -0.3339723 -0.3111256
-0.17823887 -0.31019896 -0.6110213 -0.37678137 -0.14202838 -0.2235021 -0.19703117 -0.42511362
-0.40827122 -0.043651573 -0.1716237 -0.36456096 0.022766788 -0.26747605 -0.43856892 -0.09096207
-0.16292213 -0.2106527 -0.37394124 -0.039073475 -0.49431333 -0.46793932 -0.15478614 -0.2162725
-0.39197397 -0.4431915 -0.4180966 -0.26548985 0.051470228 -0.05720095 -0.1644239 -0.499331
-0.48265082 -0.3367349 -0.4021039 -0.16270824 0.0032569517 -0.11267895 -0.2776655 -0.08521113
-0.42413676 -0.22968651 -0.1533793 -0.22429071 -0.3522251 -0.17582072 -0.4007249 -0.20592476
-0.4762312 -0.3003096 -0.5284244 -0.124167 -0.16825113 -0.40090507 -0.17016986 -0.34684056
-0.16226003 -0.13447022 -0.5156717 -0.34547555 -0.23517655 -0.57129174 -0.56409264 -0.113840654
-0.33268565 -0.2477228 -0.63342625 -0.39454547 -0.15490761 -0.10473455 -0.21781592 -0.31657574
0.022507833 -0.361657 -0.11845957 -0.034644976 0.005410248 -0.23124163 -0.3623231 -0.35381746
-0.28921023 -0.28989732 -0.30775574 -0.07492969 -0.14224201 -0.23979288 -0.32323584 -0.0958602
-0.32298633 -0.12380969 -0.20761594 -0.008046795 -0.44598168 -0.42332646 -0.30226105 -0.052403513
0.05627504 -0.5171044 -0.28137618 -0.12710737 -0.22043133 -0.36988544 -0.453961 -0.49810255
-0.32969195 -0.4939258 -0.17013519 -0.38624442 -0.46850166 -0.07468043 -0.4021567 -0.19474062
-0.41516677 -0.09373581 -0.407502 -0.6405952 -0.14661546 -0.26319212 -0.35448274 -0.43274277
-0.18389875 -0.13480805 -0.15768607 -0.23634474 -0.34680793 -0.021661805 -0.41010743 -0.49814612
-0.38380674 -0.27991363 -0.15912528 -0.31412393 -0.09587523 -0.3234131 -0.30534536 -0.339452
-0.19810207 -0.4097704 -0.4348254 -0.37212607 -0.43179253 -0.44056004 -0.29439887 -0.18373127

weight f4 [256, 512]
00000000: 27a0 103e 9098 053d 0e49 9dbd a95e 56bd
00000010: 431f 133d b87a aebd 1065 20bd ff6c da3d
00000020: 5169 db3c ac21 89bd deb6 e03d fb0d 443e
00000030: de2d a43b 36c1 33be a2cd e03d 9c7e 263d
00000040: c53a eebd 8bf8 fcbc db2f 7ebd a8b2 62bd
00000050: 5e58 fc3c 4de4 21be f112 263d ab7e 173c
00000060: 4da2 903d e57a bd3d 4316 a9bc adbc 99bd
00000070: 176e 38be 59b7 c4bd 2766 02be cd28 b7bd
00000080: 6b9e 4f3d 1b31 bcbd 7f41 503d d8ab 04be
00000090: e266 223d d307 5d3d 5357 f03c f19a 9bbd
000000a0: 83e6 4f3d 5cef b73d ea12 223d 4541 503d
000000b0: cdf8 94bd 73a1 543c abd8 98bd 1773 0abd
000000c0: 1646 47ba f210 e7bd 8e19 2e3d b5d5 ea3d
000000d0: 3895 28bd c5ac fd3d cf60 9bbd da15 a53d
000000e0: 5ab9 46bc 4071 36be 9109 c03c 60a6 3e3e
000000f0: 7878 d3bd eacc a73c 8a06 dabd e0e8 08bd
00000100: 20bc 993c 3f62 0a3e fd19 81bc ffde 3b3e
00000110: 513e 9bbd cf90 9abd 480f abba 0856 03be
00000120: c192 193d 4388 81be 2362 fb3d 82fa da3c
00000130: 17bd 14bc 6d4f 373b b263 71bd 308d ccbb
00000140: c69f 02be 504c 92bb a563 4dbe 86e2 b43d
00000150: 5194 73be abde e03c 6497 94bd 2108 1f3d
00000160: 24e9 7dbe 7c1a 023b 3dbe 67bc 8757 77be
00000170: 2c0a cd3c ac31 dc3c 4034 b33c 53a1 a3bd
00000180: 68e4 35be da02 6abe f48d 1abe ab19 683d
00000190: 500c 843d d035 00bd 4d13 b93b 3685 423e
000001a0: a82d f43b e329 b53d 6808 05bd f718 f4bc
000001b0: e977 34bd 7937 8ebc fc9d 36be 3f3a 583d
000001c0: dcf0 e9bd 8a0c 253e 4d9d 6b3c 0089 f4bc
000001d0: ff72 7f3c 0953 d9ba 8490 1fbe 2c41 e73b
000001e0: 3c93 533e 5b1d 9dbc b327 b7bc a725 543c
000001f0: 4acb f53c dfb2 2d3d 1a76 1cbe 7434 8abd
00000200: 424a eabd 3ad2 c3bd 9b10 f7bc 77cf 46be
00000210: 40af 94bd 981d b4bd b7f8 28be 7189 d5bd
00000220: 8035 053d 2d28 513c e916 12be d9e4 4cbd
00000230: 6324 41bc 12bb c0bd 0d85 fa3c fd45 803e
00000240: 870f 253d 1211 d0bd ee2f 4b3e a802 083c
00000250: 419d a23d 845b 19be 0c6a 16be f058 0ebe
00000260: 3325 fabb 6f17 893d dcd4 f439 78d0 3cbd
00000270: 73dc 453d 0ddf 013d c692 e23c e472 cf3c
00000280: 78f5 a4bd f126 d53c 7d7b 04bd 73a4 d0bc
00000290: 8d86 263e cfce bebd be40 3bbd e5af ba3c
000002a0: fe33 c1bd 81ac 783d ec84 14bd 654f f1bd
000002b0: 9aab 5fbd a615 983d f0f5 df3d 52bd 17be
000002c0: 02b0 483d 1068 573d 49a9 813d 2dc7 c8bd
000002d0: fdc5 bd3d 8bb7 20bd 1134 a4bc e299 1d3e
000002e0: c53c 843c f2ad 24bd 7644 44be 8501 3b3d
000002f0: a42d d9bd 0313 3e3d 0111 6bbd a1d1 b23d
00000300: d1da 97bd 72eb 1ebe 91f5 9fbc 6e42 463d
00000310: 68c7 3ebe ace8 2d3d 84dc 153e 6096 323d
00000320: ff66 0dbc 8a77 32bd 3ce6 8dbc e844 14be
00000330: 0dd1 80be f3ce d03c ba3f 92bc 7a6d efbc
00000340: 4952 1fbd c2df 3a3e c388 df3c f0c0 59bc
00000350: 146e a33d 3f5d d83d 0f37 b33d efda c8bd
00000360: d042 0d3d 2fa3 68bd 8eba 03bd 571c 4d3a
00000370: dd4d 00be 808a 253d b8bf 5f3e 6b93 ccbd
00000380: c116 d6bd 31da 743d 0b79 f63d 051f 933d
00000390: 9a19 dcbc 2164 0fbe bec8 ddbd 38e1 e23a
000003a0: a641 06bc f0c8 af3d dd22 59bc 7d8c ed3c
000003b0: 1ab0 d93d c34b 363d 7bfe 69bd fbb6 95bd
000003c0: 3699 133e 286b 04bd d685 78bd e605 dbbc
000003d0: 4279 35bc 3843 2f3d e65b 69bd b063 2c3e
000003e0: 3c1c a4bd 4155 783d 5517 52bc 65d3 b9bc
000003f0: 5ad9 93be 3ca2 5e3d 4f01 38bd e26c dd3d
0.14123593 0.032616198 -0.0767995 -0.05233637 0.035918485 -0.085195005 -0.03915888 0.106653206
0.026783617 -0.066958755 0.10972379 0.19145958 0.0050103506 -0.17554173 0.10976721 0.040648088
-0.11632303 -0.030880233 -0.062057357 -0.05534616 0.030803856 -0.15809746 0.040545408 0.009246509
0.070622064 0.09251956 -0.020640498 -0.0750669 -0.18010746 -0.09605283 -0.1273428 -0.08943329
0.05068819 -0.091890536 0.050843712 -0.12956178 0.039648898 0.05396254 0.029338514 -0.07597912
0.050756942 0.08981201 0.03956882 0.050843496 -0.072740175 0.012977946 -0.07463201 -0.033801164
-0.0007601691 -0.11282529 0.04250484 0.11466543 -0.04115793 0.12386469 -0.07586824 0.080608085
-0.012129152 -0.17816639 0.023442062 0.18618155 -0.10325712 0.020483453 -0.106457785 -0.033425212
0.018766463 0.1351404 -0.015759462 0.18346785 -0.07580245 -0.07547151 -0.0013050819 -0.12825787
0.03749347 -0.25299272 0.122745775 0.02673078 -0.009078286 0.0027970925 -0.058932967 -0.006242417
-0.12756261 -0.0044646636 -0.20057543 0.088322684 -0.23787047 0.027449926 -0.07255438 0.03882611
-0.24795967 0.0019852212 -0.014144477 -0.24154483 0.025029264 0.026879154 0.0218755 -0.079897545
-0.17762911 -0.2285265 -0.15093213 0.056665104 0.06447661 -0.03130132 0.005648053 0.18996128
0.0074517317 0.0884588 -0.03247872 -0.02979706 -0.044059668 -0.017360436 -0.17833704 0.052789923
-0.114228934 0.16118065 0.014380765 -0.029850483 0.015591382 -0.0016580533 -0.15582472 0.0070573296
0.20661634 -0.019179037 -0.022357797 0.01294843 0.030004162 0.042406913 -0.15279427 -0.06748286
-0.11439945 -0.09561582 -0.030159285 -0.19415079 -0.07259989 -0.08794707 -0.16501127 -0.104266055
0.032521725 0.012765926 -0.14266552 -0.050022934 -0.01178846 -0.09410681 0.030581022 0.25053397
0.04029801 -0.10159506 0.19842502 0.008301415 0.0794015 -0.14976317 -0.14688891 -0.13901114
-0.007633829 0.06693923 0.000466979 -0.04609725 0.04830594 0.03170686 0.027657878 0.025323339
-0.08054632 0.026019545 -0.03234433 -0.02546904 0.16262265 -0.09316789 -0.04571604 0.022788951
-0.09433745 0.060711388 -0.036259577 -0.117827214 -0.05460701 0.07426004 0.10935581 -0.14818314
0.04899598 0.052589476 0.06331117 -0.09803615 0.09266279 -0.03923754 -0.020044358 0.15390733
0.016142258 -0.04020495 -0.19166741 0.045655746 -0.106044084 0.04640485 -0.057389263 0.0873139
-0.07414783 -0.15519503 -0.019526275 0.048403196 -0.18630755 0.04245822 0.14634901 0.04360044
-0.008630513 -0.043571033 -0.017321698 -0.1447941 -0.25159493 0.025489306 -0.017852653 -0.029227007
-0.038896833 0.1824942 0.027286893 -0.013290629 0.0797998 0.1056466 0.08750736 -0.09807383
0.034487545 -0.05679625 -0.032160334 0.00078243524 -0.12529702 0.040415287 0.21850479 -0.09989055
-0.10453559 0.059778396 0.12034806 0.07183651 -0.026867677 -0.1400304 -0.10829304 0.0017309552
-0.008194363 0.08583248 -0.013252941 0.028997654 0.10629292 0.044505846 -0.057127457 -0.073102914
0.14413914 -0.032328755 -0.06067451 -0.026736211 -0.011076273 0.042788714 -0.056972407 0.16834903
-0.08013198 0.06062818 -0.012822946 -0.022683809 -0.28876764 0.054353938 -0.044923123 0.108117834

bias f4 [256]
00000000: 5e12 80bd 9637 e1bd 7b0f 27bd 3a6e 9bbd
00000010: 6d1e 7e3d 08ba 96be 23dd eabd 4527 3bbc
00000020: 4677 273d 4f77 46bd 19e2 39be 7b41 e1bc
00000030: 181f 5e3e 63de 1ebe fadc afbe b3c3 653b
00000040: a1d7 48bd 476b fcbd 4c6e 093e 3465 13be
00000050: a620 49bd 30c6 cb3c 9880 81bd 329b 323d
00000060: 8e57 b7bd ab28 22be 8227 7cbd b958 c43d
00000070: fc22 4dbc 6316 9cbe 5412 453d 44ef f1bd
00000080: 5d9f 6d3b 1ab5 eabd d383 babe 0832 15bd
00000090: dd64 47be 49c6 39bd 55e6 05be 5ebe c2bd
000000a0: 8fc6 14be 94dd dcbd bc8c 65bd 70c1 fdbd
000000b0: d6e7 32be 50e7 a1bd 3d84 373c fdec 46be
000000c0: 00e1 c73d fe55 43be 87fc a83d 99aa 153d
000000d0: 78f6 7ebe d23f 63bd c13a 89be 7521 60bd
000000e0: c331 f63d 8920 1dbe cf60 99bb 718b 00bd
000000f0: b20e dabd d71e 38bd 1282 c2bd 565a 3fbe
00000100: 61f4 643c 18fc 4fbe d1d7 afbd 6675 27bd
00000110: b916 1c3c 5f1f 5abd 8edc b1bd 5524 15be
00000120: d384 ffbc 42c3 16be 724f 53be 1c9a 4bbd
00000130: e811 f43c db92 7dbe 7e5c 6bbd 38f9 63bd
00000140: 5ced b53c 1479 dcbc bf8a 56be 62ba a1bd
00000150: 6865 d4bd 83ce d03c a7ea f9bb 2002 8abd
00000160: 2657 a9bd 0ee5 63be 99fe 6dbd ceb3 87be
00000170: e715 8e3c eebb 1abe 303c 143d 4e3f 82bd
00000180: ea3d 92bd 9d55 263e 84c6 3ebd 5273 a83d
00000190: 830b b63d a21b e13c c8f1 ffbd bdc1 cebd
000001a0: b3e6 10bd 3a4b db3c 23c8 c7bb 7295 df3d
000001b0: 222a 9cbc a3c1 32be ae35 3f3e 389c 2ebe
000001c0: 7c3f ef3d f973 b23d 8fcb fbbd 9de0 9ebd
000001d0: 1636 a1bc b0eb d5bd 1564 3abd 5706 24be
000001e0: a929 3cbe 9357 80be 93ee 013e 7cdd 10be
000001f0: 50db 073d 3d57 01bc 0b59 11be 2725 f03d
00000200: 072b 96be 57b1 453d 378a 88bd 547f f0bd
00000210: c243 ba3c 77f4 00be 2d65 053d 791d f83d
00000220: 9f00 4cbd 4c04 98bc f219 9cbe e9e5 0abe
00000230: eda0 283d 85c7 15be 08b5 dabd ef9f b2be
00000240: b006 3abe 8d35 533d 4b81 0dbd ad77 b6bd
00000250: e530 643d 5a47 f4bc 574b 373c 482e 1f3d
00000260: 1722 45be 9489 7e3e aed2 0dbe 7937 ebbd
00000270: 171f 61be 9378 66be 3924 59be 374a 6c3b
00000280: 3dce 673d 58f2 81bd 250a 23be 9c3c 2dbe
00000290: 1cd7 25be 3b02 11bd 5ce2 33bd 05fe 37be
000002a0: bdca 64be c9e4 3fbe 9cf7 87bd 1dc0 bc3d
000002b0: 981e 993c b8e2 8dbd 1de6 65bd 8c8e 8dbd
000002c0: 5350 e5bd 5725 a73d b1c9 9cbe 119f c9be
000002d0: 4566 cd3d 215d 8abd a62e e038 b29c 42be
000002e0: 1765 a5bd 1e0f 4f3e 795c e5bd 8e67 0fbe
000002f0: fee1 e4bd fe5b cbbc e2ab 11be 5e3c 10be
00000300: a8fd 963d d288 013e b7ac 80be 847a 42bc
00000310: 5502 a5be 9cae bdbd 180a 40be 3a89 edbd
00000320: c5eb a6bd d333 95bd 8242 2cbe 72c6 82be
00000330: 2370 e5bd d4df 20be 9546 c4bd 5d08 e1bd
00000340: 7ea6 92be f09e a7bd b01e b0bd 6654 41bd
00000350: 5602 07be ec34 c73c a3c1 e6bb 11c1 a2bc
00000360: c0bd 9e3d dec2 94bd b0a1 21bd 54b3 24bd
00000370: 0636 64bd 4d87 b2bd c565 66be 10aa 9a3c
00000380: 5a10 0c3e ab4d 61be ef7d 52bd 4aaa 2fbd
00000390: ed29 01bd aed4 153d b716 cb3c 6689 94be
000003a0: 695a a8bd 36fb 27be 698c 62be 2ac1 903c
000003b0: d565 5abe a782 0dbe 67b6 5fbe f085 c8bd
000003c0: f349 19be 08ac af3c aee3 3b3a 6574 8dbd
000003d0: 2b88 573d 7509 34be 0229 a3bd f930 8abd
000003e0: 8ad9 0ebe 220c ef3c 16a4 b23c 513f 4e3c
000003f0: e206 7fbd 5864 cfbd 10b7 463c aa37 1abe
-0.06253503 -0.1099693 -0.040786248 -0.075893834 0.062040735 -0.29438806 -0.1146796 -0.011422937
0.040885232 -0.048453625 -0.18152656 -0.027497044 0.21691549 -0.15514521 -0.3434828 0.0035059273
-0.049033765 -0.12325149 0.13420981 -0.14394075 -0.0491034 0.024874777 -0.063233554 0.043605037
-0.089522466 -0.15835826 -0.061561115 0.09587235 -0.012520548 -0.3048583 0.048113182 -0.118132144
0.0036258318 -0.11460324 -0.364287 -0.036424667 -0.1947207 -0.045355115 -0.13076146 -0.09508966
-0.14528869 -0.1078445 -0.056042418 -0.12390411 -0.17471251 -0.079054475 0.011200962 -0.19426341
0.09759712 -0.19075772 0.08251291 0.036539648 -0.24898708 -0.055480786 -0.26802638 -0.054719407
0.1202121 -0.15344442 -0.00468073 -0.03138298 -0.10647334 -0.044951286 -0.09497465 -0.18686804
0.01397428 -0.2031101 -0.085860856 -0.040883444 0.009526902 -0.053252574 -0.086846456 -0.14564641
-0.031191265 -0.14722922 -0.20635775 -0.049707517 0.029793695 -0.24763052 -0.057461254 -0.055657595
0.022207908 -0.026913203 -0.20951365 -0.07896878 -0.10370904 0.025489097 -0.0076268497 -0.067386866
-0.08268575 -0.22255346 -0.05810413 -0.26504368 0.017344428 -0.15110752 0.03619021 -0.06359731
-0.071407154 0.16243596 -0.046576038 0.082251206 0.088889144 0.027478997 -0.12497288 -0.100955464
-0.035376262 0.02676927 -0.006096856 0.10917176 -0.01906306 -0.17456679 0.18672821 -0.1705178
0.116820306 0.08713526 -0.12294685 -0.07757685 -0.01967911 -0.104453444 -0.045505602 -0.16018043
-0.18375267 -0.25066814 0.12688665 -0.1414699 0.033168137 -0.007894334 -0.14194123 0.11725836
-0.29329702 0.048264828 -0.066669874 -0.11743036 0.022737388 -0.12593256 0.032567192 0.121149965
-0.04980528 -0.018556736 -0.30488545 -0.13564266 0.041169096 -0.14626892 -0.1067906 -0.34887645
-0.18166614 0.051564742 -0.03454713 -0.08909545 0.055710692 -0.02981918 0.011187396 0.038862497
-0.19251285 0.2485717 -0.13849899 -0.1148519 -0.21984516 -0.22506933 -0.21205224 0.0036054978
0.05659317 -0.063450515 -0.15921839 -0.16917652 -0.16195339 -0.035402518 -0.043917045 -0.17967995
-0.22342964 -0.18739618 -0.066390246 0.0921633 0.018691346 -0.06928009 -0.056127656 -0.06911954
-0.11196961 0.08161419 -0.30622628 -0.3937917 0.10029272 -0.06756044 0.00010689841 -0.19005087
-0.08075922 0.2022061 -0.111992784 -0.14004347 -0.11175917 -0.024824139 -0.14225724 -0.14085528
0.073726 0.12649849 -0.2513177 -0.01187003 -0.32228342 -0.0926182 -0.1875385 -0.115984395
-0.08150438 -0.07285275 -0.16822246 -0.25542027 -0.11203029 -0.15710384 -0.09583775 -0.10987923
-0.28642648 -0.08184612 -0.08599603 -0.04719963 -0.13184485 0.024317227 -0.0070421263 -0.019867452
0.07751036 -0.072637305 -0.039460838 -0.040210083 -0.055715583 -0.08717213 -0.2249976 0.01887992
0.13678113 -0.22002284 -0.05138963 -0.04288701 -0.031534124 0.03657978 0.024791105 -0.29011077
-0.08220369 -0.16404423 -0.22123875 0.017670233 -0.21327908 -0.13819371 -0.21846925 -0.097911716
-0.14969616 0.021444336 0.0007167411 -0.06906966 0.052620094 -0.17581733 -0.07966806 -0.06747622
-0.13950172 0.02918059 0.021806758 0.012588338 -0.062262423 -0.10126561 0.012128606 -0.15060297

weight f4 [128, 256]
00000000: 2a08 023c e8ce 70bd 1191 a6bd 674d 1d3e
00000010: 042b 19be 13ef 21be e02e 91bd 83c7 03bd
00000020: 78b9 40be 2ba7 2b3e 6fc0 3ebd 2b7a 7fbd
00000030: 04f5 c3bd 70f3 fe3b 5d8a 2fbe 5143 c8bd
00000040: 5429 28be 382b 6cbd eb85 d8bc 8f7d 863d
00000050: 9761 50bd f167 1fbe dc57 c63d 59f2 12bd
00000060: 9ef7 55be fc5c 29be f258 8abc 12b7 3dbe
00000070: 3c85 22bc d961 e6bc 779d 233d 9493 6bbe
00000080: cef1 12bd 545e 1dbe f22f 89bd 6ac4 c0be
00000090: 2a1c b6bd f270 cbbe 8217 04be 3556 d3bd
000000a0: 0eb0 89bd 7cf0 2cbd c79f 38be 5198 54bd
000000b0: 6a49 8fbd b73f 19be 6338 0abe 1860 09bd
000000c0: 335a fabc 1a76 21be a027 eebd d710 61be
000000d0: a750 58bd 80cb 2abe 5499 9dbd 7ec8 70bd
000000e0: 6eaf 1ebe 0c7c ae3c 4b88 52bc 086c 6f3d
000000f0: 5375 f9bd 010a d3bd d8cf dfbd 187a b5be
00000100: c5c9 1fbd 8eeb 50be f1ef 0ebd 8c7a e53d
00000110: be15 b9bd d817 aabd de81 4cbe 431a 94bd
00000120: 13b8 b6bc d02a 26be 6eb9 f1bd 51e8 67bd
00000130: b59f 883d 0720 113c a1ed ef3b a2e8 88bd
00000140: 4f73 31be bded 483d 3ca0 48be e913 84bd
00000150: b683 73be 8256 e83c 158f 53be 089b 22be
00000160: ec99 f4bd 455d 10be 58b9 6a3d f64a 61be
00000170: 3599 fd3d 344d eabd 4cd8 0b3d 67ac 65bb
00000180: 972e edbc 6866 d4bc 77fb 2d3e 637a a5bc
00000190: bbb5 4ebe 87ac f2bc 8af7 82be 5e1c 903d
000001a0: 065a edbd 7880 2c3e 14fc d2bd 0a52 dcbd
000001b0: 374a b2bd 5894 f8bd 871b f1bc 70e4 15be
000001c0: 49b6 9ebd 1bcc a03d b6ca b4bd 59bc 17be
000001d0: ed0c 91be ac35 7ebd 9172 08bd 92f2 14be
000001e0: b6ee 60bd f61a eabd af28 9cbc c3c7 b13d
000001f0: 4dc3 1ebe c7dd 45bd 2116 01bd 2a19 4fbd
00000200: 36d7 c6bd ab55 d93a fefe 393d 2e5c 183c
00000210: 81ed 88be bcb5 7c3d 2862 ffbd 8b88 33be
00000220: 6c54 11be 0b1e c8bb 7b70 82bd ae52 013e
00000230: 6bdb 2cbd 064a eebd 4162 ffbd 8406 9fbd
00000240: 6143 febd 7a28 a4bd 20df e4bd 09df 46be
00000250: 49cb 13bd 1b92 31bd 8443 89bd 61e4 81be
00000260: 98b5 a5be 52c5 b7bd e704 0cbe 16ec 46bd
00000270: 8e3e 15be 3e68 92bc f8ff 14be da5f 063e
00000280: e241 81bc d8f5 e63c aa5f a4bd 8f5e 32be
00000290: 71f9 a1bd 86e0 38be 4a8f 633d 718b 58be
000002a0: 3c4b 61be 7d27 a13d 0625 ffbc 3db3 49bc
000002b0: e191 81be 2718 f0bc 6752 f2bd a09f e5bd
000002c0: 0981 d3bc 5343 8bbd af61 28be a98a 2dbe
000002d0: f2f5 1fbc fbd3 38bd afa6 aa3d c5aa d6bd
000002e0: 5581 a7bd a375 8b3d 9f75 bebc 50b5 79bd
000002f0: 402e 8b3c 5080 aa3d 5692 68be 14d6 9c3d
00000300: f05d c5bd ba05 ce3c 3a1d 1b3e 7857 81be
00000310: 0930 c3bc d10b cb3d 1864 0f3e 3ff6 92bd
00000320: b2d7 03be a697 74be ddcb 28bd 7753 5a3d
00000330: f972 523c 745e 1abd 584a 80be 7546 d93d
00000340: 1dec c5bd 2e12 503d 5f6f 68be c09d b0bd
00000350: b09f 3cbe 1d9a 2abe 4921 25bd 3f3b 9d3d
00000360: 76ce 6f3d 1d2d 6e3d 461a 45bc bb24 52bd
00000370: fa9f 02be 836a c3bd e635 99bd 9799 25be
00000380: 6af4 3bbe a86f 25be c559 443d 866a d73c
00000390: 2e00 ddbd 24fb 1cbd 8046 5cbd 7d1c 013e
000003a0: 511d 083d b95a 61bc 0fe8 afba 4765 8ebd
000003b0: acbe 703d bead 91bd 3cb7 6dbe f4bd 4ebe
000003c0: 2852 06be b63f 76bd 5163 6e3d 47dd e8bd
000003d0: ec4e b7bd 7bff 33bc b362 3fbe af81 153e
000003e0: af3a bb3d 6d31 50bd 7f34 a53d b05e 8a3d
000003f0: ee8e 7abc 2b8f 3fbc 75fc 02be 2d36 cf3d
0.007936517 -0.05879107 -0.08133138 0.15361558 -0.14957815 -0.15813856 -0.07089019 -0.03217269
-0.1882075 0.16762988 -0.046570238 -0.062372368 -0.095682174 0.007780485 -0.17142625 -0.097784646
-0.16422015 -0.057658404 -0.026431045 0.06566917 -0.05087432 -0.15566994 0.096847266 -0.035875652
-0.2089524 -0.16539377 -0.016888116 -0.18526867 -0.009919461 -0.02812283 0.039945092 -0.23005515
-0.035875134 -0.15368015 -0.06698598 -0.37649852 -0.088920906 -0.39734608 -0.12899593 -0.10319177
-0.06723033 -0.04222153 -0.180297 -0.051903073 -0.069964245 -0.14965712 -0.13498072 -0.033538908
-0.030560588 -0.15767708 -0.116286516 -0.2197908 -0.05281129 -0.16679192 -0.07695261 -0.058784954
-0.15496609 0.021299385 -0.012849878 0.058452636 -0.12180581 -0.103046425 -0.10928315 -0.35444713
-0.03901078 -0.20402357 -0.034896795 0.112050146 -0.0903735 -0.08305329 -0.19971415 -0.072315715
-0.02230457 -0.16227269 -0.11802946 -0.05661804 0.06671087 0.008857734 0.0073220287 -0.06684996
-0.17329143 0.04905485 -0.19592375 -0.0644911 -0.23780712 0.028361563 -0.2066005 -0.15879452
-0.11943421 -0.1409808 0.057305664 -0.22001252 0.123827375 -0.114405066 0.034141824 -0.0035045387
-0.02895288 -0.025927737 0.16990457 -0.02019996 -0.20186512 -0.029623283 -0.25579482 0.070366606
-0.11589436 0.16845882 -0.10301986 -0.10757835 -0.087055616 -0.12137669 -0.029432071 -0.14637923
-0.07749612 0.0785143 -0.088277265 -0.14817943 -0.28330174 -0.062062904 -0.033312384 -0.14545658
-0.054915152 -0.11430924 -0.019062368 0.0868068 -0.15504189 -0.048307206 -0.031515244 -0.050561108
-0.09709017 0.0016581317 0.045409195 0.009299321 -0.267437 0.061696753 -0.12469894 -0.17532556
-0.1419236 -0.006107097 -0.0636911 0.12629196 -0.04220144 -0.116352126 -0.12469912 -0.07764915
-0.12415195 -0.08015533 -0.1117537 -0.19421019 -0.03608254 -0.043352228 -0.06702331 -0.25369552
-0.32365108 -0.08973183 -0.13673745 -0.048564993 -0.14574644 -0.017871972 -0.1455077 0.13122502
-0.015778486 0.0281934 -0.08026059 -0.17418884 -0.07908905 -0.18054399 0.055556573 -0.21146943
-0.22001356 0.0786886 -0.031145584 -0.0123108 -0.2530661 -0.029308392 -0.11832123 -0.11212087
-0.025818365 -0.067999505 -0.16443513 -0.16947426 -0.009763228 -0.045124035 0.083325736 -0.104817905
-0.08178965 0.06809547 -0.023249445 -0.06096393 0.016989827 0.08325255 -0.22712073 0.0765802
-0.09637058 0.025149215 0.15147868 -0.25262046 -0.023826616 0.09914363 0.14003026 -0.07175874
-0.1287525 -0.23885974 -0.041210044 0.053302255 0.012844794 -0.037687734 -0.2505672 0.10609142
-0.09664176 0.050798588 -0.22698735 -0.086238384 -0.18420291 -0.16660352 -0.040314946 0.07677316
0.058546506 0.058148492 -0.01203019 -0.05130456 -0.12756339 -0.095418 -0.074809834 -0.16171871
-0.18354955 -0.16155875 0.047937173 0.026295912 -0.1079105 -0.038325444 -0.05377817 0.12608524
0.033231083 -0.01375454 -0.0013420599 -0.06952911 0.05877559 -0.07113217 -0.2321443 -0.20189649
-0.13117278 -0.060119353 0.058200184 -0.1137033 -0.089506 -0.010986204 -0.18689995 0.14600252
0.091420524 -0.050828386 0.080666535 0.067563415 -0.015292866 -0.011691849 -0.12791617 0.10117755

bias f4 [128]
00000000: b742 50be 2fc7 c9bd 09ea 813d 61ab 193e
00000010: 128b 4dbe 6d31 83bd 6930 123d 86af 9e3e
00000020: 49c2 0e3e c85a 95bd f913 93bd 48cb e8bd
00000030: f23d 783e 6cdf a9bd 799f 733e 54a7 abbd
00000040: c033 c2bd 3fe3 e6bd 8a25 8abd e7c4 bdbd
00000050: 982a 78be 9438 9cbd 5170 c3bc 9f2a abbe
00000060: b224 a8bd db2d 2abe 12a4 27bd c16f 6dbd
00000070: fd6b f4bc 23f3 94bc e556 3e3c 96e7 d2bc
00000080: ed52 593e 672f 8e3e 8312 90bc 6d17 b2bd
00000090: c0e7 ae3d d85b 9a3e bf8a cfbd 6590 96bd
000000a0: 8fc4 bfbd 0297 dfbd d573 20bb e2c9 b1bd
000000b0: e2c7 debd e3df c6bd be55 453e d81f 873e
000000c0: ea00 6a3e 5d68 17be bb64 5dbe f1a7 bfbd
000000d0: 2ac1 fdbd 6db1 4ebe 8974 b73d c007 89bd
000000e0: 4945 1fbe 93e4 353e ff88 93bd 27b3 9a3c
000000f0: a4d9 ccbc 4f57 ac3e efc9 8f3e 9978 a3bd
00000100: 920d bfbb b2e2 89bc 4804 a5bd 71c7 81bc
00000110: 046c 27be 6140 3bbe b083 44bd 59ec cfbc
00000120: 942e 8fbd 05f1 403e e2c4 7f3a ed03 5abe
00000130: fd1a 9bbd e49b f1bd 6b69 48be 5b12 56bd
00000140: d520 183e 2605 d6bd 56e0 1e3e 1355 72be
00000150: b6c1 b2bd fe46 03be 43cd 62bd 9d51 f8bd
00000160: 2f66 2ebe c3b8 4cbd 6f48 353e 7796 1cbd
00000170: 5f64 14be 7a4d b93d fcff 08be 0f6a c1bd
00000180: 7435 88bd 1b75 abbd 5150 2ebb fcbe 56bd
00000190: 606c 2bbe 18f8 173e 1162 ecbc 9048 c0bd
000001a0: 2e0f 0fbe 9672 e9bd 84e3 c7bd 1caa b5bd
000001b0: aea2 d5bd 9ae4 c3bd 347e 6fbd a83d d4bd
000001c0: 23fa 3bbe c643 0e3e 39eb 59be ea94 20be
000001d0: 2bb2 11be 0a9c dcbd 218f e3bc aef8 f5bc
000001e0: dd16 003c 0422 333e da54 3d3e b12c a33e
000001f0: e35b 253e c6f2 0abe 9267 3fbd f365 55bd
-0.2033795 -0.098524444 0.06343467 0.15006782 -0.20072582 -0.064059116 0.0356907 0.3099329
0.13941301 -0.07292706 -0.07181544 -0.11366898 0.2424238 -0.082945675 0.23791303 -0.08381525
-0.09482527 -0.112738125 -0.06745441 -0.09266072 -0.24234998 -0.07627979 -0.023857268 -0.33430955
-0.08210124 -0.16619055 -0.040927954 -0.057967905 -0.02983665 -0.018182343 0.011617397 -0.025745194
0.2122304 0.2777054 -0.017586952 -0.08695874 0.085402966 0.30148196 -0.101338856 -0.0735176
-0.093636625 -0.10917474 -0.0024483104 -0.08681084 -0.10877968 -0.09710672 0.1927099 0.26391482
0.22851911 -0.14785905 -0.21620457 -0.09358204 -0.12390359 -0.2018487 0.08957774 -0.06690931
-0.15553774 0.17762975 -0.07203864 0.018884255 -0.025006123 0.3366036 0.2808375 -0.079819866
-0.005830475 -0.01683173 -0.08057457 -0.015842171 -0.16349798 -0.18286277 -0.04797715 -0.025381254
-0.06991306 0.18841942 0.0009756816 -0.2129056 -0.07573507 -0.11797312 -0.19571464 -0.0522636
0.14856274 -0.10450201 0.15515265 -0.23665266 -0.08728354 -0.1282005 -0.055371534 -0.121249415
-0.17031167 -0.04998089 0.17703412 -0.038229432 -0.14491414 0.090479806 -0.133789 -0.09444057
-0.066508204 -0.083719455 -0.0026598165 -0.05242823 -0.1674056 0.14840734 -0.028855355 -0.0938884
-0.13970634 -0.11398809 -0.09760192 -0.088703364 -0.10431419 -0.09565087 -0.058469966 -0.103633225
-0.18357138 0.13893041 -0.21281137 -0.15681806 -0.14228122 -0.107719496 -0.02777821 -0.030025806
0.007817951 0.17493445 0.184894 0.31870034 0.16148333 -0.13569173 -0.04672963 -0.05209918

weight f4 [64, 128]
00000000: dc3d a3bd b508 babc 7e9a acbd c543 a3bc
00000010: 9cb4 21be 6eef 14be 2748 a1bc 4125 743d
00000020: 0919 b63b 56f6 81bc fb14 ed3c b62d f9bc
00000030: 4599 dbbc 6e52 0cbd a363 14bd 07dd 40be
00000040: 5e64 c3bd 7b52 18be 7ada dabd b2b2 d1bd
00000050: 4f39 bb3d ece8 c73d 0a19 edbd 225d 113e
00000060: 0572 d0bd 2fb4 92bd 7d65 5ebe d071 32bd
00000070: c5f5 6fbe 841f ce3b a8da bbbd d13e 8abe
00000080: 1929 b13c 3a80 b53d 1cc6 54be bea3 87bd
00000090: 5699 363c b870 16bc 8e5e 19be d6bb 69be
000000a0: a576 a9bd ae0b 823d a932 92bd cd9c 54be
000000b0: 3a0d 1cbe 2f0a 82be a9d9 c4bd cfa2 d5bc
000000c0: efad 6bbb 77d4 c8bd d8ae 2ebe cbcf 313c
000000d0: 3f5a 94bd 22f4 973d d74c d23c 9b09 d4bd
000000e0: 9a37 adbd d3e2 6c3c 1e6d 15be c688 413d
000000f0: f768 bdbd b0d6 533c 03ea 833d 8832 8bbe
00000100: c79a 3fbe 431d 07be cd4d 4dbe 4198 89bd
00000110: 5fe0 4cbd 1c66 c1bd 04f6 b4bd 495d 27be
00000120: 7db0 1bbe 040f b73c 5e28 81be 2978 85bd
00000130: 5790 f03d e4bd 9bbd 930b 21be df3a a4bd
00000140: a519 44bd b026 143e d2e5 9d3c a162 a4bd
00000150: 6bc7 afbd db21 17be 537e 2ebc 83e3 87bd
00000160: 94bb 9bbd 234b babb b99c 5abb be8f 0abe
00000170: 8833 95bc 9b03 4c3b 3078 18bd 52d3 4cbe
00000180: c456 b8bc e7cc f1bd 15b8 7abc de29 96be
00000190: 7f8b 0abe 45f3 193d f63a 94bd a02f fcbc
000001a0: bd96 1ebe 2097 89bd 5b08 51be 1cc2 b03d
000001b0: 12e2 1fbe 057e 39be c8d4 d4bd 5124 98be
000001c0: 7b7f 7f3d ec64 cd3d 828e 14be 8970 35be
000001d0: 5d49 10bb 8648 7dbe 82bd 28be 62d0 b4be
000001e0: 0f45 0dbe c8d1 823c d4a7 d83d 81eb 2d3d
000001f0: 020f a53d c88a cebc 16f4 14be 382e 743c
00000200: d0c8 1abe b93f 163e 596e 62be af01 173b
00000210: b74f b93c 06ec 31b8 fb50 aa3c 716b 82be
00000220: f5ac c2bc e99c abbd 231f 6c3d db07 b23d
00000230: b489 57be 338b f53d 511d 2dbe 54e2 ebbc
00000240: f716 d63d ad9c 4e3b 5729 6a3d f8b5 6b3c
00000250: fbf8 423d 9023 8dbd 5ef9 473d b401 3d3b
00000260: 533b eebc c100 aa3c 3c29 063e c967 f53d
00000270: d7b3 3fbc d68d 04be 6018 3dbe fef0 863c
00000280: 5233 18be 35b9 28bd fa86 53bd 868f 8bba
00000290: 090d 6bbe 088e 0ebe 8128 ccbd 8972 943d
000002a0: 8ebd 403e 35c8 373e 8777 933d 006f e43d
000002b0: c401 dc3c f906 e3bd f8ba 31be 5529 be3c
000002c0: 333c 25bd a31f bb3c ef95 b83d 3c93 12be
000002d0: 4db9 60bc afb0 473d 469a bbbc 3757 423d
000002e0: e08b c839 eecc b5bd cf9b fe3d aa86 e9bd
000002f0: f001 37bd bbb9 65be 86ea e4bd 774b db3d
00000300: d1bb 0b3e 7b59 833d 9089 0b3e 5c7c 773b
00000310: c3e0 263e ebae 91bc 5238 d23c fc39 bcba
00000320: 78c8 3f3e ffb4 92bd c8fa 93bd 148d 5dbd
00000330: bd50 233d 94e9 77bd 05be 813d e3c6 e6bd
00000340: b234 94be 6cc6 383e 9bfd 51be 16f4 8d3d
00000350: 9469 de3c d1b0 d43d 12e9 c73d b5ce 33be
00000360: 28e2 753d d9d9 d43d 20ac f9bd f893 8a3d
00000370: 7784 133e b252 2fbe de5e 68bd ab26 613d
00000380: 4cca 103d dfcb 72bc a2cc 203e d744 0e3e
00000390: 80fb f03d f317 ee3c c291 653d 58d8 493c
000003a0: 503f 38bd 2a28 0e3d 320f 6abc 283a b53d
000003b0: 05f9 91bd 2f9c b2bc 58e7 e33d 7289 e83c
000003c0: 5ab0 03be 1188 67be c432 05be 31d0 133e
000003d0: 4b9d 393e 578e 82bd ef46 aa3d cbef db3d
000003e0: 74fd b9bd a350 2dbd c1a8 d6bd 6746 4ebe
000003f0: e806 23bd e01e 68bd 1431 87bc a62c 9e3d
-0.07970783 -0.02270923 -0.084279045 -0.019929776 -0.15791553 -0.1454446 -0.019687725 0.05960584
0.0055571836 -0.015864532 0.028940668 -0.030417304 -0.026806483 -0.0342583 -0.036227833 -0.18834315
-0.09540628 -0.14875214 -0.10686202 -0.102391616 0.0914179 0.09761223 -0.115770414 0.14195684
-0.101779975 -0.071632735 -0.21718402 -0.04356557 -0.23433597 0.006290378 -0.09172565 -0.2700105
0.021626042 0.08862348 -0.20778698 -0.06623028 0.011144957 -0.009182148 -0.14977476 -0.2282556
-0.08274583 0.06349884 -0.07138569 -0.2076294 -0.1523942 -0.25398394 -0.09611828 -0.02607861
-0.0035961827 -0.098061495 -0.17058885 0.010852764 -0.072437756 0.074196115 0.025671406 -0.103533946
-0.08457871 0.014458376 -0.14592406 0.047249578 -0.09248536 0.012929603 0.064411186 -0.2718699
-0.18711387 -0.13194756 -0.2004921 -0.06718493 -0.050018664 -0.09443304 -0.08835986 -0.16344179
-0.15204044 0.022346027 -0.2522611 -0.06517059 0.11746281 -0.07604578 -0.15727071 -0.08019041
-0.04787602 0.14467883 0.019274626 -0.080266245 -0.08582958 -0.14759009 -0.010650235 -0.06635191
-0.07604137 -0.0056852265 -0.0033357574 -0.13531396 -0.018213049 0.0031130079 -0.037223995 -0.20002487
-0.02250231 -0.1180666 -0.015302678 -0.29328817 -0.13529776 0.037585516 -0.072378084 -0.030784428
-0.1548719 -0.06718278 -0.20413344 0.086307734 -0.15613583 -0.18114479 -0.10392147 -0.29715207
0.062377434 0.10029015 -0.14507487 -0.1771871 -0.0022016384 -0.24734697 -0.16478541 -0.35315233
-0.13795875 0.015969172 0.10578886 0.042460922 0.08059503 -0.02521266 -0.14546236 0.0149035975
-0.15115666 0.14672746 -0.22112407 0.0023041775 0.022621019 -4.2419902e-05 0.020790568 -0.25472596
-0.023764113 -0.083795376 0.05764688 0.086929046 -0.21048623 0.11989441 -0.16905715 -0.028794445
0.10453599 0.0031526492 0.05716833 0.014386646 0.047600728 -0.06891549 0.0488218 0.0028840126
-0.029081022 0.020752313 0.13101667 0.11982686 -0.011700592 -0.12944731 -0.1846633 0.016472336
-0.14863327 -0.041192252 -0.051642396 -0.0010647632 -0.22954191 -0.13921368 -0.09968663 0.07248408
0.1882231 0.17947467 0.072005324 0.11153984 0.02685631 -0.11085314 -0.17356479 0.023213068
-0.040340614 0.022842234 0.090129726 -0.14313978 -0.013716054 0.048752483 -0.022900712 0.047446456
0.00038251188 -0.08876978 0.12432062 -0.11402638 -0.044679582 -0.22434132 -0.11177544 0.10707753
0.13645865 0.064135514 0.13626695 0.0037763333 0.16296677 -0.017783603 0.025661621 -0.0014360542
0.18728817 -0.071634285 -0.07225567 -0.05408962 0.03987192 -0.06052549 0.063350715 -0.112684034
-0.28946453 0.18044442 -0.20506899 0.06931321 0.027149953 0.103852876 0.097612515 -0.17559321
0.060030133 0.10393114 -0.12191033 0.06766504 0.14406 -0.1712139 -0.056731097 0.054968517
0.035349175 -0.0148191145 0.15703061 0.13893448 0.1176672 0.029064154 0.05604721 0.012319647
-0.044982255 0.034706272 -0.014285849 0.08848983 -0.07127575 -0.02180299 0.1112811 0.028385852
-0.12860242 -0.22610499 -0.13007647 0.14434887 0.18126409 -0.063748054 0.08314311 0.10739096
-0.090815455 -0.04231323 -0.10481406 -0.20144044 -0.03980151 -0.05667007 -0.016502894 0.0772336

bias f4 [64]
00000000: 11fc 393d 48da 003e 7e38 d63c edb1 fab9
00000010: 1807 6e3d 033c 90bd d537 373e 6e05 123c
00000020: 85a6 afbd 4540 f0bd dace 1e3e bdaa 76be
00000030: 40e7 d53d 81c4 7fbe 23fa 07be 75a4 31be
00000040: d507 433c 378a 3abe 6035 673e 0c51 093e
00000050: 08d7 993a edb2 dcbd 3973 c43d b70f 3bbe
00000060: 2a33 81be 26a3 203d b3f9 9e3d f537 dcbd
00000070: 46a6 31bc a979 50be 82d9 babd a31a da3d
00000080: c54f 08be cec3 3f3d 16ec fdbd 4700 3fbd
00000090: 71c8 193d 9022 85be 573f 68be 3865 38be
000000a0: 11b4 7dbe 91d2 2ebe ebfc 34be 15da 86be
000000b0: 49df e0bd d70b f93d 7a03 1ebe 3541 653d
000000c0: 630b 0abe 2e14 debc a0fd 38be b6bd 103d
000000d0: 03ca 30be 3f98 2d3e d297 993e feb4 06be
000000e0: 2d6c aa3d 76f7 4abe 3e73 aebd 1e40 093e
000000f0: ac08 91bd 5628 f33d 1586 763d d98b 80be
0.045406405 0.12583268 0.026149984 -0.0004781628 0.058112234 -0.07042696 0.17892392 0.008912427
-0.08576683 -0.117310084 0.15508595 -0.24088569 0.10444498 -0.24977304 -0.13279013 -0.17347892
0.011903723 -0.18216787 0.22578955 0.13409823 0.0011737058 -0.10776315 0.095922895 -0.18267713
-0.25234348 0.03921809 0.0776247 -0.107528605 -0.010842865 -0.2035891 -0.091235176 0.10649612
-0.1331168 0.046817593 -0.123985454 -0.046631124 0.03754467 -0.26002932 -0.22680412 -0.18007362
-0.24775721 -0.17072512 -0.17674606 -0.26338258 -0.10980088 0.121604614 -0.15431014 0.05597039
-0.13480906 -0.027109232 -0.180655 0.035337172 -0.17264561 0.16952609 0.29998642 -0.1315498
0.08321414 -0.19820961 -0.085180745 0.13403365 -0.07081732 0.11872928 0.060186464 -0.25106695

weight f4 [32, 64]
00000000: 1ee2 673e 8b67 0cbd 2ea4 2cbd fc47 103e
00000010: 967a 413e d7f1 76be d1c2 e1bc e203 09be
00000020: e939 153c 03bb bebb 6988 763d b20a a6bd
00000030: 46eb a93c 07d4 0fbe df2d 79ba f744 8cbe
00000040: 41f3 86bd 1bbb 14be 9fce b33d b08a 3a3e
00000050: eadd 9dbd 2bbf 30be 65fc 283e 533a 9bbb
00000060: 549b ecbd 881c cd3d 16cb 023e 0e27 08be
00000070: 0e26 48bd 3477 77be d8b1 debd 5735 303e
00000080: 05df 93bd 3d93 7a3d a475 efbd 01a8 33be
00000090: 37ac 4b3d 2bdc 8bbe 5115 6fbe d387 33be
000000a0: c6a4 d1bd 9fa5 64be 49f9 cabd 8d05 263c
000000b0: b98f 183d ba1d 903d 145a c6be 3c7f c33d
000000c0: d1a6 9bbd 81fe 3abe 0032 81bd 8494 a5bc
000000d0: f602 4cbe 49d3 2a3e 9102 a3bd 4b35 94bd
000000e0: c971 993d bce3 aabc 0e8b 883d 9205 f63d
000000f0: 2712 95bd d22c b63d 90a8 00bd 3766 25be
00000100: 4f87 04bf 6580 9b3d 9605 4c3e 4519 7a3c
00000110: b88b bbbe eba2 c23d 4f61 a3be 19e6 05bd
00000120: 6a73 03bc 768f 853d 5421 01bf 9783 27bd
00000130: 7b56 e8be 2e28 e83d 32b4 5abd a6b8 9e3d
00000140: d09f 06ba c206 8dbd 681e 1fbf 989e f8be
00000150: 38b9 ed3d 6133 e43d b40e 99be f24a 9fbd
00000160: 8adb 25bd 50e6 3a3e ac28 b9be 3773 fbbc
00000170: b13f 2cbd 1b77 4bbd 5281 8ebd 7e77 26bf
00000180: 2655 c7bb 4c1b 09bf 220a 623d e2a9 3fbc
00000190: 7794 e6be 2368 bd3d a9bb 493c fe8d 0bbe
000001a0: 464d e83d f0a3 11bd 36d7 153e 48af e6bc
000001b0: 9998 32bd f115 d43d fd46 c83d 6023 4dbe
000001c0: 34f6 c13c 7d11 043d 67d4 983b c1dd c73d
000001d0: 4a31 94bb 5ae3 debe d5f4 3fbf 6119 ee3d
000001e0: 8430 00bf 9385 2cbd f0ed 54bd b8dd 07bf
000001f0: 23b6 dcbd 3613 e7be 71bf c63d f7ca af3b
00000200: 9e46 00bf 3c4a f83d 781f 7b3d 800c 583e
00000210: e539 f0be debe 13be 3440 f8be 2ce5 bb3d
00000220: 66b0 86bc 9eb9 13bd 99c8 c7be 57e2 6e3c
00000230: 03e3 c4be f00f 1d3d be88 953d 5746 413e
00000240: 7f81 afbb 5d43 e43d e5d6 f9be ae0c c9be
00000250: f16b 70bb 5b7d bcbc 1d80 bcbe 9f70 72bc
00000260: 281a 81bc 65bd a93c 898c 0dbf 768e a63d
00000270: f951 39bc c9b2 a53d 2f16 3b3e bee3 a5be
00000280: 6594 7d3c f775 d9be 2670 03bc 2d44 cebd
00000290: 153a cabe e611 a1bd c476 433d 10f9 063d
000002a0: 282c 393b b985 fbbd 9f42 aabc 92ce dbbc
000002b0: 983c f63d 0ae4 eabc a84f 03bb 5232 86be
000002c0: a2aa 9fbc 0b83 ad3d f86b e2bc eb08 dbbc
000002d0: dd5d d93d 32d2 02bf 461d dcbe a213 963d
000002e0: 3c41 02bf 2602 6abd c09d 5d3c 3443 a5be
000002f0: 65a4 ef3a de2a eabe cde3 a93c d735 9f3d
00000300: 5291 0bbf d559 673d a220 033e 6de9 173e
00000310: 0b03 c9be 92bd 773d f9eb c2be 91e8 0abd
00000320: 6aff 8f3d 223e b33d cf7a 04bf 24fe 803d
00000330: 6f4d b2be c816 4f3d 1b7f b3bd 4486 723c
00000340: f396 6dbc 0976 893d fee6 0dbf 4d35 ecbe
00000350: 4301 643d 1057 2ebc b02a e5be 1825 9e3c
00000360: 5dac 6d3d b562 d33b 282e e5be 00ba 763d
00000370: e438 12bc b947 a8bd ec32 cc3d d7e0 f5be
00000380: 2d66 a33d f7a0 bfbe 6de3 ea3a 86d9 493d
00000390: 1979 b2be 66d8 773d 95a5 0e3d 1c0e cb3d
000003a0: e8bb 9b3c 516a 32bd b965 053d afdc 81bd
000003b0: 3e74 7b3d 3d10 0b3d 1be1 863d ee74 9cbe
000003c0: d8ba 203d 0561 87bd 2953 913c da8e 0a3d
000003d0: d6ab 3b3d 6009 16bf 8312 0cbf 675f 86bd
000003e0: 24fd 0cbf b24b aa3d 3466 893b ee2a e3be
000003f0: c275 ea3c 42e0 edbe 953c 563d 147a 043e
0.2264485 -0.034278434 -0.04214876 0.1408996 0.18894419 -0.24115692 -0.027558716 -0.13380387
0.009108045 -0.0058206334 0.060188685 -0.08107509 0.02074207 -0.14045726 -0.00095054315 -0.27396366
-0.06589366 -0.145245 0.08779644 0.18216968 -0.077083424 -0.17260425 0.16502531 -0.0047371774
-0.11553064 0.100152075 0.12772784 -0.13296148 -0.048864417 -0.24166566 -0.10873765 0.17207848
-0.07220272 0.061175574 -0.1169236 -0.17544557 0.049724784 -0.27316412 -0.23347975 -0.17532282
-0.10236506 -0.22328804 -0.099108286 0.010133159 0.03724644 0.0703692 -0.387406 0.095457524
-0.07600177 -0.18261148 -0.06308365 -0.02021242 -0.19923005 0.16682161 -0.07959474 -0.07236727
0.07492406 -0.020860545 0.066671476 0.12012781 -0.07278853 0.088952675 -0.031410754 -0.16152273
-0.51768965 0.07592849 0.19924006 0.015264814 -0.36630034 0.095037304 -0.31910178 -0.03269014
-0.008023122 0.065215036 -0.5044148 -0.04089698 -0.4537848 0.11335789 -0.053394504 0.07750063
-0.0005135508 -0.068860546 -0.6215577 -0.48558497 0.11607593 0.11142612 -0.2989403 -0.077779666
-0.040492572 0.1825192 -0.36163843 -0.030694587 -0.04205293 -0.049674135 -0.0695826 -0.6502608
-0.0060831485 -0.53557277 0.055185445 -0.011698218 -0.45035145 0.09248378 0.012312808 -0.13628384
0.11342864 -0.035556734 0.14632878 -0.028159752 -0.04360256 0.103557475 0.09779165 -0.20033026
0.02367697 0.03224324 0.004663992 0.09759093 -0.0045224773 -0.4353283 -0.7498296 0.116259344
-0.5007403 -0.042119574 -0.051984727 -0.5307269 -0.10776927 -0.45131844 0.09704483 0.0053647715
-0.50107753 0.12123534 0.061309308 0.21098518 -0.4691917 -0.14428279 -0.48486483 0.091745704
-0.016441535 -0.03606569 -0.3902023 0.014580331 -0.38454446 0.038345277 0.07301472 0.18874489
-0.0053560133 0.11145661 -0.48796764 -0.39267486 -0.0036685432 -0.023008993 -0.36816493 -0.014797359
-0.015759543 0.020720193 -0.55292565 0.08132641 -0.011311048 0.08090741 0.18270181 -0.32400316
0.015477275 -0.42472813 -0.008022344 -0.10071597 -0.39497438 -0.07864742 0.047720686 0.03295237
0.002825508 -0.12281365 -0.02078372 -0.026831899 0.12023276 -0.02867319 -0.0020036492 -0.26210266
-0.019490544 0.0847226 -0.027639374 -0.02673765 0.10613606 -0.5110198 -0.42991084 0.073279634
-0.5088079 -0.057130955 0.01352638 -0.32277834 0.0018283246 -0.4573583 0.020738507 0.07773941
-0.54518616 0.056482155 0.12805417 0.14835139 -0.39260134 0.060483523 -0.38070658 -0.0339132
0.07031138 0.08752085 -0.5174989 0.062984735 -0.34824702 0.050558835 -0.08764478 0.014802519
-0.014501321 0.067119665 -0.5543059 -0.46134415 0.055665266 -0.0106408745 -0.4475913 0.019304797
0.058025707 0.006450976 -0.44761777 0.060235977 -0.008924697 -0.08216805 0.0997065 -0.48023102
0.07978473 -0.37427494 0.0017920561 0.049279712 -0.34858015 0.060509108 0.03482588 0.099148005
0.0190105 -0.043558422 0.032567713 -0.0634092 0.061390154 0.033951033 0.06585904 -0.3055796
0.039240688 -0.06610302 0.01773985 0.03382764 0.045818172 -0.58608055 -0.54715747 -0.06561165
-0.5507376 0.08315219 0.0041930918 -0.4436869 0.028620604 -0.46460158 0.05230387 0.12937194

bias f4 [32]
00000000: 18ce 053f ca4c 4f3e df44 203e 9463 0d3e
00000010: 10be 973e a44e 833e 941a a23e b4fe 1e3f
00000020: 7829 923e 167d cc3e bd9f 0a3e 51b4 563e
00000030: 90c9 763e ad0f 0b3f 2089 d23e 5fa5 3c3e
00000040: a266 423e efd8 953e 5d13 713e 69a7 6a3e
00000050: c0a5 a73e ddfc 7b3e e293 053f 223b 863e
00000060: 5858 313e f3ac c63e 5f95 8b3e 1eb2 663e
00000070: fcb3 7f3e 48f4 473e c46a 813e fe8e 853e
0.522676 0.20244136 0.15651272 0.13807517 0.29637194 0.25645936 0.31660903 0.62107396
0.28547263 0.39939183 0.13537498 0.20967223 0.24100327 0.54320794 0.41120243 0.18422459
0.18984464 0.2926707 0.23542543 0.22915424 0.32743645 0.24608178 0.52178776 0.2621699
0.17318857 0.38803825 0.272624 0.22528884 0.24971002 0.1952678 0.25276768 0.26085657

weight f4 [1, 32]
00000000: b41f 663e ba91 10bc 6861 9bbb 4619 3cbc
00000010: 54ef 8e3e 9882 b5bb aeb3 443e 2bce 1b3e
00000020: 9fab 4abc be58 7e3e 370c 8ebc 2ab4 54bc
00000030: 2f74 be39 2a65 1e3e ac56 5e3e a28d ccbb
00000040: b698 8fbc 92c6 573e 28f2 653e 9cc1 1abc
00000050: 2ab0 5b3e 93e4 81bc 6f5d 4e3e e69b 723e
00000060: cecf 11bc fa45 423e ec77 3cbc 9d34 9ebc
00000070: f388 82bb a607 b33a 9e1d 873e eb6f 573e
0.22473031 -0.008823806 -0.0047418363 -0.011480635 0.27916968 -0.0055392496 0.19209167 0.15215366
-0.012370019 0.2483854 -0.017339809 -0.012982408 0.00036326188 0.15468279 0.2171275 -0.00624247
-0.017528873 0.21071842 0.22455657 -0.009445574 0.2145392 -0.015856063 0.2015283 0.23692283
-0.008899642 0.18972006 -0.011503201 -0.019312197 -0.003983611 0.0013658896 0.26389784 0.21038787
