stk-code/src/model/soccer_ai_model.pt (torch, 758207 bytes, 11 tensors)

weight f4 [512, 18]
000000 9b 60 1b 3e 56 23 8b bd 9b 78 c3 3d 29 1a ef 3d
       0.15173571 -0.06793849 0.09544488 0.116749115
000010 45 1e b9 3c 9e 2a d2 bd 55 3d d5 3c 84 a5 6a bd
       0.022597441 -0.10262035 0.026030222 -0.057286754
000020 76 c3 4d bd 50 70 c3 bb b1 36 38 3e 58 c4 12 be
       -0.050235234 -0.0059643164 0.17989613 -0.14332712
000030 f8 a8 2a 3e 95 c2 c4 bd 33 44 fa 3d 57 71 e8 3d
       0.16666019 -0.09607426 0.12220039 0.11349743
000040 41 8f 3f 3e 65 65 8b bd 47 77 83 bd 2c 36 9a bc
       0.18706991 -0.06806449 -0.06419235 -0.01882466
000050 e9 3d bc be 1f 65 55 3e 04 63 b9 be 08 64 68 be
       -0.36765984 0.20839356 -0.36208355 -0.22694409
000060 e6 ab e4 bd 4e ae 94 be 91 3d 9a be cc 36 66 be
       -0.111655995 -0.29039234 -0.30125096 -0.22481841
000070 4d 29 04 3e 19 c8 dd bd 11 65 2a 3d 61 c3 3c bc
       0.1290638 -0.10829181 0.04160029 -0.011521191
000080 eb f4 8f 3d ba aa 5a 3d 24 b0 57 3e d9 70 ea ba
       0.07029136 0.053385474 0.21063286 -0.0017886414
000090 1e 3b f1 bd 19 d9 dd 3d 30 32 cd bd 0f 86 3f be
       -0.11778854 0.10832424 -0.10019338 -0.18703483
0000a0 94 97 5e bd 34 bc 89 bd 5e b8 45 ba 89 11 86 3e
       -0.054343775 -0.0672535 -0.00075424265 0.26185253
0000b0 6a 31 eb bd 79 3b 5a 3d e9 e7 85 bd ae a6 7c 3c
       -0.11484034 0.053279374 -0.06538374 0.015420599
0000c0 dc 56 a8 be 46 65 bd bb 97 4f 06 be 17 5f e8 bd
       -0.32878768 -0.005779895 -0.13116299 -0.11346262
0000d0 0b c5 64 be 86 bf ff bd 66 b3 74 3e 30 13 db bd
       -0.22340791 -0.12487702 0.2389656 -0.10697019
0000e0 19 3d 40 3e b0 e5 e7 bb ef 54 28 be 3a df 33 3d
       0.18773307 -0.0070769414 -0.1643865 0.043914057
0000f0 5a 7c b1 bc 56 d1 e8 bd 08 73 7c 3d ca 29 1a 3e
       -0.02166574 -0.11368053 0.06163314 0.15055004
000100 c3 80 46 bd bb e5 f1 3c 59 83 a1 bd 37 01 05 3d
       -0.04846264 0.02952849 -0.07886381 0.03247186
000110 a6 b0 85 3b b0 98 24 3d 33 9e 54 3e f3 8e 9c 3d
       0.004079896 0.040184677 0.20763473 0.07644453
000120 67 ce ab 3c 80 af 80 bd 89 6f 39 be d0 65 cf 3d
       0.020972444 -0.06283474 -0.18108954 0.10126841
000130 ca 47 50 be 99 ea 8a bd d4 9b 64 3e ce 23 ea bd
       -0.20339885 -0.06783027 0.22325069 -0.114326105
000140 31 b8 67 bd 70 9f 79 3e 8a 24 cd be 2d 49 02 3e
       -0.056572143 0.24377227 -0.4006694 0.12723227
000150 f3 64 4a 3e 77 e8 e3 3d 1e e6 e2 3b 04 18 3b 3e
       0.19765072 0.111283235 0.0069244048 0.1827088
000160 29 b8 39 be d4 28 a0 3e aa 0b e7 bc f0 85 65 3d
       -0.18136658 0.3128115 -0.028203804 0.056035936
000170 89 3b 92 bd eb d3 a6 bd a4 cf b8 3d 5c 63 a3 bc
       -0.07140262 -0.08145889 0.09023979 -0.01994484
000180 fc 48 02 be 7e d9 0c 3d 5e 3d a2 3e 32 60 a8 be
       -0.12723154 0.034387104 0.31687444 -0.3288589
000190 84 f9 bc 3d 49 a5 7f be 34 72 8c be 9c a1 08 bd
       0.09227279 -0.24965395 -0.2743088 -0.033357248
0001a0 67 f2 59 3c 48 c4 e8 bc d4 a9 2d be 16 fc 2b bd
       0.013302422 -0.028413907 -0.16959316 -0.041988455
0001b0 52 e7 b6 3c c8 60 20 3e 7f c1 a5 be 1b 8a 2d be
       0.022327099 0.15661919 -0.32374188 -0.16947214
0001c0 79 94 bc be 83 7e 2a 3d 7c 8b 97 3c f4 bf e4 be
       -0.36832026 0.041624557 0.018499129 -0.446777
0001d0 b3 50 5f 3e 76 7a 54 bd 07 de 20 3d e9 d0 03 3e
       0.21808128 -0.0518746 0.03927424 0.12872662
0001e0 5f 61 57 be 4b ed 9b 3b 8a 49 14 3e 95 5c 38 3e
       -0.21033238 0.004758512 0.14481178 0.18004067
0001f0 c6 f6 e2 bd 98 19 53 bb b3 2f 8f 3d b8 af 61 be
       -0.110822245 -0.00322113 0.0699152 -0.22039688
000200 c3 33 52 be ba c0 bf be 45 6f f0 be ca 5f 23 bb
       -0.20527558 -0.37451726 -0.46959892 -0.002492892
000210 95 e7 32 be 31 1e b3 be c4 19 c2 3e fa ce 66 be
       -0.17471154 -0.34983972 0.37910283 -0.22539893
000220 e1 90 dc 3d 4c 8a 9f be 28 eb 15 3e 6f 5b 1a 3c
       0.10769821 -0.311602 0.14640486 0.0094212135
000230 81 da 39 3b 2d af e0 bc 43 5a 58 3d 0a 07 1b 3c
       0.0028358998 -0.02742728 0.052820455 0.009462127
000240 f3 25 b8 bc 39 24 1f 3e dd 75 11 be d0 04 49 be
       -0.022479033 0.15541162 -0.14205118 -0.19630742
000250 17 02 ac 3d 53 41 3e 3f d7 63 de 3d 9f 6c f7 3d
       0.08398836 0.74318427 0.10858887 0.12081265
000260 4a a3 db 3e 02 28 9d bc 82 22 ab bd 56 84 8f be
       0.42898017 -0.019184116 -0.08356191 -0.28030652
000270 d4 74 37 be f3 ae 4b 3d c7 39 0a 3d 0b 40 fb bc
       -0.1791566 0.04972739 0.033746507 -0.030670187
000280 4e 36 29 ba fc eb bb bd 4d 5f 1a bc 43 4c dd bd
       -0.00064549304 -0.0917587 -0.009422136 -0.108055614
000290 c0 a2 77 3c 5d 7c 7a 3e bd f8 55 3e 4a 88 44 3e
       0.015114486 0.24461503 0.20895667 0.19192615
0002a0 13 03 07 3e 57 1c 86 3d 53 b9 8b 3e 46 8f 33 be
       0.13184766 0.06548374 0.2728983 -0.17535123
0002b0 58 12 fb bd e8 47 65 be bc 01 3e 3e 68 09 bf 3a
       -0.12259358 -0.22390711 0.18555349 0.0014574947
0002c0 c2 94 8c bd 60 f5 2d 3c 09 ba 2a 3d 64 70 94 3e
       -0.06864311 0.010617584 0.041681323 0.28991997
0002d0 cd 9e bb bc c7 7f f9 3d 8a 93 8f bc 03 60 ad 3e
       -0.02290287 0.12182575 -0.017526407 0.33862314
0002e0 8d 83 1a be 3c 03 a3 3e 8e 33 3f 3e 78 12 52 3e
       -0.15089245 0.31838405 0.1867201 0.20514858
0002f0 c0 22 9e 3e 93 0a b7 3c 63 74 2f 3e 68 36 09 be
       0.30885887 0.02234391 0.17134242 -0.1339966
000300 fe 03 a5 be cf db 30 be 64 6e 4f 3e 49 e9 0c 3e
       -0.32229608 -0.1727135 0.20256954 0.13760866
000310 80 72 e2 3c bc c8 16 3e 69 40 93 3d 0f 60 c7 bd
       0.027642488 0.14725012 0.0719002 -0.097351186
000320 21 70 f5 3d 99 80 2a 3d 19 5f 1b be 16 1a 5d 3d
       0.119842775 0.041626547 -0.15172996 0.053979956
000330 22 65 c3 3e 45 5f 5c 3e 96 2f 57 be 0a 9b f8 bd
       0.38163096 0.21520717 -0.21014246 -0.12138946
000340 3b 60 8b 3e bf fe 88 be 22 86 f8 3e 4a 5b fc bd
       0.27221856 -0.26756856 0.48539835 -0.123220995
000350 4b 00 74 3d f1 8d 1c 3d 08 90 0d be 9c db 0a be
       0.059570592 0.038221303 -0.13824475 -0.13560337
000360 bb e7 4e bc 35 10 e4 bd c4 3d 23 bc 4c 05 00 3e
       -0.012628491 -0.11135904 -0.009963457 0.1250202
000370 93 fe f1 bc 7e bc 90 3e 26 48 40 3d c5 cb f5 3c
       -0.029540336 0.28268808 0.046943806 0.030004391
000380 11 c7 a6 3e 39 a7 b5 bc 0d 16 1d be d6 f4 e5 3d
       0.3257375 -0.022174465 -0.15340443 0.112283394
000390 63 80 ad bd f8 1a 30 3d 01 67 65 3e ad a1 6e be
       -0.084717534 0.04299447 0.22402574 -0.23303862
0003a0 40 44 46 be f1 e8 a9 ba 29 5e a4 bd 53 ef 1b 3c
       -0.19361973 -0.0012963099 -0.08025772 0.009517509
0003b0 4f 86 b8 3d 7d a1 3c 3d 3e 88 c8 bd 46 4e c3 be
       0.09009992 0.046052445 -0.09791611 -0.38145655
0003c0 fb 98 6f 3e af 2f 05 bc 19 7f 98 3e d7 90 a7 be
       0.23398201 -0.008129044 0.29784468 -0.32727692
0003d0 8a c2 e5 bd b0 38 6c 3d 78 2b 15 be 86 c4 60 3d
       -0.11218746 0.05767125 -0.14567363 0.05487492
0003e0 14 b8 00 bd 8f da d8 bd 4d c9 17 be b3 e5 6d bc
       -0.03142555 -0.10588562 -0.14822884 -0.014520097
0003f0 19 aa 10 be 49 6e 5f 3e b0 7b 80 3d 36 5d f8 3c
       -0.14127387 0.21819414 0.062735915 0.030317884

bias f4 [512]
000000 bc 86 5b be 3b 76 3b be 82 6e 84 be 66 58 5d be
       -0.21438116 -0.1830682 -0.2586556 -0.21615753
000010 c3 96 12 be 18 6a 82 be 52 90 dc 3d 7c 0e a0 be
       -0.14315324 -0.25471568 0.107697144 -0.3126105
000020 0a fe 27 be 5c d6 2f be 70 c9 ed 3d 7a 04 3a be
       -0.16405502 -0.17171615 0.11610687 -0.1816577
000030 97 11 be be 58 cb 8c be 06 19 e8 be 84 ae c2 be
       -0.37122795 -0.2749889 -0.4533159 -0.3802377
000040 b5 4f d2 be 4e 30 db be 52 49 e3 be 31 98 c8 bd
       -0.41076437 -0.4281029 -0.44391876 -0.09794653
000050 e9 db 0a be 4d c3 c2 bd 45 71 01 3d 1b 3f 4c be
       -0.13560452 -0.09509907 0.031602163 -0.19945948
000060 43 c5 b0 bd 38 36 f9 be 4b 7f a1 be f9 78 5b be
       -0.08631375 -0.48674178 -0.3154243 -0.21432866
000070 8d 82 f1 be 9d b1 3f be 2a 5e ab bd a0 e7 b8 be
       -0.47169915 -0.18720098 -0.0836757 -0.36114216
000080 3c 7e 04 bf 61 f3 c3 be 03 8c 3a be b0 1f c5 bd
       -0.5175512 -0.3827162 -0.18217473 -0.096251845
000090 ea 0d 16 bd cf 55 60 be 56 65 b0 be 53 09 8d be
       -0.036634363 -0.21907733 -0.34452313 -0.27546176
0000a0 04 e7 10 bf 6a a6 89 be 45 45 9f be de 24 b6 bd
       -0.566025 -0.26884776 -0.31107536 -0.088937506
0000b0 2b 0a 0b bf 06 f4 0a bf b0 2a 1a bd 67 72 44 3e
       -0.5431239 -0.542786 -0.037638366 0.19184266
0000c0 98 2c 0e 3d d4 d4 1d be fb fb e1 be f0 ed 17 be
       0.034710497 -0.15413219 -0.44137558 -0.1483686
0000d0 f3 c6 ea be 76 3d b3 be d7 dc 99 be 52 36 82 be
       -0.4585491 -0.35007828 -0.300513 -0.25432068
0000e0 be 0b 30 3d 4d de aa bd 2e 89 f8 be 2b 52 01 be
       0.04297995 -0.08343182 -0.4854216 -0.12629001
0000f0 49 cb 04 bf 9e a6 1e 3e 9a 74 11 bf 85 53 63 be
       -0.5187269 0.15493247 -0.56818545 -0.22199829
000100 21 73 a4 be 0e cc b8 3d 9e 80 27 3e fa b2 30 3d
       -0.32119086 0.09023295 0.16357657 0.043139435
000110 f3 a1 67 be c0 11 49 be a8 7b 8a be d9 28 92 be
       -0.22620372 -0.19635677 -0.27047467 -0.2854679
000120 3e 2d d7 be 61 b6 14 be 7a 0c 92 bd 9b ad d8 be
       -0.42026705 -0.14522697 -0.07131286 -0.4231995
000130 b6 4c 21 be 56 64 40 be 5d 7a 94 be a0 ef 4b be
       -0.15751919 -0.18788275 -0.28999606 -0.19915628
000140 c0 52 99 be 96 81 97 be a9 7c 5f be f9 73 cf 3c
       -0.29945946 -0.29591054 -0.21824898 0.025323855
000150 c7 85 dc be 3f 34 82 be da 48 0d be 93 39 f6 be
       -0.43070814 -0.25430486 -0.13797322 -0.480908
000160 7c f2 ad be 32 16 9f be 85 e3 19 bf 9d 79 07 be
       -0.33974063 -0.3107162 -0.6011279 -0.13229986
000170 d3 fd cd bd e2 b0 01 bd 55 e0 f3 be 95 19 95 be
       -0.10058179 -0.03166283 -0.4763209 -0.2912108
000180 59 f6 bf be a0 51 36 be 0c d1 e9 3b f3 83 00 3f
       -0.37492636 -0.17804575 0.007135516 0.5020134
000190 1e 8f 6c 3c 32 e3 0d be 8e 03 28 be 23 78 8f be
       0.014438419 -0.138562 -0.16407606 -0.28021345
0001a0 76 76 b5 be 33 61 b6 be 95 3e 3a 3e fd e2 95 be
       -0.3544194 -0.35621032 0.18187936 -0.2927474
0001b0 97 0f 9e 3e ad f5 d6 be 9f 23 e9 bd a8 82 37 be
       0.3087127 -0.4198431 -0.11383747 -0.17920935
0001c0 31 f3 9b bd 7d 27 a5 be ac 1a 09 be af 32 d3 be
       -0.076147445 -0.3225669 -0.13389081 -0.41249606
0001d0 30 a8 c2 bc 5b d7 22 3e 6a a9 96 be 20 c2 11 bf
       -0.023761839 0.15902464 -0.29426128 -0.56936836
0001e0 b5 95 77 3e ad f7 b1 be 62 b6 ca be 60 5a af be
       0.24178202 -0.34759274 -0.39592272 -0.34248638
0001f0 e3 95 3a bf 4d 8b 8c bd 05 3e 19 3d 28 01 2a be
       -0.7288496 -0.06862507 0.037412662 -0.16602004
000200 1e 77 12 bf 50 98 93 be b5 5d e7 be 35 4d 0b bf
       -0.5721301 -0.28827143 -0.4518868 -0.54414684
000210 20 e5 6c be d4 cb 86 be e6 62 9a be 3f dc a3 be
       -0.23134279 -0.26327384 -0.3015358 -0.32003972
000220 32 e1 9f be 3d 3a ce be bf b4 04 bf 74 60 8b be
       -0.31226498 -0.40278807 -0.51838297 -0.27222025
000230 a7 69 03 bf 39 5e e1 3d 53 4d ad be 97 50 47 be
       -0.5133309 0.110043 -0.33848056 -0.19464336
000240 da 6e 4e be 71 05 f4 be 49 64 04 bf 59 3c 08 bc
       -0.20159474 -0.476604 -0.51715523 -0.008315169
000250 2c fc 2d be 8e 34 9d be 40 d0 f5 bd 39 e0 a7 be
       -0.16990727 -0.3070416 -0.12002611 -0.32788256
000260 a3 0a da be f1 a3 02 bf 19 06 20 be 29 7d c7 be
       -0.4258624 -0.51031405 -0.15627326 -0.38962677
000270 f6 fc c3 3c 49 fc 91 be a4 f2 d2 be 38 e8 9e bd
       0.023924332 -0.2851279 -0.41200745 -0.07759136
000280 f0 88 10 be 42 a9 3d 3e 13 79 b7 bd 85 64 2d be
       -0.14114738 0.18521598 -0.0895864 -0.16932876
000290 15 83 04 be 61 c2 4a bd 48 d4 33 be e6 ba 4a bc
       -0.12940629 -0.04950178 -0.17561448 -0.012373662
0002a0 d1 d5 ed bd d9 3d bb bd 2a cc bd bd 52 f4 d6 be
       -0.11613048 -0.09142656 -0.09267457 -0.41983277
0002b0 2d e6 7a be 00 54 ce 3d e2 3f 5c be 77 9e 1b be
       -0.24501868 0.100746155 -0.21508744 -0.15197168
0002c0 a8 e7 43 be 6b c7 74 be d9 c2 06 be e6 16 d4 be
       -0.19131339 -0.23904197 -0.13160266 -0.4142372
0002d0 04 aa bd be 7f f2 c3 be cf b4 ea bd b5 f7 26 be
       -0.37043774 -0.38270947 -0.11460268 -0.1630543
0002e0 5c bd b8 be dc d3 05 bf f3 7b 01 3e 89 e6 a3 3e
       -0.3608197 -0.52276397 0.12644939 0.32011822
0002f0 fd 50 eb be f5 dc de be e3 52 97 be ac a1 b6 3e
       -0.45960227 -0.43527952 -0.29555425 0.3567022
000300 e3 06 a9 be f8 34 80 be 75 c7 84 be 96 d0 40 be
       -0.33013067 -0.25040412 -0.25933424 -0.18829569
000310 c6 63 ae bc a1 96 bc bc 90 ca 98 3e 23 21 83 3e
       -0.02128781 -0.023021044 0.29842043 0.2561122
000320 43 9b ba be 50 6e 3a be ad ff b8 bd e6 19 8f be
       -0.3644658 -0.18206143 -0.09033141 -0.27949446
000330 ba ee 56 be d5 48 fe be ee fe 96 be 73 7b a8 bd
       -0.20989504 -0.4966494 -0.2949137 -0.08226671
000340 76 0b 8a be 09 2d 53 be 5e f4 fc be 73 01 12 be
       -0.2696187 -0.20622648 -0.49405187 -0.14258365
000350 c4 43 45 3e 27 5c 80 bd 15 65 a9 be ad 0c 4f be
       0.19264132 -0.06267577 -0.33084932 -0.20219679
000360 68 49 56 be d5 0e d1 bd 02 c5 49 be 94 f8 a3 bd
       -0.2092644 -0.10207907 -0.19704059 -0.08006397
000370 36 eb 99 be b1 d2 38 be 43 91 a2 be 42 a9 70 be
       -0.30062264 -0.18049122 -0.3175145 -0.23502067
000380 c2 12 29 be 62 e4 ea be 33 b7 31 be 8f e0 83 be
       -0.16511062 -0.45877367 -0.17355041 -0.25757262
000390 d0 93 44 3d 70 15 d8 bd 40 dc c2 be fd 72 d3 bd
       0.047992527 -0.10550964 -0.38058662 -0.10324667
0003a0 7b 91 cb be fe 7d c5 be 1c 44 97 3e 80 37 03 3d
       -0.3975943 -0.38572687 0.2954415 0.03203535
0003b0 85 fc c9 be 17 9c 06 be f8 a1 72 be ed 30 62 be
       -0.3945047 -0.13145481 -0.23694599 -0.22088976
0003c0 6e a5 ea 3a 2d 32 ee be 59 0a b7 3e 92 be 3b be
       0.0017902085 -0.46522656 0.35750082 -0.18334416
0003d0 e5 1e 60 3e 53 af 48 be 4d 09 8b be 4b 7a de be
       0.21886785 -0.19598131 -0.27155533 -0.43452677
0003e0 3d b3 06 bf 1d 87 bb be 36 02 89 bd 9e 32 81 be
       -0.52617246 -0.3662652 -0.06689875 -0.2523393
0003f0 9a f6 4b 3e 65 bf 05 bf 6c 9e 5a bd fa 65 25 bf
       0.1991829 -0.5224517 -0.05337374 -0.6460873

weight f4 [256, 512]
000000 16 7a a6 3d c2 08 04 bc b9 74 8b 3c ea cc cb bd
       0.08128755 -0.008058729 0.017023431 -0.09951194
000010 51 1d 85 bd 29 26 87 bc 4e 76 13 3c 72 11 96 bc
       -0.06499732 -0.016497688 0.009000374 -0.018318865
000020 f2 a5 73 3d b4 f9 4a 3c 01 a8 89 3c ae 35 14 3d
       0.05948443 0.012388635 0.016803743 0.036184005
000030 6f e3 3d 3e ed a5 52 3e 65 55 47 3c b0 ae 5b 3c
       0.1854379 0.20571108 0.012166356 0.013408348
000040 db 34 17 3e 35 36 44 bd 2c c1 2e 3d c8 db 83 3d
       0.14766257 -0.04790326 0.04266469 0.06438404
000050 fd 5a ca 3c 01 df 28 bd ef 01 9b bd 5f f7 13 bc
       0.02470159 -0.041228298 -0.07568728 -0.009031146
000060 58 36 66 3c 13 28 91 3d 29 5d 08 3b c8 01 7f be
       0.0140510425 0.07087722 0.002080748 -0.24903023
000070 1a 9a b0 bd 3b eb fc bc a1 ea 3f 3e 5f d9 ba bc
       -0.086231425 -0.030873885 0.18741848 -0.022808729
000080 46 df 28 3e ca 14 d5 3e 54 c7 31 bd 69 34 73 be
       0.16491422 0.41617423 -0.043402985 -0.23750462
000090 82 fd 74 bd 6e d3 02 3c b1 ac c8 3d 53 5c 43 bc
       -0.059812076 0.007984979 0.09798563 -0.011923867
0000a0 47 e5 d7 39 df a3 f3 bd 75 c5 d5 bd 4d 95 48 3d
       0.0004117882 -0.1189649 -0.104380526 0.04897051
0000b0 bb 00 6e bd bf 37 12 3e cf 86 8b bc 1e 2b e6 bd
       -0.058106165 0.14279078 -0.017032055 -0.11238693
0000c0 94 d8 0a bf 09 79 76 bd 1e 09 12 ba c7 63 a0 bd
       -0.5423672 -0.060174022 -0.00055708166 -0.07831531
0000d0 56 03 62 be 1d c6 9b 3c cc fe 8e 3d 8c b8 96 bc
       -0.22071585 0.019015366 0.069821924 -0.018398546
0000e0 01 f0 aa be c5 19 b2 3b f7 c2 82 3b 0f 23 14 be
       -0.33386233 0.005435201 0.003990527 -0.14466499
0000f0 9d 49 dd 3d 55 24 b4 bd c3 cd 64 bc f9 70 ed bd
       0.10805056 -0.08795992 -0.013965073 -0.115938134
000100 e5 c7 56 3d 63 59 40 bd f8 34 4d bc 31 41 52 bd
       0.052436728 -0.046960246 -0.012524836 -0.051331703
000110 95 6c a2 3d 79 fe 93 bb 47 6d a9 bd e0 a1 74 bc
       0.07930867 -0.0045164195 -0.08272796 -0.014931172
000120 05 29 e8 3b ac 21 0c 3e e2 5e fa bd ef 25 00 3e
       0.007084968 0.1368472 -0.12225129 0.1251447
000130 c2 1e 91 bc e3 f0 df bd fe 8c af 3d e3 32 91 3d
       -0.017714862 -0.10934617 0.08571814 0.07089784
000140 77 c2 10 be 4e b3 c7 3c 60 0c ae 3d 27 5e 67 bd
       -0.14136682 0.024377491 0.08498454 -0.056486275
000150 c1 05 81 3e da e2 ec 3d 01 8d c6 3b d9 c4 cb 3d
       0.25199702 0.11566706 0.0060592894 0.09949655
000160 a2 0c 8d bb ca 99 68 3c 69 ad 8d 3e 77 89 11 bc
       -0.0043044845 0.014196822 0.27671364 -0.008882872
000170 87 9a d0 3d 93 17 63 bc b1 b7 a2 bd b7 98 0d bd
       0.10185724 -0.013860601 -0.079451926 -0.03456947
000180 3c 60 c4 3d ab 1a f3 3d 40 2b 7e bd c7 a4 19 be
       0.09588668 0.11870321 -0.062052965 -0.15004264
000190 26 78 01 bd 3c d1 15 3e ac 77 d7 bc da a2 f4 3c
       -0.031608723 0.14630598 -0.026302181 0.02986281
0001a0 0a 79 bb 3d 8c 47 20 be 7e d5 d2 3c e8 32 09 3d
       0.09153946 -0.15652293 0.025736567 0.033495814
0001b0 2f 7b f7 bd 98 a5 81 3e 34 ff c3 ba 8a c3 65 bc
       -0.12084042 0.2532165 -0.0014953376 -0.014023671
0001c0 ba 8a bd 3c 73 39 a3 3c 3a 18 54 be 24 1e 48 bd
       0.023137439 0.019924855 -0.20712367 -0.04885687
0001d0 d0 b8 46 bd 14 7b c3 bd 2c 84 f4 bc e2 e9 7c bd
       -0.048516095 -0.0954496 -0.02984818 -0.061746486
0001e0 65 49 dd bd f4 d8 67 be a2 f2 35 bc 80 0b 0c 3d
       -0.108050145 -0.22641355 -0.011105211 0.034190655
0001f0 30 7a cd bd b3 dc d6 bc d9 d2 2d bd ba 0d 8f 3c
       -0.10033071 -0.026228284 -0.042437408 0.0174626
000200 68 19 61 bd e4 53 a1 bc aa 83 cb 3d b3 74 51 3d
       -0.05495587 -0.019693322 0.09937222 0.051136684
000210 5c 47 67 3e 76 3d 5d be 94 e2 09 bd 23 87 25 bf
       0.22585815 -0.21605477 -0.033663347 -0.6465933
000220 76 c3 11 bd 24 53 ea bd 42 f8 e8 3d 47 7b 6e 3e
       -0.035586797 -0.11441639 0.113754764 0.23289214
000230 b4 9e b9 3a 36 dc ad bd 1d 9d 4d be 23 4c 84 3d
       0.0014161677 -0.084892675 -0.20079465 0.064598344
000240 a9 05 a3 bc 3e 9a 43 bd 72 e1 0a 38 67 fe a7 3a
       -0.01990016 -0.04775452 3.3111726e-05 0.0012816907
000250 3e 41 8c bd 0a 8d 1e 3d 2b f2 1a 3e b7 ab e6 3c
       -0.068483815 0.038708724 0.15131442 0.028158052
000260 92 ff 84 bd 4a 19 57 bd ac 7a 74 3b 39 76 f2 bd
       -0.06494059 -0.052514352 0.0037304563 -0.118389554
000270 22 cd e5 bd 3e 62 99 bd a2 97 06 3e 5c 08 2b 3e
       -0.112207666 -0.07489441 0.13143781 0.16702408
000280 56 36 fb 3c f0 c7 42 be 26 a1 e4 bd bb 9f d2 3d
       0.030665558 -0.19021583 -0.11163549 0.102843724
000290 39 70 94 bd 41 48 77 3d 09 fb fe bc 28 10 a1 be
       -0.07247967 0.06037164 -0.031125562 -0.3145764
0002a0 2b b4 0d bc b4 ee 18 be c0 f5 00 bc 24 73 60 3e
       -0.008648912 -0.14934808 -0.007871091 0.21918923
0002b0 69 8d 2a bc cf e3 7b bd 28 fd 16 be 4e 6c 0d 3d
       -0.010409691 -0.061496552 -0.14745009 0.034527116
0002c0 59 cf f5 3d 57 5b 3d 3d 25 e5 2f bc f5 0a c5 3d
       0.12002439 0.046229687 -0.010735785 0.096212305
0002d0 05 7e 26 3c 33 2f f7 3d 62 a6 02 be 6a 2e e2 bd
       0.010161881 0.120695494 -0.12758783 -0.11044009
0002e0 83 ac 00 bc b0 41 04 be fe 3d 0d bd 04 01 68 bd
       -0.00785363 -0.12915683 -0.03448295 -0.056641594
0002f0 a1 71 d5 bd 89 fc 16 3d 6e 3e c9 3b e4 52 c1 be
       -0.104220636 0.03686193 0.0061414754 -0.37758553
000300 f5 fb 98 3d 7a cf a9 3c c2 c8 36 3e 45 e8 be be
       0.07469932 0.020728815 0.1785002 -0.37286583
000310 bd e2 09 be e9 a4 7e bd 69 a2 f6 bd 09 76 80 bc
       -0.134654 -0.06216899 -0.12042696 -0.015681284
000320 0d 65 88 3e 5c ce 42 be f1 16 2f be 16 16 7f 3c
       0.26639596 -0.19024032 -0.17098595 0.015569231
000330 7c 3d bb bd 9d 46 3d 3e 5c 68 05 bd 21 92 16 bd
       -0.091425866 0.18483968 -0.032570228 -0.036760453
000340 d7 61 49 3d c9 89 04 bf f6 48 9b 3e 1b 23 66 bd
       0.049165573 -0.51772743 0.30329102 -0.056185823
000350 9b 01 26 be ef f2 9d 3d 9b 4c dc 3c cb b9 06 39
       -0.1621155 0.077123515 0.026891997 0.00012848449
000360 e8 de b9 bc 12 38 53 bd b3 f8 8b bb c7 aa 69 bd
       -0.022689298 -0.051567145 -0.0042715906 -0.05704763
000370 51 45 f9 3d ff 4d 3c bc ed fa 1f 3e 45 4a b0 bc
       0.12171424 -0.011493205 0.15623064 -0.02151979
000380 f4 8b 53 3e fc de 05 3d ca e5 f6 bd 48 53 7e bd
       0.20658857 0.032683358 -0.120555475 -0.062091142
000390 43 e2 23 bd cd eb 37 bd f7 ef a8 bc 0b c9 34 be
       -0.040010702 -0.04490261 -0.020622237 -0.17654817
0003a0 01 67 be 3c a8 f1 11 3e c7 c7 fc 3c 22 15 3a be
       0.023242475 0.14252341 0.03085698 -0.18172124
0003b0 86 b4 37 bf 63 4e 50 bb 2c ae cd 3d a1 62 9d 3d
       -0.7175983 -0.0031785003 0.10042986 0.076848276
0003c0 14 ea 29 be 7b 13 14 bd 80 13 56 be cf 52 2a bb
       -0.165932 -0.03615139 -0.20905876 -0.00259893
0003d0 df b0 57 be a9 57 ea 3d 6e f4 d1 bd 8e 47 bc 3e
       -0.21063565 0.11442501 -0.102516994 0.36773342
0003e0 eb a8 d0 bd e2 c5 2a bd dd 0e 80 bd fe 92 23 bc
       -0.101884685 -0.041692622 -0.06252835 -0.009983776
0003f0 9b 93 39 3c 07 e4 8c 3e 38 0d 29 be 48 77 f1 ba
       0.011326696 0.2751772 -0.16508949 -0.0018422389

bias f4 [256]
000000 b0 93 4d 3d b7 59 37 be 1a ea f7 3d b2 f9 75 bd
       0.050189674 -0.17905317 0.12105198 -0.06005258
000010 18 b2 38 bd 2e 1f 32 bd 4d 10 a6 3d 87 e5 b7 bd
       -0.04509172 -0.043486767 0.08108578 -0.08979326
000020 ca 6e b4 bd 22 c5 3a bd 49 a5 c6 bd 69 f2 56 3d
       -0.08810194 -0.045598157 -0.096994944 0.052477274
000030 84 7a 38 3d 34 1b 18 bd 5f f8 16 be e6 8f d3 be
       0.045038715 -0.037135318 -0.14743184 -0.41320723
000040 27 e2 8c 3e c8 7e 11 bc ce 59 2d bd 13 01 cb 3d
       0.2751629 -0.008880325 -0.042321973 0.09912314
000050 6e a3 1c bc 60 2d 4f 3d 00 ef b9 bd 45 cb 92 3d
       -0.009560449 0.050580382 -0.09078789 0.07167677
000060 66 f0 94 3d 41 66 d5 bd 03 4f 61 be ed 56 88 be
       0.07272415 -0.10419894 -0.22002797 -0.2662882
000070 9b 90 da bd a0 61 fa bd e9 e6 8d be 7f ab c4 bd
       -0.106721126 -0.12225652 -0.27715233 -0.09603023
000080 91 3e 48 be ac 48 2a 3e 6d e3 97 bd f9 29 2b be
       -0.19555117 0.16629285 -0.07416425 -0.1671523
000090 09 b5 17 be 5c 4d 33 3d e8 85 00 3d ab ea bd 3c
       -0.14815153 0.043774948 0.031377703 0.023183187
0000a0 2d e8 1c bc 9d 14 ae 3b 96 f5 1f bd 18 42 5f 3d
       -0.009576839 0.005312516 -0.03905257 0.05450639
0000b0 16 d4 4d 3e 01 97 44 3e 3b b1 51 bd 1e e1 2b 3d
       0.20100436 0.19198228 -0.05119441 0.041962735
0000c0 1b 9b c7 3b 72 08 96 bc 00 9f 08 3e 4f 3a 7d bd
       0.006091488 -0.018314574 0.13341904 -0.061823186
0000d0 dd e0 9f be 3c 59 74 bd 3a 8c 7b be 86 51 25 be
       -0.31226245 -0.059655413 -0.24565211 -0.1614438
0000e0 0f a8 f4 bd 9c cf e5 3d 8b 44 a5 bd ac 5a 5f be
       -0.11946117 0.11221239 -0.08069714 -0.21811932
0000f0 81 be 6e 3d 21 62 95 be 04 95 4a 3e 2a 6f e9 be
       0.058287147 -0.2917643 0.19783407 -0.45592624
000100 44 53 ac 3d 60 24 7d be 54 d1 bc 39 18 1b 51 bd
       0.08414319 -0.24720907 0.00036014116 -0.05105123
000110 99 e3 8f bd d3 4b c6 be 26 3f 4b be 00 32 8b be
       -0.07025833 -0.38729724 -0.19848308 -0.27186584
000120 e5 95 b1 bd 9c 24 cc 3b e1 65 14 be fa 16 bf be
       -0.08671168 0.00622995 -0.14491989 -0.37322217
000130 ca bb 9f bc 89 9f 0c 3e c1 db 96 bc a7 1e c5 bb
       -0.019498724 0.13732733 -0.018415334 -0.006015617
000140 34 8b f3 bc ad 15 87 be 45 ff e4 be 9a 32 9d bd
       -0.029729463 -0.26383725 -0.44726005 -0.07675667
000150 a3 b3 41 be e0 a4 70 3c 72 79 22 bd a8 4c 51 bb
       -0.18916182 0.014687747 -0.0396666 -0.003193656
000160 d5 f0 c0 bd f1 a4 e5 be b0 6c 19 bb f8 de b1 be
       -0.09420935 -0.44852403 -0.002341073 -0.34740424
000170 69 63 b7 3c b2 37 56 be 6f 53 ac 3d a8 64 74 bc
       0.02238627 -0.20919684 0.08414351 -0.014916576
000180 f8 8d 06 be bf 7e 04 3e a1 5f ea be eb 22 a7 3d
       -0.13140094 0.12938975 -0.45776084 0.08160957
000190 d6 0d 0a bf a3 e0 1b be ab 77 00 bf ca 59 a0 be
       -0.5392736 -0.15222411 -0.501826 -0.31318504
0001a0 ed 67 93 be 0c db 8b bd e6 de 00 be de 23 32 3d
       -0.28790227 -0.06828889 -0.12585029 0.043491237
0001b0 08 3d e6 bd c6 dc c6 be 36 5c a8 be 1e 2a 5d 3d
       -0.112421095 -0.38840312 -0.3288285 0.053995244
0001c0 4c d2 32 bd 2a 63 88 be 2d c2 cd be aa 26 c8 3e
       -0.043657586 -0.26638156 -0.40187207 0.39091998
0001d0 78 12 dd bd 7c 2c de bd 63 36 53 bd e9 4a b5 be
       -0.10794538 -0.108483285 -0.05156554 -0.35408714
0001e0 0f b4 cf 3b 4c 8b ea 3d 94 6f b7 be b0 22 b9 be
       0.0063386033 0.1145235 -0.35827315 -0.36159277
0001f0 5d 85 c2 be db de bb bc e4 f9 05 be 56 1b 44 3e
       -0.37992373 -0.022933414 -0.13083607 0.19151053
000200 63 b2 4d 3e d7 2c 81 3e 2c af 62 3d 2a 59 90 3c
       0.2008758 0.25229523 0.05534284 0.017620642
000210 dd 89 ee bd da 29 5a 3e 00 77 9c be cc b6 d5 bd
       -0.11647389 0.21305028 -0.3055954 -0.10435256
000220 2a 07 45 3e d1 0c c1 bd 21 e1 ae bd 8f d1 bd bc
       0.19241014 -0.09426273 -0.08539034 -0.023171214
000230 c4 8b 0a bc 21 48 85 be a5 20 da bc be 63 6e 3d
       -0.008456174 -0.26031592 -0.026626894 0.05820059
000240 78 b4 a4 be ac c2 6d be 06 c5 48 bc 02 c8 3e be
       -0.32168937 -0.23218793 -0.012254005 -0.18630984
000250 04 87 ba be d0 1a 7f bd bd bf fd bd 70 f5 24 3e
       -0.36431134 -0.06228143 -0.12390087 0.16109252
000260 ef 2e 96 bd 79 62 af 3d 0a 61 73 be ee 1a b8 bd
       -0.073331706 0.08563704 -0.23767486 -0.089895114
000270 07 f8 1c bd a3 8a c3 3d 4d 85 30 be cf e1 73 be
       -0.038322475 0.09547927 -0.1723835 -0.23816608
000280 66 19 5d 3b b5 7e 21 3d 3a 0d b0 bb f5 70 0c 3e
       0.0033737062 0.039427478 -0.0053726705 0.13714965
000290 f5 3c 51 3c a5 9e c5 be 6b a1 7a 3d 71 1f da bc
       0.012770881 -0.385976 0.061189096 -0.02662632
0002a0 e9 fd 43 bc 5e e0 0c be a3 e3 52 3d 08 0b f8 bd
       -0.011962392 -0.13757464 0.051486623 -0.12111479
0002b0 1c 4a 4c bd fb 40 28 bf c9 ef 28 3c 81 79 22 bd
       -0.049875364 -0.6572415 0.0103110755 -0.039666656
0002c0 43 76 6b 3d 39 7c 87 3e 58 a9 ed bd 0c f8 e0 bd
       0.05748583 0.26461962 -0.116045654 -0.10984811
0002d0 61 6c 8e 3d 3c bd 57 3e 1d 06 34 be 16 0b 95 be
       0.069542654 0.21068281 -0.17580457 -0.2911002
0002e0 c6 6d 91 bd 64 5c 8c bd d0 fa 89 3d da 58 91 be
       -0.07101016 -0.068535596 0.06737292 -0.283881
0002f0 31 0e 3f be 13 42 68 be 78 de 08 be 6f 01 c6 bd
       -0.18657757 -0.22681455 -0.13366115 -0.09668242
000300 c4 c1 1a bd a6 c2 a3 be a0 3e a8 be 64 da 41 be
       -0.037782446 -0.31984442 -0.3286028 -0.18930966
000310 65 11 69 3c 8b 90 95 be 83 60 78 3e c3 bb 03 bc
       0.014225339 -0.2921184 0.24255566 -0.008040371
000320 03 27 76 3d d6 52 9f 3c b8 42 d4 be ef f2 69 3c
       0.0600958 0.019448679 -0.41457152 0.014279111
000330 09 9a 3d 3d 93 8f 04 3e 63 e5 97 3d 10 1f 53 bd
       0.046289477 0.12945394 0.07416799 -0.051543295
000340 5d f8 f5 3c 47 8e 88 bb dc 75 12 be 0e 09 9c bd
       0.030025655 -0.0041673514 -0.14302772 -0.076189145
000350 3a 3e 71 bd d6 1d 7e be 15 bd 16 3d db 70 c5 3d
       -0.058897234 -0.24816069 0.036801416 0.09640666
000360 39 93 9c be 0a 38 4f be 74 c5 ca bd 7e 6e 10 bd
       -0.30581072 -0.20236221 -0.099009424 -0.035261624
000370 cc f8 58 3e a3 7e a7 be 6b 31 c5 bc 1d 05 3f 3d
       0.21188658 -0.32713804 -0.024071416 0.046635736
000380 ef d3 cb be 57 76 d6 3c f4 f1 f0 bd 70 b8 77 3e
       -0.3981013 0.026179476 -0.11764899 0.24191451
000390 df 89 dd 3c 26 bc b2 bd 92 29 51 be 8c 22 1d bd
       0.027043281 -0.08727293 -0.20426014 -0.038363025
0003a0 dc 52 ba be 69 5d 15 bf ed 4b 13 bd 09 b9 ae be
       -0.36391342 -0.5834566 -0.03596108 -0.34125546
0003b0 5f 9c 36 3e 22 44 24 bf 78 30 69 be 40 48 c1 be
       0.17833088 -0.6416646 -0.22772396 -0.37750435
0003c0 35 33 40 be bc 7d 8d be 1f 33 87 3d 17 48 cb bd
       -0.18769534 -0.2763499 0.066015474 -0.099258594
0003d0 2d df c6 bc 3c a5 bf be a3 68 c8 be 05 88 7e bd
       -0.02427634 -0.3743075 -0.3914233 -0.062141437
0003e0 2b 3d c8 be 40 c0 13 be d1 ec 32 be 2f 8d 7d be
       -0.39109167 -0.14428806 -0.17473151 -0.24760889
0003f0 12 aa e8 be 00 0f 6a be 00 b4 6e be 2e 43 89 bd
       -0.45442253 -0.22857285 -0.23310852 -0.06702267

weight f4 [128, 256]
000000 69 1c b8 3e 7b 32 dc 3d 4a 72 21 3e 7b 57 e5 3d
       0.35959175 0.10751816 0.15766254 0.11198326
000010 6e af 84 be 67 8c d9 3e ab d3 8b 3e eb b8 1e be
       -0.25915092 0.4248993 0.27309927 -0.15500228
000020 82 e7 d7 3d e9 04 44 be ff 59 bd 3e 47 51 ba bb
       0.105422035 -0.19142498 0.36982724 -0.0056859585
000030 50 8c e3 3d 54 5b 4c bd 47 64 b9 bb fe 37 86 3d
       0.11110747 -0.049891785 -0.005657706 0.065536484
000040 73 e9 a7 3e e9 67 5e 3e 64 72 96 3e 06 56 75 3e
       0.32795295 0.21719326 0.29384148 0.23958597
000050 b5 c4 b7 3e bc df 8b 3a 36 11 a1 3e 34 10 f0 3e
       0.35892263 0.0010671536 0.31458443 0.46887362
000060 fd e2 9a 3d e8 a7 97 3d 1d a0 95 bd 42 85 20 be
       0.07562826 0.074050725 -0.0730593 -0.15675834
000070 6d b9 6b 3e 3c 40 9d 3e 05 35 87 3e 63 0c 2c 3d
       0.23019953 0.3071307 0.26407638 0.042004
000080 09 1c e8 3c 38 e2 7e 3e e9 14 b3 3e 77 b2 c4 3e
       0.02833368 0.24890983 0.3497689 0.38417408
000090 7c d1 3b 3e a5 59 a0 3e 04 92 fa 3e 70 c4 62 3e
       0.1834163 0.31318393 0.48939526 0.22145247
0000a0 49 5d ef 3e 27 6d 6f 3e 89 0c b1 3e 0e 7e 2b 3f
       0.46750858 0.23381482 0.34579876 0.6698922
0000b0 62 fe e8 3e 46 4d c0 3e d4 c6 e1 3e 54 5f 3d 3f
       0.4550658 0.37558955 0.44097006 0.73973584
0000c0 64 8e be 3e 00 28 c0 3e 4f 8f 7d bc c3 70 12 3f
       0.3721801 0.37530518 -0.015476062 0.5720331
0000d0 8f a4 c3 bc 24 c9 bf 3e b4 16 2a be 1d ea 00 3e
       -0.023882179 0.37458146 -0.16610223 0.12589307
0000e0 3c 54 92 3e 7c ab 30 3e b8 b2 19 be 22 c2 31 3d
       0.2857989 0.17252916 -0.15009582 0.04339803
0000f0 95 1e fc bd f1 76 3a 3d 2f 5d aa 3e da 0b 88 bd
       -0.123105206 0.045523588 0.33274218 -0.066428855
000100 45 32 c5 3c 0b 88 2f 3e 31 59 9b bd 8c 64 e1 3e
       0.024071822 0.1714174 -0.07585371 0.44022024
000110 91 64 41 3e 16 00 18 bd e2 6f 3a bd cf 9c 9c 3d
       0.1888602 -0.037109457 -0.045516856 0.07647096
000120 d8 0c 4b 3d 1f 55 c5 3e 34 50 1b be 77 a9 49 be
       0.049572796 0.38541505 -0.15167314 -0.19693552
000130 c7 a0 90 3e 6a 8b 88 3e 6a 9c cb 3d 07 ed a1 3e
       0.28247663 0.26668864 0.09941943 0.3162615
000140 72 2b e8 3e ca e7 a3 be bb c3 dc 3e ab ad b2 3e
       0.45345646 -0.3201278 0.4311808 0.34898123
000150 5d 4b 57 3e 56 25 1a 3e e4 7e d4 3e 45 ed 6c 3e
       0.21024843 0.15053305 0.4150306 0.23137386
000160 d9 22 ad 3e fd b5 fd 3d 63 50 44 3f 49 37 ea bd
       0.3381565 0.12388227 0.7668516 -0.11436326
000170 d2 3b 44 3f 85 3f a6 be ed 62 f7 bb 13 4d 05 3f
       0.7665378 -0.32470337 -0.0075496347 0.5207073
000180 bb d4 53 be f5 51 91 3e 48 1c 06 3e e4 8c 82 3a
       -0.20686619 0.2838284 0.13096726 0.0009960202
000190 d1 7f 54 3d e3 3b 10 3e 52 71 c1 3e 59 4b 0a be
       0.051879708 0.14085345 0.3778177 -0.13505305
0001a0 30 d5 6f bd 36 b3 10 3d 2a f2 72 bd 2d 37 06 3f
       -0.05855292 0.03532716 -0.059312977 0.5242794
0001b0 27 ce 69 be e6 9d 39 3e 99 a8 10 bd b7 50 78 3e
       -0.22832547 0.1812664 -0.035317037 0.2424954
0001c0 5b 65 ae 3e 27 dd 1c be fd c1 9e 3d 57 49 53 3e
       0.34061703 -0.15318738 0.07751844 0.20633446
0001d0 a8 8e 55 3e 2b 2b 02 be 3d 70 90 3e 0c a1 52 bd
       0.208552 -0.1271178 0.2821063 -0.051423118
0001e0 5c 7a 74 3f 99 59 b1 3e c3 ea 97 3e f4 a4 7d 3e
       0.95499206 0.3463867 0.29671296 0.24769956
0001f0 84 1c b5 bd ee e4 93 3e 16 e0 1c 3e 5f 60 0e 3e
       -0.088433295 0.28885597 0.15319857 0.1390395
000200 a7 35 51 3e 29 88 e9 3d a5 6f 3f 3e fc 65 2e 3f
       0.20430623 0.114029236 0.18694933 0.68124366
000210 7d 5d 3d 3e fd 2a 59 3e 6c 4f 8b bd fc c9 83 3e
       0.18492694 0.21207805 -0.06802258 0.2574004
000220 02 50 50 3e 49 25 7d 3e 38 4c 21 3e ad fa aa 3e
       0.2034302 0.24721254 0.15751731 0.33394375
000230 13 a2 1c 3e 11 a7 b6 bd 4b 68 d1 3e 7c 41 99 3e
       0.15296201 -0.08918584 0.40899882 0.29932773
000240 37 a5 58 3d 37 3d 29 be 68 d3 a8 3d e9 67 01 3e
       0.052891936 -0.16527258 0.082434475 0.12637295
000250 11 50 b1 bd 74 b3 b9 3c 7e 2b 8b 3c b2 7b 01 3e
       -0.086578496 0.022668578 0.016988512 0.12644842
000260 9e ac 98 3d fb f4 24 3e 2f e1 c3 3d 19 ec 93 3d
       0.07454799 0.16109078 0.09564435 0.072227664
000270 aa cc 19 3e 2a 56 81 3e 1f 58 aa 3d 40 1e d3 3d
       0.1501948 0.2526105 0.08317589 0.10308504
000280 ab a2 58 3e 94 50 80 3d aa c1 4a 3f 5a bc 90 3e
       0.21155803 0.06265369 0.7920176 0.282687
000290 ad 9a 75 3e f0 4d 22 bd 90 a6 56 3e f6 8b 5e 3e
       0.23984785 -0.03962511 0.20961976 0.21733078
0002a0 d9 3c e3 3c e1 e0 b6 3e 3a 5f 55 bc c7 c9 20 bd
       0.027738975 0.35718444 -0.013023192 -0.03925493
0002b0 3d e0 b0 3e 8a 31 c9 3e d7 64 9d 3e 8d b4 d0 3e
       0.3454608 0.39295608 0.30740997 0.4076275
0002c0 a9 19 8d 3e 3d 02 95 3e ec 66 7f 3e 9d 50 85 3e
       0.2755864 0.2910327 0.24941605 0.26038066
0002d0 7c f1 71 bd 03 58 92 3d 55 bc 1e 3e d6 94 c3 3d
       -0.059068188 0.07145693 0.1550153 0.095498726
0002e0 fc b0 93 3e c3 4a 85 3c e2 76 0d 3e de 6b 92 3d
       0.28845966 0.016271 0.13814881 0.0714948
0002f0 74 9d 00 be c9 98 1c 3e a6 d8 cf 3e af 44 cc bd
       -0.12560064 0.15292658 0.40594977 -0.09974038
000300 a6 cf e2 3e f8 1b 52 3e 09 a9 98 3d 7e 93 87 bd
       0.44299048 0.20518482 0.07454116 -0.06619929
000310 70 84 37 3f 3b 68 75 3e fe ae 69 3e 41 0e 53 3e
       0.7168646 0.23965542 0.2282066 0.20610906
000320 4e fa 4d 3e f7 a7 f6 3e e6 40 9f be d5 06 c1 bc
       0.20115015 0.48175022 -0.311042 -0.023562828
000330 0e 2b 9d 3c f4 fd 5b 3e 19 2f 16 3e 0d 6e 38 3e
       0.01918557 0.21483594 0.14666404 0.18010731
000340 6a e2 75 3e 7c 69 a6 3e 11 22 ba 3d 2e 43 31 3e
       0.24012151 0.32502353 0.09088529 0.17310783
000350 e1 64 f7 3e 43 38 b6 3d 6e a1 06 3f 23 b3 f9 bc
       0.48319152 0.0889745 0.5259007 -0.030480927
000360 14 86 25 3e 61 b4 a6 3e 24 9d 0a 3e 8c 48 ac 3e
       0.16164428 0.32559493 0.13536507 0.336491
000370 b4 44 a3 3e af a1 95 3d db 85 89 3e e0 25 c4 3d
       0.31888354 0.07306229 0.26859936 0.095775366
000380 2c 67 79 3d a1 ab 64 3f ae 33 1e be 84 09 01 bd
       0.060889408 0.89324385 -0.15449402 -0.031503215
000390 a4 90 be 3e 0d 64 b1 3e d6 93 53 3c cb 50 5d 3e
       0.37219727 0.34646645 0.012913665 0.21612851
0003a0 f7 73 a9 bd db e9 6e 3e 67 03 bd 3d dc c3 28 be
       -0.08274072 0.23331396 0.092291646 -0.16480964
0003b0 1d d8 8c 3e 50 96 3c 3e 7f f4 1c bc 39 c4 b1 3d
       0.2750863 0.18416715 -0.009579777 0.086800046
0003c0 1e 8b 8b 3d 47 4b 42 be ae ac 8e bc 6d 6f be 3e
       0.06813644 -0.18974029 -0.017416324 0.37194386
0003d0 80 2e 06 be ec 68 36 3e e5 d5 b5 be 86 10 f2 bd
       -0.13103676 0.17813462 -0.3551475 -0.11819558
0003e0 86 a1 e0 3d d5 d6 00 3e f1 4f 43 be 4a 91 a2 3d
       0.10968308 0.12581952 -0.19073464 0.07937868
0003f0 4d d0 72 3e 5d 68 85 3e 98 11 c4 bd 38 6e 64 3e
       0.23712273 0.26056185 -0.09573668 0.2230767

bias f4 [128]
000000 90 05 aa be 5f 0f f3 39 ac 3d 6c bd 42 91 11 bd
       -0.3320737 0.00046360024 -0.057676002 -0.03553892
000010 f1 81 ba 3d 5a 93 0e 3e 59 bc f4 3d fd 6c 18 bd
       0.091068156 0.13923398 0.11949987 -0.037213314
000020 1a d4 30 3b b2 6b 2e bc ae 72 2a bc 6f c4 c7 3d
       0.002698189 -0.010645794 -0.010403318 0.097542636
000030 00 a0 32 3d ff ec a9 bd ea ff 7f 3d b9 f1 d4 be
       0.04360962 -0.082971565 0.062499918 -0.4159067
000040 a4 0c 8e 3c ca c7 6c 3d f9 84 9b 3d 3e 0a 29 3d
       0.017340012 0.05780772 0.07593722 0.041269533
000050 0d e8 f0 bc 30 1f 19 bd e9 3b 08 3e 56 fb a8 3d
       -0.029407525 -0.03738326 0.13304104 0.082510635
000060 9f c6 15 3d 2b 63 2e bd 25 48 9b 3d 93 42 a5 bd
       0.036566373 -0.042575043 0.0758212 -0.08069339
000070 2e 79 0f 3e a5 23 50 3d ff 00 42 3e e5 d5 b6 3d
       0.1401107 0.050815243 0.18945692 0.08927516
000080 23 b7 88 bd ab 71 96 ba c8 f8 ab 3d c2 f8 fb 3d
       -0.066755556 -0.0011477967 0.08397061 0.12303306
000090 7d ac b6 3d a4 59 8e b9 11 6e 11 bc de 6b 1c 3d
       0.08919618 -0.00027151138 -0.0088763395 0.038188808
0000a0 10 17 dd bd fb b7 26 be b6 5a f4 3d 87 6e b5 ba
       -0.107954144 -0.1628112 0.11931364 -0.0013842144
0000b0 db f1 1f 3d 40 16 9a bd 33 da 5c 3c af ac 38 be
       0.03904901 -0.07523775 0.013479757 -0.18034624
0000c0 b8 86 89 3c ec 76 5c bd d9 a8 d0 3b ca 4f e7 3d
       0.016787872 -0.05382435 0.0063677845 0.112945154
0000d0 f2 ee 2b be b6 a3 37 3c 7d 3e 87 3d 52 73 3b 3c
       -0.16790369 0.011208465 0.066037156 0.011441069
0000e0 24 1c b3 bd fd 18 3b bc b0 d5 0e 3e a0 2f cd bc
       -0.08745602 -0.011419532 0.13948703 -0.025047123
0000f0 e0 01 b6 3b 38 07 fd bd 24 31 cf 3b 81 b7 de bc
       0.0055544227 -0.123548925 0.0063229967 -0.02718711
000100 37 dd e3 3d c0 14 90 3d b9 a3 38 3d 89 af a0 3d
       0.11126178 0.07035208 0.045078013 0.07845981
000110 7a 02 d5 bc d6 fb 96 3c 80 32 f7 3d 2d 2d 57 bd
       -0.026002157 0.018430632 0.12070179 -0.052533317
000120 8e a4 1b 3d 8e 43 b2 be d6 c1 1b 3e 76 bf 55 3d
       0.03799873 -0.34817165 0.15210661 0.052184545
000130 1b 68 92 3c 6c 0c 14 be fb 31 71 3d 5f ce a8 bb
       0.017871907 -0.14457864 0.058885556 -0.0051515545
000140 21 c0 89 3b f8 ef 88 bd b9 c7 b7 3d 32 1f df bd
       0.0042038118 -0.066863954 0.08973641 -0.10894622
000150 bb e1 7d bd 25 7e 18 3e e6 43 51 bd e7 a1 cb 3d
       -0.06198285 0.1489187 -0.051090144 0.0994299
000160 31 58 d8 3c 0d 2d d0 be ad 73 ff bd b0 2b 49 bd
       0.02640924 -0.4065937 -0.12473235 -0.04911393
000170 92 07 63 bd 08 22 d9 be f5 89 79 3c bb c7 11 3e
       -0.05542714 -0.42408776 0.015230645 0.14236347
000180 3b bc 81 be 4c 18 bd bd 3b 00 60 3d 46 78 cb 3d
       -0.2533892 -0.0923315 0.05468772 0.0993505
000190 a7 94 de 3d 04 e5 fe 3c ab 3c df 3d d7 55 70 3e
       0.10868197 0.031115063 0.10900243 0.23470245
0001a0 d4 fe 37 bd 50 54 13 bd 78 cd a2 be 31 84 3c 3c
       -0.044920757 -0.03596908 -0.31797385 0.011506126
0001b0 44 97 15 3e 1a 4e 24 3c e1 f1 fd bc 43 17 69 bd
       0.14608485 0.0100283865 -0.030999126 -0.05690695
0001c0 c6 b9 a5 bd cb a5 e7 3d fb 46 aa bc f6 10 1b 3c
       -0.08092074 0.113109194 -0.0207858 0.009464493
0001d0 b7 62 d3 3c c6 b9 73 3c 5d cd 15 3e 5a 58 62 bd
       0.025803907 0.014875835 0.14629121 -0.05526004
0001e0 04 c2 06 3e 72 af a5 bc 94 3f 8a 3c 21 01 2f bc
       0.13159949 -0.02022526 0.01687602 -0.0106814215
0001f0 e2 a5 d6 3d bc 5d 16 3d bd 9e 86 bd 13 b4 b2 bd
       0.104808584 0.036710486 -0.06573246 -0.08725753

weight f4 [64, 128]
000000 7e 3b 67 3d 3f 59 9a bd 79 33 82 bc 17 7e d2 bd
       0.05645322 -0.075365536 -0.015893685 -0.10277956
000010 e5 b2 96 bc 4a bf 63 bd 1a 44 58 bd 64 3f a4 3c
       -0.01839585 -0.05560235 -0.05279932 0.020049758
000020 a0 b9 9d 3c 3f cf dd bd c3 cf 7c bc 36 5f 8c 3c
       0.019253552 -0.10830545 -0.015430394 0.017135244
000030 be bf b8 bd d1 d4 30 be 85 91 62 3c 20 1d 7c bc
       -0.09020947 -0.17268683 0.01382864 -0.015387803
000040 ee a9 7c 3c bc c2 74 3c 4d 9f f7 3c 35 6e 6d 3d
       0.015421374 0.014939006 0.030227328 0.05796643
000050 05 d3 7c 3c 33 ca 1a 3d 47 94 f7 bb f1 86 af 3d
       0.01543117 0.03779049 -0.007555518 0.0857066
000060 87 79 d0 bb 46 cb a2 bd 2c 20 07 3d bc 81 55 3d
       -0.0063621434 -0.079489276 0.032989666 0.052125677
000070 22 4a 7f bd 46 db b2 bd a2 1e 9b bd e6 f8 92 bd
       -0.062326558 -0.08733229 -0.07574202 -0.0717638
000080 4c 3a bb bc 67 a6 96 3d 16 07 9f 3b a8 ae 4c bd
       -0.022854947 0.073559575 0.0048531396 -0.049971253
000090 ab 80 4c bc d2 04 8a bd c9 d8 a7 be bb ff 2b be
       -0.012481849 -0.06739201 -0.3278258 -0.16796772
0000a0 4c c9 f8 bd 75 40 ed bd 8f 42 a4 bc 60 ee 49 bd
       -0.12147769 -0.1158456 -0.020051269 -0.049299598
0000b0 13 db c1 bd b3 ab dd bd 32 d1 a2 bd 81 bc fd bb
       -0.09465613 -0.10823765 -0.07950057 -0.0077434187
0000c0 0b 9b 5c 3c 04 7e c4 bd 6d e2 84 bc 91 3d 89 bd
       0.0134646995 -0.09594348 -0.01622125 -0.06701196
0000d0 4f 3b cc be 4c 8d c2 bd 3e 2a 2f be e8 ee 56 bd
       -0.39889 -0.094996065 -0.17105958 -0.052473933
0000e0 cf 59 26 be a0 57 ac bb 56 79 9b bd c5 ce fb bc
       -0.16245197 -0.005259469 -0.07591502 -0.030738244
0000f0 74 66 3a be 6d d5 4f be 01 c1 37 bc e1 4a 73 3b
       -0.18203145 -0.20296259 -0.011215449 0.0037123489
000100 0d e5 a5 bd 59 60 e7 3d c8 54 89 bd 8e b2 1f bd
       -0.081003286 0.11297674 -0.06705624 -0.038988642
000110 cb 10 2a be 04 32 05 bd ee ee fa bd db 8c 25 3d
       -0.16607969 -0.0325184 -0.122526035 0.040417533
000120 6c b8 21 be 4e f2 c9 3d 8d 35 e5 bd 5a 43 a3 3c
       -0.15793008 0.09860669 -0.111918546 0.019929577
000130 e0 79 a4 bc 04 99 0a bd 83 bd af bd ed 67 73 bb
       -0.020077646 -0.033837333 -0.08581068 -0.0037140802
000140 b9 e4 07 bd c0 d6 0d 3d 2b a8 82 bc 59 b3 92 bd
       -0.03317711 0.03462863 -0.01594933 -0.07163114
000150 8b 12 a9 bd 57 80 83 bd bf 1e 9d 3b f9 08 5a 3d
       -0.0825549 -0.06420963 0.004794925 0.053231213
000160 7f c4 5f bc d9 a3 09 3d a5 4d 21 be b4 c4 1e be
       -0.013657688 0.033603523 -0.15752275 -0.15504724
000170 73 03 eb bd 62 92 a1 3d d6 50 a0 bc f7 74 45 3d
       -0.11475267 0.078892484 -0.019569796 0.04820725
000180 a3 68 89 3d a8 93 b9 be 18 1c 3d bd 48 ac 27 3d
       0.06709411 -0.36245465 -0.04616937 0.040935785
000190 0b da 83 3c 1b 4c 44 bd 78 bb 34 bd 23 46 09 bd
       0.016095182 -0.047924142 -0.044124097 -0.033514153
0001a0 c4 86 b5 bc c5 36 21 bd 13 70 b4 bd 25 e6 d7 bc
       -0.022158988 -0.039358873 -0.08810439 -0.026354859
0001b0 ce 55 85 bd 31 b0 1d bd cb 61 95 be 99 34 19 3d
       -0.065105066 -0.038498107 -0.29176173 0.037403677
0001c0 68 ca 02 3d 0f 39 05 3d ae 02 15 be f6 62 00 bd
       0.03193131 0.03252512 -0.14551803 -0.031344377
0001d0 38 c6 51 bd b1 74 0a ba 95 7e 42 3d f3 71 9f 3b
       -0.051214427 -0.00052816706 0.047484 0.0048658787
0001e0 ff 09 91 3a cb 48 44 3d a9 f2 5e bd 15 29 ac bd
       0.0011065601 0.047920983 -0.054430638 -0.08406273
0001f0 81 1f 85 bd 4e 9d cc 3c e7 04 8a be a7 2f 8f bd
       -0.065001495 0.024977352 -0.26956865 -0.06991511
000200 d0 2f 54 3d b4 1f 94 3d b1 c3 49 3d 3f 50 82 bb
       0.05180341 0.072326094 0.04925889 -0.0039768512
000210 f4 08 7e bd 62 c1 81 bd 75 7f 0f be 68 3f b5 bc
       -0.062020257 -0.06335713 -0.14013465 -0.022124961
000220 07 d0 11 3e dd 62 b0 bb 2c e5 94 3d 2b 70 e1 bc
       0.14239512 -0.005382879 0.072702736 -0.027519306
000230 ac fc aa bd 00 33 5a be ca ee a8 3c e6 05 94 3d
       -0.083489746 -0.21308517 0.020621676 0.072276875
000240 97 20 4b bc 1a 22 81 3d 26 4c d9 bd 06 b5 d1 3c
       -0.012397907 0.063053325 -0.10610227 0.025599014
000250 ba 67 3b bb 0a 25 7f 3d ca cc e8 bc e1 a7 a5 3d
       -0.0028595761 0.062291183 -0.028417964 0.08088661
000260 57 24 d9 bb fb fa 1e be be de 80 3c 5d 2c 38 3d
       -0.0066266465 -0.15525429 0.015731212 0.044964183
000270 b7 5e 4f bd c8 7c 07 be 63 12 f6 bd c0 23 5d bd
       -0.050627436 -0.13231194 -0.12015226 -0.053989172
000280 93 ce 8a bd 6a 3c 7e bc 15 0d d1 bb 93 40 a4 bd
       -0.06777682 -0.0155173335 -0.0063797333 -0.08020129
000290 b8 6d 26 bd 40 af 84 bd 76 fb 30 be 5d 3d 43 bd
       -0.04063198 -0.06478739 -0.17283425 -0.047665942
0002a0 8a 47 5b be e9 7e 9a bd 1f 5b 57 bd 80 19 9b bd
       -0.21414009 -0.075437374 -0.052577134 -0.07573223
0002b0 7b 07 b0 bd 76 69 eb bd 9c 9f 3f bd 82 ad fa bb
       -0.08595177 -0.114947245 -0.046783075 -0.0076500783
0002c0 33 b3 a2 3c ef 1d e0 be dc ea 0e 3d b9 cc a6 bc
       0.01986084 -0.43772838 0.034891948 -0.020361291
0002d0 76 3d 1c be 27 b1 dd bd 5e 60 18 be 8d 6f 20 be
       -0.1525782 -0.10824805 -0.14880511 -0.15667553
0002e0 03 ec c5 bd b9 40 d9 bc b4 a7 db bd 51 d5 77 bd
       -0.09664156 -0.02652012 -0.10725346 -0.06050617
0002f0 94 0f 6d bd 8b f7 1b 3d 94 11 8f bc 08 5d eb bb
       -0.057876185 0.038077872 -0.017464437 -0.007182721
000300 ed 38 9a 3b 61 72 43 3c 31 1b 41 bd c4 43 f7 bb
       0.004706493 0.0119291255 -0.047145072 -0.00754592
000310 a5 7c 0e be 36 bb 14 bd 1f 46 1a be 07 2f c1 3d
       -0.13914736 -0.03631135 -0.15065812 0.09432798
000320 f1 1c df bd a2 1f 0b 3e f3 c2 eb bd af d9 92 bc
       -0.10894192 0.13586286 -0.11511793 -0.017926065
000330 16 a2 c1 bd 2c 10 ba 3c d1 e7 ce bc 52 78 6c 3c
       -0.094547436 0.02271279 -0.025257023 0.0144329835
000340 f1 19 4e be a4 83 a4 bd be 40 58 bd b8 19 0a be
       -0.20127083 -0.08032921 -0.052796118 -0.13486373
000350 5c 14 1f bd 63 4b ae bd e7 83 85 bd 2d c5 a6 3d
       -0.038837776 -0.085104726 -0.06519299 0.08143077
000360 94 70 44 bc 76 97 91 3d 52 7a 11 bd 85 e2 ee bd
       -0.011989731 0.07108967 -0.035517044 -0.11664299
000370 b0 32 23 bd 22 7d 6a 3d 6c 22 a3 bc b2 f2 a1 bd
       -0.03984326 0.057248242 -0.019913875 -0.079076186
000380 a4 36 4d 3d 69 19 9f be 3d 0c c9 bd 56 bd 3e 3d
       0.050100937 -0.31074074 -0.098167874 0.046567284
000390 5d 32 94 3d 2f 8a 69 bd 7d 23 20 3d 1b d9 c9 3c
       0.072361685 -0.057016548 0.039096344 0.024639657
0003a0 29 98 d1 bc e4 dc 62 bd 4e d3 3b bd b8 ed d0 3c
       -0.02558525 -0.05538644 -0.045855813 0.025503978
0003b0 b4 0c d9 bd f1 e2 50 bd 71 54 36 be 11 57 0b 3d
       -0.10598126 -0.05099768 -0.1780565 0.03401858
0003c0 e5 52 6b bd 46 bc 52 3d 72 e0 ea bb d5 40 23 bd
       -0.0574521 0.051449083 -0.0071678692 -0.03985675
0003d0 c6 e7 c3 bc b6 5b 10 3d e1 a6 4a 3d e3 71 7e 3d
       -0.02391423 0.035243712 0.049475554 0.06212033
0003e0 c4 15 2d 3d 3d ac 19 ba 42 92 1e be a6 38 02 be
       0.042257085 -0.00058621523 -0.1548548 -0.12716922
0003f0 17 8d 87 bd 2e 6d 93 3c 51 66 78 bd 08 08 c3 bd
       -0.066187076 0.017996397 -0.06064445 -0.09523016

bias f4 [64]
000000 b5 57 b4 3d d8 25 81 3d 56 a5 3d 3d 64 38 ed bd
       0.08805791 0.06306046 0.046300255 -0.11583021
000010 5c f7 a9 be 12 75 dc be 6d 7e b2 3d 60 77 5d 3d
       -0.33196533 -0.43058068 0.0871552 0.054068923
000020 ad 83 a2 3d 4f 35 4f 3f 10 81 3f be 8c 52 79 3d
       0.079352714 0.8094072 -0.18701577 0.06086974
000030 b1 bd 04 3c d3 ba af 3d b2 44 09 be bd 6e aa 3d
       0.008101867 0.08580556 -0.13405111 0.08321903
000040 79 3c 57 bd 7f 9e bd 3d 28 42 ee bd 7e 70 e4 bd
       -0.052547906 0.09258746 -0.11633712 -0.11154269
000050 9f 6f 9b be 2c 06 d9 be c3 94 98 3d 69 3f 31 3d
       -0.30358598 -0.4238752 0.07450249 0.043273363
000060 79 7c 4f 3f b6 ee 15 be 88 ed c0 be ba fa f3 be
       0.81049305 -0.14641842 -0.37681222 -0.47652227
000070 71 2d 37 3e d2 a1 2b be fd 95 fb 3d 11 a0 93 bd
       0.17888428 -0.16760948 0.12284467 -0.072082646
000080 f3 9f d2 be 8b 77 8e 3d 3b 3a 68 3d a0 53 df 3c
       -0.41137657 0.06956395 0.056696158 0.027261555
000090 a5 64 01 bf 15 58 b7 bd a9 86 30 3d 78 57 06 3e
       -0.50544196 -0.08952347 0.043097172 0.13119304
0000a0 80 eb 07 3e 80 7a da be 66 9c 41 3d 99 70 d5 3d
       0.1327343 -0.42671585 0.047268294 0.10421867
0000b0 41 8a e8 3c 96 81 2f 3f e2 0b f0 3d 1b a9 89 3d
       0.028386237 0.6855711 0.117210165 0.067217074
0000c0 bf 16 c2 3d 46 f8 c4 be 5c 96 28 3f 37 3b f4 3c
       0.09476995 -0.38470668 0.6585443 0.029813392
0000d0 05 a9 ef 3d db 08 ee 3d 6d c5 ea be 49 f9 a0 3d
       0.1170216 0.11622783 -0.4585375 0.07860047
0000e0 97 2e 2e 3d cf 51 01 3e b0 85 b5 3d dd 41 f0 3d
       0.0425249 0.12628864 0.088633895 0.117313124
0000f0 17 3c 90 3d 8d d5 a3 3d 8f dd fc be 58 80 76 3d
       0.07042711 0.07999716 -0.49387786 0.060180992
