stk-code/soccer_ai_model.pt (torch, 759577 bytes, 11 tensors)

weight f4 [512, 18]
00000000: c6f7 ea3c b903 323e c926 38be afcc 983d
00000010: ef0f a83d 5fb6 283f 4350 60be fca4 e4bd
00000020: 6801 4c3f 59ed 75be 48f2 e6bc 6d97 b53b
00000030: 9b18 a8bc 6182 bb3c aa99 9dba d0df cebc
00000040: 6538 f4bd b57b 683c d506 3ebd d5f1 8cbb
00000050: 4335 8e3e 51cf 9e3d 174b 9d3e 8f49 70be
00000060: 0056 85be 553d 063e b753 413e c0c5 81be
00000070: e8f5 95bc ac78 df3d 3cab 6a3e 3a83 b3bc
00000080: 6e7e f13d 9125 2e3e f35f 563e 2604 08be
00000090: 87b7 86be 942e ed3d c406 9bbe a141 99bd
000000a0: bd87 8cbc 2d6e 1abe d7e2 9cbc 06b1 333e
000000b0: d1f8 dcbd 6ac5 aa3b dfde 5abe 7de7 763e
000000c0: e935 663e 838a 00be 52af e7bd 62a4 efbd
000000d0: 44c6 f2bd 8a51 8cbc ac60 723e 0d01 243e
000000e0: 94f5 72be 4ec7 eb3e dbe7 9abe e488 d6bd
000000f0: 6cb8 e73b d12f 8d3e 3aa8 7cbd 8b9f 54bd
00000100: 00de c53e ae6b 933b d0af 7c3e c71b 81ba
00000110: 0d29 a73a 42ab 313e 8a3b 56be e96d 7fbc
00000120: 6b86 4f3e 264f 0e3e f01f 82be a7ce e8bd
00000130: 38f7 abbe 20b6 9ebe 939d 3abe c128 03ba
00000140: 69ba babd cbfe 64bc cb9e 363e 5796 21be
00000150: 3e56 313e 873a 08bd 82f6 80bd aed3 a03d
00000160: e721 30be fef1 a3bd 4cc8 3d3e 732c 16be
00000170: 7b6a 0f3e cdba 063e 89c2 26bb 13cb e7bd
00000180: fb39 8a3e b516 633d 90f8 b5be cd80 bd3e
00000190: a963 203e 0c4f 253d 06e6 4a3e 117c 0dbe
000001a0: 4338 b43d 654c d43d 9f85 4ebe abed 07bc
000001b0: 1feb 4c3e d4db 843d 3927 533d 22a4 d73c
000001c0: 5265 5bbe 4db8 6cbe b110 033e bfd0 a0bd
000001d0: b200 95bd dee1 353e 32e5 61bc f4b5 4fbe
000001e0: aee1 7a3e 8531 2fbd a930 27be 481b 16bd
000001f0: a4bc da3d cb4f 793d 4873 44bc b69c c1be
00000200: 11de 08be 6e14 7fbe 7081 d6bc cd84 23bc
00000210: 2043 95be 16a9 0ebf b012 d13d 90c6 32be
00000220: fa41 e6bc 9351 b9bb 9fea eebd f0aa c53c
00000230: 5562 863d e66b 033d e007 e2bd e15c 82bc
00000240: 4132 b1be bac9 af3d cc30 4f3e 7727 233e
00000250: 8536 983d 8a19 00be 2025 723b 8104 e2bd
00000260: c1f1 113e e9b5 393e 5f35 5c3d 20d7 c2be
00000270: 4910 17be 7db8 43be 711f 403e 1361 ddbd
00000280: 6e37 d63a e9c8 04be 6da5 0bbd c2e3 e5bb
00000290: 6b2c 56be af37 e0bb 5ec4 26be 4c9a 953d
000002a0: 12e9 533e c0e4 8a3d 8ff6 7cbe 3ca6 c23e
000002b0: b912 1dbc 7504 613e 5860 12be 8ec8 043e
000002c0: 4dd8 5b3d 5cc5 7fbd 1740 69be 9c3b 1bbd
000002d0: 9e37 443e 1e26 b83e 6c92 753e 2af4 c03e
000002e0: 07a2 b33e 2ce8 9fbd 2f3a a83d d5c9 b3bd
000002f0: ecd4 eebd 3644 a5bd ac20 533e a4e1 893d
00000300: e75d 8ebd d192 e5bc 2688 f93c 5ec7 bd3c
00000310: a3dd 593d 30de 0f3d a7f7 983d 86e9 3e3e
00000320: d7cb 73bd b7dc 3d3d aad2 753e 1e0a 643d
00000330: 8f8d 80be 17db 16bd 1ab8 80be 9eb4 003e
00000340: a910 95be 7de4 233e c44e 933e 2763 2a3e
00000350: 96ca 1fbe d622 ae3d bbea 5ebe 09fb 82bc
00000360: b779 b2be de64 df3d 872d 37be b46f 763c
00000370: 2afa 643e f813 17be 22e6 bd3c 7fc0 b3bd
00000380: 8636 56be 8390 f73d b057 903d 8044 49be
00000390: d694 6abe 8e8d 9dbc c269 263e 12a6 99bd
000003a0: 04e4 06be 18f4 273e ac34 783d 70e1 353e
000003b0: 1a37 5e3d 0340 82bc 532d 13be d66c d13e
000003c0: b5ad 113e fec6 8cbe b57d 4f3e 9fd3 6fbd
000003d0: fa15 4d3c e0d2 8a3c 6f86 273d cba2 cfbd
000003e0: eac1 c63a fddb 78bd 48e3 fcbd e565 b1bd
000003f0: 473e e6be 743d d83c e6a2 4bbe 0dae 52bd
0.0286826 0.17384233 -0.17983545 0.07460915 0.08206164 0.65903276 -0.21905617 -0.11164281
0.79689646 -0.24016322 -0.0281917 0.005541733 -0.020519545 0.022889318 -0.0012023945 -0.025253206
-0.11924819 0.01418965 -0.046393234 -0.0043012896 0.2777501 0.07754386 0.30721352 -0.2346556
-0.26042175 0.13109334 0.18879591 -0.25346184 -0.018305734 0.10911688 0.22916883 -0.02191316
0.11791693 0.17006518 0.20935039 -0.13282833 -0.26311895 0.1158115 -0.302786 -0.07483221
-0.017154569 -0.15081091 -0.019151134 0.17547998 -0.107896455 0.005211522 -0.21374081 0.24111743
0.22481503 -0.12552838 -0.113127366 -0.117012754 -0.118542224 -0.017128725 0.2366969 0.16016026
-0.23726493 0.46050495 -0.30255017 -0.104753286 0.0070715453 0.27575544 -0.06168387 -0.051909965
0.38645935 0.0044989204 0.24676442 -0.0009850197 0.0012753323 0.17350486 -0.2092115 -0.0155901695
0.2026612 0.1389738 -0.2541499 -0.11367541 -0.3358705 -0.30998325 -0.18224172 -0.0005003326
-0.09117586 -0.013976763 0.17834012 -0.15780006 0.17318055 -0.03325894 -0.06297018 0.07852875
-0.17200433 -0.08005141 0.18533438 -0.14665394 0.14005463 0.13157196 -0.0025445542 -0.1131803
0.2699736 0.055441577 -0.355412 0.3701233 0.15663017 0.040358588 0.1981431 -0.13816859
0.087997936 0.103661336 -0.2016816 -0.008296411 0.20011567 0.064872414 0.051551078 0.026323382
-0.2142537 -0.2311718 0.12799336 -0.07852315 -0.07275523 0.17761943 -0.013787555 -0.20284253
0.24500152 -0.042771835 -0.16327156 -0.03664711 0.106805116 0.060867112 -0.011990376 -0.37814873
-0.13365962 -0.24910137 -0.026184767 -0.009980393 -0.29152775 -0.55726755 0.102086425 -0.17458558
-0.028107632 -0.0056554764 -0.11665844 0.02412936 0.06561724 0.03208532 -0.11036658 -0.015913429
-0.34608653 0.08583398 0.20233458 0.15933023 0.07432274 -0.12509742 0.0036948398 -0.11036015
0.14252378 0.181358 0.053761836 -0.38054752 -0.14752306 -0.19113345 0.18761994 -0.10809531
0.0016343424 -0.12967266 -0.03409331 -0.0070156762 -0.20915382 -0.0068425755 -0.16285846 0.073048204
0.20694378 0.06781912 -0.2470343 0.38017452 -0.009586983 0.21974356 -0.14294565 0.1296713
0.053673077 -0.062444076 -0.22778355 -0.037898645 0.19161841 0.3596658 0.23981637 0.37686282
0.35084555 -0.07807955 0.08214223 -0.08778731 -0.116617054 -0.08069651 0.20617932 0.06732491
-0.06951504 -0.02802411 0.030460428 0.023166355 0.053189885 0.035124004 0.07469111 0.1864377
-0.05952057 0.04635307 0.24006143 0.05567371 -0.25108 -0.036830034 -0.25140458 0.125689
-0.29114273 0.1600513 0.2877103 0.16639386 -0.15604624 0.08502738 -0.2176923 -0.015988844
-0.34858486 0.10907911 -0.17888461 0.015041281 0.22361055 -0.14753711 0.023181025 -0.0877695
-0.20919237 0.1208811 0.07047975 -0.19655037 -0.22908339 -0.019232538 0.16251281 -0.075023785
-0.13172919 0.16401708 0.060597107 0.17761779 0.054251768 -0.015899664 -0.14372759 0.40903348
0.1422642 -0.2749557 0.20262797 -0.058551427 0.012517447 0.016946256 0.04089969 -0.10138472
0.0015163992 -0.060756672 -0.12348038 -0.08662013 -0.4496939 0.02639649 -0.1988636 -0.05143552

bias f4 [512]
00000000: 146b 883d 41ed 5dbe 9fe7 ecbe efc3 9fbe
00000010: cfe4 50be ae5f 92be c879 f2be 7b00 aebe
00000020: e3dd 8dbe df22 59be b695 99bd 8983 f7be
00000030: cec8 62be 9494 22be aecb d9be 08de 08bf
00000040: 9fb3 763d acdb e8be 5acd debe ebe0 bcbc
00000050: 5443 b23a 7f65 b9be cc3f 28be c010 8cbe
00000060: f1d6 4ebe 6eff 58bc aed3 61bd 0795 e9be
00000070: b282 65be f418 89be 428f ecbd 5148 96be
00000080: 60c2 f7bd 88f0 7dbe f7df d6bd 19a3 09bf
00000090: 1ad8 d5be 128d 4ebe 397a d2be 6ed6 613d
000000a0: 85b4 5bbe 8997 dfbd 23bb 16be ec71 a2bc
000000b0: 0189 c1be 25e8 39bc f970 58be 0b98 b1be
000000c0: fc12 46be 8cc4 4abe 7740 ad3d 617c 07be
000000d0: a36a abbe 7229 69be deb1 52be 13f7 243d
000000e0: c72f d6be cc43 95be 0218 2fbe 76df 58be
000000f0: dc98 fbbd 2e11 8cbe f00e 3dbe 2b74 64be
00000100: d196 b5be f3ac 39be 2aca bebe 45df 7cbe
00000110: 3327 a6be d99a 1bbe b246 17be fb36 efbd
00000120: 3ca4 b6be 2e18 a0be 8586 debd 588c 4c3c
00000130: c9e4 1bbf 8432 f8be 6ffe 26be 4d40 fbbd
00000140: aa08 c3bd 3d9d a1be eea6 cbbe 6fa5 b0be
00000150: e959 15be ebd2 e7bd 1aab 84be 11f1 83be
00000160: 35e4 c4be 4a45 9bbe d186 afbe d373 26be
00000170: 7b87 c1be 189f c2be ad81 893c dcea babe
00000180: 3da2 9fbe 9bec ebbe 51ed acbe 7fb7 13be
00000190: 0212 14be 3507 a7be 1265 95be e20b 88be
000001a0: cdc1 5cbe f7a4 c5be b1e6 a0be 18b5 0ebf
000001b0: d1bf d7bd bf0f 4cbe e76f d1bd 5ec0 3bbd
000001c0: 403a 15be 312a c7be b4a8 02bd b128 c5be
000001d0: 87f3 52be 84e7 11be 4e3a 95be ab62 1bbe
000001e0: dc70 96be 0373 eabe d69f c1be 4998 9dbe
000001f0: 63b4 60be 1157 9bbd f517 d0be 234b 41be
00000200: cfb4 a3bc 7875 2abe eb90 30be 5ba2 dfbe
00000210: 66e6 51be 855e 58be 5e52 fbbd cc7b 9cbe
00000220: d78b 05bf 95a2 49be ae3e cebe 59eb 57be
00000230: 8a88 68bd 94d2 3bbe c686 a2be ac04 fdbd
00000240: 4243 fdbe f862 40be 6b1d afbd 3249 ffbe
00000250: 1d65 b6be d683 30be 67a5 2dbe e6df 83be
00000260: a05c 9fbe ca1a 15be 603e bbbe c79e f23d
00000270: eca4 d1be 9e10 c7bd e73b 01be 4890 fa3c
00000280: 8568 afbd 28ef 7bbe 6da3 f8be 1fcb 59bd
00000290: 829e 85be 177d bfbe b08d 03be 52a6 02be
000002a0: 46a4 dabe 10ef b8be 8daa c2bd 7e91 f9bd
000002b0: b1b4 1ebe 802a 60be d59d a8be 971b c9be
000002c0: bab7 cdbd 874f 7ebe 1162 19be b5a2 fbbd
000002d0: d0e4 47be 9fa7 c8bd 162b ecbe 0223 91be
000002e0: 7c50 35be 56bd 15bc 6179 e3be 9248 90be
000002f0: 3a35 f3be a6ef 80be a78e 27be 2f51 50be
00000300: 0542 87bd 266a d2be e700 e7bd 6cb5 3fbd
00000310: 145f c4be 1592 e3bd 4935 13bf ba42 b0be
00000320: 8c5d 8bbe dc49 89be 3c9e d3be c4f8 b0bd
00000330: a7fe 88be c856 ccbd 919b 5ebd 69e4 c5be
00000340: 9167 00be 9817 fbbd 237b dbbe 3542 b5be
00000350: 6c9f 6cbe 6394 92be dfd0 6cba b57b 12be
00000360: 3f5b d6be 1c47 75be 8e59 0c3c e49c edbe
00000370: 3a4d ddbd 607a a8be 5119 1ebe e540 3ebe
00000380: 7ef9 82be 606f 9fbd 69d6 d5bd e09d 4cbe
00000390: a82a 8fbe 17e4 55be bc21 a83c 2ad5 2cbe
000003a0: af28 e1be 1e7b a1be fa02 f3bd 3a54 83bd
000003b0: 2857 babe ef02 04be a423 a4bd 21ee 2dbe
000003c0: 9fcb 67be fced 62be 3513 c3bd 8532 243d
000003d0: 2525 a7bd c10d cfbe e0a0 febe a16b eebe
000003e0: 7378 7fbe 699b 94be 89f3 24be 309c 45be
000003f0: eb21 96be 7e8d a8be 5e97 e0be d955 7ebe
0.066610485 -0.21672536 -0.46270463 -0.31204173 -0.20399784 -0.28588623 -0.47358537 -0.33984742
-0.2770835 -0.21204709 -0.07499258 -0.4834254 -0.22146913 -0.1587699 -0.42538208 -0.5346379
0.060229894 -0.45480096 -0.43516046 -0.023056468 0.0013600388 -0.36210248 -0.16430587 -0.2735653
-0.20199181 -0.013244493 -0.055133514 -0.4562151 -0.22413138 -0.2677685 -0.11550762 -0.29352048
-0.12097621 -0.24798787 -0.10491937 -0.5376449 -0.41766435 -0.20171002 -0.41108873 0.055136137
-0.21455581 -0.10917575 -0.14719824 -0.019829713 -0.37799838 -0.0113468515 -0.21136846 -0.34686312
-0.1934318 -0.19801539 0.08459561 -0.1323104 -0.33479795 -0.22769716 -0.20575663 0.04027469
-0.41833326 -0.29153287 -0.17099002 -0.21178994 -0.12285015 -0.27356857 -0.1846273 -0.2230994
-0.35466626 -0.18132381 -0.37263614 -0.24694546 -0.32451782 -0.15195788 -0.14773062 -0.116804086
-0.35672176 -0.31268448 -0.10865501 0.012484632 -0.60895973 -0.4847604 -0.16307996 -0.12268124
-0.09523137 -0.31565276 -0.39775795 -0.34501216 -0.14585079 -0.11319526 -0.2591179 -0.25769857
-0.38455358 -0.303263 -0.34282544 -0.16255121 -0.37798676 -0.38012004 0.016785467 -0.36507308
-0.31178465 -0.46078953 -0.33774808 -0.14425467 -0.14459994 -0.32622686 -0.29178673 -0.26571566
-0.21558304 -0.3860242 -0.31426004 -0.5574508 -0.10534633 -0.19927882 -0.10226422 -0.045837753
-0.14573002 -0.38899377 -0.03189917 -0.38507608 -0.20600711 -0.14248472 -0.29146045 -0.15174358
-0.2938298 -0.45790872 -0.37817258 -0.30780247 -0.21943812 -0.07584966 -0.40643278 -0.18876319
-0.019983677 -0.16646373 -0.17242782 -0.43678555 -0.20498046 -0.21129806 -0.1227157 -0.305632
-0.52166504 -0.19690926 -0.40282196 -0.21085872 -0.05677084 -0.18342048 -0.3174345 -0.12354407
-0.49465376 -0.18787754 -0.08550533 -0.4986053 -0.35624018 -0.17237791 -0.16957627 -0.25756758
-0.31125355 -0.14561 -0.36571026 0.118466906 -0.40946138 -0.09719966 -0.12620507 0.030586377
-0.085648574 -0.2460295 -0.48562184 -0.053172227 -0.26097494 -0.37400123 -0.12847018 -0.12758759
-0.42703456 -0.3611989 -0.09505186 -0.121859536 -0.15498616 -0.21891212 -0.32932916 -0.39278862
-0.10044809 -0.24835025 -0.14978816 -0.12286893 -0.19520879 -0.09797596 -0.46126622 -0.2834702
-0.17706484 -0.0091393795 -0.44428542 -0.28180367 -0.47501546 -0.25182837 -0.16363011 -0.20343469
-0.06604389 -0.4109661 -0.11279469 -0.046803877 -0.3835379 -0.11111847 -0.5750318 -0.34425908
-0.27219808 -0.26814163 -0.4133166 -0.08641198 -0.26756784 -0.0997749 -0.05434758 -0.38650826
-0.12539507 -0.122603595 -0.42867383 -0.35402074 -0.2310769 -0.28628835 -0.000903381 -0.14305003
-0.4186649 -0.23952907 0.008566273 -0.4640876 -0.108057454 -0.32905865 -0.15439345 -0.18579443
-0.25580972 -0.07784915 -0.10441286 -0.199821 -0.27962232 -0.2088779 0.020523898 -0.1687819
-0.43976352 -0.31539243 -0.11865802 -0.06412549 -0.3639462 -0.12891744 -0.080146104 -0.1698537
-0.22636269 -0.22161096 -0.09525148 0.04008724 -0.08161382 -0.4044018 -0.49732113 -0.4656649
-0.24948291 -0.2902482 -0.16108526 -0.19297862 -0.29322752 -0.3292045 -0.43865484 -0.24837436

weight f4 [256, 512]
00000000: 94b7 643d be0a 6fbe 4dfe 5cbc 4c69 3b3d
00000010: 0dc2 b23d 7198 e93d 44b4 0c3d a2f0 67be
00000020: 2383 243d 6659 6abb c00f 0e3d ccff 9cbe
00000030: 87cf 00be e753 c13d 4c27 0b3e e789 94be
00000040: 7314 ad3d 0aea 5fbe 8fd0 80be 0800 fa3d
00000050: 724f 8bbe 0953 afbd 0261 093e 15b8 9bbd
00000060: 6450 dc3d 9215 d33d 7192 5c3b dc1b 20be
00000070: 23b1 b23d 7f06 1e3e 0039 dc3d cde3 5fbe
00000080: 487e f7bd f902 20bc 0823 193e 0270 0b3d
00000090: a662 53bd 0be1 2bbe 7eb6 e1bd ab92 f9bb
000000a0: d582 583d 98c1 88be e818 e0bd b944 f73c
000000b0: 1562 bc3d 495d 7abd 3a99 d0bd efc7 f93d
000000c0: 8317 30be 2595 b3bd fe61 a93d 3963 1dbe
000000d0: fafe 1fbe fdbe 80bd 483e 1fbe 58bd 0d3d
000000e0: b1dc efbd 0be7 4bbd 2ed1 883e 686d 84be
000000f0: a174 423e 2f54 d83d cd68 85bd 93b7 02be
00000100: 2a71 c8bd fe91 c7bd 27ac c7bd ff33 a4bc
00000110: 6f3e 0ebe d839 4bbd 4585 83bc 2f69 dabd
00000120: e7de 97bd ff66 533d eb15 c33d 85ea 873d
00000130: 1a5f 0fbe bcc2 d0bd 307c 2b3c 1a70 f7bd
00000140: db8f 8dbd d8bb 80be 12cf 85be c6bb 84bc
00000150: ea65 36be 4f22 313c 48d3 23be 22d4 9f3d
00000160: 7a42 813d 192c 413e dc8b 72be dfe4 e6bd
00000170: fea3 00bd 0ffb d43d 054b bd3d b8bd 86bd
00000180: 9ba2 84be 0cf7 2bbd e032 39be b0cc 73bb
00000190: 5e0d bebb 34b9 4f3e 7191 e83d 5df8 66bd
000001a0: 63f0 45be 8917 5abe a1d9 d73d d3d0 9c3a
000001b0: 9483 76be e979 c7bd 28e7 a83b 8fc1 503d
000001c0: 7de1 cd3d 93c2 28be 5221 57be 2d83 5dbe
000001d0: afeb 61be 54df 3e3e 31f3 403d 274b a2be
000001e0: 2928 a3be a287 ccbd a97a 9dbd d77e 0dbe
000001f0: 9704 58be b471 a8bd c2d1 e0bc e491 233d
00000200: 2aff 97bd 64e9 883e 735a 9fbd 91e0 abbc
00000210: e0e8 7dbd 2c08 83bb 5b7b 11bd 1135 a3be
00000220: 4b17 013c 70e4 363d e1fa 81bc ecc3 78bc
00000230: 91a9 7fbd c377 06be 197f 993c e737 84be
00000240: 9fc8 e2bc 40a8 d5be 171b a13d 1f9e 67be
00000250: de32 cf3d e889 1fbe ad5b 8b3d 300d 82bd
00000260: 58d2 2cbd 457d 243e 4351 81be d4be 78bd
00000270: 98e8 f4bd 22fe cc3d cc88 70be 0d14 9a3d
00000280: 806b 403d 2d83 b2bd 8402 903d bbce 913d
00000290: 6c18 71be cc1c 7ebc 97ad 633e fc8c 3cbe
000002a0: 25c4 e8bd e8c2 40be f2f7 4dbe f56e 2b3d
000002b0: 6de2 47be 8b99 f93d 19bb ebbd a498 7d3d
000002c0: 2db9 14bf 89e3 073e 083e f7bd 69ff 87be
000002d0: 93b4 a43d d183 043b c21d bebc c481 3dbd
000002e0: 4ee7 2c3d 8462 803c 5619 dbbc f59d 0e3e
000002f0: a219 30be 9259 74bd 8a4c c9bd d7dd 87bd
00000300: ac7f 77bb 11da a0be 3297 69bd f7bf 24bd
00000310: 6690 4bbc 0342 f1bb f601 933c 25a2 dcbd
00000320: e547 96bd c290 59be 221a 16be 35cf b33d
00000330: 4033 02be 6132 95be 4ffc 10bd 518b 5abe
00000340: 8c35 7fbd 649e cbbd 63b2 e3bd 5ad6 313e
00000350: 09a9 21be 4d9e d4be c8dc 913d 6beb dbbd
00000360: 47b4 73bc db32 363e c863 95bb cb82 a4bc
00000370: c945 50be 9236 52be f7c0 503e 085a 20bd
00000380: 83dd 2fbe cef8 983d 3511 9ebc b2a0 023d
00000390: 1b8e 713c 280a 9fba eaad 133c 4683 1fbf
000003a0: 74e2 8a3d c732 333c 705a 613e a1e8 a63d
000003b0: 78c9 40be 8378 f5bd 2b38 3dbd 314b 29bd
000003c0: 5944 4d3b ba29 453d eb34 d0bc 702b efbc
000003d0: eaf7 af3d ab8a 43be 00c7 dabe 274f 7c3c
000003e0: e09f f4bc 5d4f 0a3c d982 853b 0b45 213e
000003f0: 5537 b3bd d266 ac3d 49d6 11be 252d f1ba
0.055839136 -0.23343942 -0.013488364 0.045754716 0.087284185 0.11406029 0.034351602 -0.22650388
0.040164124 -0.0035758852 0.03468299 -0.30663908 -0.12579165 0.09439831 0.1358921 -0.2901146
0.08451166 -0.21866623 -0.25159118 0.12207037 -0.2720905 -0.085607596 0.13415912 -0.0760347
0.10757521 0.103068486 0.0033656622 -0.15635628 0.087251924 0.15432166 0.107530594 -0.21864243
-0.12084633 -0.009766334 0.1495477 0.034042366 -0.05160775 -0.16785066 -0.11021136 -0.007616361
0.052859146 -0.267102 -0.109422505 0.030184137 0.09198395 -0.06112412 -0.10185476 0.121963374
-0.17196469 -0.087686814 0.08270644 -0.15369882 -0.1562461 -0.06286428 -0.15551102 0.0346044
-0.117120154 -0.049780887 0.2672209 -0.2586472 0.18989803 0.10562932 -0.0651413 -0.1276534
-0.09787209 -0.09744643 -0.09749632 -0.020044325 -0.13891004 -0.04961571 -0.016054759 -0.106645934
-0.07415562 0.051611897 0.09525665 0.06636528 -0.14001122 -0.10193393 0.01046662 -0.120819286
-0.06912204 -0.25143313 -0.26134545 -0.016202819 -0.17812315 0.010811402 -0.15998566 0.07804133
0.063115075 0.18864478 -0.23686165 -0.112741224 -0.031406395 0.10399448 0.092428245 -0.06579155
-0.25905308 -0.04198365 -0.18085814 -0.003720086 -0.0057999333 0.20285493 0.11355866 -0.0563892
-0.19329982 -0.2129804 0.10539556 0.001196409 -0.2407363 -0.097400494 0.005154509 0.05096584
0.10052774 -0.16480474 -0.21008804 -0.21632071 -0.22062562 0.1863988 0.047106925 -0.31697962
-0.31866577 -0.099868074 -0.07689411 -0.13817917 -0.21095501 -0.08224812 -0.02744377 0.039934054
-0.074217156 0.26740563 -0.07780924 -0.020981105 -0.061989665 -0.003998777 -0.03551803 -0.31876424
0.007879089 0.04465145 -0.015866699 -0.01518343 -0.06241757 -0.13131623 0.018737363 -0.258239
-0.027683554 -0.41729927 0.07866495 -0.22618912 0.10117124 -0.15579951 0.06804595 -0.063501716
-0.042192787 0.16063412 -0.2525731 -0.060728863 -0.11958426 0.100094095 -0.23489684 0.07523356
0.04697752 -0.08716426 0.0703173 0.07119509 -0.23544472 -0.015509795 0.22234188 -0.18413156
-0.113655366 -0.18824351 -0.20114115 0.041853864 -0.19519968 0.12187489 -0.115102954 0.061913148
-0.58095056 0.13270392 -0.120723784 -0.2656205 0.08042254 0.002022017 -0.023207549 -0.046266332
0.042212777 0.015671976 -0.02674548 0.13927443 -0.17197278 -0.059655733 -0.09829052 -0.066341095
-0.0037765307 -0.3141637 -0.057028957 -0.040222134 -0.012424564 -0.0073626055 0.017945271 -0.10773114
-0.073379315 -0.21246627 -0.14658406 0.08779756 -0.12714863 -0.2914 -0.03539687 -0.21342207
-0.062306926 -0.0994232 -0.11118009 0.17366925 -0.15787138 -0.41527024 0.07122189 -0.10738262
-0.014874524 0.17792837 -0.004559014 -0.020081898 -0.20339121 -0.2052863 0.2038611 -0.03914836
-0.17174344 0.07469331 -0.019295314 0.031891532 0.014743353 -0.0012133764 0.009013632 -0.6230968
0.06781474 0.010937399 0.22007155 0.08149839 -0.18826854 -0.119858764 -0.046196144 -0.041331474
0.0031321256 0.048135497 -0.025415858 -0.029195517 0.08592208 -0.19095866 -0.4272995 0.015399731
-0.02986139 0.008441773 0.004074436 0.15748994 -0.08750788 0.08418049 -0.142419 -0.0018400295

bias f4 [256]
00000000: 2d6a 98bd f4ed d8bd 2589 3dbe fcb1 ffbc
00000010: a827 13bd 67ad 19be 3a35 bdbc e527 5dbe
00000020: a406 72be f694 3a3d 0b98 80bd 1941 a9bc
00000030: b162 d5bd c3ea 06bd b118 aebc 9569 cfbb
00000040: 63a5 f6bd 3344 52bd 20cd 2cbd 4770 e7bc
00000050: a596 bdbb 960a 50bc fe58 afbb cc9c b0bd
00000060: bb6e f63d 2cb8 9bbd 3847 dbbc fd4c c93b
00000070: 5da7 ec3b ec6e 4a3d 2f42 323b 5648 de3b
00000080: 1286 0fbe 26d5 fcbd f32a 08be 60b6 94bd
00000090: 2dbb 903d d36d 42bd 5aad 61bd 1b7e b1bc
000000a0: bcd3 ecbd 2fb8 a23c 5df4 79bd 9ce6 4dbe
000000b0: 7c1f 9cbd 23b7 28bd 44db f4bd 39c5 2cbd
000000c0: f91e 1fbd 5dc5 a03d 3d9a a2bd 3c58 5ebc
000000d0: 9ed8 c8bd 67f8 1fbe 7028 cabd cf98 2bbd
000000e0: b520 0bbe a2d1 b73d fe2c 95bd cdfe ffbc
000000f0: 1025 0cbd ec12 b7bd e824 223d f117 be3b
00000100: b6be 65bd 83a1 80bd efb1 91bd 5ad1 cebb
00000110: 5181 4abd 82b2 ecbc 30c3 08bd b78d 10be
00000120: 9634 7ebc 8e52 013b e027 9fbd d2f5 7f3d
00000130: 8ea3 12be 5760 e1bc 1c86 37be 7f25 c4bb
00000140: e867 23be b6a3 243e 6cda f439 97c6 29bd
00000150: 1c1f 55be 9bb7 14be 63ac f0bd 67d2 1bbd
00000160: 8e40 02bd 2a69 b6bd 2c67 c63d 48ff dbbd
00000170: d8d7 afbc d6aa 0ebe e4ec 37bd 6342 2ebd
00000180: 6cce 32bd 3f8f 18be 25bd 0dbd 3b2e 96bd
00000190: 56c3 f4bd 47fe 613c d5a1 e23c eaaf d9bd
000001a0: 396f edbd 14ac b9bd a117 09be 1efc c3bd
000001b0: b3d9 42bd 19cd 17be edab 68bd fcfb dfbc
000001c0: 5e32 dbbd efde 8b3d 9e42 43bd 678e 97be
000001d0: 4341 10be 2e01 b23d 9286 3ebc c3b1 4cbe
000001e0: 628a 403c b712 1fbd ee2a 13be 6807 63bd
000001f0: e56d 50be d042 4cbe 8e5d 933d 015e 953b
00000200: 4e5f adbd f884 edbd 2128 76bc 5f20 05be
00000210: 72d0 07be 7e09 293d db3d 7d3c b3de 6cbd
00000220: abe0 99bd 0230 5abe e243 27bd c93a f1bd
00000230: 44c3 c6bd d4f7 04be a2bd 1cbe 6707 d0bc
00000240: 4cd1 b43c 7a87 3ebb 8082 973c cdf3 9d3d
00000250: 08d8 86bd d982 f5bd 19b0 f4bd cd99 8abc
00000260: 8c5d 71be 7d68 90bd b753 c83d 9e47 b9bd
00000270: 0f22 e2bd c2f0 08bd 8fae 50be 0e69 1dbe
00000280: 7731 4fbd 6d6a 91bd e434 dcbd 0fa4 43bd
00000290: 688d 07be 0118 81bd 1164 8bbd ac13 303c
000002a0: d94c 28bc 570b 83bc 9dd9 29be c7cd e7bd
000002b0: 9e4a b7bd 7db3 f7bc 8045 84bc 6bf9 60be
000002c0: a9ee 97bc 715f 593d a331 2ebc 4405 8abc
000002d0: 4de4 e8bd ec98 cfbd 11af 933d a7dc 973d
000002e0: af7a 8c3c 884e 07bd ebe3 fbbd 9a69 1cbd
000002f0: 2afe f3bd d597 d0bd 2d16 18be cfc4 9bbe
00000300: e3b4 b6bd a342 a4bd 74d1 283d aaf8 cbbb
00000310: 04e0 ad3d 019a 08be 6ae2 cabd 95cf c53c
00000320: 0247 f5bd 9270 a2bd 956d b5bd de2d 4dbd
00000330: c087 9d3c a9a0 29be d347 43be c135 2ebe
00000340: 336d fb3b f704 863d 4e55 eebb e2bf b8bc
00000350: 5acd bfbc 90c5 f63d 7a54 39be dbd8 f53d
00000360: 339a ffbc 6252 c83d 89db 313c 331d 04bc
00000370: b658 64bd e269 05bc 3b3a 81bd 4820 58bd
00000380: bffc eabd b632 33bd 86f4 0abe 1189 103d
00000390: 62e5 53be d1fb 32be df4f 80bd ae0a 1b3d
000003a0: ea2f 2dbc 5723 ecbd 1aa1 1f3d bf32 97bd
000003b0: 4c06 0abc 88e9 02be 0cd7 febd 4440 bcbc
000003c0: 371e c13d 76d6 9e3d 7bea 14bd a7e7 19be
000003d0: ce1c 32be 9397 42bd cdb5 b7bd 4805 a1bd
000003e0: f62c abbd da53 813d 7275 d23c ee12 a6bd
000003f0: 146e 0dbe f645 a5bd 2898 2e3d d99a 3ebd
-0.074421264 -0.10592261 -0.18509348 -0.0312128 -0.03592649 -0.15007554 -0.02309667 -0.2159725
-0.23635346 0.045552216 -0.06279 -0.020660924 -0.104192145 -0.03293873 -0.021252008 -0.006329725
-0.12043264 -0.05133457 -0.04218781 -0.02825178 -0.0057857805 -0.012697836 -0.005351185 -0.08623657
0.12032839 -0.07603487 -0.026767358 0.006143211 0.0072220997 0.04942219 0.0027200093 0.0067835255
-0.14015988 -0.12345342 -0.13297634 -0.07261348 0.07066951 -0.047468018 -0.05509696 -0.021666577
-0.115638226 0.019863216 -0.06102406 -0.20107502 -0.07623193 -0.041190278 -0.11955884 -0.042180274
-0.038847897 0.07850144 -0.07939575 -0.013570841 -0.098069414 -0.15622102 -0.09870994 -0.041893777
-0.13586695 0.08975531 -0.07283972 -0.031249428 -0.034215033 -0.08939156 0.039585978 0.005801194
-0.05609008 -0.06280806 -0.07114016 -0.0063115777 -0.049439732 -0.028893713 -0.03338927 -0.1411656
-0.015515467 0.0019733044 -0.077712774 0.062490292 -0.14320204 -0.027511759 -0.17922252 -0.005985915
-0.15957606 0.16078076 0.00046702044 -0.041449156 -0.20812649 -0.14523165 -0.1175163 -0.038042452
-0.031799845 -0.08906777 0.09687647 -0.107420504 -0.021465227 -0.13932356 -0.04490365 -0.04254378
-0.04365389 -0.14898394 -0.03460421 -0.073330365 -0.1195132 0.013793535 0.027665058 -0.10629256
-0.1159348 -0.090660244 -0.1338792 -0.09569572 -0.047570895 -0.14824332 -0.056804586 -0.027341835
-0.10702966 0.068296306 -0.047670953 -0.29600832 -0.14087395 0.08691631 -0.011628764 -0.19989686
0.011751743 -0.038836207 -0.14371845 -0.055426985 -0.20354421 -0.19947362 0.071955785 0.0045583253
-0.084654436 -0.115976274 -0.015024216 -0.1300063 -0.1326311 0.041268818 0.015456642 -0.05782957
-0.07513555 -0.21307376 -0.040836222 -0.117787905 -0.09705213 -0.12985164 -0.15306714 -0.025394155
0.022072457 -0.002907245 0.018494844 0.07712517 -0.065841734 -0.11987848 -0.119476505 -0.016919041
-0.23570842 -0.070511796 0.09781592 -0.09046863 -0.110416524 -0.03343273 -0.20379089 -0.15372106
-0.050584283 -0.07100377 -0.107522756 -0.04776388 -0.13237536 -0.063034065 -0.068061955 0.010746878
-0.010272228 -0.015996618 -0.16586919 -0.11318546 -0.08949779 -0.030236954 -0.016146421 -0.21970145
-0.01854642 0.053069536 -0.0106319515 -0.016848214 -0.1137167 -0.101365894 0.07211126 0.07415133
0.017148344 -0.033033878 -0.12299331 -0.038186647 -0.11913712 -0.1018521 -0.1485221 -0.3042359
-0.0892122 -0.080205224 0.041215375 -0.0062247114 0.08489993 -0.13339998 -0.09906466 0.024146834
-0.11976434 -0.07931627 -0.08858792 -0.05009257 0.01922977 -0.16565193 -0.19070368 -0.17012693
0.0076729297 0.06543916 -0.0072733527 -0.022552434 -0.023413349 0.12049401 -0.18098632 0.120042525
-0.031201458 0.09781338 0.010855564 -0.008063602 -0.055748664 -0.00814292 -0.06309935 -0.05276516
-0.11473989 -0.043749534 -0.13569841 0.035286967 -0.20692971 -0.17478873 -0.06265234 0.03785198
-0.010570506 -0.11530178 0.038971998 -0.07382726 -0.008424353 -0.12784398 -0.12443361 -0.022979863
0.09429591 0.07755749 -0.03635643 -0.15029775 -0.173938 -0.047507834 -0.089702226 -0.078623354
-0.08358185 0.063148215 0.025690768 -0.08109079 -0.13811523 -0.080699846 0.042625576 -0.046534393

weight f4 [128, 256]
00000000: 3541 073d 2b1d 86bc fb23 943e 8dec 5abd
00000010: cf05 89be 40ba d7bd af84 d6bd cfe1 e03d
00000020: f7fb 823d 6d4c 863d aed9 863d 8cc7 e33d
00000030: a131 623d 9439 813c 05a6 2c3e 5524 973d
00000040: 0200 debc 82e8 c33b 9c13 913d 523c 8abd
00000050: 90b8 063c 5767 393e 36d1 8c3d b9ed 213e
00000060: a79c d23d 58de 01be e453 34be e002 753d
00000070: d2df 603e d2f7 d93d 1857 f03d 9308 e33d
00000080: 4ee8 903a 0e33 33bc f6fd 63be 47b9 80bd
00000090: 1a98 183e 4ab8 dfbc d0d4 45bd b417 85bc
000000a0: ea19 bc3d f53e 3abe 6b31 4a3e 0276 613e
000000b0: 555c 863d a3ff 143e 2cd0 e33d 1e39 0c3e
000000c0: 0eb9 c4bd be35 783d f60d 0ebd 7ae8 573e
000000d0: 407d 523e da92 943c 5141 163e 91ee 46be
000000e0: b38d df3d 4bd3 e93d 2f87 c73d f6b4 1a3c
000000f0: 9e43 1c3e f65e 77bd e75d 2bbd 5271 3e3e
00000100: db5e 8abe 0efe b63d 1845 313c af96 8e3d
00000110: 7986 263d dcd5 453d 11b3 6fbd 172a c8bd
00000120: 32a1 33be cb01 263d 12b7 103d 72e3 00be
00000130: 929c 673e e0b7 b33c 6f4b 983e 2cc1 f13d
00000140: 2c15 843e 116e 3e3d bba5 a1bd 6d86 8e3d
00000150: 4386 21bd 15ee 5bbe 058d 093e 6d3f 14bd
00000160: 5b36 813d a2a8 493d a7c2 41be 1378 b23c
00000170: 90dc 063e 2dc0 34bd e2bc 133e 053b 383d
00000180: 2187 f43d 4ff9 38be f859 e2bd e72e 263d
00000190: d122 3d3d 240d 6abe 903c d23d 3136 163d
000001a0: 247f b23d 076e 29be b5d5 c3bc 2b61 1d3d
000001b0: f91e 1bbd 36c3 a63d 6220 0abe efde 6bbd
000001c0: fc5b bb3c 0804 333e 712e 1a3d f2c1 45bc
000001d0: 96f6 293d e0cd 183e c786 ca3d 5270 e53d
000001e0: 5adb 5c3c 8641 323d 6759 49bc 5a2c 003e
000001f0: bdd4 f33d 6f63 bd3d b7a5 0ebd 052c e33d
00000200: 6ddb 883e 6570 c3bd 2051 8a3e 8ca3 073d
00000210: 12df 8abe e703 f5bd 5ae1 083e cb06 033e
00000220: 606f bebc 47e0 debc 6157 983d 1150 e63d
00000230: ec32 db3d 39df 283c caf1 023e d90c c43d
00000240: 0835 7abd 8968 103e 1ab9 12be 87b3 b33d
00000250: 7038 b43d e1bb 9c3c 4dce 92bb 559e 0fbc
00000260: 8e11 30be 74df b73c 4279 b0be 3b7d 2c3d
00000270: da0e 663e ce75 10be d9b0 f53d 087a 4e3c
00000280: 6000 e7bc 2e27 65bd 0644 0fbc fbe7 79be
00000290: 0543 23be 41d9 423e 1532 623e 530c 29be
000002a0: 0176 4a3c 719f cabc d844 cc3d e2d2 583e
000002b0: a9eb 56bd a1a8 183e 8a30 2cbe 74ac 6b3d
000002c0: 7a44 963c 2106 8dbe 3368 ac3d 0f9f df3d
000002d0: 2451 6f3d 0e29 b5bd ab67 4dbd 456d 593e
000002e0: d839 003e a80a 7d3d 7b35 803c b1d2 143e
000002f0: 730e 603e d32b 3c3e 57b0 2bbe 4171 60bd
00000300: 6eda b13d 6f2f 9cbc 6254 8c3d d435 5fbd
00000310: 1d2e 01be 5cef 4abe 2bac 60bd c9f9 82be
00000320: c2b5 91bd 842b 173e 2443 6ebe ec70 e03d
00000330: 8c7d 413e 0465 313d dc7b 94bd b100 5dbd
00000340: d678 1bbe 84fb 8bbd 6851 6c3e d90a 953d
00000350: 8802 1b3d ab3c 283d 3b28 2b3e 3681 173e
00000360: f0ca a1bd c44f 253e 639c 213e a07f 8e3e
00000370: 1562 85be 593a 82be 3e69 1e3e 846c 463e
00000380: 3411 44bd 0489 313d 825f 98bd 3bef 38bd
00000390: 2686 043e cc45 6ebd d6d8 293c cbb4 07ba
000003a0: d53a 523e 423c e9bc 19b6 253e 79e2 67bd
000003b0: ac2f 373e 4802 fdbd 284b 4abe 5878 71be
000003c0: f1f9 ecbc c4ca c53d a7f3 cf3c 5334 503d
000003d0: ba0c ca3d cedc 573a 926a 4ebe e0dd 723d
000003e0: acfb 89bd a126 463e 55c3 8abd e768 f03c
000003f0: 407e 78bd 94b5 1abe 7257 0b3e 4239 ee3d
0.03302117 -0.01637133 0.289337 -0.05344825 -0.26762244 -0.10533571 -0.10474526 0.109805696
0.06395715 0.06557546 0.06584488 0.11122045 0.05522311 0.015774526 0.16860206 0.07379977
-0.027099613 0.005978645 0.07083818 -0.067497864 0.008222714 0.18105827 0.06875841 0.1581334
0.10283785 -0.12682474 -0.17610127 0.059817195 0.2196038 0.10642971 0.11735362 0.1108562
0.001105556 -0.010937465 -0.22264847 -0.06285339 0.14901772 -0.027309556 -0.048298657 -0.016246654
0.0918463 -0.18188079 0.19745414 0.22017673 0.0656058 0.14550643 0.1112369 0.13693663
-0.09605609 0.060598128 -0.034681283 0.21084777 0.20555592 0.01813643 0.14673354 -0.19426943
0.10915699 0.11417254 0.09742581 0.0094425585 0.15260169 -0.060393296 -0.0418376 0.18597916
-0.27025494 0.08935176 0.010819696 0.06962334 0.040655587 0.048299655 -0.05852038 -0.09773653
-0.1754196 0.040529054 0.03533084 -0.12586764 0.2261832 0.021938264 0.2974505 0.11804423
0.25797403 0.046491686 -0.07892939 0.069592334 -0.039434683 -0.2147754 0.13432701 -0.0361933
0.063091956 0.049233086 -0.1892191 0.021785771 0.13170075 -0.044128586 0.14427522 0.04497816
0.11939836 -0.18063854 -0.110523164 0.040572073 0.04617578 -0.22856575 0.10265458 0.036672775
0.087156564 -0.16545878 -0.023905614 0.038422745 -0.037871335 0.08142702 -0.13488916 -0.057585653
0.02287101 0.17482007 0.037641946 -0.012070166 0.04149493 0.14922285 0.09888988 0.11203064
0.013480032 0.04351952 -0.012289382 0.12516919 0.11905811 0.09247481 -0.034826007 0.110923804
0.2672991 -0.09542922 0.27015018 0.033114955 -0.27123314 -0.11963635 0.13367215 0.1279556
-0.023246467 -0.027206553 0.07438541 0.1124574 0.10703072 0.010307127 0.12787548 0.09572763
-0.06108573 0.14102377 -0.14328423 0.087744765 0.08799827 0.019132556 -0.0044801594 -0.008765777
-0.17194197 0.022445418 -0.34467512 0.042111617 0.22466603 -0.14107439 0.11996622 0.012602337
-0.028198421 -0.055945568 -0.008744245 -0.244049 -0.15943535 0.19028188 0.22089417 -0.16508608
0.012357236 -0.02473423 0.099740684 0.21174195 -0.052470837 0.14908077 -0.16815391 0.05753751
0.018343199 -0.27543738 0.08418312 0.1091901 0.05842699 -0.08845721 -0.050147694 0.2123309
0.12522066 0.06177774 0.015650501 0.14533497 0.21880512 0.18376093 -0.16766487 -0.054795507
0.0868424 -0.019065587 0.06852032 -0.054494694 -0.12615247 -0.19817871 -0.054851692 -0.25581196
-0.07114746 0.14762694 -0.232678 0.10959038 0.18895549 0.043309227 -0.07250187 -0.053955738
-0.15182814 -0.06835082 0.23077929 0.0727746 0.03784421 0.041073482 0.16714565 0.14795384
-0.079000354 0.1614371 0.15782313 0.27831745 -0.26051393 -0.2543514 0.15469834 0.19377333
-0.04786797 0.04334356 -0.07440092 -0.045150023 0.12941799 -0.058172032 0.010366639 -0.00051767816
0.20530255 -0.028471116 0.16182746 -0.056612466 0.17889279 -0.12353951 -0.19755232 -0.23581064
-0.028927775 0.09657815 0.025384737 0.05083115 0.09865709 0.00082345016 -0.20157841 0.059293628
-0.06737456 0.19350673 -0.06775538 0.029346896 -0.060667276 -0.15108329 0.13607576 0.11632015

bias f4 [128]
00000000: 660e 0dbe 7cfa c2bc 17e6 dabd 2c7c 083e
00000010: 1b94 abbd 2914 6dbd b52f 52bd 46df e4bc
00000020: 9424 253e fb14 31be d90e c03d b2e9 a1bb
00000030: a69f a43d 7f95 9cbe cade 02be c211 54bd
00000040: f816 08bd d4e1 0abe 7d81 a33d 91f4 97bd
00000050: 05b3 dfbd 6eba a63d 965d c7bc 7e26 bcbb
00000060: 356b 1abe a4a3 6a3d 1bbd 33be 8c15 02be
00000070: b43a 79be f8d7 37be c163 b53d dd2e 35be
00000080: 39cb ad3d ccb3 1d3d 1978 51be e8dc 12be
00000090: 3c37 0dbe 3505 a1bd d400 92bd ab48 8fbe
000000a0: 2fb9 0d3d 9eb3 b6bc 756c efbd 9eb1 f33d
000000b0: fab8 21bd 31ca 6dbd eb5d be3c b5d9 f83d
000000c0: d91c 2abe d60f 69bd d38b 27be 4f69 5e3e
000000d0: fe7f 85be bae3 08be 2317 e6bc 42f5 9cbd
000000e0: 2760 91bd c333 47be db24 4cbe 36ac cebd
000000f0: 035b 78bb 6c51 41be 50e0 23be 16d6 3bbd
00000100: a848 b4bc 00b1 8bbd ffef f3bc 879c edbd
00000110: d652 963d 5f0c 9abd 3723 a8bd 244f 87be
00000120: 73f5 39bd b100 5dbe 9b08 3ebe 69ee 41be
00000130: 90fb f6bd 8eed 01be 569a cebd 9d74 e1bd
00000140: 41d6 e4bd 8d10 b03d 1444 75bd e741 e4bd
00000150: d022 0cbe 7b5c c4bd 88f5 bebc b954 48bd
00000160: 360e 24be c640 8a3d 833e c3bd 417b cc3c
00000170: d727 6dbe ec0e 5cbe 3374 44be 0231 30be
00000180: 8fd8 be3b 5319 4cbe be7e 12bd b23c f0bd
00000190: 3b81 5bbe 9f9f e2bc 6315 5dbd 4a55 65be
000001a0: 016b 09be 8217 3abe 9739 3abe fd8c b9bd
000001b0: f4cd c9bd 0061 fcbd 1f17 d13c 8249 78bd
000001c0: a092 a8bc a867 d8bd baaa 0bbe a722 f8bd
000001d0: 2c26 ff3d 2298 a83c f954 d3bd fd43 50ba
000001e0: d080 b4be 5a8a 263c eb20 5bbd 3210 82bd
000001f0: a14e 3abe b5a2 e9bd a0fa 5d3c ec8e 69be
-0.13775024 -0.02380108 -0.106884174 0.13328618 -0.08377858 -0.057880554 -0.05131503 -0.027938496
0.16127235 -0.1729316 0.09377832 -0.0049411887 0.08038263 -0.30582806 -0.127803 -0.051774748
-0.03322503 -0.13562709 0.07983682 -0.07419694 -0.10922817 0.081410274 -0.024336617 -0.0057418933
-0.15079959 0.057284966 -0.17552607 -0.12703532 -0.243388 -0.1795348 0.08856917 -0.17693658
0.08486027 0.038501546 -0.2045597 -0.14342082 -0.13790601 -0.07862321 -0.07129064 -0.2798513
0.034600433 -0.022302445 -0.116906084 0.11899112 -0.039483048 -0.058054153 0.023238143 0.12150899
-0.16612567 -0.056899868 -0.16361932 0.2171986 -0.26074213 -0.13368121 -0.028087204 -0.07663967
-0.07098418 -0.1945334 -0.19935934 -0.100914404 -0.0037896044 -0.18878716 -0.16003537 -0.045858465
-0.022007301 -0.068208694 -0.029777525 -0.11602121 0.073400185 -0.07521891 -0.08209842 -0.26427567
-0.045400094 -0.21582295 -0.1855797 -0.18938603 -0.120597005 -0.12688276 -0.10088031 -0.1100857
-0.11173678 0.08596907 -0.059879377 -0.111453824 -0.13685155 -0.09587952 -0.023310438 -0.048908923
-0.16021046 0.06750636 -0.095334075 0.024961116 -0.23159729 -0.21490067 -0.19184951 -0.17206195
0.0058241556 -0.19931535 -0.035765402 -0.11730327 -0.21436016 -0.027664004 -0.053975474 -0.22395816
-0.13419725 -0.1817303 -0.18186031 -0.090600945 -0.098537356 -0.12323189 0.02552372 -0.060616978
-0.020577729 -0.10566646 -0.13639346 -0.121159844 0.124584526 0.020580355 -0.103189416 -0.00079447014
-0.35254526 0.0101648215 -0.05349819 -0.06350745 -0.18194057 -0.11407987 0.013548523 -0.22808427

weight f4 [64, 128]
00000000: f55a 2bbe 4222 b6bd e263 c5bd 2526 3f3e
00000010: 4a13 33be f5c3 3bba 0463 8bbd d56e 0fbe
00000020: defb f53b e09a aabd 0733 28be e362 dbbd
00000030: 829f c63d f0a6 22bc d2c8 3cbd 9b5b fd3d
00000040: 64b2 e03d 5dd4 14be 1c70 293e d141 59bd
00000050: 1229 13bd 1e46 8e3d 0719 a43d a6a4 023e
00000060: da26 e6bc cc25 953b d075 5fbe 89d7 4d3d
00000070: 49c4 84bd bb4e 9cbd 7f9f f73c 766c b739
00000080: d78e ef3d 9c97 ffbd 2fca e23d df0b 9fbc
00000090: b66a 77be e0a5 5bbe 6ddb a43d 10d7 3ebc
000000a0: 10bc 1fbb ca52 6a3d b985 723d 38e6 aebc
000000b0: 9b9b 083d ccd8 88bd f60c 3abe 0742 a23d
000000c0: 0f5d 663d a6c0 9b3d a029 f6bd 0c97 b7bd
000000d0: 5d36 823d bf08 0dbe 1556 91bd 2f4c 5dbe
000000e0: 602f b7bb 8cc7 1dbe 4ddf 34bd aa6e ccbc
000000f0: e04c 2cbc de31 fa3c 59ba 86bd 43a6 393e
00000100: 2a8d 563d 4c18 5cbe 8b32 d1bc 4a52 29be
00000110: 57c8 853d 051f cabd a4be babd 1e15 b73c
00000120: 3ed4 fdbb 9c8b 483d 597b 62bd f8cc bdbd
00000130: 65d4 873c 6123 1dbe a95d 15bd ea70 8e3d
00000140: 7fea 30be 30be 323d f866 63be f612 09be
00000150: 0113 203e 4177 d9bd 463d 75bd c1cd 64be
00000160: eb4c a8bd 0327 febd 2a43 b2bd fc62 3ebe
00000170: f489 70bd 8664 0abb e0eb d4bd 3c66 31be
00000180: 435c e13c 3ecc 2a3e cb61 b23c cee2 7bbd
00000190: c548 8a3d 80bf ba3c e256 c8bd 41f0 e33d
000001a0: 9204 0cbe 36b8 9fbd 6a01 c1bd 0bbf 40bd
000001b0: 1e44 0e3c 9e9d f33d 6f65 1c3d d261 963d
000001c0: c4af 2bbe c2f4 793d 2329 18bd 87e0 953d
000001d0: fc03 abbd 8de4 43be d4cd d6bc ebce 883d
000001e0: 1b47 90bc 147e f63d db40 84bd 6b30 203d
000001f0: 9713 24bd 3a52 b33d 2d88 4abc 3a62 493c
00000200: 426f 3b3d cf35 373d e56b bfbc 2336 77be
00000210: 62b5 363e 9f9e e43c 95ac 6b3e 9fb6 443c
00000220: 9b0d a2be 4fa2 33bc 6566 1ebe 47bd 6cbe
00000230: aceb 97bd ecdc 9fbd a0ab ad3d 8931 01be
00000240: ef4e 963d 9e5b 6b3d 1508 26be 0f29 f33d
00000250: f273 833e 9f96 eb3d 73d0 8dbb bf87 5f3e
00000260: adbe 643d 4d45 0abe e347 b63d 5978 b23d
00000270: 6dae 6cbb f1e3 023e 53d8 88be e4e3 8c3d
00000280: 0126 a13d a35b 29bd b6e1 a43d 1d8c 373e
00000290: fcd0 a2bd 7abb 84bc 2668 193d 9a74 ab3d
000002a0: c0b3 20be db0b f43d e6ef 25be 2ca5 54bd
000002b0: 25d9 d03d 22ce 313a ed2f 6a3d 1506 953d
000002c0: 92bc 69bb 70bd 173e 9c83 f1bd 32b7 a6be
000002d0: 0259 d23d 23c4 f8bd 221b 923c 0144 633e
000002e0: 196a 93bd 07f7 5f3e 7a2a 9b3d 82f7 0a3e
000002f0: 6ec8 87bb bfce bc3d 9489 ac3c 3ac8 b4be
00000300: 12de a9bd e7fa 813c 6891 04be 8ff8 9e3c
00000310: ab62 3bbe 9b08 333e 1109 0dbc 2abb 51be
00000320: 3564 11bd 7e31 0abe c60e 163d 8f9c 303a
00000330: dc8a dcbc 5d81 a13d dab5 0d3b 315c f43d
00000340: 87bc 0fbd 9227 94bd ad49 6e3d aa5d 413b
00000350: 67f3 483e b5ba 28be 1c44 8c3d 8d8e e6bc
00000360: 924e babc 1023 01be 5599 873d a1c8 9bbd
00000370: 9aca 893d 2e0e 90bd 6aa6 a93d 9735 80bc
00000380: 536b e03d 8658 2bbe ba7f 2b3d 6a3f 9c3d
00000390: 2578 133d 51b6 f23c 468c 053d f67f 3c3d
000003a0: 399a 793e 97e7 0fbe e187 433d 314b cd3c
000003b0: 3529 ee3d 445a 57be 54e4 10be d105 a23d
000003c0: 86eb c73d cfc8 073d e7ce cdbd 7059 8fbc
000003d0: c40a bb3c 2349 90bd cb72 efbd 868c 963d
000003e0: 653b 95bc 049a a6bd a015 193e 9732 503e
000003f0: ee4d 543e d902 953d 2a30 0ebe 98bf 403d
-0.16733916 -0.08893253 -0.09638192 0.18666895 -0.17487827 -0.0007162684 -0.06805995 -0.14007123
0.0075068315 -0.08330321 -0.16425715 -0.107122205 0.096983925 -0.009927496 -0.046089955 0.12370988
0.10971525 -0.14534135 0.16546673 -0.053041283 -0.03592784 0.069469675 0.08012586 0.12758121
-0.028094698 0.004551625 -0.21822286 0.05025438 -0.06482751 -0.07632204 0.03022742 0.0003498529
0.116971664 -0.12480089 0.1107372 -0.01941484 -0.241618 -0.21449995 0.08049665 -0.011647955
-0.0024373569 0.05720786 0.05920956 -0.021350011 0.033351522 -0.06681976 -0.18169007 0.0792275
0.05624109 0.07605104 -0.12019658 -0.08964357 0.06358025 -0.13772868 -0.07096497 -0.21611093
-0.0055903643 -0.15408152 -0.04415827 -0.024955112 -0.010516375 0.030541357 -0.06578512 0.1812983
0.05238072 -0.21493644 -0.025536796 -0.16535297 0.065323524 -0.09869198 -0.09118393 0.022348937
-0.0077462485 0.048961267 -0.055293415 -0.0926761 0.01658077 -0.15345527 -0.036466274 0.069551304
-0.17276953 0.04363841 -0.22207248 -0.1338614 0.1563225 -0.10618449 -0.059872888 -0.22344114
-0.08217796 -0.12409785 -0.08704217 -0.18592447 -0.058725312 -0.0021117046 -0.10396552 -0.17324156
0.027509814 0.16679475 0.021775147 -0.061495595 0.06752161 0.022796392 -0.097821966 0.11129809
-0.13673618 -0.07798807 -0.09424098 -0.047057193 0.008683233 0.118952975 0.038182672 0.073428765
-0.16766268 0.061024435 -0.037148606 0.07318216 -0.08350369 -0.19130154 -0.026221193 0.066800915
-0.01761203 0.12035766 -0.06457683 0.039108675 -0.040057745 0.08755918 -0.012361568 0.012291485
0.0457604 0.04472905 -0.023366878 -0.24141745 0.1784263 0.027907668 0.23015054 0.012006431
-0.31651005 -0.01096399 -0.15468748 -0.23119079 -0.07417998 -0.078058094 0.084800005 -0.12616552
0.07339274 0.05746042 -0.1621402 0.11873066 0.25674397 0.11503338 -0.0043278276 0.21829127
0.055845905 -0.13502999 0.0890043 0.08714361 -0.0036114708 0.12782265 -0.26727542 0.06879404
0.07868577 -0.041347157 0.080508634 0.17924543 -0.07950017 -0.016202677 0.03745284 0.08371849
-0.15693569 0.11916324 -0.16204795 -0.051915333 0.10197667 0.00067827303 0.05717461 0.07276551
-0.0035665375 0.14818358 -0.117926806 -0.32561642 0.10270883 -0.12146785 0.017835204 0.2219391
-0.07197971 0.21871577 0.07576461 0.13570979 -0.004143766 0.09219121 0.021061696 -0.3530901
-0.0829431 0.01586671 -0.12946093 0.019405631 -0.18299358 0.17483751 -0.008608119 -0.20481554
-0.035495955 -0.13495442 0.036635183 0.0006737196 -0.026921682 0.07886002 0.0021623285 0.119316466
-0.035091903 -0.0723411 0.05817573 0.002950529 0.196241 -0.16477473 0.06848928 -0.028144145
-0.022742543 -0.12611032 0.06621043 -0.07606626 0.06728096 -0.070339546 0.08283694 -0.015650554
0.109579705 -0.16732988 0.041869856 0.07629283 0.03600325 0.02962795 0.03260448 0.04602047
0.24375238 -0.14053188 0.047737006 0.025060268 0.11628953 -0.21030527 -0.141496 0.07911266
0.097617194 0.03315049 -0.10049229 -0.017498702 0.022832282 -0.070452 -0.11691817 0.073510215
-0.018216798 -0.08134845 0.14949656 0.20331798 0.20732853 0.07275934 -0.1388556 0.047057718

bias f4 [64]
00000000: c95d e3bd d3c2 59be 5847 52be 5434 d23d
00000010: f3a3 07be 6a61 d0be 679a c73d 9c74 89bd
00000020: 797e 3dbe 1d19 b0bd 4ab2 26bd 169b 10bf
00000030: f295 65be 4289 01bf c6c2 883c 4d9e 6e3e
00000040: 887c 66be bd9b e7be 05ff a1be f018 003c
00000050: a6af d6be 953a dabd fc43 f33d f826 a7be
00000060: 020a 3fbd 6862 c7be c1bc b6be d492 d8bd
00000070: e004 cbbc 81b9 a1bd c4d8 e03d e778 323e
00000080: fee8 303e 5433 9a3e d6fd e43d b345 65be
00000090: e8b9 6b3e ba18 cebe c4e4 f1bc 687f 8dbe
000000a0: 8307 16be 355d a4be 0342 01bf 3d7d abbb
000000b0: 307c afbe ef67 acbe 0844 92be 566d 81be
000000c0: 8f14 f9be aa5f 5f3c 01e5 703e f273 0c3e
000000d0: 8953 9abe bd72 403e bbe7 66be ee20 0dbe
000000e0: 568a a8be 382b 4ebe 5209 c1bd bd4d 84be
000000f0: c2ac 11bf 8b02 613e c57f b73d 376b ccbe
-0.111018725 -0.21265726 -0.20535028 0.10263887 -0.13246135 -0.4069932 0.09746247 -0.067116946
-0.18505277 -0.0859854 -0.040697373 -0.5648664 -0.22420481 -0.50600064 0.016694438 0.23302574
-0.22508442 -0.45236006 -0.31639877 0.007818446 -0.41930884 -0.10655705 0.11878201 -0.32646918
-0.046640404 -0.38942266 -0.35690883 -0.1057488 -0.024782598 -0.0789671 0.10978845 0.17428933
0.1727638 0.30117285 0.11181228 -0.2238987 0.23020136 -0.4025324 -0.02952803 -0.27636266
-0.14651303 -0.3210236 -0.5049135 -0.0052334354 -0.34274435 -0.33673045 -0.2856753 -0.2527873
-0.48648497 0.013633648 0.23524858 0.13716105 -0.30141857 0.18793769 -0.22549336 -0.13782093
-0.32918042 -0.20133674 -0.09425606 -0.2584056 -0.5690423 0.21973626 0.08959917 -0.39925548

weight f4 [32, 64]
00000000: 05be 36bd 7f89 d83d 3dbb df3c db1c 1ebe
00000010: be0f 2bbd 95cd 3a3c 424a 87be 7375 3fbd
00000020: 9b3f 8cbd c767 79bd f799 d03c 4d6b 0ebd
00000030: 57b8 2f3d a5d6 a73b 4582 90bd bf61 9abe
00000040: be1c 9a3d 7201 88be de23 263d 8400 fc3d
00000050: d76f a8bc 6045 9dbd 7d7a b3be ad7b 9cbb
00000060: 7336 cabd 1240 d33d 42d7 773c 5b27 b3bc
00000070: 8af8 8abd e830 6e3c 79bc ddbe 29aa 0abe
00000080: 075b 89be 9274 d6be 94e7 2cbe 9c94 11be
00000090: 6f86 a5be d0bb 57be 45fe 2bbb 47a4 76bd
000000a0: ac89 3ebd 40c3 65bd 9f3f 11bd a7af 83be
000000b0: b820 403d 3e0f a03b dcf7 a73c 104b 73bc
000000c0: a39c 9e3d c483 803d 910f d4be 4bb3 c4be
000000d0: 29ca 763d 2de1 b1be 4b10 1e3d ca74 933d
000000e0: 7e44 393b 60fd a5bc f920 803d 9cd1 2abd
000000f0: e0dc 4dbd 2723 d0be 7888 5d3d 93db 00bd
00000100: 9520 b5bd c2e6 ae3c 514a a53b 273b 2ebe
00000110: 9bb8 533d c737 3ebd 2a2c d0be 08f8 553d
00000120: 1178 ebbc 1664 843d b631 d23c c2d4 173d
00000130: 61b2 94bc 5308 9f3d 7e90 9bbd f424 7cbe
00000140: 7db5 323b 0c83 37be f482 03be ac9e 583e
00000150: 6201 bcbc 5ef3 643c d689 92be 4a29 353c
00000160: 7b3e 683d 8b8f 33be 8fea 9e3b 92cf b23d
00000170: 89c9 83bb 7c4e 3fbb 969d cfbe c833 edbd
00000180: aa32 93be 186d b7be a74f 19be 53fb 02be
00000190: 8dd9 ddbe 2310 f7bd 077c c9bc 0a16 ae3d
000001a0: 4ce4 713d 8840 c5bd 2539 c4bc 8694 15be
000001b0: 91a6 833c 334f 18bd 0182 c9bd 39c0 99bd
000001c0: 3c7d 9ebd 1dea 9fbc c730 fdbd b773 debe
000001d0: 0300 113d 5e92 cbbe d4d5 b23d 187d eb3d
000001e0: b924 0dbd d852 fc3d fe93 d83d cd2c 873d
000001f0: 7c97 ec3b 0ae9 8dbe 72ce 0fbd 9a7e 52bc
00000200: a2ec 993c 376a bdbe 61c1 b8be fbd9 9a3d
00000210: 72f5 c6be 611a 20be 651e 133c 2c50 75be
00000220: 7f99 d9be 7e5a b3be d158 72be c503 9cbe
00000230: 4d9c 9ebe cc50 cbbe 2c5d 0cbc 9459 da3b
00000240: 6b66 89bc 6e58 9f3d 2a18 9cbe 333d 45be
00000250: 72b1 2fbe 12dd 9cbe f401 b53d 87db d8be
00000260: 4383 9bbe 9dc9 eabe d5ba 57bd bcd2 78be
00000270: b2ca 95bd bb6d efbd c9c3 043d ce9b 9b3c
00000280: 1e0a 66bc 7e27 dd3d 107f f5bc 3811 903d
00000290: d5c9 cd3d a306 26be 04e3 48be 2fbc ddbe
000002a0: b06a 13be 7d14 d0be 68c8 a4be 5e42 b9bb
000002b0: e93c b2be dc88 87be 1e3b 35be 166a cabd
000002c0: daec 09be 8584 b8be 2bc1 953d bb69 4f3d
000002d0: 80a6 16be ce0c a43d 0aba f03d 9282 89be
000002e0: cd03 95be 58b9 66bd af1a 99be ab97 2bbe
000002f0: 72b0 8bbe a704 b23d 684b 46bd 2504 aebe
00000300: 4011 8ebd c0a1 59bd 4e07 ac3c 8b76 93bd
00000310: 433a 15be 85e1 d9bc 3cd5 d0be 22a3 8fbc
00000320: 7bb7 8b3c 2aec 8d3d e391 83bd de4f 57be
00000330: caba 1ebd d744 523a f88c b8be 1237 53be
00000340: 28c4 0dbe a353 86bd c5fa 5abd 18dc 823d
00000350: c863 ca3d 4ce3 a83d 7388 09bf 8b39 49be
00000360: 4d31 da3d 06e6 d1bd 2dc1 8e3d 0c8f b73a
00000370: d86f a4bc db64 a43d a503 bcbe e41a 67be
00000380: c288 f6bd cf7b c1be 3f73 a93b e9da 20be
00000390: 7c52 84be 9f77 87be 4b79 103c 927a fcbd
000003a0: 5c64 67bb dfe8 14be 6a18 e13b 45cb bebd
000003b0: da38 c4bd beb3 85bc f7bd 853d 6635 a53d
000003c0: 8169 aebd 304c 01bc 59e2 a5bd 27f1 adbe
000003d0: fbff 0fbd 4e1b 85be 17c9 7f3d e702 593d
000003e0: c3a9 1cbc 6700 2b3d 7a15 253e 45f6 a53d
000003f0: 682c 0dbe 734d 2dbe f3bf 32bd a00e 2fbc
-0.04461481 0.105731 0.027310962 -0.15440695 -0.04176306 0.011401554 -0.26423842 -0.046742868
-0.06848069 -0.060889985 0.025464041 -0.0347703 0.04290041 0.005122023 -0.07056097 -0.301527
0.075250134 -0.26563603 0.04056155 0.12304786 -0.020561142 -0.07679248 -0.3505439 -0.0047754855
-0.098736666 0.10314955 0.015127005 -0.021869352 -0.06785686 0.014538027 -0.43307856 -0.13541473
-0.2682726 -0.4188581 -0.16885215 -0.14216846 -0.32329127 -0.21067739 -0.0026244086 -0.06021526
-0.046518013 -0.056094408 -0.035461064 -0.2571995 0.046906203 0.0048846295 0.02050393 -0.014849439
0.0774472 0.06275132 -0.41418126 -0.3841804 0.06025139 -0.34742108 0.038589757 0.0720001
0.0028269584 -0.02026242 0.06256289 -0.041703805 -0.05025947 -0.4065182 0.054085225 -0.031459402
-0.08844105 0.021350268 0.0050442596 -0.17014752 0.051689725 -0.046439912 -0.40658695 0.052238494
-0.028743776 0.064644024 0.02565847 0.037068136 -0.018151464 0.077652596 -0.07595919 -0.24623471
0.002726882 -0.17921084 -0.12842923 0.21154279 -0.022949878 0.013974039 -0.28620785 0.011057207
0.05670021 -0.17535226 0.004849739 0.08730997 -0.0040218276 -0.0029191067 -0.40549916 -0.11582142
-0.2874959 -0.3582542 -0.14971791 -0.12791185 -0.4333004 -0.12063625 -0.024595274 0.08500297
0.05905561 -0.09631449 -0.02395303 -0.14607438 0.016070636 -0.037184905 -0.098392494 -0.07507367
-0.0773873 -0.019520814 -0.12362819 -0.43447658 0.0354004 -0.39760107 0.08732191 0.11498469
-0.03445885 0.12320489 0.10575102 0.06600342 0.007220207 -0.27716857 -0.03510899 -0.012847567
0.018789593 -0.36995098 -0.36085036 0.07561108 -0.38859135 -0.15635063 0.008979415 -0.23956364
-0.4249992 -0.35029978 -0.23666693 -0.30471626 -0.30978623 -0.3971008 -0.008567136 0.0066635106
-0.01677247 0.077805385 -0.30487186 -0.19261627 -0.17157534 -0.30637413 0.08838263 -0.42354986
-0.30373582 -0.45856944 -0.05266841 -0.24299139 -0.07314052 -0.11690851 0.032413278 0.018995192
-0.014040498 0.10798548 -0.029967815 0.07034534 0.10048262 -0.16213469 -0.1961785 -0.43307635
-0.14396167 -0.4064063 -0.32184148 -0.0056536635 -0.34812096 -0.26471603 -0.17698333 -0.098835155
-0.13469258 -0.36038604 0.073122345 0.05063794 -0.14711952 0.08010255 0.11754234 -0.2685743
-0.29104462 -0.0563291 -0.2990317 -0.16757075 -0.27283055 0.086922936 -0.048411757 -0.33987537
-0.06936884 -0.053132772 0.020999577 -0.07200345 -0.14573006 -0.026596794 -0.40787685 -0.017533842
0.017055264 0.0692981 -0.0642431 -0.2102656 -0.038752355 0.0008021122 -0.3604505 -0.20626476
-0.13844359 -0.06558921 -0.05346181 0.06389636 0.09882313 0.082464784 -0.5372383 -0.19650857
0.10653935 -0.102489516 0.06970439 0.0014004423 -0.020072863 0.08027049 -0.3672153 -0.22568852
-0.12037803 -0.3778977 0.005171209 -0.15708508 -0.2584418 -0.2645845 0.008817981 -0.12328066
-0.0035307622 -0.14541958 0.0068693655 -0.09316114 -0.09581156 -0.01632106 0.065303735 0.080668256
-0.08516217 -0.0078917 -0.08099813 -0.33973047 -0.03515623 -0.25997394 0.062447634 0.052981284
-0.009561959 0.04174843 0.16121474 0.08103613 -0.13786471 -0.16924076 -0.04364009 -0.010684639

bias f4 [32]
00000000: 8270 243e c797 053e 24f9 e13e be56 ae3c
00000010: 2087 b83e 32bb f93c 7447 bc3e eee1 103d
00000020: 2c60 483f e04f ed3c 9bd1 e23d c9c8 543f
00000030: 7c4e 2e3e 1e09 733d 6cb1 263e 61dd 153f
00000040: 19da bc3d dde3 7b3d e69b 423f d894 f63e
00000050: 13c1 003e 0067 dc3e 6d4c 733d f2d6 f83e
00000060: 2385 093f 28a8 d83e 122f 043f 2130 db3e
00000070: cf5b ab3e 1a3c a33c a8b7 e23d ea1b 343f
0.16058543 0.1304618 0.44135392 0.021281596 0.36040592 0.03048477 0.36773264 0.035371713
0.78271747 0.028968751 0.11075135 0.83118874 0.17022127 0.059334867 0.16278619 0.5854092
0.09221286 0.061496604 0.7601913 0.48160434 0.12573652 0.43047333 0.059399057 0.4860149
0.53718776 0.42315793 0.51634324 0.42810157 0.33468482 0.01992612 0.11070186 0.70355093

weight f4 [1, 32]
00000000: 7b1c 45bc 2d7d 7e3c f74f 333e a741 e3bb
00000010: a381 1d3e 52ab b9bc e1dc 133e 51c7 b0bb
00000020: 2d17 483e f337 42bc 3111 cb3b 5421 493e
00000030: 2180 4bbb ad9c 10bc 4f13 09bc 633e 893e
00000040: 94cb 14bc 7ab4 81bc 9786 4d3e 7724 2a3e
00000050: f113 60bc 802e 123e afcc e9bb f286 2c3e
00000060: 0aa2 273e 34b3 243e 88b8 143e c2be 373e
00000070: 61d5 0b3e 5e63 bdbb fdc5 45bc 7591 283e
-0.012030716 0.015532774 0.17510973 -0.0069353166 0.15381484 -0.0226647 0.14439727 -0.005394854
0.19540091 -0.01185416 0.0061971177 0.1964162 -0.0031051713 -0.008826417 -0.00836642 0.2680541
-0.00908174 -0.015833128 0.20070873 0.16615473 -0.013676629 0.14275551 -0.007134996 0.16848353
0.16370407 0.16083986 0.14523518 0.17943862 0.13655616 -0.0057796678 -0.01207113 0.16461737
