stk-code/soccer_ai_model.pt (torch, 286581 bytes, 8 tensors)

weight f4 [128, 12]
000000 13 b5 53 3e 61 58 05 3f d7 00 b2 be 9e 14 23 3e
       0.20674543 0.5208798 -0.34766266 0.15925834
000010 a6 4c 8d be 9c ca 88 3d b4 27 1b 3d f7 ab 96 bd
       -0.2759754 0.0667927 0.03787966 -0.073570184
000020 d4 6e 47 3d 8f b4 b0 bd d8 54 f5 bd 03 59 a7 81
       0.04868968 -0.08628189 -0.11979073 -6.1473837e-38
000030 f5 e4 3a 3e a9 3a de 3e aa 63 3c be 27 d9 81 bc
       0.18251403 0.4340413 -0.18397394 -0.015850617
000040 4c 34 e6 3d 42 b5 6c 3e 60 c3 71 be e9 db c7 3d
       0.112404436 0.2311602 -0.23609686 0.097587414
000050 c8 24 0d be 2a e2 23 3d 73 bf dc 3d 76 49 89 00
       -0.13783562 0.04001061 0.107787035 1.2607816e-38
000060 17 72 8c 3e 70 d2 ba bd e5 f6 36 3f 15 d8 8d bd
       0.27430794 -0.09122169 0.7147048 -0.0692598
000070 0e 2a c3 39 42 4a 8a bd 2a bd 31 bd f5 90 1e bb
       0.00037224632 -0.06752445 -0.04339329 -0.0024195288
000080 0d dc ea bc c4 ab 2d 3e 9d 27 44 3e 42 4a 9d 01
       -0.028669382 0.16960055 0.19155736 5.7779246e-38
000090 6a 61 88 3e dd d2 fa 3e 64 f6 f0 bd 65 03 2d be
       0.2663682 0.48989 -0.11765745 -0.16895826
0000a0 c2 b8 a4 3d 6f 15 3a 3e 77 81 86 bc b7 a6 3d 3e
       0.08043052 0.18172239 -0.016419156 0.18520628
0000b0 cc 09 87 3d a2 ad 16 3e fb 91 71 3e 22 02 f3 00
       0.065936655 0.14714673 0.23590843 2.231679e-38
0000c0 23 66 c2 3e 2a eb b6 be b1 bc 97 3e a2 ab 2d 3b
       0.3796855 -0.3572629 0.29636148 0.0026500006
0000d0 5e af 03 3d a4 33 25 3c 06 ef 4a 3d 61 ab 0a 3c
       0.032149665 0.010083113 0.049544357 0.0084637115
0000e0 32 8d ac bb 54 8a 8f 3d d8 43 8d 3d f3 8e 94 81
       -0.005265855 0.07008806 0.06897706 -5.4571736e-38
0000f0 a2 6d 2b be 37 2f 18 bf 4e 67 92 bd c5 f5 a7 3c
       -0.1674104 -0.59447044 -0.0714861 0.020502934
000100 1d 73 8c 3b e2 cd f9 3c 05 ad 9a 3c 2d 28 9e bc
       0.0042861835 0.03049368 0.01888133 -0.019306267
000110 fe 89 f7 3b c2 fd ac bd 41 48 9d bd 21 1f b8 80
       0.0075542917 -0.08446838 -0.07679797 -1.6908898e-38
000120 d0 01 ef be d3 5f 08 3e 09 84 bf be df 6f 21 be
       -0.4668107 0.13317804 -0.37405422 -0.15765332
000130 16 1f a1 be 40 55 f4 bc 50 ae 53 ba c4 e3 46 bd
       -0.3146903 -0.029825807 -0.0008074986 -0.048557058
000140 7b 42 c9 b9 34 e0 8d 3b 72 ae 41 3d 79 97 31 81
       -0.0003838724 0.0043297056 0.047285505 -3.2618442e-38
000150 a6 26 00 bf c9 dc b7 3d a6 80 9b be 64 65 85 be
       -0.5005897 0.08977658 -0.30371588 -0.26053917
000160 f8 13 9e be 12 ea b1 3c d1 4f e1 3b c6 56 9e bd
       -0.3087461 0.021718059 0.00687597 -0.077313945
000170 0e b9 73 3b b7 01 4f 3d 82 80 89 3d e0 02 c0 01
       0.0037189159 0.050538745 0.06713964 7.0533786e-38
000180 cf 3c 90 3d 90 62 ae be 94 64 b7 3e 08 24 c6 bc
       0.07042848 -0.34059572 0.35818923 -0.024187103
000190 4b c2 39 3e 26 fc 30 be 86 d5 c4 3d c6 fc d9 3d
       0.18140523 -0.17283687 0.09611039 0.10643916
0001a0 3f 6d f0 bd b7 db 68 3e 99 4b 40 3e 6c 11 1b 01
       -0.11739587 0.22740065 0.18778838 2.8481503e-38
0001b0 2e 18 c3 be 99 b1 12 3f f6 81 15 be 32 0a c3 bd
       -0.38104385 0.5730224 -0.14600357 -0.09523429
0001c0 67 2a ab 3e af 7a 10 3c 33 d6 05 3e 64 b1 7e 3d
       0.33430788 0.008818313 0.13069992 0.06218089
0001d0 49 8c e0 3c c5 4e d2 bd f2 47 00 bd e7 00 b5 00
       0.027410643 -0.1026893 -0.031318612 1.6622549e-38
0001e0 ca c2 8b be e8 05 98 be 12 08 b6 3e ed 7c d9 3d
       -0.2729705 -0.29692006 0.35553032 0.10619531
0001f0 38 69 56 be 98 28 ef bd 80 08 17 3e 75 33 e4 3d
       -0.20938575 -0.116776645 0.14749336 0.11142627
000200 da 60 dd bc ce e0 68 be fc 8d 53 be fb ad 91 81
       -0.027023721 -0.22742006 -0.20659631 -5.351424e-38
000210 e6 3b a5 bd 2a 24 2d 3d 90 7e 31 be e7 f8 84 3e
       -0.08068065 0.042270817 -0.17333436 0.25971147
000220 bb 0b b9 3d 9f 11 8e bd 49 fb 82 bd ed c3 83 3e
       0.090354405 -0.06936955 -0.06395585 0.25735417
000230 d3 2d 2b bd c1 82 8f 3c b5 04 78 3d fc 88 87 00
       -0.04179175 0.017518403 0.060551364 1.2446933e-38
000240 23 61 06 3d ab 1c b2 3e 13 f5 bf be 8f 95 42 3e
       0.03280748 0.34787497 -0.37491664 0.19002365
000250 e3 72 2a be 2d b3 62 3e ca 1e 46 be b9 26 52 bd
       -0.16645388 0.22138663 -0.19347683 -0.05130646
000260 e1 01 0e 3d c3 1a 85 bd 6e 60 1f bd a8 3b a6 80
       0.03466976 -0.06499245 -0.038910322 -1.5266093e-38
000270 87 c9 9f 3e bc 1c 6b 3e 0d 1b 9f bd 25 e4 bd 3e
       0.3120844 0.2296018 -0.077688314 0.37088123
000280 6f 6d 88 be 0e 30 8e bc 16 2d 0e be 47 43 fd bd
       -0.2664599 -0.017356899 -0.13884386 -0.12366348
000290 f8 78 5f 3c 0d a5 0b 3e cd 39 0a 3d 9f d1 f1 80
       0.013639681 0.1363718 0.03374653 -2.2207552e-38
0002a0 f8 b7 db 3e 28 30 de 3e f6 df 89 be 82 2f 17 3e
       0.42913795 0.43396115 -0.2692868 0.14764217
0002b0 4b 37 78 be bb 5f ce 3c ae d8 a6 3c be 96 03 bd
       -0.24239843 0.025192132 0.020366993 -0.03212618
0002c0 c0 5c 20 3c eb 9a 87 3d 82 eb 4c 3d df 6b 35 01
       0.009787738 0.06621345 0.050029285 3.3321843e-38
0002d0 b5 08 10 be 86 e4 26 3f 15 a6 65 be 99 39 9f 3e
       -0.14065821 0.6519245 -0.22426637 0.3109863
0002e0 ee 3c 89 be 06 cc 3a 38 51 d3 95 3d 52 03 06 bd
       -0.26804298 4.4535867e-05 0.07315696 -0.03271801
0002f0 db 93 13 3b d6 be 2d be 04 e8 37 be 0a 18 31 01
       0.0022518549 -0.1696733 -0.179596 3.2527013e-38
000300 a5 d7 9f 3e 88 a6 00 3f 49 16 2d 3f de a0 9b bd
       0.3121921 0.50254107 0.6761213 -0.07599042
000310 89 24 ad bd bc bf 95 bd 5f 80 42 3c f8 e9 80 ba
       -0.08454234 -0.07311961 0.011871426 -0.0009835353
000320 6e ba 22 3b 6a bf 05 3d ef 02 f8 3c a1 6c 86 81
       0.002483036 0.03265325 0.030274836 -4.93797e-38
000330 74 54 3c 3e ba 0e a8 be d0 64 60 3d 8d b1 a5 be
       0.18391591 -0.32823735 0.054783642 -0.32362023
000340 b1 59 a4 3d c8 64 1f 3e b3 dd 73 3e 3a 9c 19 3e
       0.0802492 0.15565789 0.2381504 0.15001002
000350 b1 c6 be 3d f4 08 2b be c6 b1 f4 bb f3 bc 85 81
       0.09315241 -0.16702634 -0.0074674813 -4.912761e-38
000360 79 4f 6a bf 49 61 d3 3b 1b 9b 22 3e c1 27 8f bc
       -0.91527516 0.0064508063 0.1587948 -0.01747501
000370 b7 a7 7d bc 2e 9a 96 ba 62 d6 65 3b 98 ce 7d bb
       -0.015481881 -0.0011490041 0.003507041 -0.0038727876
000380 ed 05 f0 b8 28 96 b5 ba b4 8f 4f 3a 4b 09 18 80
       -0.000114451956 -0.0013853954 0.0007917837 -2.207386e-39
000390 7f ea 88 3e 1c 83 ed 3d 5e 5a 96 3c 30 ae d8 3e
       0.26741406 0.11597273 0.018353637 0.42320395
0003a0 ee 76 08 be 63 aa 08 be 33 a9 51 be 30 40 5d 3d
       -0.13326618 -0.13346247 -0.204747 0.054016292
0003b0 e2 21 4a bd 96 0d 7e 3d 6a 39 ba 3d 72 52 af 81
       -0.04934872 0.062024675 0.09092982 -6.440315e-38
0003c0 7b fc 59 bd 56 47 2e bd e6 a6 52 3e 88 f8 8b be
       -0.0532193 -0.0425485 0.20571479 -0.27338052
0003d0 e3 50 8f 3e ff 8e a8 3e 06 b0 87 bd 1f af b6 3d
       0.279914 0.32921597 -0.06625371 0.089201204
0003e0 42 36 11 3e 1c 05 96 3a fb d0 81 3d 68 ff 0a 80
       0.14180854 0.0011445615 0.06338688 -1.009977e-39
0003f0 55 3e 8b 3c 2f 4f 86 be f5 74 c9 be fb 35 b7 bd
       0.016997496 -0.26232287 -0.39347044 -0.08945843

bias f4 [128]
000000 10 96 5c be 65 3e 04 bf e9 da cf bd f5 c2 32 be
       -0.2154162 -0.51657706 -0.10149176 -0.17457183
000010 c3 51 4d bd 1c d6 c5 3d 82 1d a0 be 65 5c 80 be
       -0.050126802 0.09659979 -0.31272513 -0.2507049
000020 ab 39 ac be c6 41 ba be 86 42 b9 bd f2 c8 f5 be
       -0.33637747 -0.36378306 -0.090458915 -0.48004872
000030 06 0c a6 be e4 c1 fc be 62 78 40 be 3f eb 38 be
       -0.32431048 -0.49366677 -0.18795922 -0.1805849
000040 c4 0f 58 be 6a 12 cd be e6 1c 0b be f5 84 cc be
       -0.21099764 -0.4005311 -0.13585243 -0.39945188
000050 a0 ce c4 be 7e 0b c3 be b4 90 6d be 37 21 04 bf
       -0.38438892 -0.38094705 -0.23199731 -0.5161318
000060 7b 16 fb bd 25 c8 ec be fd 90 e3 be 78 d0 71 be
       -0.12260147 -0.46246448 -0.44446555 -0.23614681
000070 3d cc 00 be bc 61 c3 be 4f d8 7d be f5 54 c6 be
       -0.1257791 -0.38160503 -0.24789546 -0.38736692
000080 10 b1 bf 3c 59 5c 2f be e3 d9 9a be 56 7b ac be
       0.02339986 -0.17125072 -0.3024436 -0.33687848
000090 84 b4 72 be b3 38 52 be 69 f7 e0 bd 5f e6 c9 be
       -0.23701674 -0.20529442 -0.1098469 -0.39433572
0000a0 93 92 8f be 58 61 4a be 4d 93 e7 3d 56 19 6a be
       -0.28041515 -0.19763696 0.11307392 -0.22861227
0000b0 74 95 9c be 3c fe c9 bd be 0b a7 be 3e fa ed bd
       -0.30582774 -0.098629445 -0.32626146 -0.116199955
0000c0 d3 99 d7 be 0b 35 c4 be 71 3e f2 be d8 6a 8b be
       -0.42109546 -0.3832172 -0.47313264 -0.27229953
0000d0 d0 9d 7f be 3b de 47 be d3 fc 79 be 8d b3 b5 be
       -0.24962544 -0.19518368 -0.24412851 -0.3548855
0000e0 7f e6 d5 bd 54 24 7f be 50 c1 fc bd 3e fe dd bd
       -0.10444354 -0.24916202 -0.12341559 -0.108395085
0000f0 91 6f 7f be c6 3f a7 be c7 9e 55 be a1 49 72 be
       -0.24944903 -0.32665843 -0.2086135 -0.236609
000100 ed 10 85 be a4 18 af be a4 53 a0 bd 6f c0 f7 bd
       -0.25989476 -0.34198487 -0.07828453 -0.12097251
000110 22 78 a0 be e0 a9 b9 bd fe bf bb be 08 8e d2 be
       -0.31341654 -0.09065604 -0.36669916 -0.41123986
000120 00 7e 18 be 65 ef 66 be 71 43 3b be 0f 87 0b bf
       -0.14891815 -0.2255226 -0.18287446 -0.5450296
000130 ab 2c 9a be ce 9e e5 be 53 44 63 3c f1 42 e1 bd
       -0.30112204 -0.4484772 0.01387127 -0.10999096
000140 ec 66 a8 be 48 89 91 be 3d 31 f8 be 37 24 a3 bd
       -0.32891023 -0.2842505 -0.48475066 -0.07965892
000150 43 0f 3b be 50 5b 33 bd 52 36 5e be 68 1d 30 be
       -0.1826754 -0.043788254 -0.21700409 -0.17198718
000160 c0 82 ef bd 0e 00 d8 be 49 f7 c5 bd 8f 31 79 be
       -0.116948605 -0.42187542 -0.096663065 -0.24335311
000170 1b 27 a0 bd 36 d6 ba be 30 0a 12 be 50 73 14 bf
       -0.07819959 -0.36491555 -0.14261699 -0.5798845
000180 66 1e b9 bd f3 d5 a0 be 84 12 d0 bd c9 91 94 be
       -0.09039001 -0.3141323 -0.101597816 -0.29017475
000190 24 6a 38 be 76 65 96 be 98 be 9a be 1a fd 86 be
       -0.1800924 -0.29374284 -0.30223536 -0.26364976
0001a0 55 ea 2e be 36 68 03 bf 63 bc 03 be f0 3f 90 be
       -0.17081578 -0.5133089 -0.12864833 -0.2817378
0001b0 c2 f7 60 be 8b fd e8 bd 36 ea a3 bd ce ec b4 be
       -0.21969512 -0.113764845 -0.080036566 -0.35336918
0001c0 3f 3a ba be 04 63 40 be e8 a2 8f be 53 3e 33 be
       -0.36372563 -0.18787771 -0.28053975 -0.17504244
0001d0 89 43 e0 be 65 bd c4 be 3f 34 5e be eb 33 22 be
       -0.43801525 -0.38425747 -0.21699618 -0.15840118
0001e0 07 77 cf be cc c7 8a be f9 c2 c4 be a4 8a ea bd
       -0.40520498 -0.27105558 -0.38430002 -0.11452225
0001f0 07 68 cd 3d bc bc 05 be 3c 47 c4 be ac ff 14 be
       0.10029607 -0.13060278 -0.38335598 -0.14550656

weight f4 [256, 128]
000000 1d 97 26 bd ba 41 c4 bd fe 71 a4 bd 3f e0 cd ba
       -0.040671457 -0.09582849 -0.08029555 -0.0015707089
000010 89 92 f5 3c 2b 3f 7d bd ca 97 2c bd 10 0d 0a be
       0.0299771 -0.06182782 -0.042136945 -0.13481545
000020 ae 50 33 3e 9f 1d d4 bc 9a ab 20 be 44 76 c0 bb
       0.17511246 -0.02589303 -0.15690461 -0.0058734734
000030 90 f2 a4 3d 08 82 8d bd bf 3b 5a 3c a4 c3 83 bc
       0.080540776 -0.06909567 0.013319909 -0.0160845
000040 24 16 df bc 14 12 71 bd 08 2a 9b bb 47 bd b7 3d
       -0.027232237 -0.05885513 -0.004735235 0.08971649
000050 d4 f6 86 bd c3 0a 23 be 81 f5 16 be 45 8b 8d 3e
       -0.065900475 -0.15922074 -0.1474209 0.27645317
000060 a5 52 40 ba 3a c7 da 3d 87 ca c5 bd df 64 87 3d
       -0.0007336534 0.10682531 -0.0965777 0.066110365
000070 62 c7 6d 3d bb 5d 04 be 19 d0 ed 3d 5e df 09 3e
       0.058051474 -0.1292638 0.11611957 0.13464114
000080 aa 79 08 3d 3d 5a 1b 3c 78 06 99 be b4 64 fa bd
       0.033319153 0.009481964 -0.29887748 -0.12226239
000090 06 ba fc 3d 75 d8 a7 3d 39 4e b1 3d 34 a1 ba 3d
       0.12340169 0.08195583 0.08657498 0.09112778
0000a0 a6 03 03 bd 8a 1f 0f 3d a2 9e 94 bd 75 14 98 bd
       -0.0319859 0.034942187 -0.07256819 -0.07425777
0000b0 0a 3a 9f 3d 8b ab e8 bd 78 f6 3c be d4 39 fc 3d
       0.07774742 -0.11360844 -0.18453395 0.12315717
0000c0 39 36 cb 3b 28 98 2f bc 30 b6 04 be cb 2f 7f 3d
       0.006201532 -0.010717429 -0.12960124 0.06230144
0000d0 12 b6 a6 3d 1e 6b 4d bd 85 9f 59 be 87 b3 c0 3e
       0.08140196 -0.050150983 -0.21252258 0.37636968
0000e0 83 be a5 bc 24 db 0f be 3a 68 00 bd ed d4 9f be
       -0.020232445 -0.1404844 -0.0313494 -0.31217137
0000f0 67 4a de 3d 52 13 6d 3d 09 15 3c 3d 5e b5 80 3d
       0.10854035 0.057879753 0.0459185 0.06284593
000100 53 c2 fa 3d 0d 6a 95 3d 22 c8 da bd 58 c9 85 bd
       0.12244096 0.07295618 -0.106827036 -0.06532544
000110 e4 af c4 bd 7d 68 ba bb a8 62 d0 3d 2c 85 ae 3d
       -0.09603861 -0.0056887255 0.10175067 0.08521494
000120 00 8d c3 bd 59 9c 01 3e 99 7d 9f 3c 2d 61 ba bd
       -0.09548378 0.12657298 0.01946907 -0.09100566
000130 71 ab 45 3e a5 4e df bd da 8a 73 bd d0 64 94 bc
       0.19303681 -0.10903672 -0.05945859 -0.018114477
000140 ce 4a 3c be eb a9 12 3c 46 cd b2 bd 47 9a 43 be
       -0.1838791 0.008951644 -0.08730559 -0.19101821
000150 d4 bb 32 3d c1 9d a4 3d 38 84 c2 bd 20 ef fa 3d
       0.043636158 0.08037902 -0.09497875 0.12252641
000160 a3 37 b5 bb 8f f9 c4 3d 2e 8d 1a 3d a9 36 64 be
       -0.005530314 0.09617912 0.037732296 -0.22286476
000170 eb a2 fa bb cb 39 be 3c 7b 9f 54 bc de 19 06 bc
       -0.007648816 0.023220917 -0.012977476 -0.008184878
000180 8a 9d 5a be 0f 52 ba bd 61 02 0c bd 25 8a c9 3d
       -0.21349159 -0.09097683 -0.034181956 0.09840802
000190 54 b7 9b bd 20 09 8a 3b db 17 db bc 5a b7 51 3e
       -0.076033264 0.0042125136 -0.026744774 0.204801
0001a0 47 dd 06 be 8b 92 72 bc 5c ab 95 bc 5d b4 52 3e
       -0.13170348 -0.014805446 -0.018270187 0.20576616
0001b0 ab ca ea 3c e4 d1 96 bc 02 ca 8b 3c b7 d9 2e bc
       0.028661093 -0.01841063 0.017064098 -0.010672024
0001c0 2e 7d b7 3d 96 f8 72 bd a5 f6 a2 bc 43 be 0b 3c
       0.08959423 -0.0593191 -0.019893 0.008529249
0001d0 fd 1c 80 bd d2 50 f8 3c 4b e0 fd bd a1 89 88 3e
       -0.06255529 0.030311976 -0.12396296 0.26667503
0001e0 47 68 e6 bc 21 d5 2e 3e 63 b4 9b be d0 7c 8e 3d
       -0.028125895 0.1707349 -0.30411062 0.069574
0001f0 3c 97 76 be 74 fb 6f 3d a7 c6 19 be f6 c3 dd bd
       -0.24081129 0.058589414 -0.15017186 -0.10828392
000200 58 b5 5c be e0 66 20 3d a5 d7 90 bd 7b d2 45 3c
       -0.21553552 0.03916061 -0.07072381 0.012074108
000210 c4 55 92 be dd ce 27 be d3 af 12 be 15 99 07 be
       -0.2858106 -0.16387506 -0.14324884 -0.1324199
000220 2d 2b 1c bd 97 ef 4a be 2f 0b b0 bc 7e fa ec bd
       -0.038127113 -0.19817959 -0.021489708 -0.11571215
000230 37 b7 23 3e d0 c6 ac bc 06 dc 19 be 8b 2b 7f 3d
       0.1598786 -0.021090895 -0.15025339 0.062297385
000240 d3 a1 05 be fe 07 33 bd fe 6d 4a be a2 9e 20 3d
       -0.13050012 -0.043708794 -0.19768521 0.039213784
000250 b3 70 1f be 45 12 5e be 02 15 25 be 79 d2 2b bd
       -0.15570335 -0.21686657 -0.16121295 -0.04194877
000260 9c 50 49 be d0 aa 6c 3d 25 3d 51 bd c8 d3 ab 3d
       -0.19659656 0.057780087 -0.051083703 0.083900034
000270 99 fe 14 3d f0 7f c9 bc 12 65 74 bb 6f 5b 14 3d
       0.036375616 -0.024597138 -0.0037291688 0.03622001
000280 f2 59 f2 bc dc d5 57 bd 45 fc 35 be 02 21 74 be
       -0.029583905 -0.052694187 -0.17772014 -0.23840716
000290 33 88 2d 3d a7 9b cf 3d e6 20 e7 3c 5a dd b1 3c
       0.042366218 0.1013711 0.02821393 0.021711994
0002a0 99 16 5c 3c 35 bc 94 3d 64 dc 4e be c1 90 55 be
       0.013433122 0.0726246 -0.2020126 -0.20856
0002b0 72 a1 d3 bd e4 90 55 bd 7d c9 c3 bc 57 06 b4 bb
       -0.103335276 -0.05214013 -0.023899788 -0.00549392
0002c0 61 72 cd 3c ee 6b 32 3d 19 ff 46 3e c3 ce 3b bb
       0.025078954 0.04355996 0.1943325 -0.0028657175
0002d0 fe 0f 12 3d e0 1f 08 bd c2 5e da bc de e8 34 3e
       0.035659783 -0.033233523 -0.026656512 0.17666957
0002e0 1c e4 81 be 3f 77 e9 bd e6 ff a3 3c 62 89 53 bc
       -0.25369346 -0.113996975 0.020019483 -0.012911173
0002f0 17 09 72 3d 23 4e 66 3d 37 d3 24 bd 69 99 92 bb
       0.0590907 0.05622686 -0.040240493 -0.0044738543
000300 2b b5 d7 bd d8 7c 5a 3d 1b 66 d8 be 8c 2d 54 be
       -0.10532602 0.053341717 -0.422654 -0.207205
000310 6b a3 cb bc 23 51 3d be 25 c4 91 3d 16 f6 30 3e
       -0.024858197 -0.18487982 0.0711749 0.17281374
000320 e8 ca 95 be f8 34 fa 3b ba 3b 3b be a1 25 09 bc
       -0.29256368 0.007635709 -0.18284503 -0.008370788
000330 cc 0f a9 bd 74 f3 3c be e5 f2 73 be 6b 92 0e be
       -0.08254966 -0.18452245 -0.23823126 -0.13923042
000340 9f 5e 64 bd cd d1 7b 3d a0 d1 89 bb ab 3a d5 bc
       -0.0557543 0.06147938 -0.0042058975 -0.026028952
000350 e7 d3 5b 3c 36 70 69 be 68 76 fe 3d 0b f7 ae 3d
       0.013417221 -0.22796711 0.12424928 0.085432135
000360 6a 2c 06 be 12 2e a6 3c 2d 4e 31 be 8a cb 4a be
       -0.1310288 0.02028564 -0.17314978 -0.19804206
000370 b6 c8 32 bd 7d 04 5d 3d 05 21 84 bd 1c 08 4f bb
       -0.043648444 0.05395936 -0.064516105 -0.0031590527
000380 28 19 2f be 24 81 bc bd 97 96 2c be 21 da e6 3d
       -0.1709944 -0.09204319 -0.1685432 0.112720735
000390 27 dc 8d 3d 6a 22 89 3e 49 c6 fd 3d a0 da 80 3d
       0.06926756 0.26784068 0.123913355 0.062916994
0003a0 6d 7b 23 bd 5a d2 21 be 20 0e 1f bc 38 63 e1 3c
       -0.03991263 -0.15802899 -0.0097079575 0.027513131
0003b0 c5 6b 4e bd 17 7d 2d be a9 6a b7 3d 16 07 bc bd
       -0.050395746 -0.16942249 0.08955891 -0.09181039
0003c0 88 07 90 3c de a9 be bc b6 42 55 be 18 01 a3 bc
       0.017581716 -0.023274358 -0.2082623 -0.019897982
0003d0 8e fe 2a bc 95 28 bb 3d ee 4f 95 3c fd 58 22 3e
       -0.010436667 0.091386 0.01822659 0.15854259
0003e0 6b cb 00 be 3c 56 2f be 9e d6 ab bd c9 70 82 be
       -0.12577598 -0.1712274 -0.08390544 -0.25476673
0003f0 59 9c 55 bd b9 ab 1f bd bf b8 ac bd 51 85 f5 bd
       -0.052151058 -0.038982127 -0.08433675 -0.11988319

bias f4 [256]
000000 9b 88 04 3d 59 71 bd bc 09 83 1a 3e 83 13 a4 bd
       0.03235684 -0.023125337 0.15089048 -0.08011534
000010 29 ba bb bd 5d a6 37 be 07 d2 b7 3d 97 1d bd 3d
       -0.091663666 -0.17934556 0.089756064 0.092341594
000020 7a 39 6e 3d 3c 8d 0a bd 5e e4 77 3d 48 9a 2d bd
       0.058160283 -0.033826098 0.060520522 -0.042383462
000030 1a 39 fc bd 3e fd 92 bc 46 91 80 bc 82 8b f1 bd
       -0.12315579 -0.01794302 -0.015694272 -0.11794187
000040 61 80 88 bd 0a 5b 83 bd 36 c1 ee bb 6f 9f b9 bd
       -0.06665111 -0.06413849 -0.007286216 -0.09063613
000050 25 08 fd bc 96 f5 a4 bd de 4a 89 bc f6 cb b7 3b
       -0.030887673 -0.08054654 -0.016759332 0.005609031
000060 55 a3 2b 3b 37 39 61 bd 64 cf 05 be 65 f7 96 3d
       0.0026189883 -0.054986205 -0.13067394 0.073714055
000070 5b 7a 65 bc 73 c9 81 be 1e 3d 34 bd 55 54 b4 bd
       -0.014006223 -0.25349006 -0.0440036 -0.088051476
000080 f8 4c 9d 3d 80 11 8c bd 89 6f 88 3b cd 4a 1b bd
       0.07680696 -0.06839275 0.0041636867 -0.037913132
000090 45 3d 92 bc 8a c2 b4 3c a8 a3 d8 3d d4 b1 4a 3c
       -0.017851481 0.02206542 0.1057809 0.012371499
0000a0 a2 59 1c be 3e 95 e8 bd 03 f4 11 be 9f 87 01 3e
       -0.15268567 -0.11356591 -0.1425324 0.12649392
0000b0 50 0f b7 bd 33 7e 25 3c 42 b5 57 bd a0 13 a1 3d
       -0.089384675 0.010100889 -0.052663095 0.07865071
0000c0 59 6d 81 be 61 25 20 3d 29 5c 5d be 70 04 94 3d
       -0.25278738 0.039098147 -0.21617188 0.07227409
0000d0 88 a6 73 3d f4 99 34 bd cb 54 5e be d1 6f 45 3d
       0.05948499 -0.044092134 -0.21712033 0.04820234
0000e0 e1 9e 3d bd a5 8d 94 bc b4 2e de bc e2 44 71 3c
       -0.046294097 -0.018133948 -0.02712188 0.014725896
0000f0 21 3d 03 3b e4 f7 b9 3a ab b8 53 bd bf d4 6c 3d
       0.002002545 0.0014188257 -0.051689785 0.057820078
000100 c6 c6 3f be 67 18 94 bd 92 99 c2 bd 54 ec d7 bd
       -0.1872817 -0.07231217 -0.095019475 -0.10543123
000110 c0 f9 19 3e 92 d9 64 bc 99 ed b8 3d 0b 8a 51 be
       0.15036678 -0.013967888 0.09029693 -0.20462815
000120 58 7d 4c 3d 9a f9 07 be 1d 69 13 3c 7b ec 32 be
       0.049924225 -0.13278809 0.008997229 -0.17473023
000130 5b 7c 25 be 48 54 c1 bd 64 c6 10 be 20 c0 34 3c
       -0.16160719 -0.094399035 -0.1413818 0.011032134
000140 ee 9a de 3d 7a 98 a0 bd c6 87 9f 3d ec 7b 25 3e
       0.10869394 -0.078415826 0.077895686 0.16160554
000150 12 40 33 be 4e 8d 23 bd f8 95 75 3d 15 1a 80 be
       -0.1750491 -0.03992968 0.059957474 -0.250199
000160 42 b9 6d bd a9 3e eb bd 66 e5 ec 3b dc 5f 8f 3d
       -0.058038004 -0.11486561 0.007229495 0.070007056
000170 0a 90 69 3d 02 9f e2 3c 5f 5c 1e 3d 76 3a 36 be
       0.057022132 0.027663711 0.03866231 -0.17795739
000180 b8 62 e9 3b 0b d4 b5 3d 91 a2 25 bd c3 90 9f bd
       0.007122364 0.088783346 -0.04043824 -0.07791283
000190 2c 7f 46 b8 f3 a8 3a bd a2 d1 8f 3c 40 39 92 bd
       -4.7325317e-05 -0.04557128 0.017556015 -0.07139826
0001a0 4d 5b fc 3c 98 a4 10 be ea 49 b2 3d 07 29 89 3c
       0.030805254 -0.14125288 0.08705504 0.016743196
0001b0 a1 e3 33 3d b6 77 66 bd 43 4c 9b bd 82 fa 4b 3d
       0.043918256 -0.05626651 -0.07582905 0.04979945
0001c0 67 a8 d1 3c 05 7a a7 3d c0 b8 ee 3d 93 23 cb 3d
       0.025592996 0.0817757 0.11656332 0.099188946
0001d0 4a 0f 3d bd 5e 0b 90 3d 0c 38 44 3d 45 e7 18 be
       -0.04615716 0.07033418 0.047905013 -0.14931972
0001e0 54 9b 42 bd 93 c5 0c be c3 51 80 3d 1c 01 8f 3d
       -0.047511414 -0.13747244 0.06265595 0.069826335
0001f0 03 f0 0e be 0c 00 84 bd a2 db db 3c 2d 0e cd 3c
       -0.13958745 -0.064453214 0.026838128 0.025031174
000200 05 01 18 3b bf 43 c6 3d 0d 78 05 bd 7f d3 9e 3d
       0.0023193967 0.0968089 -0.032585192 0.077551834
000210 5b 22 b4 bd bb 5a 7d ba 71 aa 2d 3e 98 c1 fe bb
       -0.08795615 -0.0009664704 0.1695955 -0.007774543
000220 d8 74 f3 bb 87 81 92 3d 09 5a 08 3e dd 69 42 be
       -0.0074297003 0.07153612 0.13315596 -0.18985696
000230 19 ef 50 be 04 7b 9c bd 77 bb 85 bc ea 59 c7 3d
       -0.20403709 -0.07640651 -0.016324742 0.097339466
000240 35 c5 c2 3d 14 ae 0c bd 4d ba 13 3e 14 17 15 be
       0.095102705 -0.0343457 0.14426537 -0.14559585
000250 8e 29 0e be a0 66 ae 3d 84 07 c9 bc 1f 21 80 3d
       -0.1388304 0.08515668 -0.024539717 0.06256317
000260 25 b5 9e 3c fb c8 be 3b 9a f0 3b be 07 0e a1 3d
       0.019373486 0.0058222986 -0.18353501 0.07864004
000270 c1 f4 4b bd 18 43 9c bc c3 67 4e 3c 5c b6 d9 bd
       -0.049793962 -0.019074962 0.012597981 -0.106304854
000280 47 7a f2 bd 29 bc e2 bd 21 f0 c9 bc c5 43 07 be
       -0.11839729 -0.11071045 -0.024650635 -0.13209446
000290 1d fc c0 3d ea 94 a0 bd 69 fe 3a bd 93 7d de bd
       0.09423087 -0.07840903 -0.04565278 -0.10863795
0002a0 b1 ea c8 3d cf 6f 18 be 40 d5 af 3d 13 4d 36 3e
       0.09810389 -0.14886402 0.08585596 0.17802839
0002b0 8d b2 12 3c 5b 25 32 bb 1e 8c 0b 3c d7 92 87 bd
       0.008953703 -0.002718291 0.008517293 -0.06619804
0002c0 9c e3 c2 3b f3 dd a7 bd 7b cd 8d 3c 55 51 d8 bd
       0.0059475433 -0.0819663 0.017309895 -0.10562388
0002d0 c6 79 bc bc 25 77 36 be 6a 97 4d 3d e6 82 8f bc
       -0.023007285 -0.17818888 0.050193228 -0.017518472
0002e0 03 d0 62 bd bd 75 ce 3d 62 20 d6 3c 68 70 0b 3e
       -0.055374157 0.100810505 0.026138488 0.13617098
0002f0 ae 2a 0b be 48 7c 47 3d d5 c4 b5 bd d2 07 39 3c
       -0.135905 0.04870251 -0.08875433 0.011293368
000300 75 2e eb bc 2f 7e 7b bd 78 2d 1c bd 09 be 70 3d
       -0.028708676 -0.061399635 -0.0381293 0.05877498
000310 59 b4 f9 bd db 15 27 be 58 ee c1 3d 45 21 df bd
       -0.12192602 -0.16316931 0.094692886 -0.108950175
000320 99 54 ea bd 21 57 10 be 3e 30 e3 bd 20 67 f4 bc
       -0.11441917 -0.14095737 -0.11093186 -0.02983433
000330 08 bc 4c 3e dd a7 88 be 77 a8 de 3d 3d 2f 05 3e
       0.19993603 -0.2669057 0.10871976 0.13006301
000340 d5 62 2f bd c7 29 9e 3c a4 ae 16 3e a0 48 29 bd
       -0.042818863 0.01930703 0.14715058 -0.041329026
000350 65 50 65 be 12 55 f6 bd e5 63 f0 3d 9c c7 69 bc
       -0.2239395 -0.120279446 0.11737803 -0.014268782
000360 b2 a0 84 3c 60 4c 35 bd 12 a1 10 3c 01 fb 93 3d
       0.016189907 -0.04426229 0.008827465 0.072256096
000370 80 00 38 bd 87 b5 0b 3e 82 f2 e6 3d 72 f0 8f be
       -0.04492235 0.13643466 0.112767234 -0.28113133
000380 45 da d0 bd 2d 4b 31 be 03 fd 27 bd d0 17 31 be
       -0.101978816 -0.17313834 -0.041012775 -0.1729424
000390 da 7e 1c bc 91 b9 10 be 61 f4 32 3d b2 70 a4 3d
       -0.009551728 -0.14133288 0.04369009 0.080293074
0003a0 1c b9 78 3b 01 a6 25 be f2 49 c1 3d 68 c8 c8 bd
       0.003795213 -0.16176607 0.09437932 -0.098038495
0003b0 cb b7 36 be 3d f1 30 3e 37 eb 3e bd b2 e4 54 3d
       -0.17843549 0.17279525 -0.046611037 0.051975913
0003c0 48 f4 cb 3b 4e e5 bd 3d b4 39 b9 bd b5 a7 01 bd
       0.006224189 0.09272252 -0.09044209 -0.03165408
0003d0 40 5b 3b 3d 37 74 8c 3c 88 ef c4 3c 6f c5 57 3d
       0.04574132 0.01714526 0.024039999 0.05267852
0003e0 5c 91 a2 ba a0 e4 8a 3a ad 20 2f 3d 45 0d 60 bc
       -0.001240294 0.00105967 0.04275577 -0.013675039
0003f0 fe b0 c2 3d 1b fa 13 be 9c 09 e3 3c eb 11 a1 bd
       0.09506415 -0.14450876 0.027714543 -0.07864746

weight f4 [128, 256]
000000 1a 47 84 3e fe 3b 92 bd 31 be 41 3d b3 ec 77 3d
       0.25835496 -0.07140349 0.04730052 0.06052847
000010 58 38 00 3e 4f e1 2f be 74 17 c5 bc b6 3f 42 3c
       0.12521493 -0.17175792 -0.024059035 0.01185601
000020 60 e2 d3 bc 8b cc 2a bd cc a9 81 bd 8c b9 03 3e
       -0.02586478 -0.041698974 -0.06331214 0.1286375
000030 50 12 f4 bd f0 0e 19 bd 7a 2f d4 3d 0f 62 34 3e
       -0.11917555 -0.03736776 0.10360618 0.17615531
000040 57 c2 57 bd 0f 5d 80 bd 78 52 ea 3c dd f3 b3 bb
       -0.05267557 -0.062677495 0.028603777 -0.0054917173
000050 40 d7 f5 bd 61 e9 06 bd 7c 99 27 3d 79 6c 20 be
       -0.12003946 -0.03293741 0.04091786 -0.15666379
000060 54 a8 24 be ec c6 4e 3b 47 6c 46 3d c5 e2 b6 3d
       -0.16079837 0.0031551672 0.048443105 0.089299716
000070 1d 42 5a 3c b5 72 2c 3e 15 2f 0b 3d 50 73 58 3d
       0.013321427 0.16840632 0.033980448 0.052844346
000080 4e 62 81 3d 8c 00 36 bc d8 ef 1c be 4f c2 4c 3e
       0.06317578 -0.011108529 -0.15325868 0.19995998
000090 63 f7 35 3d 7d 22 05 be f0 1c 15 be 5f d8 82 be
       0.04442538 -0.13001437 -0.1456182 -0.25555703
0000a0 65 c9 e0 bd 04 58 73 bd ce 15 48 3d 34 4f 17 bc
       -0.10975913 -0.05941011 0.04884892 -0.009235192
0000b0 ab 72 7b 3d 88 e7 95 3e 08 6a 10 3e d0 32 e0 bd
       0.061388653 0.29278207 0.14102948 -0.10947192
0000c0 51 c0 13 3d 64 40 a5 3d 26 cd 41 39 bc 9d 36 3e
       0.03607208 0.08068922 0.00018482338 0.17833608
0000d0 3d e1 db bb 9d e5 75 bd a5 9b 2e 3d c7 93 44 3d
       -0.0067102 -0.06003343 0.042628903 0.047992494
0000e0 60 4a 58 be 13 04 a1 3d bd bd e5 bc cd 46 cc 3d
       -0.21122122 0.07862105 -0.028044576 0.09974442
0000f0 c0 16 74 be 4b 16 fa 3d 22 c1 a7 3c 5c 4a 4d 3d
       -0.23836803 0.12211283 0.020477835 0.050119743
000100 73 cf 78 3d e8 38 9e 3d 54 f6 56 3d 22 94 9c 3d
       0.060744714 0.07725698 0.05248101 0.076454416
000110 1b 2e 93 3d c6 13 12 3e d5 ed dd 3d 7c 3a 9d bd
       0.07186528 0.14265355 0.108363785 -0.07677171
000120 83 89 a7 bd 15 68 14 3e 31 d2 55 3d de 2e 3b 3c
       -0.08180525 0.14492829 0.052202407 0.011424748
000130 3c 78 ec 3c d7 c9 8c 3b a7 ed db 3d 9e bc 54 bd
       0.028865926 0.004296522 0.10738688 -0.051937692
000140 07 62 ab 3d 7b 9f 13 3d ec 52 0b 3e c9 1a 45 3e
       0.083683066 0.036040764 0.13605851 0.19248499
000150 6d bd c0 3d 69 b1 cc bd 41 95 e1 3d f5 6e 0a 3e
       0.0941113 -0.09994776 0.11014796 0.13518889
000160 12 ae f2 bb d6 a7 8a bc 6c 7d f0 bc dd b3 0d 3c
       -0.0074060047 -0.016925734 -0.02935668 0.00864884
000170 e1 65 77 3d 82 4c be 3c 04 20 67 3d 92 4c 6c 3d
       0.060399894 0.023229841 0.056427017 0.05769021
000180 eb 17 1b 3e 73 ff bc bc 14 2e a2 3d 8f 47 56 3e
       0.15145843 -0.023071026 0.07918945 0.20925735
000190 e2 3c 15 3d 27 90 40 3d a3 c5 e2 bd 69 84 90 3e
       0.036435015 0.047012474 -0.110728525 0.2822602
0001a0 77 66 36 bb 2f 32 73 bc 89 9c 81 3d 2d 25 89 3d
       -0.002783207 -0.014843508 0.06328685 0.06696544
0001b0 17 e5 b8 bd dc cd 81 3c a2 69 01 bc cd e6 94 3d
       -0.090280704 0.015845232 -0.00789872 0.07270584
0001c0 e7 16 90 3d d6 11 2c 3e 8b 69 22 be 3a 5b 21 3e
       0.07035618 0.16803679 -0.15860574 0.15757456
0001d0 ae 92 0b 3e 35 50 d6 bc b0 cd c4 3d 13 1b f3 3d
       0.13630173 -0.026161293 0.09609544 0.11870398
0001e0 36 88 ea bd 69 98 a3 3c 8c 4d 1e 3d 1c 51 39 3c
       -0.114517614 0.019970136 0.038648173 0.011310842
0001f0 ad 3f ac 3d b1 34 0f bd 41 fc 6a 3d 06 f0 5f bd
       0.08410583 -0.03496236 0.057369474 -0.054672264
000200 57 cd 71 bd 4c aa 6b be 96 e5 f9 3c 53 88 78 3d
       -0.059033718 -0.23014182 0.030504983 0.060676884
000210 4f bf 92 3d fb 0b 9f 3d 23 d8 90 3a ea ae c6 bc
       0.071653955 0.07765957 0.0011050742 -0.024253327
000220 69 8a fe bc 29 94 e8 bd e8 d6 88 3d 5e 88 e8 bd
       -0.031071858 -0.11356384 0.06681615 -0.11354135
000230 28 b9 4a 3e e4 1e d0 bc 07 1a f8 bd 2a ed af 3d
       0.19797194 -0.025405355 -0.12114339 0.08590157
000240 30 76 08 3e e0 40 ff 3d 5d 2b d3 3d ac 62 2a 3e
       0.13326335 0.12463546 0.10311005 0.16639203
000250 d5 8f cd 3d 40 4e 76 bd 01 e8 b3 3c 65 c4 8c bd
       0.100371994 -0.06013322 0.021961214 -0.06873397
000260 b7 b5 7e bc fc 59 ef bd 59 76 c4 3d 1e 09 a0 bd
       -0.015546254 -0.11687085 0.095928855 -0.07814239
000270 5f 90 fe bd 29 d1 4c be ee 37 ac bd c0 e5 9f 3b
       -0.1242988 -0.20001663 -0.08409105 0.0048796833
000280 1f 93 6c be 77 49 2e 3d 0f 85 a3 bd 90 eb 0d 3e
       -0.23102997 0.04255053 -0.07984363 0.13859391
000290 c4 e1 5d bd 37 4a 3c bd 4b 01 28 3e de 01 ec 3d
       -0.054170385 -0.045969214 0.16406743 0.11523794
0002a0 50 52 22 3e 5f 46 0f 3e eb f9 54 be 3b df bb 3d
       0.15851712 0.13991688 -0.20798461 0.09173437
0002b0 d2 ba 9f 3c 11 cc 83 3d 0e 92 b2 3d 6b 66 e8 3d
       0.019498263 0.06435407 0.08719264 0.1134766
0002c0 13 66 d0 bd a6 c3 47 3d 20 83 50 3d d6 3d bd 3d
       -0.10175719 0.04877057 0.0509063 0.0924031
0002d0 84 60 05 bd db 85 bb bd ca f1 e3 bd fd be 8e 3c
       -0.032562748 -0.0915639 -0.11130102 0.017425055
0002e0 d0 de 11 be 0a d8 a6 ba a9 00 58 3d 7a 2a 88 bc
       -0.14245152 -0.001272918 0.052735005 -0.016621817
0002f0 c5 b9 b8 bc aa f7 89 bd ef ac e1 bc 2c 23 2a 3e
       -0.02254952 -0.06736691 -0.027548281 0.1661498
000300 15 f3 39 3d 3d b1 4d 3d 65 d3 c9 bc c5 61 b2 3d
       0.045397837 0.050217856 -0.024636934 0.08710054
000310 32 1f 16 3d d8 aa b8 3c c1 7e e6 3d 39 ae bd bd
       0.036650844 0.022542402 0.11254645 -0.09261746
000320 b7 1f df bd a3 54 66 3c 4b 1b 64 bb 12 65 b0 bd
       -0.10894721 0.014058265 -0.0034806307 -0.08613028
000330 4e 63 ae 3c 5c 30 a2 3d 17 3d 17 3d 47 82 93 3b
       0.021287587 0.0791938 0.036923494 0.0045016143
000340 a4 61 7c 3b f3 88 3e 3d 51 8c 80 3e da ea 87 3c
       0.0038510347 0.046517324 0.25107053 0.016591478
000350 b9 4f 2f bd 41 ae 1b be e4 f0 5c 3e 69 83 d1 3d
       -0.04280064 -0.15203191 0.21576267 0.102301426
000360 43 46 b4 3d b0 9e 0d 3e 7d c8 11 3d d3 03 0d bc
       0.08802464 0.13830066 0.03559159 -0.008606869
000370 ee f4 84 bb f4 e2 cc 3d 87 48 94 bd b8 49 c6 3d
       -0.004057518 0.100042254 -0.07240396 0.096820295
000380 fd f6 34 be d3 44 e9 3d fb a3 74 bd ce a6 20 3e
       -0.17672344 0.1139008 -0.059726696 0.15688631
000390 ae 46 aa 3c 93 f0 36 3e 38 6c 0c 3e 5f 35 de bd
       0.020785656 0.1786521 0.13713157 -0.108500235
0003a0 43 bc b7 3d f1 0a 38 3d 72 7b 66 3e 09 6c 2e 3d
       0.08971455 0.04493231 0.22508028 0.0425835
0003b0 03 21 51 3d 34 76 66 3e 4c f8 77 3c 48 45 98 3d
       0.051056873 0.22506028 0.015134882 0.07435089
0003c0 80 04 f3 bd bb 7a 65 be 4e 2f 5c 3e fb 7b f1 3d
       -0.11866093 -0.22410099 0.2150242 0.117912255
0003d0 12 9b 24 bb 3e cf 16 3e 11 8b 2c bd 1b 1a a9 3d
       -0.0025116843 0.14727494 -0.04212481 0.08256932
0003e0 9b 97 96 3c 82 e4 3a be 01 5a 56 bc cb 1c 02 3e
       0.018382838 -0.18251231 -0.013082982 0.12706296
0003f0 67 e1 e7 3d f7 d3 f1 bb fe 16 b5 bd 13 cf 54 3c
       0.11322289 -0.0073800045 -0.08842276 0.0129888235

bias f4 [128]
000000 8a 39 b9 bc 72 68 47 3e ac ef 4c 3d 77 92 82 3e
       -0.022610445 0.19473436 0.050033256 0.2550237
000010 3d 49 47 3c 93 f1 ce 3b ad 13 49 3e 9a c2 1a bd
       0.012163457 0.006315419 0.19636412 -0.037783243
000020 b2 34 af 3e 99 2d cc 3b 47 1a d7 bc 0f 02 d2 3e
       0.3421989 0.0062310216 -0.026257647 0.41017196
000030 b7 5e 0c 3e 54 e6 69 3e c1 14 53 3e 83 bd 5b 3c
       0.13708006 0.2284177 0.20613386 0.013411882
000040 c3 f2 aa bb d1 b7 28 bc b3 13 3a 3e 4d c8 5a 3e
       -0.0052169277 -0.0102977315 0.18171577 0.21365471
000050 2a 1f 43 bc 6b 80 6c 3d a6 bd 4f bc 75 04 b1 bc
       -0.011909286 0.057739656 -0.012679493 -0.02160857
000060 9e cc 93 bd 26 85 8c 3e 5d da 82 bc eb c7 86 3e
       -0.07216762 0.27445334 -0.015973264 0.263244
000070 9d 1f dd bb 79 2b c5 3d 28 58 21 bd 6d 95 7a bc
       -0.0067481534 0.096274324 -0.039390713 -0.015294415
000080 06 64 8b 3e ee f7 60 3c 24 0c 42 ae f4 08 a3 ba
       0.2722475 0.013730986 -4.4121276e-11 -0.0012438581
000090 11 ba 98 3e 69 19 a3 3c f6 ee b0 3e b2 86 37 bd
       0.29829457 0.019909577 0.34557313 -0.04480619
0000a0 5d 89 3c bd b9 5d ae bd cc ba 86 3e af 65 19 3d
       -0.046029437 -0.0851397 0.2631439 0.03745049
0000b0 32 e3 55 b9 ea ed 13 3d 90 84 a9 3e 6e e0 06 bd
       -0.000203979 0.036115564 0.3310895 -0.032928877
0000c0 6b 23 8f 3e e0 30 37 bc 53 92 d8 3c 87 ac 5c 3b
       0.2795671 -0.011181086 0.02643696 0.003367217
0000d0 38 b7 60 3e d5 cc 5f 3e 42 ad 9d 3e 30 ab 1c 3e
       0.21944892 0.21855481 0.30796248 0.15299678
0000e0 9f b7 2d 3c 26 a6 0e 3d ed 7e 83 3e 27 8d 77 b9
       0.010602861 0.03482642 0.25682774 -0.00023608339
0000f0 b2 34 3c bd 6b 4d b6 3e 50 90 25 3d 4e 4d 81 3e
       -0.04594869 0.3560594 0.04042083 0.2525429
000100 4c 8d b0 3e 46 7b 4a bb c9 de 51 3d c2 c5 0e bc
       0.344828 -0.003089623 0.051237855 -0.008714141
000110 ab d2 ba 3c 0c 61 5d 3e c8 44 62 3e a6 26 06 3d
       0.022805532 0.21619052 0.2209655 0.0327517
000120 9c e5 f3 3d 51 78 64 3d 7a 83 01 3d ff c0 fb ba
       0.11909029 0.055778805 0.031619526 -0.0019207298
000130 7f 20 7a bd 06 fc 29 3e 9e e5 a6 3e ec a2 e2 3d
       -0.061066147 0.16600046 0.3259706 0.11066231
000140 1e af 1d 3c 8f ad 33 3d c5 af db bb 75 a6 59 3e
       0.009624271 0.04386669 -0.006704303 0.21254905
000150 17 35 9d 3e 73 5f 55 3e f4 8b 45 bd a3 89 20 3d
       0.30704567 0.20837192 -0.048229173 0.03919376
000160 d1 71 30 3d fb 63 09 bd c5 44 bc bc 4b 8c 63 3e
       0.043077294 -0.033542614 -0.02298201 0.22221486
000170 20 5e 9d b1 d6 8a 73 3e 06 15 21 bb 94 cb d0 3a
       -4.580002e-09 0.2378343 -0.0024579181 0.0015929812
000180 38 60 20 bd c7 e5 33 3e 9a 4c 3e 3e e2 45 12 bd
       -0.03915426 0.17568122 0.18583909 -0.035711177
000190 46 a1 05 3e dd a8 d5 3d f3 f0 37 bd 18 f9 d5 3c
       0.13049802 0.10432599 -0.04490752 0.026119754
0001a0 7c fa 28 bc d3 3e 59 bc 21 9a 30 bd da 52 43 bb
       -0.010313626 -0.013259607 -0.04311574 -0.0029804022
0001b0 02 fe ab 3e a1 33 18 3e ea 4c d7 3d 8f 11 84 3b
       0.3359223 0.14863445 0.10512717 0.0040304135
0001c0 ac ea 26 3e a6 78 91 3e 20 b4 9a 3d c1 05 78 3c
       0.16300458 0.2841236 0.07553887 0.015138091
0001d0 6e ea f9 bc 05 a4 c7 3b 71 fa ba bc e8 5f 9d 3e
       -0.030507293 0.0060925507 -0.022824498 0.30737233
0001e0 a3 c9 15 3e 6a 55 e5 3d 3b 75 a5 3c ec 9f 62 3e
       0.146277 0.11197932 0.020197501 0.22131318
0001f0 17 98 59 bd d0 42 d2 bb 7f f8 a3 3c e7 bc cf bc
       -0.05312356 -0.006416656 0.020015953 -0.02535863

weight f4 [2, 128]
000000 06 91 81 3d a0 d1 06 be 0e 8a 04 3d 5a 52 89 bd
       0.06326489 -0.13165903 0.03235822 -0.067051604
000010 3e a9 11 3d bd 7c ff bc 38 d9 35 be fc 94 84 3d
       0.035561793 -0.03118741 -0.17758644 0.06473729
000020 f9 39 ce bd 37 bc e3 3c 51 84 f0 bc fd 43 d7 bd
       -0.10069651 0.027799709 -0.029359968 -0.105110146
000030 ee b7 08 be c4 d4 df bd 1c 87 0f be 3b fe 31 3d
       -0.13351414 -0.10929254 -0.14016384 0.043455344
000040 03 87 9f 3c 4b 95 18 3d 96 bc 69 39 f6 7d 3c be
       0.019473558 0.037251752 0.00022290865 -0.18407425
000050 81 ea 6e bd 53 98 0e be 93 c9 e2 3c 0c f6 ad 3d
       -0.05832911 -0.13925295 0.027684009 0.08494195
000060 2e a1 d3 bc 30 80 97 bd d6 28 ba 3d 3e 77 22 be
       -0.025833692 -0.07397497 0.0908982 -0.158658
000070 a8 5e 83 3d df 79 3d be a4 8c 1e bd bc a8 20 3d
       0.064145386 -0.18503521 -0.038708344 0.039223418
000080 e4 a3 1a be a6 46 b7 3d e2 d5 7f b2 88 40 1e bd
       -0.15101582 0.08949022 -1.4891585e-08 -0.03863576
000090 d6 f2 72 bd 07 7c 63 bb 02 f4 0c be ef e3 c3 bc
       -0.059313618 -0.0034711377 -0.13764957 -0.023912398
0000a0 80 a1 45 bc 90 5f 87 bd d8 22 0c be 03 4f 97 3d
       -0.01206243 -0.06610024 -0.13685167 0.07388117
0000b0 31 77 d5 bc 3e e9 2a 3d 60 97 13 be e5 cf 3a bd
       -0.026057811 0.041726343 -0.14413214 -0.04560842
0000c0 8a 92 eb bd d8 2c b1 3d 5c bb bc bc f8 65 0d 3d
       -0.115025595 0.086511314 -0.023038559 0.034521073
0000d0 92 f6 35 be 6d 48 5a be e3 ba 15 be 30 1d 1f be
       -0.1776984 -0.2131669 -0.14622073 -0.15538478
0000e0 bf c3 8e 3d 03 b0 af 3d 22 6a 2e be 7e 49 58 3d
       0.06970929 0.085784934 -0.17032674 0.052804463
0000f0 ca 1a a0 bc e7 84 9f bd 4b 43 b5 3d f5 b1 42 be
       -0.019544024 -0.07789021 0.08850726 -0.19013198
000100 90 2f a5 bd 46 61 98 b9 8b a7 59 3d 7c 88 0c 3d
       -0.080657125 -0.00029064174 0.053138297 0.03430985
000110 08 5b b9 3c 0e 25 94 bd bd f9 66 bd 42 9e 8d 3d
       0.022626415 -0.0723363 -0.056390513 0.06914951
000120 f3 76 8a bd 75 9c 1b 3d b6 1b 06 3c f9 34 ff b9
       -0.06760969 0.037991006 0.008185318 -0.00048676858
000130 54 47 9f 3d 3b 0c 24 be 7f c3 57 bd 7b fe 9b bd
       0.07777277 -0.1602029 -0.052676674 -0.07616898
000140 7c 62 af 3c 3a 93 2e bd 30 35 a7 3d e7 5b 09 be
       0.021409266 -0.042620875 0.081644416 -0.13413964
000150 42 35 0f be 72 dc 18 be 94 6f a5 3b ca 88 17 bd
       -0.1398516 -0.14927843 0.0050487015 -0.036995687
000160 b8 b1 7b 3d 0b b8 9a bc 4e a5 66 bd d8 6e e0 bd
       0.061448783 -0.018886587 -0.05630999 -0.10958642
000170 ae 11 b1 38 44 0d 56 be a7 44 aa 3c 2c a0 37 bd
       8.443311e-05 -0.20903498 0.02078469 -0.044830486
000180 a0 95 d4 3b 63 de 22 be a2 17 32 be b1 61 98 bc
       0.0064875633 -0.15905146 -0.17391828 -0.01860127
000190 79 26 30 be 5d 24 2c be ec e0 39 3d fe fe 82 3c
       -0.17202176 -0.16810746 0.045380518 0.01599073
0001a0 4b e9 6e 3d 01 b3 95 3d 80 5b 2f 3d 65 f9 50 bc
       0.058327954 0.07309533 0.04281187 -0.012754773
0001b0 a1 20 3e be 2d 4a 6a be 6c b8 2e be 58 52 0b 3c
       -0.18567134 -0.22879858 -0.17062539 0.008503519
0001c0 f7 9a dc bd 1e 79 9e bd 51 51 32 3c 16 52 85 bc
       -0.10771745 -0.07737945 0.010883645 -0.016274493
0001d0 a7 7d 73 3d 71 92 06 3d 1f 2c b5 3c 60 91 ee bd
       0.059446003 0.0328545 0.022115765 -0.11648822
0001e0 28 e2 44 be a7 ed d7 bd f1 bb 2d bb ad 48 26 be
       -0.19226897 -0.105433755 -0.0026509727 -0.16238661
0001f0 0a 0f f7 bd 9c 1f bc bc b1 63 84 3d c9 ae fc 3c
       -0.12063415 -0.022964291 0.06464327 0.030845063
000200 f0 1b bb 3c f4 18 1e 3e de 5e dc bc fe 3d 1c 3e
       0.02284047 0.15439206 -0.026900705 0.15258023
000210 c4 1f 93 bc 46 44 b2 bd d1 64 35 3e 1f b1 bc 3c
       -0.017959483 -0.087044284 0.1771424 0.023033677
000220 74 bc 3b 3e fc c5 10 bc bb 4b 7e bd c3 81 3d 3e
       0.18333608 -0.008836266 -0.06208394 0.18506531
000230 f5 7b a6 3d 80 16 84 3d 1b 3c 10 3e c7 88 a8 bc
       0.08129112 0.06449604 0.14085428 -0.020573033
000240 d5 e6 62 bc 81 cf e9 bc a9 bb ee 3d 8d c5 e9 3d
       -0.01384898 -0.028541328 0.11656887 0.11414633
000250 5d 8b c3 bd 71 75 53 3e 6c 07 b4 bb 93 ce 41 3d
       -0.09548066 0.20650269 -0.005494049 0.047316145
000260 ef 63 5b 3d 95 53 54 3e 39 d7 3b 3d 90 53 30 3e
       0.0535621 0.20735009 0.04585955 0.17219377
000270 86 3f 9a 3b f7 f9 57 3e 81 1e 81 bd 84 8b 4a bb
       0.0047072796 0.21091448 -0.06304646 -0.0030905912
000280 f3 27 17 3e 59 2a 81 3c d7 d5 7f 32 6b 41 1b bd
       0.14761333 0.015767263 1.4891575e-08 -0.037904184
000290 52 01 12 3e 4a 61 a6 bd 3d 1f 1d 3e d6 ee 88 bd
       0.14258316 -0.08124025 0.15343948 -0.06686179
0002a0 ad d6 41 bd db d3 b6 bd 05 c2 b0 3d 90 47 c3 3c
       -0.04732387 -0.08927127 0.08630756 0.023837835
0002b0 4c 44 64 bd 60 a1 0b bd ab 63 6f 3e a6 ad 93 bd
       -0.055729195 -0.034089446 0.23377864 -0.07210855
0002c0 af 47 d6 3d 07 39 3a 3d 2a f3 99 bd c3 be fc bc
       0.10462891 0.04546454 -0.07517083 -0.030852681
0002d0 4b 23 3e 3e 7d fc c1 3d ba b4 c5 3d 3f 88 0d 3e
       0.1856815 0.094719864 0.096536115 0.13821505
0002e0 29 69 50 3c 9f 59 95 bc 40 77 57 3e 69 99 40 3b
       0.012720385 -0.018231211 0.21041584 0.0029388315
0002f0 0c 2a 5f bd 73 02 2e 3e 14 c1 4a 3c 34 af df 3d
       -0.05448346 0.16993122 0.012375135 0.10922089
000300 d1 8e 2c 3e ca 19 2f bd 70 8f 92 3c bb 31 46 bc
       0.16851355 -0.042749204 0.017890662 -0.012096818
000310 1a 38 1b bc 45 d3 fa 3d 6e 03 1b 3e 1b 39 70 3c
       -0.009473825 0.12247328 0.15138027 0.0146620525
000320 c6 ec 1a 3e 03 6e dc bc 9b d6 1f bd 32 35 ff 39
       0.15129384 -0.026907926 -0.039023023 0.00048677024
000330 b9 c9 41 3d 74 76 4b 3e 8a 70 c0 3d 56 73 f1 3d
       0.04731152 0.19869405 0.09396465 0.11789577
000340 2c ab a4 bc 3d 93 2e 3d 52 65 f2 3c c8 27 d3 3d
       -0.020101152 0.042620886 0.029589329 0.10310322
000350 7b 2c 78 3e ee a5 2c 3e a2 6f 00 bd 1a 80 cb bd
       0.24235718 0.16860172 -0.03135646 -0.09936543
000360 98 20 ce 3c 4a f9 51 bd e8 fa 27 3d ef eb 3a 3e
       0.025162026 -0.05126313 0.041010767 0.18254064
000370 1a b4 02 39 b5 e8 60 3e db 8a 8d bc 55 3d 93 bd
       0.00012464859 0.2196377 -0.017278126 -0.071894325
000380 77 a9 ad bc 38 d6 40 3e ff 85 2e 3e 4a 61 6b bd
       -0.021198971 0.18831718 0.17043303 -0.05746583
000390 c5 94 53 3e a1 16 7a 3d 1a 5c ea 3b a9 26 ec bc
       0.2066222 0.061056737 0.0071520926 -0.028827028
0003a0 b2 07 55 3c cd 64 9b bc 28 db c7 3a 7f 40 4e bd
       0.013002323 -0.018968964 0.0015247809 -0.050354477
0003b0 55 ea 28 3e 00 82 60 3e 22 54 6f 3d 40 3a c9 bc
       0.1649564 0.21924591 0.058429845 -0.024563909
0003c0 a5 45 eb 3d 46 c7 12 3e 66 8a 14 bd e6 d4 76 bd
       0.11487893 0.1433383 -0.0362648 -0.06026163
0003d0 e8 1c 0c 3d d2 3d a9 3c 5e 65 11 bc 70 bb 24 3e
       0.034207255 0.020659361 -0.0088742655 0.16087127
0003e0 ea cb 56 3e 75 9b 0d 3e 48 69 6f bd d1 a2 16 3e
       0.20976225 0.13828833 -0.058450013 0.14710547
0003f0 88 e1 93 3c 67 f4 95 bd 5c 33 8b 3c 60 2d d4 bb
       0.018051878 -0.07322007 0.016992263 -0.0064751357

bias f4 [2]
000000 8e fa 00 3f 80 22 be be
       0.50382316 -0.37135696
