stk-code/src/model 2/soccer_ai_model.pt (torch, 759807 bytes, 12 tensors)

weight f4 [512, 19]
0	0xbd87cea1	-0.06631208
1	0xbe596705	-0.21230705
2	0x3cd007dd	0.025394375
3	0xbdf55fa6	-0.11981134
4	0x3e519b20	0.20469332
5	0xbc1c3279	-0.009533518
6	0x3d5bd22c	0.053667232
7	0xbe067ffd	-0.13134761
8	0xbe2bfc7d	-0.16795535
9	0x3e4cef47	0.20013152
10	0x3bc036a0	0.005865887
11	0x3e15181f	0.14559983
12	0xbe3a625b	-0.18201582
13	0x3d8554a2	0.06510283
14	0x3dd2e26c	0.10297093
15	0x3d8b8165	0.068117894
16	0x3d4e6afc	0.050394997
17	0xbe346554	-0.17616779
18	0xbc2a066b	-0.010377507
19	0x3d1eecad	0.03879993
20	0x3db75238	0.08951229
21	0xbe429f84	-0.19006163
22	0xbe22cefa	-0.15899268
23	0x3e5ce5b5	0.21572001
24	0xbc9b2254	-0.018937267
25	0xbe5cf539	-0.2157792
26	0xbc6bf5c9	-0.0144018615
27	0x3d96c0cd	0.073609926
28	0xbe60253a	-0.21889201
29	0xbe565e9b	-0.20934527
30	0xbe15920f	-0.14606498
31	0x3dd8ce59	0.10586233
32	0xbe8d0f2e	-0.27550644
33	0x3e213f60	0.15746832
34	0x3d09d039	0.033645842
35	0x3e03350f	0.12813209
36	0xbe0545d0	-0.13014913
37	0xbcc34193	-0.02383498
38	0x3dc8ef56	0.09811275
39	0xbcb71eb5	-0.02235351
40	0x3d8e44ab	0.06946691
41	0x3d95a6f9	0.07307238
42	0x3d0362fa	0.032076813
43	0xbacfa980	-0.0015843362
44	0x3d80c23e	0.06287049
45	0xbe2af254	-0.16694003
46	0xbe71deeb	-0.23620193
47	0xbb8a0ef1	-0.004213207
48	0xbe350a46	-0.176797
49	0xbe0b04ba	-0.13576022
50	0xbe681587	-0.22664462
51	0x3da2e611	0.07954038
52	0xbdc4cb4a	-0.09609087
53	0xbe61b71b	-0.22042505
54	0xbdf605f3	-0.120128535
55	0xbd2fba28	-0.04290214
56	0x3e6fe462	0.23426965
57	0x3b21a2c3	0.0024663664
58	0x3dc4a3df	0.096015684
59	0x3e526cc4	0.20549303
60	0x3e6b4118	0.2297405
61	0x3dd0c888	0.10194498
62	0xbc7c266e	-0.015390022
63	0x3c324929	0.010881701
64	0xbe36658a	-0.17812172
65	0xbe6e40d5	-0.23266919
66	0x3c0f1bab	0.008734624
67	0xbdcb67e1	-0.09931923
68	0x3e262c25	0.16227777
69	0x3e2190a4	0.15777832
70	0xbdf3180f	-0.11869823
71	0xbc0ef4f0	-0.00872539
72	0x3d9e5e28	0.07732803
73	0x3ddae245	0.10687689
74	0x3e42d4c1	0.19026472
75	0x3e2cfe8e	0.1689398
76	0xbcdd7286	-0.027032148
77	0xbd9e1c88	-0.07720286
78	0x3e2cbc86	0.16868791
79	0x3e002636	0.12514576
80	0x3e5d24d0	0.21596074
81	0x3d4c84d9	0.04993138
82	0xbbe8e373	-0.007107192
83	0x3eab1655	0.33415475
84	0x3dd0fa29	0.10203964
85	0xbe64250f	-0.22279762
86	0xbdb3f280	-0.087864876
87	0x3eaf9cad	0.34299222
88	0xbe24d34f	-0.16096233
89	0xbe1cbd16	-0.15306506
90	0x3e1c7f00	0.15282822
91	0xbd7a9d7a	-0.061185338
92	0xbdb6fece	-0.08935319
93	0xbce6c820	-0.028171599
94	0x3e776a49	0.24161638
95	0x3d643575	0.055715043
96	0xbdc644c1	-0.096810825
97	0x3e699a99	0.2281288
98	0x3d064260	0.032778144
99	0xbe44b177	-0.19208322
100	0x3e1143cf	0.14186023
101	0xbc8282ad	-0.015931452
102	0xbdff8ba5	-0.12477807
103	0xbd91a5d5	-0.07111708
104	0x3db116f7	0.08646958
105	0x3e03a418	0.12855566
106	0xbde11406	-0.10990147
107	0xbe191951	-0.14951064
108	0xbe3f59dd	-0.18686624
109	0xbe52c50a	-0.20582977
110	0x3e0f9c8b	0.1402456
111	0x3e079b2b	0.13242786
112	0x3e166582	0.1468716
113	0xbe07a568	-0.13246691
114	0xbcd040db	-0.02542155
115	0xbe007a27	-0.12546597
116	0x3e13e430	0.14442515
117	0xbe29c4e4	-0.16579014
118	0x3e0deb50	0.13859296
119	0x3d311578	0.043233365
120	0xbe993f61	-0.29931167
121	0x3e621e6b	0.22081916
122	0x3dd9e940	0.10640192
123	0x3d739580	0.059468746
124	0xbeaee4c4	-0.3415891
125	0xbe0b6719	-0.13613547
126	0xbc95f301	-0.01830435
127	0xbe70980f	-0.23495506
128	0x3e42fa15	0.19040711
129	0x3bac4420	0.0052571446
130	0xbcf7d673	-0.030253625
131	0x3c33a9ef	0.010965808
132	0x3d44b0af	0.04802006
133	0x3b4d94f7	0.0031369308
134	0x3df84a00	0.121234894
135	0xbd81f865	-0.063462056
136	0xbd92227d	-0.07135484
137	0xbd2e2adb	-0.04252134
138	0x3cb621ba	0.022232879
139	0xbdac8f73	-0.08425798
140	0x3e10994f	0.14120983
141	0xbde25698	-0.11051673
142	0xbcf62b57	-0.030049963
143	0x3c084b93	0.0083188
144	0x3e2c2524	0.16811043
145	0x3e4711a2	0.1944032
146	0x3e3d1fe1	0.18469192
147	0x3e522c59	0.2052473
148	0xbe0616b6	-0.13094601
149	0x3e31dce4	0.1736942
150	0xbdfbfd3e	-0.123041615
151	0xbdc7d546	-0.097574756
152	0x3c6f3526	0.014600074
153	0x3e339bc8	0.17539895
154	0x3e02d5c0	0.12776852
155	0x3e3238f7	0.17404543
156	0x3e1183d1	0.1421044
157	0xbe826976	-0.25471085
158	0x3c9f7ef2	0.019469712
159	0x3d9d1b51	0.07671226
160	0x3e29299c	0.16519779
161	0x3d20a5c3	0.039220583
162	0x3be733b0	0.007055722
163	0xbdd3cb31	-0.1034149
164	0xbe9487f2	-0.29009968
165	0xbc9950a0	-0.018715203
166	0x3b2f64b4	0.0026762905
167	0xbd8cc7ad	-0.06874023
168	0xbd7ccf20	-0.061720967
169	0x3e0e1bc7	0.13877784
170	0xbc466898	-0.012109898
171	0x3ccf0f05	0.025275717
172	0xbe23db77	-0.16001688
173	0xbda361ce	-0.07977639
174	0xbd713e43	-0.058897268
175	0xbe183a18	-0.14865911
176	0xbe0f8ed0	-0.14019322
177	0x3e1a492b	0.15066974
178	0x3ceed6b5	0.029155115
179	0xbc49ba9a	-0.012312556
180	0x3dac5bf4	0.08415976
181	0x3e8747f3	0.2642208
182	0x3dba0166	0.09082298
183	0x3d86dc6f	0.06585013
184	0x3da9ebcc	0.08296928
185	0x3d916ec9	0.07101209
186	0x3d74f500	0.059803963
187	0xbe4d69bc	-0.20059866
188	0x3e0b1827	0.13583432
189	0x3e76771d	0.24068876
190	0x3cd59466	0.026071738
191	0xbd616ca4	-0.05503525
192	0x3dea691a	0.11445828
193	0xbd241dc8	-0.040067464
194	0xbe4e1420	-0.20124865
195	0xbde2adfb	-0.110683404
196	0x3e637bb3	0.22215156
197	0x3e3966c4	0.18105608
198	0xbe5e29a0	-0.21695566
199	0xbcc0d51d	-0.02353912
200	0xbc582032	-0.01319127
201	0xbdaf2fbb	-0.08554026
202	0x3e1d74d7	0.15376602
203	0x3dc0d5eb	0.094158016
204	0xbd53b208	-0.051683456
205	0xbd62090f	-0.05518442
206	0x3dda66c2	0.10664131
207	0x3dedb0da	0.116059974
208	0x3cc67548	0.024225846
209	0x3d3b434b	0.045718472
210	0x3e1b03fa	0.15138236
211	0x3e89db1e	0.26924986
212	0xbd9956ae	-0.07487236
213	0xbd124640	-0.035711527
214	0xbe4665f6	-0.19374833
215	0xbe60f392	-0.21967915
216	0x3e9ad921	0.3024378
217	0xbdb6f700	-0.0893383
218	0xbe602aaf	-0.21891282
219	0xbd89ed09	-0.06734664
220	0x3e86d85d	0.26336947
221	0x3ddfb574	0.10923281
222	0x3baeb73a	0.005331901
223	0xbe2361a1	-0.15955211
224	0x3d5af151	0.053452794
225	0xbcdfebfb	-0.027334204
226	0x3cd1e9e8	0.02562423
227	0x3decefbe	0.11569165
228	0x3d8e1f0f	0.06939518
229	0xbdb94260	-0.09045863
230	0xbde0e9e6	-0.109821126
231	0x3da435ef	0.080180995
232	0x3d8f5d9c	0.070002764
233	0xbc587953	-0.01321252
234	0x3ec85c0c	0.39132726
235	0x3e0975dc	0.13423866
236	0xbcd2cf25	-0.02573354
237	0x3dc46643	0.095898174
238	0x3e4add34	0.19810945
239	0xbd9b71a5	-0.07590035
240	0xbe67475d	-0.22585817
241	0x3df18974	0.11793795
242	0xbc3c5d1f	-0.011496811
243	0xbd37b73a	-0.044852473
244	0xbc7ae6f8	-0.015313856
245	0x3e5356e1	0.2063861
246	0x3dae882a	0.08522065
247	0x3c1578d0	0.009123042
248	0xbe22b485	-0.15889175
249	0xbd51fd07	-0.051266696
250	0xbcb53037	-0.022117717
251	0x3d8170f7	0.063203745
252	0xbc3a0a91	-0.011355058
253	0x3e6d0849	0.23147692
254	0x3e203824	0.15646416
255	0xbd85dd4f	-0.06536352

bias f4 [512]
0	0x3dc771c5	0.09738497
1	0xbe1bb57a	-0.15205947
2	0xbdd28451	-0.102791436
3	0x3d18a80c	0.037269637
4	0x3dfa41f5	0.122196116
5	0x3c448510	0.011994615
6	0xbd81a82d	-0.06330905
7	0x3e21997c	0.15781206
8	0xbe6d468c	-0.23171443
9	0x3dd99f2b	0.10626062
10	0xbe057bb4	-0.1303547
11	0xbd3ca04e	-0.046051316
12	0x3e139fc1	0.1441641
13	0xbdecefd3	-0.1156918
14	0xbd5d9ce2	-0.054104693
15	0x3cb69d20	0.02229172
16	0x3c513e37	0.012771181
17	0xbe3d3f57	-0.18481193
18	0x3c1335c7	0.0089849895
19	0x3dce338e	0.10068427
20	0xbc1d48ca	-0.009599874
21	0x3e5497e8	0.20761073
22	0xbe1ab0e4	-0.15106541
23	0x3e374978	0.1789912
24	0x3dec4731	0.11537016
25	0x3d8ab24c	0.06772289
26	0xbe65c6fb	-0.22439186
27	0xbe090b98	-0.13383329
28	0x3e325b0b	0.17417543
29	0xbd661c5a	-0.056179382
30	0x3e2de981	0.16983606
31	0x3d3e119f	0.046403524
32	0xbe4b439e	-0.19850013
33	0x3ae05eb6	0.001711807
34	0x3e4c7fce	0.19970629
35	0xbdf655aa	-0.12028058
36	0x3e0dd4e2	0.1385074
37	0x3e2a37a2	0.16622785
38	0x3d199d0c	0.037503287
39	0xbe6f1cae	-0.23350784
40	0xbe9ab311	-0.30214742
41	0xbe1be84c	-0.15225333
42	0x3d5c6656	0.053808533
43	0x3d79b94f	0.06096774
44	0xbda50575	-0.080576815
45	0xbe7b379d	-0.24532934
46	0xbe373e8d	-0.17894955
47	0xbd15c50e	-0.03656488
48	0xbe57e04e	-0.21081659
49	0xbe45f343	-0.19331078
50	0xbe4bd250	-0.19904447
51	0xbdaa396a	-0.08311732
52	0x3c0b51dd	0.008503404
53	0x3daae8a9	0.08345158
54	0x3d7071f4	0.058702424
55	0x3d50d442	0.050983675
56	0x3dc03287	0.09384637
57	0xbda52f4e	-0.08065663
58	0xbdc62610	-0.096752286
59	0x3dd53d68	0.10412103
60	0xbe99bb93	-0.3002592
61	0x3d352c40	0.044231653
62	0xbc88d294	-0.016701974
63	0x3afa8838	0.0019114083
64	0xbcdc031c	-0.026856951
65	0x3de20a98	0.11037177
66	0xbe463075	-0.19354422
67	0xbc55f63d	-0.013059196
68	0xbe553381	-0.20820428
69	0x3d5e96c9	0.05434302
70	0x3e475ab9	0.19468202
71	0xbe8e5817	-0.27801582
72	0x3d9f20ef	0.077699535
73	0x3daf5675	0.08561412
74	0x3e224344	0.15845972
75	0xbe55640a	-0.20838943
76	0xbe407cf3	-0.18797664
77	0xbe80edc2	-0.25181395
78	0x3d702f87	0.058639076
79	0xbe5ef223	-0.21772055
80	0x3d6a57e8	0.05721274
81	0x3dae4b83	0.085104965
82	0x3d582608	0.052770644
83	0xbe82681e	-0.2547006
84	0x3c008ce2	0.007846089
85	0x3c8992ac	0.016793571
86	0x3c0b3713	0.008497017
87	0x3e19bebc	0.15014166
88	0xbd641aee	-0.055689745
89	0xbe0234d6	-0.12715468
90	0xbcd34d58	-0.025793716
91	0xbe92109a	-0.2852829
92	0xbdd576d3	-0.104230545
93	0xbdc77349	-0.09738786
94	0x3e5f158f	0.21785568
95	0x3d6db77c	0.058036312
96	0xbdff95a1	-0.12479711
97	0x3d533f86	0.051574253
98	0x3daa3de5	0.08312587
99	0xbe2abd0a	-0.16673675
100	0x3aca472d	0.0015432589
101	0xbd9bfa01	-0.07616044
102	0x3e3fd5b2	0.18733862
103	0xbe53273c	-0.20620435
104	0x3d871700	0.06596184
105	0x3ddeaca3	0.108727716
106	0xbcbe7052	-0.023246918
107	0xbc148c9a	-0.009066725
108	0x3d6b8e22	0.057508595
109	0x3db07ed6	0.08617942
110	0x3b331a19	0.0027328788
111	0x3d864012	0.06555189
112	0xbe03597e	-0.12827107
113	0x3d72059b	0.059087377
114	0xbcd6fc7f	-0.026243446
115	0xbe2286fc	-0.15871805
116	0xbe5790c9	-0.21051325
117	0x3d853072	0.06503381
118	0xbd1831ab	-0.037156742
119	0xbe27e7f7	-0.16397081
120	0x3df5d3fb	0.12003323
121	0x3db617b1	0.088912375
122	0xbe767a7c	-0.24070162
123	0xbde040c6	-0.109498546
124	0xbdf60f91	-0.12014688
125	0xbe55a1e6	-0.2086254
126	0x3cf48cce	0.029852297
127	0x3d6c3ce4	0.057675257
128	0x3e3910f5	0.18072875
129	0xbe4045c7	-0.18776618
130	0x3e01f28f	0.12690185
131	0x3d9a773c	0.075422734
132	0xbe0b1e44	-0.13585764
133	0x3dfef8c3	0.12449791
134	0xbd5f9691	-0.05458695
135	0x3d8fd7a4	0.07023552
136	0xbddec316	-0.108770534
137	0x3d865297	0.065587215
138	0x3e3710dd	0.17877527
139	0x3df2fe46	0.11864905
140	0xbe0c791e	-0.13718078
141	0x3e15cfbf	0.1463003
142	0xbe221e11	-0.15831782
143	0x3e27f5fb	0.16402428
144	0x3db421a6	0.087954804
145	0xbe043cb0	-0.12913775
146	0xbc79980c	-0.015234005
147	0x3c15b2b6	0.009136846
148	0xbdfc6ac2	-0.1232505
149	0xbe7a0bc1	-0.24418546
150	0xbd8b29b2	-0.06795062
151	0xbe138a50	-0.14408231
152	0x3e5ac0cd	0.2136261
153	0xbe02582c	-0.12728947
154	0xbc65bc24	-0.014021907
155	0x3e44dd96	0.19225153
156	0xbd1e348e	-0.03862434
157	0xbe154d03	-0.14580159
158	0xbde42fb5	-0.11141912
159	0xbe72f632	-0.23726729
160	0x3d837dc0	0.06420469
161	0xbe625c9e	-0.22105643
162	0xbe650a9a	-0.22367325
163	0x3e46768a	0.19381157
164	0x3ca7171c	0.020396762
165	0xbe92d6f8	-0.28679633
166	0x3e0109cb	0.12601392
167	0xbd6b722b	-0.057481926
168	0xbc95c4f7	-0.018282397
169	0x3de20cf3	0.11037626
170	0x3c226597	0.009911916
171	0x3cb42991	0.021992477
172	0x3df6d524	0.12052372
173	0xbe816334	-0.25270998
174	0x3de3a8b0	0.11116159
175	0x3e1456e1	0.14486267
176	0xbdefb9a8	-0.11705333
177	0xbea12126	-0.31470603
178	0x3c7dc311	0.015488402
179	0xbe358b27	-0.17728864
180	0x3df5786f	0.119858615
181	0xbd51fbb4	-0.051265433
182	0xbd8e93d7	-0.06961792
183	0x3c5ac8fa	0.013353581
184	0xbda6c301	-0.08142663
185	0xbdc32b00	-0.09529686
186	0xbd8e564d	-0.06950054
187	0xbe6ad803	-0.22933964
188	0xbcee6431	-0.02910051
189	0x3e1fb2f7	0.15595613
190	0xbe483694	-0.1955207
191	0xbe593410	-0.21211267
192	0xbd51d3aa	-0.05122725
193	0xbc87885c	-0.016544513
194	0x3e0a8630	0.13527751
195	0x3d8b1677	0.06791394
196	0xbd997b1f	-0.074941866
197	0x3d5928d6	0.05301746
198	0x3d8ccd1c	0.06875059
199	0x3cf75a97	0.030194564
200	0x3dd85ff8	0.105651796
201	0x3dd507a5	0.10401849
202	0x3e4767c2	0.19473174
203	0x3dc5e841	0.096634395
204	0x3ddcea97	0.10786932
205	0x3de4a301	0.11163903
206	0xbdd7bb96	-0.10533826
207	0x3db6ff01	0.08935357
208	0xbe4c7301	-0.19965746
209	0xbd971efd	-0.073789574
210	0x3e043b84	0.12913328
211	0x3dbaf6cf	0.09129106
212	0x3e4c94b4	0.199786
213	0xbdb31978	-0.08745092
214	0x3dc44951	0.095842965
215	0xbe91c4c6	-0.2847044
216	0x3def3999	0.11680908
217	0xbc156baa	-0.009119907
218	0xbdc33113	-0.095308445
219	0xbdc0068d	-0.093762495
220	0xbd4a5665	-0.0493988
221	0x3ca7848c	0.020448945
222	0xbea38c82	-0.31943136
223	0xbddb3555	-0.10703532
224	0xbd2c6cd8	-0.04209599
225	0x3d6d9d20	0.058011174
226	0xbe86dce8	-0.26340413
227	0xbd0a0209	-0.033693347
228	0xbe49e190	-0.19714952
229	0xbe57a3ae	-0.21058533
230	0x3dda5cca	0.10662229
231	0xbe650dad	-0.22368498
232	0xbe861c9f	-0.2619371
233	0x3e2f2d33	0.17107086
234	0xbd6fcf90	-0.058547556
235	0x3dc78472	0.09742059
236	0xbe6138f2	-0.21994379
237	0x3dc4bda5	0.09606484
238	0xbe60d594	-0.21956474
239	0xbe50a4ae	-0.2037532
240	0x3dc85e8f	0.097836606
241	0x3dad5394	0.08463207
242	0x3ba7b4b4	0.005117977
243	0xbe1f7ac5	-0.15574177
244	0x3ccd8937	0.025089843
245	0xbbe4c889	-0.0069819135
246	0x3e4e32a9	0.20136513
247	0xbe7fc710	-0.2497828
248	0xbe66fb8d	-0.22556897
249	0xbddb8a27	-0.1071971
250	0x3dfbd2c2	0.12296058
251	0xbe718d25	-0.23588999
252	0xbda6f6ea	-0.08152564
253	0xbe005f33	-0.12536316
254	0x3d87b490	0.066262364
255	0xbd72855e	-0.05920922

weight f4 [256, 512]
0	0xbcd3b2a5	-0.02584202
1	0xbc0bbc21	-0.00852874
2	0xbbc5537e	-0.006021916
3	0xbdbd4dfc	-0.0924339
4	0x3d6ae05b	0.05734287
5	0x3d677cf6	0.056515656
6	0xbcc8d0b0	-0.024513572
7	0xbd1f9a38	-0.038965434
8	0xbc826cac	-0.01592096
9	0x3b8d1bde	0.0043063005
10	0xbd3569f5	-0.0442905
11	0xbd528f3d	-0.051406134
12	0x3cd26a3f	0.025685428
13	0xbd49f3c8	-0.049304754
14	0x3c8cb580	0.01717639
15	0xbc1e03ba	-0.009644443
16	0xbc31ca69	-0.010851481
17	0xbc99d1d3	-0.01877681
18	0x3d73bf78	0.05950877
19	0xbcf271f7	-0.029595358
20	0xbc07587a	-0.008260841
21	0xbd8befd8	-0.06832856
22	0xbccfb476	-0.025354605
23	0x3b9ddd9c	0.0048176777
24	0xbc3f5c74	-0.011679757
25	0xbd9f82ba	-0.07788606
26	0x3d998978	0.07496923
27	0xbd1ed764	-0.03877963
28	0xbc35474f	-0.011064365
29	0x3e0da01c	0.13830608
30	0xbd8810fe	-0.06643866
31	0x3c986692	0.018603597
32	0x3c44a192	0.012001412
33	0x3d8df4bc	0.06931445
34	0x3cd00c36	0.025396448
35	0x3d916382	0.07099058
36	0x3cadc322	0.02121121
37	0x3dc113b0	0.09427583
38	0x3d902057	0.07037418
39	0x3d50db3a	0.05099032
40	0x3be83f77	0.0070876437
41	0xbd0e8390	-0.034793437
42	0x3db311df	0.08743643
43	0x3d1c0409	0.038089786
44	0x3dccab66	0.09993629
45	0x3d98846a	0.07447131
46	0x3d346f74	0.044051602
47	0xbcf43250	-0.029809147
48	0xbd215ec3	-0.039397012
49	0x3c6fe994	0.014643092
50	0xbcb4a0f8	-0.022049412
51	0xbcf7de55	-0.030257383
52	0xba91118e	-0.0011067854
53	0x3d119f6e	0.035552435
54	0xbd8f0453	-0.06983247
55	0xbc88e34c	-0.016709946
56	0x39093371	0.00013084502
57	0x3bfae1ce	0.0076563125
58	0x3d1b4abf	0.03791308
59	0xbc8f3573	-0.017481541
60	0xbd67c455	-0.05658372
61	0xbd3b1c21	-0.045681123
62	0x3acea2f7	0.001576512
63	0xbd01e5b5	-0.031713206
64	0xbc701359	-0.01465305
65	0xbd805115	-0.06265465
66	0x3c1e635e	0.009667246
67	0xbd566e40	-0.052351236
68	0x3cc76c39	0.024343597
69	0x3b6fad41	0.0036571773
70	0x3db1f493	0.08689227
71	0x3dbbc9d9	0.09169359
72	0x3cf62f55	0.030051867
73	0xbcd94c5c	-0.026525669
74	0xbcd62124	-0.02613885
75	0xb8c58c1d	-9.41979e-05
76	0x3c73438f	0.01484765
77	0x3dc35518	0.09537715
78	0x3d20469a	0.03912983
79	0x3d7ff680	0.06249094
80	0x3c7f4d08	0.0155823305
81	0x3ccb8da1	0.024847807
82	0x3ce76035	0.028244117
83	0xbd083825	-0.03325667
84	0xbc8554d7	-0.016275806
85	0x3d376c29	0.044780884
86	0xbd50b7c6	-0.05095651
87	0x3d0a2b94	0.033732966
88	0x3d29f8b0	0.041496933
89	0x3c072209	0.008247861
90	0x3c9d64c3	0.019213086
91	0x3da1c299	0.07898445
92	0x3dbf9c19	0.09355945
93	0x3c4003ea	0.011719683
94	0xbca09eb4	-0.019606926
95	0x3cedc3ba	0.029023994
96	0x3de23429	0.11045105
97	0x3c972c93	0.018453872
98	0x3dcdd52a	0.100504234
99	0xbd5cb539	-0.053883765
100	0xbd3fb1d6	-0.046800457
101	0x3d13c84d	0.036079694
102	0xbc8ddc1b	-0.017316869
103	0x3ac4fab9	0.0015028334
104	0xbd0a57cb	-0.033775132
105	0x3ca8959f	0.020579157
106	0xbd86da63	-0.06584623
107	0xbd099c9f	-0.03359663
108	0x3d8c0d7a	0.06838508
109	0x3cee9348	0.029122964
110	0xbbbef6ac	-0.0058277454
111	0xbd7a1812	-0.06105811
112	0x3d6ed15f	0.05830514
113	0x3d38cc15	0.045116503
114	0xbdbfb0ee	-0.093599185
115	0xbd599b31	-0.053126518
116	0xbcb738ca	-0.022365946
117	0x3cc76b4a	0.024343152
118	0xbd13ff76	-0.0361323
119	0xbc9cdb89	-0.019147651
120	0x3cca2c2d	0.024679268
121	0xbc71bd5d	-0.01475462
122	0x3d1753c8	0.036945134
123	0x3d593453	0.053028416
124	0xbd2fd7ec	-0.04293053
125	0x3ba29c27	0.0049624625
126	0xba432a30	-0.0007444946
127	0x3bbaa272	0.0056956345
128	0xbc8023c4	-0.015642054
129	0xbd90934a	-0.07059343
130	0xbadd5654	-0.001688669
131	0xbc801eaa	-0.015639622
132	0xbdb0ad1e	-0.086267695
133	0x3cc69867	0.024242593
134	0xbd4ee468	-0.050510794
135	0xbd8c43aa	-0.068488434
136	0x3d03b108	0.032151252
137	0xbdc26edb	-0.094938
138	0x3d48df32	0.04904098
139	0xbd867e19	-0.0656702
140	0x3da2c46f	0.07947623
141	0x3d9a7bd2	0.07543148
142	0x3bbf6fba	0.0058421763
143	0xbd4423c0	-0.047885656
144	0xbced8410	-0.028993636
145	0x3d03a57c	0.03214024
146	0xbe1fcf1d	-0.15606351
147	0x3de74045	0.11291555
148	0x3be4ded2	0.00698457
149	0xbcd7b7eb	-0.026332816
150	0x3de9b8e5	0.11412219
151	0xbb04e9df	-0.0020281
152	0x3cb80f44	0.022468217
153	0xbc67ac9d	-0.014140275
154	0x3d4e23f0	0.05032724
155	0x3d304c7c	0.04304169
156	0xbd4cb002	-0.04997254
157	0xbc3d04de	-0.011536805
158	0x3c50a5a7	0.012734807
159	0x3da1470f	0.078748815
160	0x3d65abe3	0.056072127
161	0x3d1c98e1	0.038231734
162	0x3bfcc94d	0.0077144266
163	0x3d194534	0.037419513
164	0xbc1815c5	-0.009282534
165	0xbb2643b5	-0.0025369946
166	0x3d2f1588	0.042745143
167	0xbcb8a25d	-0.022538358
168	0xbd30fa44	-0.043207422
169	0xba1ab9a3	-0.0005902296
170	0xbc210730	-0.009828374
171	0xbc65ec9b	-0.014033462
172	0xbd27df61	-0.040984515
173	0xbd8f1eb3	-0.06988277
174	0xbd29cc89	-0.041454826
175	0x3af30a17	0.0018542436
176	0x3c149f71	0.009071217
177	0x3c602f60	0.01368317
178	0xbd0b1f97	-0.033965673
179	0x3b1549a4	0.002277949
180	0x3cb4086d	0.021976674
181	0x3c5f62cc	0.013634395
182	0x3d4193ff	0.04726028
183	0x3c89e633	0.0168334
184	0xbcc54505	-0.024080763
185	0x3c9cd3a2	0.019143883
186	0xbd2f9adb	-0.04287229
187	0xbd1c0b0f	-0.038096484
188	0x3c514972	0.012773858
189	0xbbe686df	-0.007035121
190	0xbd6c3c96	-0.057674967
191	0x3c0395ba	0.008031303
192	0x3c9fedc5	0.019522557
193	0xbd3da7b1	-0.0463025
194	0x3d28fc16	0.041256033
195	0x3adfa2de	0.0017062088
196	0xbd28ab95	-0.04117926
197	0x3d06c71f	0.03290474
198	0x3d68950e	0.056782775
199	0x3d389010	0.045059264
200	0x3c188cd5	0.009310921
201	0xbc1a4f8b	-0.009418379
202	0xbca0fbaf	-0.019651262
203	0xbda355c7	-0.07975345
204	0xbc95bba5	-0.018277952
205	0xbcf18d37	-0.029486282
206	0xbb3e9ba9	-0.002908448
207	0x3cc1c8b0	0.023655266
208	0x3da35de2	0.07976891
209	0x3d9f06ed	0.07764993
210	0x3cce60a9	0.025192576
211	0x3c867c5c	0.016416721
212	0x3d85b786	0.06529145
213	0x3d277f12	0.040892668
214	0x3b15f561	0.0022881853
215	0x3c63e26f	0.013908966
216	0x3d818815	0.06324784
217	0xbd172a8e	-0.036905818
218	0xbd206ea3	-0.03916801
219	0x3cf5a474	0.029985644
220	0x3d184ba7	0.037181523
221	0x3d6a5a18	0.057214826
222	0x3d57dd79	0.052701447
223	0xbcb4fb71	-0.022092553
224	0x3d2681b9	0.040651057
225	0xbd22a50b	-0.03970818
226	0xbd96f93d	-0.07371757
227	0x3dde248c	0.108468145
228	0x3d88d366	0.06680946
229	0xbd751494	-0.059834078
230	0xbd2d6a30	-0.042337596
231	0xbd37de47	-0.044889715
232	0x3d0a7d1e	0.033810727
233	0x3d46525f	0.0484184
234	0xbe03fce8	-0.12889445
235	0xbd921281	-0.071324356
236	0x3cff9675	0.031199673
237	0xbde49e57	-0.111630134
238	0x3d1f115e	0.038834922
239	0xbcf1ae3e	-0.02950203
240	0xbd682b64	-0.056682006
241	0x3bddb2a8	0.0067656823
242	0xbc981cec	-0.018568479
243	0xbc75de8c	-0.015006673
244	0x3d8d97fa	0.06913753
245	0xbc08d764	-0.008352134
246	0x3cab9842	0.020946626
247	0xbc5a14cc	-0.013310622
248	0x3cb499fd	0.022046084
249	0xbd913075	-0.070893206
250	0x3c77b9be	0.015119968
251	0xbc87c831	-0.01657495
252	0x3c91838b	0.01776292
253	0x3c5b72fe	0.0133941155
254	0x3a136dc4	0.00056239613
255	0x3b6ecb93	0.0036437258

bias f4 [256]
0	0x3ac07897	0.0014684376
1	0x3dcc5e6c	0.09978947
2	0xbbee7b7e	-0.007277905
3	0xbd7a4e0f	-0.0611096
4	0xbdbc36f9	-0.09190173
5	0xbcfc0457	-0.030763788
6	0x3ca6c646	0.020358216
7	0xbcbbfe06	-0.022948276
8	0xb994d387	-0.0002838636
9	0xbd7e4c36	-0.0620844
10	0xbda7d812	-0.08195509
11	0x3d51489d	0.05109464
12	0x3c0e1ae2	0.008673402
13	0xbd272baf	-0.040813144
14	0xbce2ab5b	-0.0276696
15	0x3d0c1e44	0.03420855
16	0x3d957b63	0.07298925
17	0xbd98aede	-0.07455228
18	0xbd0849e5	-0.033273596
19	0x3d19daf4	0.037562326
20	0xbc08f0a7	-0.008358157
21	0x3dbbdd18	0.0917303
22	0x3cef423a	0.029206384
23	0xbdb0a44a	-0.08625086
24	0xbd98e213	-0.07464995
25	0xbd461c6a	-0.04836694
26	0xbce75f5f	-0.028243719
27	0xbd1c1cd9	-0.03811345
28	0xbd5c1a2a	-0.05373589
29	0xbc90e425	-0.017686913
30	0x3bbd0b68	0.005769182
31	0xbdbed5ef	-0.09318148
32	0xbd7ef35d	-0.062243808
33	0xbcef1363	-0.029184049
34	0x3cf5b661	0.029994192
35	0xbd6412b1	-0.055681888
36	0xbca0ea03	-0.019642835
37	0xbc62de42	-0.013846936
38	0x3a83af47	0.0010046744
39	0xbcecc128	-0.028900698
40	0xbc35bb45	-0.011092012
41	0xbd630556	-0.05542501
42	0xbc427622	-0.011868985
43	0xbbb27032	-0.0054455036
44	0xbc973af1	-0.018460723
45	0x3dbe58dd	0.09294293
46	0xbd97555e	-0.073893294
47	0xbd8ab443	-0.067726634
48	0xbd8dde41	-0.06927157
49	0x3cf0367a	0.029322851
50	0xbd81d0f0	-0.0633868
51	0xbd7ae58c	-0.06125407
52	0xbdf5423b	-0.11975523
53	0xbcf37c7a	-0.029722441
54	0xbc650668	-0.013978578
55	0xbb57586e	-0.0032859105
56	0xbdbe89f1	-0.09303654
57	0x3d9e9406	0.07743077
58	0xbcdb30e7	-0.026756717
59	0x3d9b351c	0.07578489
60	0xbdb7fe36	-0.08984034
61	0x3d4c1352	0.049823113
62	0xbc17e426	-0.009270703
63	0xbc46fb51	-0.012144879
64	0xbd384432	-0.04498691
65	0xbdb1332a	-0.08652337
66	0xbd48a066	-0.048981093
67	0xbbe0ed7b	-0.0068642474
68	0xbd801af6	-0.062551424
69	0xbd79dab5	-0.06099959
70	0x3b9c6318	0.004772555
71	0x3d376e68	0.044783026
72	0x3d31d55c	0.043416366
73	0xbb8882a6	-0.004165965
74	0xbd1daf1e	-0.038497083
75	0x3d521986	0.051293872
76	0xbcf54fb2	-0.029945228
77	0xbd90635e	-0.07050203
78	0x3c7a3208	0.015270717
79	0x3b4dbb7e	0.0031392272
80	0x3bacf479	0.005278167
81	0xbce5911d	-0.028023297
82	0xbda2e84d	-0.07954464
83	0x3ce87149	0.028374331
84	0xbd7eb1a7	-0.06218114
85	0x3d7ff4ea	0.062489428
86	0xbd93ac84	-0.07210639
87	0xbdaec250	-0.08533156
88	0xbd69e94f	-0.057107266
89	0x3c527946	0.012846297
90	0xbc97e032	-0.018539522
91	0xbd1b3786	-0.03789475
92	0xbd8e02f9	-0.06934161
93	0x3d31a420	0.043369412
94	0xbd556f31	-0.052107994
95	0x3d3f4092	0.04669244
96	0xbcd0f503	-0.025507456
97	0x3d198932	0.037484355
98	0xbcbf6e17	-0.023367925
99	0x3b5e8311	0.0033952633
100	0xbd59974c	-0.053122804
101	0xbd8adc9f	-0.067803614
102	0xbdd82570	-0.10554016
103	0xbd002518	-0.031285375
104	0xbc828814	-0.015934028
105	0xbde00887	-0.109391265
106	0xbd9ea0d7	-0.077455215
107	0x3cfbdc92	0.030744825
108	0xbdf97209	-0.121799536
109	0x3dae94cc	0.085244745
110	0xbd0af55c	-0.0339254
111	0xbd1365b6	-0.03598567
112	0x3c2f144a	0.01068599
113	0x3cf61e8f	0.030043868
114	0x3cf0342b	0.02932175
115	0xbd87f774	-0.06638995
116	0xbd98aa0e	-0.0745431
117	0xbd763756	-0.060111366
118	0xbcb8d33f	-0.022561667
119	0xbd57beb1	-0.052672092
120	0xbc891d22	-0.016737524
121	0xbd23e37d	-0.04001187
122	0x3c808aad	0.015691126
123	0x3c2656ac	0.0101525
124	0xbd6a0937	-0.057137694
125	0xba703002	-0.0009162427
126	0xbda27fa6	-0.07934503
127	0xbc8c0635	-0.017092803
128	0xbceaac6d	-0.028646672
129	0xbbe46267	-0.0069697383
130	0xbd7011e6	-0.05861082
131	0xbd5fe958	-0.054665893
132	0xbd66e9ac	-0.05637519
133	0x3da1ed2c	0.07906565
134	0xbd7b08f1	-0.061287824
135	0x3a70b167	0.00091817084
136	0xbc174ceb	-0.009234647
137	0xbd351648	-0.044210702
138	0xbc2d30e1	-0.010570736
139	0xbd667b88	-0.056270152
140	0xbd566e2a	-0.052351154
141	0xbd61e75a	-0.055152275
142	0xbd1a4a57	-0.037668552
143	0x3d665a12	0.05623824
144	0x3d85760f	0.065166585
145	0xbd547012	-0.05186469
146	0xbcd5c7aa	-0.026096184
147	0xbb8f3c01	-0.0043711667
148	0xbda0657a	-0.07831855
149	0xbdbadc42	-0.09124042
150	0xbcbe79d9	-0.02325146
151	0xbd83503f	-0.0641179
152	0xbb73f4aa	-0.0037224689
153	0x3c574375	0.013138642
154	0xbd644218	-0.055727094
155	0xbd1b6f02	-0.037947662
156	0xbd780665	-0.060552973
157	0xbd771f2c	-0.060332462
158	0xbcffd794	-0.031230725
159	0xbd88fb6b	-0.06688579
160	0xbb1ea594	-0.002420758
161	0x3c292adb	0.010325159
162	0xbd897dd4	-0.06713453
163	0xbd94424f	-0.0723921
164	0xbcf5306a	-0.029930312
165	0xbd1b7cce	-0.03796082
166	0xbd4a6a2c	-0.04941766
167	0xbbbc4cd8	-0.005746465
168	0x3c6caa60	0.014444917
169	0xbd2e2a9e	-0.04252111
170	0xbd717f2d	-0.058959175
171	0xbd8e44f8	-0.069467485
172	0x3d7c9781	0.061667923
173	0xbd7dd75f	-0.061972972
174	0xbd47a20c	-0.048738524
175	0xbd542ce6	-0.05180063
176	0x3d587d9a	0.052854158
177	0x3c049c62	0.008093925
178	0xbcd82abf	-0.02638757
179	0xbdb9f930	-0.09080732
180	0xbca3ba4b	-0.019986292
181	0x3d2f8552	0.042851754
182	0xbb9cde73	-0.00478726
183	0xbd82e6e7	-0.063916974
184	0xbd064340	-0.03277898
185	0xbbd49c1f	-0.0064883376
186	0xbdac2876	-0.08406155
187	0xbd9fd178	-0.07803625
188	0xbcacd0b7	-0.021095617
189	0x3d43bfdd	0.047790397
190	0xbdc8db24	-0.09807423
191	0xbda1c9d3	-0.07899823
192	0xbd1fc821	-0.039009217
193	0xbd99250d	-0.0747777
194	0x3c7b60d4	0.01534291
195	0xbd1f11d1	-0.03883535
196	0xbcae9965	-0.021313379
197	0x3dbc1416	0.091835186
198	0xbb65dda9	-0.0035074747
199	0xbbbd5e7b	-0.005779085
200	0xbc9b1ecd	-0.018935585
201	0x3ac60882	0.0015108737
202	0xbda0b349	-0.07846696
203	0xbd8c5198	-0.068515
204	0x3cd56064	0.02604694
205	0x3d2e829c	0.042605028
206	0xbd26dcfc	-0.04073809
207	0xbcca07c0	-0.024661899
208	0x3bf326bd	0.0074203894
209	0xbc9c3b44	-0.019071229
210	0xbb1c854f	-0.002388317
211	0xbd0c2ebf	-0.034224268
212	0xbdb9a41e	-0.09064506
213	0xbda32416	-0.07965867
214	0xbd34c990	-0.044137537
215	0xbdad7aaa	-0.08470662
216	0xbda377a3	-0.07981803
217	0x3d666f8c	0.056258723
218	0xbcf7b754	-0.030238785
219	0xbd1e649e	-0.038670175
220	0xbd919e0c	-0.07110223
221	0xbcbe621d	-0.023240143
222	0xbd481417	-0.048847284
223	0xbc2fb69a	-0.010724688
224	0xbd523e1e	-0.05132877
225	0x3872ea67	5.79156e-05
226	0xbdc6c77a	-0.09706016
227	0xbdb425ac	-0.08796248
228	0xbd49aa23	-0.04923452
229	0xbad0024d	-0.0015869826
230	0xbd7da311	-0.06192309
231	0x3c540400	0.012940407
232	0xbc624f47	-0.0138128465
233	0xbd5fd111	-0.05464274
234	0xbd687156	-0.05674871
235	0xbd2f91ee	-0.04286378
236	0xbd8022a3	-0.062566064
237	0xbd75fda9	-0.060056362
238	0xbd9ca197	-0.07648008
239	0xbc4dc31c	-0.012558725
240	0x3d2e4926	0.04255023
241	0xbd6a734d	-0.057238866
242	0x3bc658a3	0.006053047
243	0xbb8811ac	-0.0041524973
244	0xbcc1ee14	-0.023673095
245	0xbc6f28b3	-0.014597106
246	0xbd6018b1	-0.054711048
247	0x3be96a1b	0.0071232445
248	0xbd1b8ac3	-0.03797413
249	0xbc129da1	-0.0089487145
250	0xbdc24734	-0.09486237
251	0xbd506ccd	-0.05088501
252	0xbdb55761	-0.08854557
253	0x3c2213bb	0.009892399
254	0xbca4a605	-0.020098696
255	0x3ddee7c9	0.10884053

weight f4 [128, 256]
0	0xbcb5a563	-0.02217359
1	0x3d613215	0.054979403
2	0xbd3894e5	-0.045063872
3	0xbda71e1f	-0.08160042
4	0xbdbd0313	-0.09229102
5	0x3cbc2767	0.022968007
6	0x3d10f7b0	0.035392463
7	0xbd3826ce	-0.044958882
8	0x3dd1126a	0.1020859
9	0x3d2230fe	0.039597504
10	0x3c912988	0.017719999
11	0x3d2c5b72	0.042079397
12	0xbd62c585	-0.05536415
13	0xbab59d10	-0.0013856012
14	0x3d69f9c3	0.057122957
15	0x3d0245f3	0.03180499
16	0xbd08a885	-0.033363838
17	0xbc9f0981	-0.019413712
18	0x3da2b7a7	0.07945185
19	0xbd327f61	-0.04357851
20	0xbba9a25a	-0.0051768245
21	0xbcc06607	-0.02348615
22	0x3ada5f34	0.0016660453
23	0xbd0230f4	-0.031784967
24	0x3b1bb9b9	0.0023761822
25	0xbd883e91	-0.066525586
26	0x3d2fd0dc	0.042923793
27	0x3bef99e5	0.007312047
28	0xbd2100f1	-0.03930754
29	0x3cf67e7f	0.030089615
30	0x3aa08c54	0.0012248852
31	0xbde77d43	-0.11303189
32	0x3be665d1	0.0070311804
33	0x3a1e94f8	0.000604942
34	0x3caad722	0.020854536
35	0xbcbbafd2	-0.022910986
36	0xbdbc6d0b	-0.09200486
37	0xbd687e63	-0.056761157
38	0x3bf1e78b	0.0073823384
39	0xbc1658ad	-0.009176415
40	0x3b8a9a1a	0.004229796
41	0x3d50756d	0.050893236
42	0xbddbe37f	-0.10736751
43	0xbdb4bf10	-0.08825505
44	0xbc613839	-0.013746315
45	0xbc9b6dea	-0.01897331
46	0x3b77b33a	0.0037796036
47	0x3b83f138	0.0040265583
48	0xbda08fc3	-0.0783992
49	0x3d9cc5e1	0.0765493
50	0x3c374d92	0.011187928
51	0xbd6cde6b	-0.0578293
52	0xbc1df3cb	-0.009640644
53	0xbc361217	-0.011112711
54	0xbc3e9e58	-0.011634432
55	0xbc4e7c8a	-0.012602935
56	0x3bf2f0e5	0.007413971
57	0xbb5483a0	-0.0032427087
58	0x3d125240	0.03572297
59	0x3cd907e8	0.026493028
60	0xbd3beaa3	-0.045878064
61	0x3ce9884b	0.028507372
62	0xbd879fb0	-0.06622255
63	0x3cba4de2	0.022742216
64	0xbc200290	-0.009766236
65	0x3c980862	0.018558685
66	0x3b2a3a85	0.0025974822
67	0x3dc31b3a	0.095266774
68	0x3d944ef7	0.07241624
69	0x3c57f9cb	0.013182114
70	0x3d1e543a	0.038654543
71	0x3d0c81e7	0.034303572
72	0x3dceacad	0.10091529
73	0xbd19d824	-0.037559643
74	0xbd845657	-0.064617805
75	0xbc537f93	-0.012908834
76	0x3d1f838e	0.03894382
77	0xbd540a0c	-0.051767394
78	0xbd883296	-0.066502735
79	0xbba193a8	-0.004930932
80	0xbd62e8d5	-0.055397827
81	0xbd79e948	-0.06101349
82	0xbcfc769d	-0.030818278
83	0x3e18c48e	0.1491873
84	0x3d3f2839	0.04666922
85	0xbda1a3ec	-0.07892594
86	0xbdc5d9c5	-0.09660677
87	0xbd186d54	-0.03721364
88	0xbc9cf7ef	-0.019161193
89	0xbd4c3a0e	-0.049860053
90	0xbd614e72	-0.055006452
91	0x3c54bd2a	0.012984553
92	0xbd1ae9c0	-0.037820578
93	0xbd26fa34	-0.040765956
94	0x3cbb8b52	0.022893582
95	0x3d875bb3	0.06609287
96	0x3cb8072a	0.022464354
97	0x3bf974c8	0.0076127984
98	0xbd97e60c	-0.07416925
99	0xbcd151fb	-0.025551787
100	0x3d39a77b	0.045325737
101	0xbcf6035d	-0.0300309
102	0xbda8782c	-0.08226046
103	0xbdd34d9d	-0.10317538
104	0x3d346124	0.044037953
105	0xbd91d015	-0.071197666
106	0xbd88b650	-0.06675398
107	0x3dbb49da	0.091449454
108	0x3d6224d5	0.055210907
109	0x3cc5cd15	0.024145642
110	0xbd2311ca	-0.039811887
111	0xbc0743d9	-0.008255922
112	0xbd9ad5f7	-0.07560342
113	0x3c846412	0.016160998
114	0x3ba54604	0.005043747
115	0x3cd1f5c5	0.025629887
116	0xbb1f4041	-0.0024299773
117	0xbd6316e6	-0.05544176
118	0x3cdb6679	0.026782261
119	0x3d723890	0.059135973
120	0x3d597974	0.053094342
121	0xbcaebc69	-0.021330075
122	0x3ded0e3f	0.11574983
123	0xbc8365cf	-0.016039757
124	0xbcf29d21	-0.02961594
125	0x3dd00696	0.10157506
126	0xbd75a3f0	-0.059970796
127	0xbd302c44	-0.043010965
128	0x3d6551f5	0.055986363
129	0xbab4f47b	-0.0013805771
130	0xbd71cf15	-0.05903538
131	0x3c53a0d3	0.012916761
132	0xbdb66d50	-0.089075685
133	0x3bd0e4eb	0.0063749454
134	0x3b8c168a	0.004275148
135	0x3dad5575	0.08463565
136	0x3c6ecf37	0.014575771
137	0x3d2556a8	0.040365845
138	0x3c0d3702	0.008619072
139	0xbdb829e2	-0.089923635
140	0x3d3bd7bd	0.04586004
141	0xbd7dff14	-0.06201084
142	0xbe282448	-0.1642009
143	0x3e097457	0.13423286
144	0x3da9335d	0.0826175
145	0x3d1a94c1	0.03773952
146	0xbd7ddc66	-0.061977766
147	0x3c3b684f	0.011438443
148	0xbdf83298	-0.12119025
149	0xbc96fcaf	-0.018431036
150	0xbd576437	-0.052585807
151	0xbd4829d4	-0.048868015
152	0xbce640ed	-0.02810713
153	0x3c67bade	0.014143674
154	0xbddbcf9e	-0.10732959
155	0x3d166731	0.036719505
156	0xbcb6126a	-0.022225577
157	0xbda231dc	-0.07919666
158	0x3b0af36e	0.0021202224
159	0x3c4e2de6	0.012584185
160	0x3d661f22	0.056182034
161	0x3d865ead	0.06561027
162	0xbc9b0e9f	-0.01892787
163	0x3c313a48	0.010817118
164	0x3d41472e	0.047187023
165	0xbd860ef1	-0.065458186
166	0xbcf9767e	-0.03045201
167	0x3d68b966	0.056817435
168	0x3c0c7628	0.0085730925
169	0xbd0b0c43	-0.03394724
170	0xbda01ada	-0.078176215
171	0xbda1da1c	-0.07902929
172	0xbd57ae7c	-0.052656636
173	0xbdd0c353	-0.10193505
174	0x3c1f04a7	0.009705699
175	0xbd328af7	-0.04358956
176	0x3c3cb33b	0.011517341
177	0xbdefe270	-0.117131114
178	0x3cf4e139	0.02989255
179	0xbdc84fc8	-0.09780842
180	0xbd2d7ed0	-0.042357266
181	0x3d1e7f74	0.038695768
182	0xbd4eef0c	-0.05052094
183	0x3ce790d7	0.028267307
184	0x3a476e98	0.00076077273
185	0xbd8721ee	-0.065982684
186	0xbb31ffcd	-0.0027160526
187	0xbbe5c028	-0.007011432
188	0xbd5f88fd	-0.054574
189	0x3d9286f0	0.071546435
190	0xbd5f5022	-0.05451978
191	0xbdd561a0	-0.10419011
192	0xbd4d6324	-0.050143376
193	0xbd88eab9	-0.06685395
194	0x3d36079a	0.044440843
195	0xbcd2c4f7	-0.025728686
196	0xbd1d930d	-0.038470317
197	0x3c3b41ae	0.0114292335
198	0x3b116ab3	0.0022188842
199	0xbd832d09	-0.06405074
200	0xbd07d410	-0.033161223
201	0x3c7ddd06	0.015494591
202	0x3c86523f	0.01639664
203	0x3d881542	0.066446796
204	0x3cbc493b	0.022984138
205	0x3d4cdd82	0.050015934
206	0xbc83fe3c	-0.01611244
207	0xbd814193	-0.063113354
208	0x3d6a71dc	0.05723749
209	0x3a9a0122	0.0011749605
210	0x3d350f11	0.04420382
211	0x3c6bc158	0.014389358
212	0xbe1f9ae5	-0.15586431
213	0x3d90df53	0.07073846
214	0xbdc180dc	-0.09448406
215	0x3c90d331	0.017678829
216	0xbc87df61	-0.016586008
217	0xbd151624	-0.036398068
218	0xbd6afabb	-0.05736802
219	0x3b6be56c	0.00359949
220	0xbc95b61e	-0.018275317
221	0x3de7822d	0.11304126
222	0x3db13aa7	0.08653765
223	0xbdabde72	-0.083920375
224	0x3c65f3c0	0.014035165
225	0xbd39388e	-0.04521995
226	0xbd64df0c	-0.055876777
227	0x3cbafb28	0.022824839
228	0x3d40a02b	0.047027748
229	0xbcaabc99	-0.020841883
230	0x3cdf2fd0	0.027244478
231	0xbc45f1f4	-0.012081612
232	0xbcd28009	-0.025695818
233	0x3d5dfd00	0.054196358
234	0xbd41882b	-0.047249
235	0xbce380c8	-0.027771369
236	0x3c597825	0.013273274
237	0x3ccfd5f6	0.02537058
238	0xbc2b7c5a	-0.010466659
239	0xbb2fcda0	-0.0026825443
240	0x3d11a03f	0.035553213
241	0xbdb3d6e2	-0.0878122
242	0x3da97bc7	0.08275562
243	0xbcdd2ade	-0.02699798
244	0xbd1e6973	-0.038674783
245	0xbcf6f262	-0.030144874
246	0xbb4bc759	-0.0031094162
247	0xbd55e84c	-0.05222349
248	0x3bbfcf68	0.005853582
249	0xbdaccc12	-0.08437361
250	0xbd17425e	-0.036928527
251	0xbd92df87	-0.07171541
252	0xbbec786b	-0.0072165034
253	0x3bb76ad2	0.005597451
254	0x3cd0eb6b	0.025502881
255	0xbc42e72b	-0.011895935

bias f4 [128]
0	0x3d6b57d8	0.05745682
1	0xbd271dca	-0.040799893
2	0xbdc71fa0	-0.09722829
3	0x3e33313d	0.17499252
4	0x3dc21b19	0.09477825
5	0xbc4fc374	-0.012680877
6	0xbd85edb6	-0.065394804
7	0xbde5b8ba	-0.112168744
8	0x3e18a9f4	0.14908582
9	0x3ca44991	0.02005461
10	0x3ca789f6	0.020451527
11	0xbda104f4	-0.07862273
12	0x3c749f3b	0.014930542
13	0x3d6911c4	0.05690171
14	0xbc45f0b7	-0.012081317
15	0x3c4e0cb4	0.012576271
16	0x3d4b5cd2	0.049649067
17	0xbd90d4e1	-0.070718534
18	0x3e0b9e71	0.1363466
19	0x3c7d84f8	0.015473597
20	0x3cce1d61	0.025160493
21	0xb99ea226	-0.00030256918
22	0x3b069c54	0.0020539956
23	0x3d0e3b7b	0.034724694
24	0x3e0b52f4	0.13605863
25	0x3e2cb831	0.16867138
26	0xbcce6a0c	-0.025197051
27	0x3db344a9	0.0875333
28	0xbc82abba	-0.015951026
29	0xbd066900	-0.03281498
30	0xbdeeed01	-0.11666299
31	0xbde056a9	-0.10954029
32	0xbce029fe	-0.027363773
33	0xbd32fea4	-0.043699875
34	0x3c64abc3	0.013956967
35	0xbd38e86f	-0.04514354
36	0xbd924323	-0.071417116
37	0xbdcba86f	-0.099442355
38	0x3d1fb35a	0.038989402
39	0x3d395908	0.045250922
40	0xbd161560	-0.03664148
41	0x3dbd8513	0.092538975
42	0xbd2383b9	-0.039920542
43	0xbde46bd1	-0.11153377
44	0xbda119e4	-0.07866266
45	0xbdd40cb4	-0.103539854
46	0xbdd65261	-0.10464931
47	0x3988d8dc	0.00026101514
48	0xbc478152	-0.012176828
49	0xbdd291da	-0.10281725
50	0x3d412799	0.047156904
51	0x3dc27c81	0.094964035
52	0x3dddef46	0.108366534
53	0xbdce33c2	-0.10068466
54	0x3e2fca74	0.17167073
55	0x3ce81bba	0.028333534
56	0xbd810717	-0.063001804
57	0x3dbf1dc4	0.09331849
58	0x3e180ba4	0.1484819
59	0xbd94fcfe	-0.07274817
60	0xbdb49b2f	-0.088186614
61	0xbd57b8be	-0.05266642
62	0xbcf6f506	-0.030146133
63	0xbd34c06f	-0.04412883
64	0xbb924acb	-0.0044644824
65	0xbd1f7a22	-0.038934834
66	0x3e371b62	0.1788154
67	0x3d489c8d	0.048977423
68	0x3db54b5a	0.08852263
69	0x3d414c7b	0.047192078
70	0x3e10c286	0.14136705
71	0xbd82e8b2	-0.06392039
72	0xbd657ac4	-0.05602528
73	0x3e218cc2	0.15776351
74	0xbd9c2f28	-0.07626182
75	0x3e0d7309	0.13813414
76	0xbd4e5e58	-0.050382942
77	0xbbc18405	-0.0059056305
78	0x3e0d2dfa	0.1378707
79	0xbd8f20b9	-0.06988663
80	0xbdbfe3bd	-0.093696095
81	0xbd42fd7e	-0.04760503
82	0xbcc3d146	-0.0239035
83	0x3c692de6	0.014232134
84	0x3cf8058c	0.030276082
85	0x3ddc53a2	0.10758139
86	0xbd61fae5	-0.055170912
87	0x3df80a13	0.121112965
88	0x3c510c34	0.012759257
89	0xbdbfa3e7	-0.09357434
90	0x3e0c9d55	0.13731892
91	0xbd87798e	-0.066149816
92	0xbc82e804	-0.015979774
93	0x3b21fd6b	0.00247177
94	0xbd580bc1	-0.052745584
95	0xbcdeccd2	-0.027197275
96	0xbd555b41	-0.05208898
97	0x3c08a3b8	0.008339815
98	0xbd8f80d6	-0.070069954
99	0x3e31cba6	0.17362842
100	0xbc4f131c	-0.012638833
101	0xbdcb6bea	-0.09932692
102	0x3e1b24a5	0.15150698
103	0xbd393374	-0.045215085
104	0x3db71c46	0.089409396
105	0xbc9de446	-0.019273888
106	0xbd46f289	-0.048571143
107	0xbdb51eb8	-0.0884375
108	0x3dcf4d34	0.10122147
109	0xbd376637	-0.044775214
110	0xbd74ef22	-0.059798367
111	0xbd407d51	-0.04699451
112	0xbdd90c63	-0.10598066
113	0xbd87a426	-0.06623106
114	0xbcd7a13a	-0.026321996
115	0xbd39d606	-0.045370124
116	0x3d62e916	0.05539807
117	0xbd6a8376	-0.057254277
118	0x3de1a720	0.11018205
119	0xbd9519e8	-0.07280332
120	0x3e2e942f	0.17048715
121	0xbccf0a7d	-0.025273556
122	0xbdd84e41	-0.10561801
123	0x3c8ea205	0.017411241
124	0xbda15cdc	-0.0787904
125	0xbe18d54c	-0.14925116
126	0xbc3f51d8	-0.011677228
127	0xbd83f7fe	-0.06443785

weight f4 [64, 128]
0	0xbd8c93c9	-0.06864125
1	0x3d17aa74	0.03702779
2	0x3db69e27	0.08916884
3	0xbdd42cb5	-0.1036009
4	0xbd268e87	-0.04066327
5	0x3db48356	0.08814113
6	0x3da71596	0.08158414
7	0x3b83e1ce	0.0040247208
8	0xbcea4e3f	-0.028601764
9	0x3ce852f9	0.028359877
10	0x3d1140ce	0.035462193
11	0x3dc54586	0.09632401
12	0xbc386065	-0.011253451
13	0xbd8fc55c	-0.07020065
14	0x3d1ab483	0.037769806
15	0x3dbaafef	0.09115588
16	0x3da3d962	0.08000447
17	0xbd54bd33	-0.051938247
18	0x3d6d7909	0.057976756
19	0xbdac1d58	-0.084040344
20	0x3e00f666	0.12593994
21	0x3cf7a0f2	0.030228112
22	0x3d1f6246	0.03891208
23	0xbd74a03c	-0.059723124
24	0xbe051787	-0.12997256
25	0x3c1be7e3	0.009515735
26	0xbd04773e	-0.03234028
27	0xbe005ed9	-0.12536182
28	0xbc9684bf	-0.018373845
29	0x3dd687f3	0.10475149
30	0x3db3fce5	0.0878847
31	0xbccc7b34	-0.024961092
32	0x3cc91b47	0.02454914
33	0xbd973f45	-0.073851146
34	0xbd571d3d	-0.05251812
35	0xbc7a7c2d	-0.015288395
36	0x3dd04c6f	0.101708286
37	0x3d059bc7	0.032619264
38	0x3a8a1525	0.0010534866
39	0xbd4d3f67	-0.050109293
40	0x3dc6604c	0.09686336
41	0x3d90e360	0.07074618
42	0x3dd67692	0.10471834
43	0x3c486b2f	0.012232586
44	0x3dc14f0e	0.094389066
45	0x3c931484	0.017954119
46	0x3b355fc9	0.00276755
47	0xbd3ce185	-0.04611351
48	0x3baff15d	0.005369349
49	0x3e07365c	0.1320433
50	0xbd3da789	-0.046302352
51	0xbceee3b2	-0.029161308
52	0xbd14bcba	-0.036312796
53	0x3dd601f4	0.10449591
54	0xbe08dfed	-0.13366671
55	0xbc789671	-0.015172587
56	0xbd85549e	-0.0651028
57	0xbdaf0802	-0.08546449
58	0xbd284ba6	-0.04108777
59	0xbc73f7b7	-0.014890603
60	0x3c7e75cb	0.015531014
61	0xbd4aa0bf	-0.049469706
62	0x3da09bc0	0.07842207
63	0x3c72c58c	0.014817607
64	0x3db2776f	0.087141864
65	0xbd0966d5	-0.033545334
66	0xbdb4b2b8	-0.088231504
67	0x3cdad4c4	0.026712783
68	0x3d98cddd	0.0746114
69	0xbc634fef	-0.013874038
70	0xbd8f1e7c	-0.06988236
71	0xbd6e694c	-0.058205888
72	0x3cc30743	0.023807174
73	0x3c13eab9	0.00902813
74	0x3dd6577b	0.10465904
75	0x3cdb9c26	0.026807856
76	0xbd01d1b9	-0.031694148
77	0x3c58c943	0.013231578
78	0xbcac9ed3	-0.021071827
79	0x3d7eba5f	0.062189456
80	0x3c9fa8af	0.019489614
81	0x3d5e04b6	0.05420371
82	0x3d4fe719	0.0507575
83	0xbdcf8efa	-0.101346925
84	0x3d5e918e	0.05433803
85	0xbd63365c	-0.055471763
86	0xbb0f11c6	-0.0021830662
87	0xbd62434c	-0.05523996
88	0xbcae3a2b	-0.021267971
89	0x3d4877d5	0.048942406
90	0xbd86d9b1	-0.0658449
91	0x3d8343f4	0.064094454
92	0x3dc2cad2	0.09511341
93	0x3de17192	0.1100799
94	0xbd3e931f	-0.046527024
95	0xbc9ba661	-0.019000234
96	0xbb1e0295	-0.0024110426
97	0x3cc035bb	0.02346312
98	0x3d31716c	0.04332106
99	0x3cd13a74	0.025540568
100	0x3d3e8ea3	0.046522748
101	0x3d9b961d	0.07596991
102	0x3d58aadd	0.052897323
103	0x3d9daac3	0.07698586
104	0xbd1ab608	-0.037771255
105	0xbcaa34bd	-0.0207771
106	0x3c063485	0.008191233
107	0x3c8a5a9b	0.016888907
108	0x3c198476	0.00936996
109	0x3cbbf8b5	0.022945741
110	0x3dab1f4f	0.08355581
111	0xbdf21d32	-0.11821975
112	0x3e06a2d7	0.13148056
113	0xbd9ac6fe	-0.07557486
114	0x3b73b8f0	0.0037189089
115	0x3d8e0e84	0.069363624
116	0xbc334ca3	-0.010943565
117	0x3e0249cc	0.12723464
118	0x3ba5fa7d	0.005065261
119	0x3daed097	0.08535879
120	0xbd8c6eaa	-0.06857045
121	0x3d97d530	0.07413709
122	0x3dbfab48	0.09358841
123	0xbda3fc49	-0.08007104
124	0xbcbe10e4	-0.023201413
125	0xbc9d5155	-0.019203821
126	0xbd25545f	-0.040363666
127	0x3bb4c391	0.0055164774
128	0xbc6c41dc	-0.014419999
129	0xbdb7d82a	-0.08976777
130	0xbd22448d	-0.039616156
131	0x3da2efaa	0.079558685
132	0x3d4f5db7	0.050626483
133	0x3c1c7503	0.009549382
134	0x3d293e64	0.041319266
135	0xbd21556b	-0.0393881
136	0x3dc70900	0.097185135
137	0x3e11fd9b	0.14256899
138	0x3b627215	0.0034552861
139	0xbda7710d	-0.081758596
140	0xbd032301	-0.032015804
141	0x3db8970c	0.09013185
142	0x3d7591cf	0.059953507
143	0x3d297141	0.041367773
144	0x3d836d6e	0.064173564
145	0xbb884e82	-0.0041597495
146	0x3d31d712	0.043417998
147	0xbc257252	-0.010098057
148	0x39a04e77	0.0003057604
149	0xbdadbff6	-0.08483879
150	0x3baa1aeb	0.005191197
151	0x3d0c1762	0.034201987
152	0x3db08169	0.08618433
153	0x3cb43016	0.021995585
154	0x3da7beb5	0.08190671
155	0x3cf01a86	0.029309522
156	0xbc7eadf1	-0.015544401
157	0x3d95f9fa	0.0732307
158	0xbcdee4e0	-0.027208745
159	0x3c92e647	0.01793207
160	0x3d8f2083	0.06988623
161	0x3d77f75d	0.06053864
162	0x3db340d5	0.087526
163	0xbdab0f76	-0.08352558
164	0x3d06de5c	0.032926902
165	0xbc9eebc3	-0.01939953
166	0xbc92867f	-0.017886398
167	0x3d156fc4	0.03648354
168	0xbdb68b42	-0.0891328
169	0x3e06f549	0.13179506
170	0xbcfb8780	-0.03070426
171	0xbd9ce2e3	-0.07660463
172	0xbd4b8a7e	-0.049692623
173	0x3cb93f09	0.022613065
174	0x3d377394	0.04478796
175	0xbd0d1728	-0.03444591
176	0x3ba0129d	0.0048850314
177	0xbcc204a7	-0.023683859
178	0x3cf080bf	0.029358266
179	0x3d80c8e8	0.0628832
180	0x3d5e5a58	0.054285377
181	0xbd8c8512	-0.06861319
182	0xbcf37a83	-0.029721504
183	0xbd80de8d	-0.06292448
184	0x3b0fd65b	0.0021947834
185	0x3d5b4077	0.053528275
186	0x3c9a1959	0.018810915
187	0xbdfa9c44	-0.122368366
188	0x3d1dafc1	0.03849769
189	0x3d36c624	0.044622555
190	0xbd671831	-0.056419555
191	0x3d551c15	0.052028734
192	0x3d3a2555	0.04544576
193	0x3cee4d3e	0.029089566
194	0x3a805e18	0.0009793667
195	0xbd1f64e9	-0.038914595
196	0xbc45b056	-0.012065968
197	0xbc472945	-0.0121558355
198	0xbbef9e2d	-0.007312557
199	0xbc6fb937	-0.014631561
200	0x3d8a0d3e	0.06740807
201	0x3b46d5c2	0.0030339812
202	0x3d376747	0.044776227
203	0x3e0e7499	0.13911666
204	0x3c5a44e6	0.013322091
205	0x3cb61733	0.02222786
206	0x3b3f30fe	0.0029173489
207	0xbc98d3dc	-0.01865571
208	0x3d5ec3cc	0.054385945
209	0xbcb09f0e	-0.021560218
210	0xbd0680fe	-0.03283786
211	0x3c9c9d43	0.019117957
212	0xbb996ca7	-0.004682142
213	0x3d85fe75	0.065426745
214	0xbd116b12	-0.0355025
215	0x3d68c8c6	0.056832097
216	0x3d394265	0.045229334
217	0xbd29ff92	-0.041503496
218	0x3e10b19d	0.14130254
219	0x3d33331f	0.043749925
220	0x3ca4122a	0.020028193
221	0x3d24d8e5	0.04024591
222	0x3d8d3de8	0.06896573
223	0xbd815de2	-0.06316735
224	0x3d99b584	0.075053245
225	0xbbb71a1d	-0.0055878297
226	0x3da6b3ed	0.08139787
227	0x3cfbab6a	0.030721385
228	0x3c9e3738	0.01931344
229	0xbdb49c12	-0.088188305
230	0x3d78d0c2	0.060745962
231	0x3d208db8	0.039197654
232	0x3e018169	0.12647022
233	0xbd714a49	-0.058908734
234	0xbd745541	-0.059651617
235	0xbcd1b5de	-0.025599416
236	0xbcc80834	-0.024417974
237	0x3d8d4c48	0.06899315
238	0x3c05aa47	0.008158273
239	0x3e09a973	0.13443546
240	0xbbb06f5b	-0.0053843684
241	0xbcd190d4	-0.025581755
242	0xbd02679f	-0.031837102
243	0xbd91a138	-0.07110828
244	0x3dcfe8c5	0.10151819
245	0xbd81e037	-0.06341594
246	0x3dc5a040	0.09649706
247	0xbc8ca337	-0.01716767
248	0x3cb3dc8c	0.02195575
249	0x3d851dbd	0.06499813
250	0x3db7692e	0.08955608
251	0x3c619330	0.013768002
252	0xbd2d1b2c	-0.04226224
253	0xbddc2806	-0.10749821
254	0x3d8df76c	0.069319576
255	0x3d205ff0	0.039153993

bias f4 [64]
0	0xbc8fda6f	-0.017560212
1	0x3e2fe455	0.17176946
2	0xbd9a265a	-0.07526846
3	0x3dc26fba	0.094939664
4	0x3e3150aa	0.17315927
5	0xbc745c5d	-0.014914599
6	0x3e13aa52	0.14420441
7	0xbd2ef70e	-0.04271608
8	0xbd503e41	-0.05084062
9	0xbd64d4f2	-0.055867143
10	0xbc402030	-0.011726424
11	0x3e634d1d	0.22197385
12	0x3e5a6402	0.21327212
13	0x3bf28024	0.0074005295
14	0x3db4eff1	0.08834828
15	0x3e32734a	0.17426792
16	0xbddeab55	-0.10872523
17	0xbd9daf98	-0.076995075
18	0x3d66e147	0.056367185
19	0xbd6d812b	-0.057984512
20	0x3dd5dc40	0.104424
21	0x3e06b649	0.13155474
22	0x3d4c74b9	0.049916003
23	0x3e4aab29	0.19791855
24	0x3da91bda	0.082572654
25	0xbde9833e	-0.114019856
26	0x3e01d48d	0.12678738
27	0x3e787aca	0.2426559
28	0x3e91c4c1	0.28470424
29	0x3e08f4ea	0.13374677
30	0xbdbee5aa	-0.09321149
31	0x3ddf83cd	0.10913811
32	0x3e6eb8af	0.23312639
33	0xbcd32e50	-0.02577892
34	0x3dc13ea2	0.094357744
35	0xbd7587f5	-0.05994411
36	0xbde09858	-0.10966557
37	0x3d80cf3e	0.06289528
38	0x3d437844	0.047722116
39	0xbd7a1592	-0.061055727
40	0x3e0c534e	0.13703653
41	0x3d87d431	0.06632269
42	0x3e63cf87	0.22247134
43	0xbd6bc797	-0.05756339
44	0x3db08ef1	0.08621014
45	0x3d97cc42	0.07412006
46	0xbd8fb07c	-0.070160836
47	0x3dbfed6b	0.09371456
48	0x3bbedaab	0.005824407
49	0xbd7f3349	-0.06230477
50	0x3e60b25a	0.21943036
51	0xbc8f3cab	-0.017484983
52	0xbcace555	-0.021105448
53	0xbdc8d2c8	-0.09805828
54	0xbab0cce8	-0.0013488801
55	0xbced0402	-0.028932575
56	0x3db2ad1c	0.08724424
57	0x3dcb0897	0.09913748
58	0xbd534a88	-0.05158475
59	0xbd90d0fd	-0.07071111
60	0x3d5eee30	0.054426372
61	0x3c8c6040	0.01713574
62	0x3cbef2fe	0.023309227
63	0xbd094c74	-0.033520177
